HloModule a_inference__lambda__4403__.6, entry_computation_layout={(f32[1,224,224,3]{3,2,1,0}, f32[7,7,3,64]{3,2,1,0}, f32[64]{0}, f32[64]{0}, f32[64]{0}, /*index=5*/f32[64]{0}, f32[64]{0}, f32[1,1,64,64]{3,2,1,0}, f32[64]{0}, f32[64]{0}, /*index=10*/f32[64]{0}, f32[64]{0}, f32[64]{0}, f32[3,3,64,64]{3,2,1,0}, f32[64]{0}, /*index=15*/f32[64]{0}, f32[64]{0}, f32[64]{0}, f32[64]{0}, f32[1,1,64,256]{3,2,1,0}, /*index=20*/f32[256]{0}, f32[1,1,64,256]{3,2,1,0}, f32[256]{0}, f32[256]{0}, f32[256]{0}, /*index=25*/f32[256]{0}, f32[256]{0}, f32[256]{0}, f32[256]{0}, f32[256]{0}, /*index=30*/f32[256]{0}, f32[1,1,256,64]{3,2,1,0}, f32[64]{0}, f32[64]{0}, f32[64]{0}, /*index=35*/f32[64]{0}, f32[64]{0}, f32[3,3,64,64]{3,2,1,0}, f32[64]{0}, f32[64]{0}, /*index=40*/f32[64]{0}, f32[64]{0}, f32[64]{0}, f32[1,1,64,256]{3,2,1,0}, f32[256]{0}, /*index=45*/f32[256]{0}, f32[256]{0}, f32[256]{0}, f32[256]{0}, f32[1,1,256,64]{3,2,1,0}, /*index=50*/f32[64]{0}, f32[64]{0}, f32[64]{0}, f32[64]{0}, f32[64]{0}, /*index=55*/f32[3,3,64,64]{3,2,1,0}, f32[64]{0}, f32[64]{0}, f32[64]{0}, f32[64]{0}, /*index=60*/f32[64]{0}, f32[1,1,64,256]{3,2,1,0}, f32[256]{0}, f32[256]{0}, f32[256]{0}, /*index=65*/f32[256]{0}, f32[256]{0}, f32[1,1,256,128]{3,2,1,0}, f32[128]{0}, f32[128]{0}, /*index=70*/f32[128]{0}, f32[128]{0}, f32[128]{0}, f32[3,3,128,128]{3,2,1,0}, f32[128]{0}, /*index=75*/f32[128]{0}, f32[128]{0}, f32[128]{0}, f32[128]{0}, f32[1,1,128,512]{3,2,1,0}, /*index=80*/f32[512]{0}, f32[1,1,256,512]{3,2,1,0}, f32[512]{0}, f32[512]{0}, f32[512]{0}, /*index=85*/f32[512]{0}, f32[512]{0}, f32[512]{0}, f32[512]{0}, f32[512]{0}, /*index=90*/f32[512]{0}, f32[1,1,512,128]{3,2,1,0}, f32[128]{0}, f32[128]{0}, f32[128]{0}, /*index=95*/f32[128]{0}, f32[128]{0}, f32[3,3,128,128]{3,2,1,0}, f32[128]{0}, f32[128]{0}, /*index=100*/f32[128]{0}, f32[128]{0}, f32[128]{0}, f32[1,1,128,512]{3,2,1,0}, f32[512]{0}, /*index=105*/f32[512]{0}, f32[512]{0}, f32[512]{0}, f32[512]{0}, f32[1,1,512,128]{3,2,1,0}, /*index=110*/f32[128]{0}, f32[128]{0}, f32[128]{0}, f32[128]{0}, f32[128]{0}, /*index=115*/f32[3,3,128,128]{3,2,1,0}, f32[128]{0}, f32[128]{0}, f32[128]{0}, f32[128]{0}, /*index=120*/f32[128]{0}, f32[1,1,128,512]{3,2,1,0}, f32[512]{0}, f32[512]{0}, f32[512]{0}, /*index=125*/f32[512]{0}, f32[512]{0}, f32[1,1,512,128]{3,2,1,0}, f32[128]{0}, f32[128]{0}, /*index=130*/f32[128]{0}, f32[128]{0}, f32[128]{0}, f32[3,3,128,128]{3,2,1,0}, f32[128]{0}, /*index=135*/f32[128]{0}, f32[128]{0}, f32[128]{0}, f32[128]{0}, f32[1,1,128,512]{3,2,1,0}, /*index=140*/f32[512]{0}, f32[512]{0}, f32[512]{0}, f32[512]{0}, f32[512]{0}, /*index=145*/f32[1,1,512,256]{3,2,1,0}, f32[256]{0}, f32[256]{0}, f32[256]{0}, f32[256]{0}, /*index=150*/f32[256]{0}, f32[3,3,256,256]{3,2,1,0}, f32[256]{0}, f32[256]{0}, f32[256]{0}, /*index=155*/f32[256]{0}, f32[256]{0}, f32[1,1,256,1024]{3,2,1,0}, f32[1024]{0}, f32[1,1,512,1024]{3,2,1,0}, /*index=160*/f32[1024]{0}, f32[1024]{0}, f32[1024]{0}, f32[1024]{0}, f32[1024]{0}, /*index=165*/f32[1024]{0}, f32[1024]{0}, f32[1024]{0}, f32[1024]{0}, f32[1,1,1024,256]{3,2,1,0}, /*index=170*/f32[256]{0}, f32[256]{0}, f32[256]{0}, f32[256]{0}, f32[256]{0}, /*index=175*/f32[3,3,256,256]{3,2,1,0}, f32[256]{0}, f32[256]{0}, f32[256]{0}, f32[256]{0}, /*index=180*/f32[256]{0}, f32[1,1,256,1024]{3,2,1,0}, f32[1024]{0}, f32[1024]{0}, f32[1024]{0}, /*index=185*/f32[1024]{0}, f32[1024]{0}, f32[1,1,1024,256]{3,2,1,0}, f32[256]{0}, f32[256]{0}, /*index=190*/f32[256]{0}, f32[256]{0}, f32[256]{0}, f32[3,3,256,256]{3,2,1,0}, f32[256]{0}, /*index=195*/f32[256]{0}, f32[256]{0}, f32[256]{0}, f32[256]{0}, f32[1,1,256,1024]{3,2,1,0}, /*index=200*/f32[1024]{0}, f32[1024]{0}, f32[1024]{0}, f32[1024]{0}, f32[1024]{0}, /*index=205*/f32[1,1,1024,256]{3,2,1,0}, f32[256]{0}, f32[256]{0}, f32[256]{0}, f32[256]{0}, /*index=210*/f32[256]{0}, f32[3,3,256,256]{3,2,1,0}, f32[256]{0}, f32[256]{0}, f32[256]{0}, /*index=215*/f32[256]{0}, f32[256]{0}, f32[1,1,256,1024]{3,2,1,0}, f32[1024]{0}, f32[1024]{0}, /*index=220*/f32[1024]{0}, f32[1024]{0}, f32[1024]{0}, f32[1,1,1024,256]{3,2,1,0}, f32[256]{0}, /*index=225*/f32[256]{0}, f32[256]{0}, f32[256]{0}, f32[256]{0}, f32[3,3,256,256]{3,2,1,0}, /*index=230*/f32[256]{0}, f32[256]{0}, f32[256]{0}, f32[256]{0}, f32[256]{0}, /*index=235*/f32[1,1,256,1024]{3,2,1,0}, f32[1024]{0}, f32[1024]{0}, f32[1024]{0}, f32[1024]{0}, /*index=240*/f32[1024]{0}, f32[1,1,1024,256]{3,2,1,0}, f32[256]{0}, f32[256]{0}, f32[256]{0}, /*index=245*/f32[256]{0}, f32[256]{0}, f32[3,3,256,256]{3,2,1,0}, f32[256]{0}, f32[256]{0}, /*index=250*/f32[256]{0}, f32[256]{0}, f32[256]{0}, f32[1,1,256,1024]{3,2,1,0}, f32[1024]{0}, /*index=255*/f32[1024]{0}, f32[1024]{0}, f32[1024]{0}, f32[1024]{0}, f32[1,1,1024,512]{3,2,1,0}, /*index=260*/f32[512]{0}, f32[512]{0}, f32[512]{0}, f32[512]{0}, f32[512]{0}, /*index=265*/f32[3,3,512,512]{3,2,1,0}, f32[512]{0}, f32[512]{0}, f32[512]{0}, f32[512]{0}, /*index=270*/f32[512]{0}, f32[1,1,512,2048]{3,2,1,0}, f32[2048]{0}, f32[1,1,1024,2048]{3,2,1,0}, f32[2048]{0}, /*index=275*/f32[2048]{0}, f32[2048]{0}, f32[2048]{0}, f32[2048]{0}, f32[2048]{0}, /*index=280*/f32[2048]{0}, f32[2048]{0}, f32[2048]{0}, f32[1,1,2048,512]{3,2,1,0}, f32[512]{0}, /*index=285*/f32[512]{0}, f32[512]{0}, f32[512]{0}, f32[512]{0}, f32[3,3,512,512]{3,2,1,0}, /*index=290*/f32[512]{0}, f32[512]{0}, f32[512]{0}, f32[512]{0}, f32[512]{0}, /*index=295*/f32[1,1,512,2048]{3,2,1,0}, f32[2048]{0}, f32[2048]{0}, f32[2048]{0}, f32[2048]{0}, /*index=300*/f32[2048]{0}, f32[1,1,2048,512]{3,2,1,0}, f32[512]{0}, f32[512]{0}, f32[512]{0}, /*index=305*/f32[512]{0}, f32[512]{0}, f32[3,3,512,512]{3,2,1,0}, f32[512]{0}, f32[512]{0}, /*index=310*/f32[512]{0}, f32[512]{0}, f32[512]{0}, f32[1,1,512,2048]{3,2,1,0}, f32[2048]{0}, /*index=315*/f32[2048]{0}, f32[2048]{0}, f32[2048]{0}, f32[2048]{0}, f32[2048,1000]{1,0}, /*index=320*/f32[1000]{0})->f32[1,1000]{1,0}}

%max_F32.2 (lhs.2: f32[], rhs.2: f32[]) -> f32[] {
  %lhs.2 = f32[] parameter(0)
  %rhs.2 = f32[] parameter(1)
  ROOT %maximum.2 = f32[] maximum(f32[] %lhs.2, f32[] %rhs.2)
}

%resnet50_1_avg_pool_1_Mean-reduction.3 (x.1: f32[], y.1: f32[]) -> f32[] {
  %x.1 = f32[] parameter(0)
  %y.1 = f32[] parameter(1)
  ROOT %add.159 = f32[] add(f32[] %x.1, f32[] %y.1)
}

%region_0.4 (Softmax.5: f32[], Softmax.6: f32[]) -> f32[] {
  %Softmax.5 = f32[] parameter(0), metadata={op_name="resnet50_1/predictions_1/Softmax"}
  %Softmax.6 = f32[] parameter(1), metadata={op_name="resnet50_1/predictions_1/Softmax"}
  ROOT %Softmax.7 = f32[] maximum(f32[] %Softmax.5, f32[] %Softmax.6), metadata={op_type="Softmax" op_name="resnet50_1/predictions_1/Softmax"}
}

%region_1.5 (Softmax.18: f32[], Softmax.19: f32[]) -> f32[] {
  %Softmax.18 = f32[] parameter(0), metadata={op_name="resnet50_1/predictions_1/Softmax"}
  %Softmax.19 = f32[] parameter(1), metadata={op_name="resnet50_1/predictions_1/Softmax"}
  ROOT %Softmax.20 = f32[] add(f32[] %Softmax.18, f32[] %Softmax.19), metadata={op_type="Softmax" op_name="resnet50_1/predictions_1/Softmax"}
}

ENTRY %a_inference__lambda__4403__.6 (arg0.1: f32[1,224,224,3], arg1.1: f32[7,7,3,64], arg2.1: f32[64], arg3.1: f32[64], arg4.1: f32[64], arg5.1: f32[64], arg6.1: f32[64], arg7.1: f32[1,1,64,64], arg8.1: f32[64], arg9.1: f32[64], arg10.1: f32[64], arg11.1: f32[64], arg12.1: f32[64], arg13.1: f32[3,3,64,64], arg14.1: f32[64], arg15.1: f32[64], arg16.1: f32[64], arg17.1: f32[64], arg18.1: f32[64], arg19.1: f32[1,1,64,256], arg20.1: f32[256], arg21.1: f32[1,1,64,256], arg22.1: f32[256], arg23.1: f32[256], arg24.1: f32[256], arg25.1: f32[256], arg26.1: f32[256], arg27.1: f32[256], arg28.1: f32[256], arg29.1: f32[256], arg30.1: f32[256], arg31.1: f32[1,1,256,64], arg32.1: f32[64], arg33.1: f32[64], arg34.1: f32[64], arg35.1: f32[64], arg36.1: f32[64], arg37.1: f32[3,3,64,64], arg38.1: f32[64], arg39.1: f32[64], arg40.1: f32[64], arg41.1: f32[64], arg42.1: f32[64], arg43.1: f32[1,1,64,256], arg44.1: f32[256], arg45.1: f32[256], arg46.1: f32[256], arg47.1: f32[256], arg48.1: f32[256], arg49.1: f32[1,1,256,64], arg50.1: f32[64], arg51.1: f32[64], arg52.1: f32[64], arg53.1: f32[64], arg54.1: f32[64], arg55.1: f32[3,3,64,64], arg56.1: f32[64], arg57.1: f32[64], arg58.1: f32[64], arg59.1: f32[64], arg60.1: f32[64], arg61.1: f32[1,1,64,256], arg62.1: f32[256], arg63.1: f32[256], arg64.1: f32[256], arg65.1: f32[256], arg66.1: f32[256], arg67.1: f32[1,1,256,128], arg68.1: f32[128], arg69.1: f32[128], arg70.1: f32[128], arg71.1: f32[128], arg72.1: f32[128], arg73.1: f32[3,3,128,128], arg74.1: f32[128], arg75.1: f32[128], arg76.1: f32[128], arg77.1: f32[128], arg78.1: f32[128], arg79.1: f32[1,1,128,512], arg80.1: f32[512], arg81.1: f32[1,1,256,512], arg82.1: f32[512], arg83.1: f32[512], arg84.1: f32[512], arg85.1: f32[512], arg86.1: f32[512], arg87.1: f32[512], arg88.1: f32[512], arg89.1: f32[512], arg90.1: f32[512], arg91.1: f32[1,1,512,128], arg92.1: f32[128], arg93.1: f32[128], arg94.1: f32[128], arg95.1: f32[128], arg96.1: f32[128], arg97.1: f32[3,3,128,128], arg98.1: f32[128], arg99.1: f32[128], arg100.1: f32[128], arg101.1: f32[128], arg102.1: f32[128], arg103.1: f32[1,1,128,512], arg104.1: f32[512], arg105.1: f32[512], arg106.1: f32[512], arg107.1: f32[512], arg108.1: f32[512], arg109.1: f32[1,1,512,128], arg110.1: f32[128], arg111.1: f32[128], arg112.1: f32[128], arg113.1: f32[128], arg114.1: f32[128], arg115.1: f32[3,3,128,128], arg116.1: f32[128], arg117.1: f32[128], arg118.1: f32[128], arg119.1: f32[128], arg120.1: f32[128], arg121.1: f32[1,1,128,512], arg122.1: f32[512], arg123.1: f32[512], arg124.1: f32[512], arg125.1: f32[512], arg126.1: f32[512], arg127.1: f32[1,1,512,128], arg128.1: f32[128], arg129.1: f32[128], arg130.1: f32[128], arg131.1: f32[128], arg132.1: f32[128], arg133.1: f32[3,3,128,128], arg134.1: f32[128], arg135.1: f32[128], arg136.1: f32[128], arg137.1: f32[128], arg138.1: f32[128], arg139.1: f32[1,1,128,512], arg140.1: f32[512], arg141.1: f32[512], arg142.1: f32[512], arg143.1: f32[512], arg144.1: f32[512], arg145.1: f32[1,1,512,256], arg146.1: f32[256], arg147.1: f32[256], arg148.1: f32[256], arg149.1: f32[256], arg150.1: f32[256], arg151.1: f32[3,3,256,256], arg152.1: f32[256], arg153.1: f32[256], arg154.1: f32[256], arg155.1: f32[256], arg156.1: f32[256], arg157.1: f32[1,1,256,1024], arg158.1: f32[1024], arg159.1: f32[1,1,512,1024], arg160.1: f32[1024], arg161.1: f32[1024], arg162.1: f32[1024], arg163.1: f32[1024], arg164.1: f32[1024], arg165.1: f32[1024], arg166.1: f32[1024], arg167.1: f32[1024], arg168.1: f32[1024], arg169.1: f32[1,1,1024,256], arg170.1: f32[256], arg171.1: f32[256], arg172.1: f32[256], arg173.1: f32[256], arg174.1: f32[256], arg175.1: f32[3,3,256,256], arg176.1: f32[256], arg177.1: f32[256], arg178.1: f32[256], arg179.1: f32[256], arg180.1: f32[256], arg181.1: f32[1,1,256,1024], arg182.1: f32[1024], arg183.1: f32[1024], arg184.1: f32[1024], arg185.1: f32[1024], arg186.1: f32[1024], arg187.1: f32[1,1,1024,256], arg188.1: f32[256], arg189.1: f32[256], arg190.1: f32[256], arg191.1: f32[256], arg192.1: f32[256], arg193.1: f32[3,3,256,256], arg194.1: f32[256], arg195.1: f32[256], arg196.1: f32[256], arg197.1: f32[256], arg198.1: f32[256], arg199.1: f32[1,1,256,1024], arg200.1: f32[1024], arg201.1: f32[1024], arg202.1: f32[1024], arg203.1: f32[1024], arg204.1: f32[1024], arg205.1: f32[1,1,1024,256], arg206.1: f32[256], arg207.1: f32[256], arg208.1: f32[256], arg209.1: f32[256], arg210.1: f32[256], arg211.1: f32[3,3,256,256], arg212.1: f32[256], arg213.1: f32[256], arg214.1: f32[256], arg215.1: f32[256], arg216.1: f32[256], arg217.1: f32[1,1,256,1024], arg218.1: f32[1024], arg219.1: f32[1024], arg220.1: f32[1024], arg221.1: f32[1024], arg222.1: f32[1024], arg223.1: f32[1,1,1024,256], arg224.1: f32[256], arg225.1: f32[256], arg226.1: f32[256], arg227.1: f32[256], arg228.1: f32[256], arg229.1: f32[3,3,256,256], arg230.1: f32[256], arg231.1: f32[256], arg232.1: f32[256], arg233.1: f32[256], arg234.1: f32[256], arg235.1: f32[1,1,256,1024], arg236.1: f32[1024], arg237.1: f32[1024], arg238.1: f32[1024], arg239.1: f32[1024], arg240.1: f32[1024], arg241.1: f32[1,1,1024,256], arg242.1: f32[256], arg243.1: f32[256], arg244.1: f32[256], arg245.1: f32[256], arg246.1: f32[256], arg247.1: f32[3,3,256,256], arg248.1: f32[256], arg249.1: f32[256], arg250.1: f32[256], arg251.1: f32[256], arg252.1: f32[256], arg253.1: f32[1,1,256,1024], arg254.1: f32[1024], arg255.1: f32[1024], arg256.1: f32[1024], arg257.1: f32[1024], arg258.1: f32[1024], arg259.1: f32[1,1,1024,512], arg260.1: f32[512], arg261.1: f32[512], arg262.1: f32[512], arg263.1: f32[512], arg264.1: f32[512], arg265.1: f32[3,3,512,512], arg266.1: f32[512], arg267.1: f32[512], arg268.1: f32[512], arg269.1: f32[512], arg270.1: f32[512], arg271.1: f32[1,1,512,2048], arg272.1: f32[2048], arg273.1: f32[1,1,1024,2048], arg274.1: f32[2048], arg275.1: f32[2048], arg276.1: f32[2048], arg277.1: f32[2048], arg278.1: f32[2048], arg279.1: f32[2048], arg280.1: f32[2048], arg281.1: f32[2048], arg282.1: f32[2048], arg283.1: f32[1,1,2048,512], arg284.1: f32[512], arg285.1: f32[512], arg286.1: f32[512], arg287.1: f32[512], arg288.1: f32[512], arg289.1: f32[3,3,512,512], arg290.1: f32[512], arg291.1: f32[512], arg292.1: f32[512], arg293.1: f32[512], arg294.1: f32[512], arg295.1: f32[1,1,512,2048], arg296.1: f32[2048], arg297.1: f32[2048], arg298.1: f32[2048], arg299.1: f32[2048], arg300.1: f32[2048], arg301.1: f32[1,1,2048,512], arg302.1: f32[512], arg303.1: f32[512], arg304.1: f32[512], arg305.1: f32[512], arg306.1: f32[512], arg307.1: f32[3,3,512,512], arg308.1: f32[512], arg309.1: f32[512], arg310.1: f32[512], arg311.1: f32[512], arg312.1: f32[512], arg313.1: f32[1,1,512,2048], arg314.1: f32[2048], arg315.1: f32[2048], arg316.1: f32[2048], arg317.1: f32[2048], arg318.1: f32[2048], arg319.1: f32[2048,1000], arg320.1: f32[1000]) -> f32[1,1000] {
  %arg0.1 = f32[1,224,224,3]{3,2,1,0} parameter(0), parameter_replication={false}, metadata={op_name="XLA_Args"}
  %reshape.1 = f32[1,224,224,3]{3,2,1,0} reshape(f32[1,224,224,3]{3,2,1,0} %arg0.1)
  %Pad.4 = f32[] constant(0), metadata={op_type="Pad" op_name="resnet50_1/conv1_pad_1/Pad" source_file="<repo-root>/src/cuda-spirv/xla_hlo/.venv-tf/lib/python3.12/site-packages/tensorflow/python/framework/ops.py" source_line=1221}
  %Pad.5 = f32[1,230,230,3]{3,2,1,0} pad(f32[1,224,224,3]{3,2,1,0} %reshape.1, f32[] %Pad.4), padding=0_0x3_3x3_3x0_0, metadata={op_type="Pad" op_name="resnet50_1/conv1_pad_1/Pad" source_file="<repo-root>/src/cuda-spirv/xla_hlo/.venv-tf/lib/python3.12/site-packages/tensorflow/python/framework/ops.py" source_line=1221}
  %arg1.1 = f32[7,7,3,64]{3,2,1,0} parameter(1), parameter_replication={false}, metadata={op_name="XLA_Args"}
  %convolution.53 = f32[1,112,112,64]{3,2,1,0} convolution(f32[1,230,230,3]{3,2,1,0} %Pad.5, f32[7,7,3,64]{3,2,1,0} %arg1.1), window={size=7x7 stride=2x2}, dim_labels=b01f_01io->b01f, metadata={op_type="Conv2D" op_name="resnet50_1/conv1_conv_1/convolution" source_file="<repo-root>/src/cuda-spirv/xla_hlo/.venv-tf/lib/python3.12/site-packages/tensorflow/python/framework/ops.py" source_line=1221}
  %arg2.1 = f32[64]{0} parameter(2), parameter_replication={false}, metadata={op_name="XLA_Args"}
  %Reshape.107 = f32[1,1,1,64]{3,2,1,0} reshape(f32[64]{0} %arg2.1), metadata={op_type="Reshape" op_name="resnet50_1/conv1_conv_1/Reshape" source_file="<repo-root>/src/cuda-spirv/xla_hlo/.venv-tf/lib/python3.12/site-packages/tensorflow/python/framework/ops.py" source_line=1221}
  %Squeeze.53 = f32[64]{0} reshape(f32[1,1,1,64]{3,2,1,0} %Reshape.107), metadata={op_type="Squeeze" op_name="resnet50_1/conv1_conv_1/Squeeze" source_file="<repo-root>/src/cuda-spirv/xla_hlo/.venv-tf/lib/python3.12/site-packages/tensorflow/python/framework/ops.py" source_line=1221}
  %BiasAdd.108 = f32[1,112,112,64]{3,2,1,0} broadcast(f32[64]{0} %Squeeze.53), dimensions={3}, metadata={op_type="BiasAdd" op_name="resnet50_1/conv1_conv_1/BiasAdd" source_file="<repo-root>/src/cuda-spirv/xla_hlo/.venv-tf/lib/python3.12/site-packages/tensorflow/python/framework/ops.py" source_line=1221}
  %BiasAdd.109 = f32[1,112,112,64]{3,2,1,0} add(f32[1,112,112,64]{3,2,1,0} %convolution.53, f32[1,112,112,64]{3,2,1,0} %BiasAdd.108), metadata={op_type="BiasAdd" op_name="resnet50_1/conv1_conv_1/BiasAdd" source_file="<repo-root>/src/cuda-spirv/xla_hlo/.venv-tf/lib/python3.12/site-packages/tensorflow/python/framework/ops.py" source_line=1221}
  %arg4.1 = f32[64]{0} parameter(4), parameter_replication={false}, metadata={op_name="XLA_Args"}
  %Reshape_1.53 = f32[1,1,1,64]{3,2,1,0} reshape(f32[64]{0} %arg4.1), metadata={op_type="Reshape" op_name="resnet50_1/conv1_bn_1/Reshape_1" source_file="<repo-root>/src/cuda-spirv/xla_hlo/.venv-tf/lib/python3.12/site-packages/tensorflow/python/framework/ops.py" source_line=1221}
  %add.160 = f32[] constant(1.001e-05), metadata={op_type="AddV2" op_name="resnet50_1/conv1_bn_1/batchnorm/add" source_file="<repo-root>/src/cuda-spirv/xla_hlo/.venv-tf/lib/python3.12/site-packages/tensorflow/python/framework/ops.py" source_line=1221}
  %add.161 = f32[1,1,1,64]{3,2,1,0} broadcast(f32[] %add.160), dimensions={}, metadata={op_type="AddV2" op_name="resnet50_1/conv1_bn_1/batchnorm/add" source_file="<repo-root>/src/cuda-spirv/xla_hlo/.venv-tf/lib/python3.12/site-packages/tensorflow/python/framework/ops.py" source_line=1221}
  %add.162 = f32[1,1,1,64]{3,2,1,0} add(f32[1,1,1,64]{3,2,1,0} %Reshape_1.53, f32[1,1,1,64]{3,2,1,0} %add.161), metadata={op_type="AddV2" op_name="resnet50_1/conv1_bn_1/batchnorm/add" source_file="<repo-root>/src/cuda-spirv/xla_hlo/.venv-tf/lib/python3.12/site-packages/tensorflow/python/framework/ops.py" source_line=1221}
  %Rsqrt.53 = f32[1,1,1,64]{3,2,1,0} rsqrt(f32[1,1,1,64]{3,2,1,0} %add.162), metadata={op_type="Rsqrt" op_name="resnet50_1/conv1_bn_1/batchnorm/Rsqrt"}
  %arg5.1 = f32[64]{0} parameter(5), parameter_replication={false}, metadata={op_name="XLA_Args"}
  %Reshape_3.53 = f32[1,1,1,64]{3,2,1,0} reshape(f32[64]{0} %arg5.1), metadata={op_type="Reshape" op_name="resnet50_1/conv1_bn_1/Reshape_3" source_file="<repo-root>/src/cuda-spirv/xla_hlo/.venv-tf/lib/python3.12/site-packages/tensorflow/python/framework/ops.py" source_line=1221}
  %mul.53 = f32[1,1,1,64]{3,2,1,0} multiply(f32[1,1,1,64]{3,2,1,0} %Rsqrt.53, f32[1,1,1,64]{3,2,1,0} %Reshape_3.53), metadata={op_type="Mul" op_name="resnet50_1/conv1_bn_1/batchnorm/mul" source_file="<repo-root>/src/cuda-spirv/xla_hlo/.venv-tf/lib/python3.12/site-packages/tensorflow/python/framework/ops.py" source_line=1221}
  %mul_1.159 = f32[1,64]{1,0} reshape(f32[1,1,1,64]{3,2,1,0} %mul.53), metadata={op_type="Mul" op_name="resnet50_1/conv1_bn_1/batchnorm/mul_1" source_file="<repo-root>/src/cuda-spirv/xla_hlo/.venv-tf/lib/python3.12/site-packages/tensorflow/python/framework/ops.py" source_line=1221}
  %mul_1.160 = f32[1,112,112,64]{3,2,1,0} broadcast(f32[1,64]{1,0} %mul_1.159), dimensions={0,3}, metadata={op_type="Mul" op_name="resnet50_1/conv1_bn_1/batchnorm/mul_1" source_file="<repo-root>/src/cuda-spirv/xla_hlo/.venv-tf/lib/python3.12/site-packages/tensorflow/python/framework/ops.py" source_line=1221}
  %mul_1.161 = f32[1,112,112,64]{3,2,1,0} multiply(f32[1,112,112,64]{3,2,1,0} %BiasAdd.109, f32[1,112,112,64]{3,2,1,0} %mul_1.160), metadata={op_type="Mul" op_name="resnet50_1/conv1_bn_1/batchnorm/mul_1" source_file="<repo-root>/src/cuda-spirv/xla_hlo/.venv-tf/lib/python3.12/site-packages/tensorflow/python/framework/ops.py" source_line=1221}
  %arg6.1 = f32[64]{0} parameter(6), parameter_replication={false}, metadata={op_name="XLA_Args"}
  %Reshape_2.53 = f32[1,1,1,64]{3,2,1,0} reshape(f32[64]{0} %arg6.1), metadata={op_type="Reshape" op_name="resnet50_1/conv1_bn_1/Reshape_2" source_file="<repo-root>/src/cuda-spirv/xla_hlo/.venv-tf/lib/python3.12/site-packages/tensorflow/python/framework/ops.py" source_line=1221}
  %arg3.1 = f32[64]{0} parameter(3), parameter_replication={false}, metadata={op_name="XLA_Args"}
  %Reshape.106 = f32[1,1,1,64]{3,2,1,0} reshape(f32[64]{0} %arg3.1), metadata={op_type="Reshape" op_name="resnet50_1/conv1_bn_1/Reshape" source_file="<repo-root>/src/cuda-spirv/xla_hlo/.venv-tf/lib/python3.12/site-packages/tensorflow/python/framework/ops.py" source_line=1221}
  %mul_2.53 = f32[1,1,1,64]{3,2,1,0} multiply(f32[1,1,1,64]{3,2,1,0} %Reshape.106, f32[1,1,1,64]{3,2,1,0} %mul.53), metadata={op_type="Mul" op_name="resnet50_1/conv1_bn_1/batchnorm/mul_2" source_file="<repo-root>/src/cuda-spirv/xla_hlo/.venv-tf/lib/python3.12/site-packages/tensorflow/python/framework/ops.py" source_line=1221}
  %sub.53 = f32[1,1,1,64]{3,2,1,0} subtract(f32[1,1,1,64]{3,2,1,0} %Reshape_2.53, f32[1,1,1,64]{3,2,1,0} %mul_2.53), metadata={op_type="Sub" op_name="resnet50_1/conv1_bn_1/batchnorm/sub" source_file="<repo-root>/src/cuda-spirv/xla_hlo/.venv-tf/lib/python3.12/site-packages/tensorflow/python/framework/ops.py" source_line=1221}
  %add_1.159 = f32[1,64]{1,0} reshape(f32[1,1,1,64]{3,2,1,0} %sub.53), metadata={op_type="AddV2" op_name="resnet50_1/conv1_bn_1/batchnorm/add_1" source_file="<repo-root>/src/cuda-spirv/xla_hlo/.venv-tf/lib/python3.12/site-packages/tensorflow/python/framework/ops.py" source_line=1221}
  %add_1.160 = f32[1,112,112,64]{3,2,1,0} broadcast(f32[1,64]{1,0} %add_1.159), dimensions={0,3}, metadata={op_type="AddV2" op_name="resnet50_1/conv1_bn_1/batchnorm/add_1" source_file="<repo-root>/src/cuda-spirv/xla_hlo/.venv-tf/lib/python3.12/site-packages/tensorflow/python/framework/ops.py" source_line=1221}
  %add_1.161 = f32[1,112,112,64]{3,2,1,0} add(f32[1,112,112,64]{3,2,1,0} %mul_1.161, f32[1,112,112,64]{3,2,1,0} %add_1.160), metadata={op_type="AddV2" op_name="resnet50_1/conv1_bn_1/batchnorm/add_1" source_file="<repo-root>/src/cuda-spirv/xla_hlo/.venv-tf/lib/python3.12/site-packages/tensorflow/python/framework/ops.py" source_line=1221}
  %Relu.147 = f32[] constant(0), metadata={op_type="Relu" op_name="resnet50_1/conv1_relu_1/Relu" source_file="<repo-root>/src/cuda-spirv/xla_hlo/.venv-tf/lib/python3.12/site-packages/tensorflow/python/framework/ops.py" source_line=1221}
  %Relu.148 = f32[1,112,112,64]{3,2,1,0} broadcast(f32[] %Relu.147), dimensions={}, metadata={op_type="Relu" op_name="resnet50_1/conv1_relu_1/Relu"}
  %Relu.149 = f32[1,112,112,64]{3,2,1,0} maximum(f32[1,112,112,64]{3,2,1,0} %add_1.161, f32[1,112,112,64]{3,2,1,0} %Relu.148), metadata={op_type="Relu" op_name="resnet50_1/conv1_relu_1/Relu"}
  %Pad.6 = f32[] constant(0), metadata={op_type="Pad" op_name="resnet50_1/pool1_pad_1/Pad" source_file="<repo-root>/src/cuda-spirv/xla_hlo/.venv-tf/lib/python3.12/site-packages/tensorflow/python/framework/ops.py" source_line=1221}
  %Pad.7 = f32[1,114,114,64]{3,2,1,0} pad(f32[1,112,112,64]{3,2,1,0} %Relu.149, f32[] %Pad.6), padding=0_0x1_1x1_1x0_0, metadata={op_type="Pad" op_name="resnet50_1/pool1_pad_1/Pad" source_file="<repo-root>/src/cuda-spirv/xla_hlo/.venv-tf/lib/python3.12/site-packages/tensorflow/python/framework/ops.py" source_line=1221}
  %MaxPool2d.2 = f32[] constant(-inf), metadata={op_type="MaxPool" op_name="resnet50_1/pool1_pool_1/MaxPool2d" source_file="<repo-root>/src/cuda-spirv/xla_hlo/.venv-tf/lib/python3.12/site-packages/tensorflow/python/framework/ops.py" source_line=1221}
  %MaxPool2d.3 = f32[1,56,56,64]{3,2,1,0} reduce-window(f32[1,114,114,64]{3,2,1,0} %Pad.7, f32[] %MaxPool2d.2), window={size=1x3x3x1 stride=1x2x2x1}, to_apply=%max_F32.2, metadata={op_type="MaxPool" op_name="resnet50_1/pool1_pool_1/MaxPool2d" source_file="<repo-root>/src/cuda-spirv/xla_hlo/.venv-tf/lib/python3.12/site-packages/tensorflow/python/framework/ops.py" source_line=1221}
  %arg21.1 = f32[1,1,64,256]{3,2,1,0} parameter(21), parameter_replication={false}, metadata={op_name="XLA_Args"}
  %convolution.54 = f32[1,56,56,256]{3,2,1,0} convolution(f32[1,56,56,64]{3,2,1,0} %MaxPool2d.3, f32[1,1,64,256]{3,2,1,0} %arg21.1), window={size=1x1}, dim_labels=b01f_01io->b01f, metadata={op_type="Conv2D" op_name="resnet50_1/conv2_block1_0_conv_1/convolution" source_file="<repo-root>/src/cuda-spirv/xla_hlo/.venv-tf/lib/python3.12/site-packages/tensorflow/python/framework/ops.py" source_line=1221}
  %arg22.1 = f32[256]{0} parameter(22), parameter_replication={false}, metadata={op_name="XLA_Args"}
  %Reshape.109 = f32[1,1,1,256]{3,2,1,0} reshape(f32[256]{0} %arg22.1), metadata={op_type="Reshape" op_name="resnet50_1/conv2_block1_0_conv_1/Reshape" source_file="<repo-root>/src/cuda-spirv/xla_hlo/.venv-tf/lib/python3.12/site-packages/tensorflow/python/framework/ops.py" source_line=1221}
  %Squeeze.54 = f32[256]{0} reshape(f32[1,1,1,256]{3,2,1,0} %Reshape.109), metadata={op_type="Squeeze" op_name="resnet50_1/conv2_block1_0_conv_1/Squeeze" source_file="<repo-root>/src/cuda-spirv/xla_hlo/.venv-tf/lib/python3.12/site-packages/tensorflow/python/framework/ops.py" source_line=1221}
  %BiasAdd.110 = f32[1,56,56,256]{3,2,1,0} broadcast(f32[256]{0} %Squeeze.54), dimensions={3}, metadata={op_type="BiasAdd" op_name="resnet50_1/conv2_block1_0_conv_1/BiasAdd" source_file="<repo-root>/src/cuda-spirv/xla_hlo/.venv-tf/lib/python3.12/site-packages/tensorflow/python/framework/ops.py" source_line=1221}
  %BiasAdd.111 = f32[1,56,56,256]{3,2,1,0} add(f32[1,56,56,256]{3,2,1,0} %convolution.54, f32[1,56,56,256]{3,2,1,0} %BiasAdd.110), metadata={op_type="BiasAdd" op_name="resnet50_1/conv2_block1_0_conv_1/BiasAdd" source_file="<repo-root>/src/cuda-spirv/xla_hlo/.venv-tf/lib/python3.12/site-packages/tensorflow/python/framework/ops.py" source_line=1221}
  %arg24.1 = f32[256]{0} parameter(24), parameter_replication={false}, metadata={op_name="XLA_Args"}
  %Reshape_1.54 = f32[1,1,1,256]{3,2,1,0} reshape(f32[256]{0} %arg24.1), metadata={op_type="Reshape" op_name="resnet50_1/conv2_block1_0_bn_1/Reshape_1" source_file="<repo-root>/src/cuda-spirv/xla_hlo/.venv-tf/lib/python3.12/site-packages/tensorflow/python/framework/ops.py" source_line=1221}
  %add.163 = f32[] constant(1.001e-05), metadata={op_type="AddV2" op_name="resnet50_1/conv2_block1_0_bn_1/batchnorm/add" source_file="<repo-root>/src/cuda-spirv/xla_hlo/.venv-tf/lib/python3.12/site-packages/tensorflow/python/framework/ops.py" source_line=1221}
  %add.164 = f32[1,1,1,256]{3,2,1,0} broadcast(f32[] %add.163), dimensions={}, metadata={op_type="AddV2" op_name="resnet50_1/conv2_block1_0_bn_1/batchnorm/add" source_file="<repo-root>/src/cuda-spirv/xla_hlo/.venv-tf/lib/python3.12/site-packages/tensorflow/python/framework/ops.py" source_line=1221}
  %add.165 = f32[1,1,1,256]{3,2,1,0} add(f32[1,1,1,256]{3,2,1,0} %Reshape_1.54, f32[1,1,1,256]{3,2,1,0} %add.164), metadata={op_type="AddV2" op_name="resnet50_1/conv2_block1_0_bn_1/batchnorm/add" source_file="<repo-root>/src/cuda-spirv/xla_hlo/.venv-tf/lib/python3.12/site-packages/tensorflow/python/framework/ops.py" source_line=1221}
  %Rsqrt.54 = f32[1,1,1,256]{3,2,1,0} rsqrt(f32[1,1,1,256]{3,2,1,0} %add.165), metadata={op_type="Rsqrt" op_name="resnet50_1/conv2_block1_0_bn_1/batchnorm/Rsqrt"}
  %arg25.1 = f32[256]{0} parameter(25), parameter_replication={false}, metadata={op_name="XLA_Args"}
  %Reshape_3.54 = f32[1,1,1,256]{3,2,1,0} reshape(f32[256]{0} %arg25.1), metadata={op_type="Reshape" op_name="resnet50_1/conv2_block1_0_bn_1/Reshape_3" source_file="<repo-root>/src/cuda-spirv/xla_hlo/.venv-tf/lib/python3.12/site-packages/tensorflow/python/framework/ops.py" source_line=1221}
  %mul.54 = f32[1,1,1,256]{3,2,1,0} multiply(f32[1,1,1,256]{3,2,1,0} %Rsqrt.54, f32[1,1,1,256]{3,2,1,0} %Reshape_3.54), metadata={op_type="Mul" op_name="resnet50_1/conv2_block1_0_bn_1/batchnorm/mul" source_file="<repo-root>/src/cuda-spirv/xla_hlo/.venv-tf/lib/python3.12/site-packages/tensorflow/python/framework/ops.py" source_line=1221}
  %mul_1.162 = f32[1,256]{1,0} reshape(f32[1,1,1,256]{3,2,1,0} %mul.54), metadata={op_type="Mul" op_name="resnet50_1/conv2_block1_0_bn_1/batchnorm/mul_1" source_file="<repo-root>/src/cuda-spirv/xla_hlo/.venv-tf/lib/python3.12/site-packages/tensorflow/python/framework/ops.py" source_line=1221}
  %mul_1.163 = f32[1,56,56,256]{3,2,1,0} broadcast(f32[1,256]{1,0} %mul_1.162), dimensions={0,3}, metadata={op_type="Mul" op_name="resnet50_1/conv2_block1_0_bn_1/batchnorm/mul_1" source_file="<repo-root>/src/cuda-spirv/xla_hlo/.venv-tf/lib/python3.12/site-packages/tensorflow/python/framework/ops.py" source_line=1221}
  %mul_1.164 = f32[1,56,56,256]{3,2,1,0} multiply(f32[1,56,56,256]{3,2,1,0} %BiasAdd.111, f32[1,56,56,256]{3,2,1,0} %mul_1.163), metadata={op_type="Mul" op_name="resnet50_1/conv2_block1_0_bn_1/batchnorm/mul_1" source_file="<repo-root>/src/cuda-spirv/xla_hlo/.venv-tf/lib/python3.12/site-packages/tensorflow/python/framework/ops.py" source_line=1221}
  %arg26.1 = f32[256]{0} parameter(26), parameter_replication={false}, metadata={op_name="XLA_Args"}
  %Reshape_2.54 = f32[1,1,1,256]{3,2,1,0} reshape(f32[256]{0} %arg26.1), metadata={op_type="Reshape" op_name="resnet50_1/conv2_block1_0_bn_1/Reshape_2" source_file="<repo-root>/src/cuda-spirv/xla_hlo/.venv-tf/lib/python3.12/site-packages/tensorflow/python/framework/ops.py" source_line=1221}
  %arg23.1 = f32[256]{0} parameter(23), parameter_replication={false}, metadata={op_name="XLA_Args"}
  %Reshape.108 = f32[1,1,1,256]{3,2,1,0} reshape(f32[256]{0} %arg23.1), metadata={op_type="Reshape" op_name="resnet50_1/conv2_block1_0_bn_1/Reshape" source_file="<repo-root>/src/cuda-spirv/xla_hlo/.venv-tf/lib/python3.12/site-packages/tensorflow/python/framework/ops.py" source_line=1221}
  %mul_2.54 = f32[1,1,1,256]{3,2,1,0} multiply(f32[1,1,1,256]{3,2,1,0} %Reshape.108, f32[1,1,1,256]{3,2,1,0} %mul.54), metadata={op_type="Mul" op_name="resnet50_1/conv2_block1_0_bn_1/batchnorm/mul_2" source_file="<repo-root>/src/cuda-spirv/xla_hlo/.venv-tf/lib/python3.12/site-packages/tensorflow/python/framework/ops.py" source_line=1221}
  %sub.54 = f32[1,1,1,256]{3,2,1,0} subtract(f32[1,1,1,256]{3,2,1,0} %Reshape_2.54, f32[1,1,1,256]{3,2,1,0} %mul_2.54), metadata={op_type="Sub" op_name="resnet50_1/conv2_block1_0_bn_1/batchnorm/sub" source_file="<repo-root>/src/cuda-spirv/xla_hlo/.venv-tf/lib/python3.12/site-packages/tensorflow/python/framework/ops.py" source_line=1221}
  %add_1.162 = f32[1,256]{1,0} reshape(f32[1,1,1,256]{3,2,1,0} %sub.54), metadata={op_type="AddV2" op_name="resnet50_1/conv2_block1_0_bn_1/batchnorm/add_1" source_file="<repo-root>/src/cuda-spirv/xla_hlo/.venv-tf/lib/python3.12/site-packages/tensorflow/python/framework/ops.py" source_line=1221}
  %add_1.163 = f32[1,56,56,256]{3,2,1,0} broadcast(f32[1,256]{1,0} %add_1.162), dimensions={0,3}, metadata={op_type="AddV2" op_name="resnet50_1/conv2_block1_0_bn_1/batchnorm/add_1" source_file="<repo-root>/src/cuda-spirv/xla_hlo/.venv-tf/lib/python3.12/site-packages/tensorflow/python/framework/ops.py" source_line=1221}
  %add_1.164 = f32[1,56,56,256]{3,2,1,0} add(f32[1,56,56,256]{3,2,1,0} %mul_1.164, f32[1,56,56,256]{3,2,1,0} %add_1.163), metadata={op_type="AddV2" op_name="resnet50_1/conv2_block1_0_bn_1/batchnorm/add_1" source_file="<repo-root>/src/cuda-spirv/xla_hlo/.venv-tf/lib/python3.12/site-packages/tensorflow/python/framework/ops.py" source_line=1221}
  %arg7.1 = f32[1,1,64,64]{3,2,1,0} parameter(7), parameter_replication={false}, metadata={op_name="XLA_Args"}
  %convolution.55 = f32[1,56,56,64]{3,2,1,0} convolution(f32[1,56,56,64]{3,2,1,0} %MaxPool2d.3, f32[1,1,64,64]{3,2,1,0} %arg7.1), window={size=1x1}, dim_labels=b01f_01io->b01f, metadata={op_type="Conv2D" op_name="resnet50_1/conv2_block1_1_conv_1/convolution" source_file="<repo-root>/src/cuda-spirv/xla_hlo/.venv-tf/lib/python3.12/site-packages/tensorflow/python/framework/ops.py" source_line=1221}
  %arg8.1 = f32[64]{0} parameter(8), parameter_replication={false}, metadata={op_name="XLA_Args"}
  %Reshape.111 = f32[1,1,1,64]{3,2,1,0} reshape(f32[64]{0} %arg8.1), metadata={op_type="Reshape" op_name="resnet50_1/conv2_block1_1_conv_1/Reshape" source_file="<repo-root>/src/cuda-spirv/xla_hlo/.venv-tf/lib/python3.12/site-packages/tensorflow/python/framework/ops.py" source_line=1221}
  %Squeeze.55 = f32[64]{0} reshape(f32[1,1,1,64]{3,2,1,0} %Reshape.111), metadata={op_type="Squeeze" op_name="resnet50_1/conv2_block1_1_conv_1/Squeeze" source_file="<repo-root>/src/cuda-spirv/xla_hlo/.venv-tf/lib/python3.12/site-packages/tensorflow/python/framework/ops.py" source_line=1221}
  %BiasAdd.112 = f32[1,56,56,64]{3,2,1,0} broadcast(f32[64]{0} %Squeeze.55), dimensions={3}, metadata={op_type="BiasAdd" op_name="resnet50_1/conv2_block1_1_conv_1/BiasAdd" source_file="<repo-root>/src/cuda-spirv/xla_hlo/.venv-tf/lib/python3.12/site-packages/tensorflow/python/framework/ops.py" source_line=1221}
  %BiasAdd.113 = f32[1,56,56,64]{3,2,1,0} add(f32[1,56,56,64]{3,2,1,0} %convolution.55, f32[1,56,56,64]{3,2,1,0} %BiasAdd.112), metadata={op_type="BiasAdd" op_name="resnet50_1/conv2_block1_1_conv_1/BiasAdd" source_file="<repo-root>/src/cuda-spirv/xla_hlo/.venv-tf/lib/python3.12/site-packages/tensorflow/python/framework/ops.py" source_line=1221}
  %arg10.1 = f32[64]{0} parameter(10), parameter_replication={false}, metadata={op_name="XLA_Args"}
  %Reshape_1.55 = f32[1,1,1,64]{3,2,1,0} reshape(f32[64]{0} %arg10.1), metadata={op_type="Reshape" op_name="resnet50_1/conv2_block1_1_bn_1/Reshape_1" source_file="<repo-root>/src/cuda-spirv/xla_hlo/.venv-tf/lib/python3.12/site-packages/tensorflow/python/framework/ops.py" source_line=1221}
  %add.166 = f32[] constant(1.001e-05), metadata={op_type="AddV2" op_name="resnet50_1/conv2_block1_1_bn_1/batchnorm/add" source_file="<repo-root>/src/cuda-spirv/xla_hlo/.venv-tf/lib/python3.12/site-packages/tensorflow/python/framework/ops.py" source_line=1221}
  %add.167 = f32[1,1,1,64]{3,2,1,0} broadcast(f32[] %add.166), dimensions={}, metadata={op_type="AddV2" op_name="resnet50_1/conv2_block1_1_bn_1/batchnorm/add" source_file="<repo-root>/src/cuda-spirv/xla_hlo/.venv-tf/lib/python3.12/site-packages/tensorflow/python/framework/ops.py" source_line=1221}
  %add.168 = f32[1,1,1,64]{3,2,1,0} add(f32[1,1,1,64]{3,2,1,0} %Reshape_1.55, f32[1,1,1,64]{3,2,1,0} %add.167), metadata={op_type="AddV2" op_name="resnet50_1/conv2_block1_1_bn_1/batchnorm/add" source_file="<repo-root>/src/cuda-spirv/xla_hlo/.venv-tf/lib/python3.12/site-packages/tensorflow/python/framework/ops.py" source_line=1221}
  %Rsqrt.55 = f32[1,1,1,64]{3,2,1,0} rsqrt(f32[1,1,1,64]{3,2,1,0} %add.168), metadata={op_type="Rsqrt" op_name="resnet50_1/conv2_block1_1_bn_1/batchnorm/Rsqrt"}
  %arg11.1 = f32[64]{0} parameter(11), parameter_replication={false}, metadata={op_name="XLA_Args"}
  %Reshape_3.55 = f32[1,1,1,64]{3,2,1,0} reshape(f32[64]{0} %arg11.1), metadata={op_type="Reshape" op_name="resnet50_1/conv2_block1_1_bn_1/Reshape_3" source_file="<repo-root>/src/cuda-spirv/xla_hlo/.venv-tf/lib/python3.12/site-packages/tensorflow/python/framework/ops.py" source_line=1221}
  %mul.55 = f32[1,1,1,64]{3,2,1,0} multiply(f32[1,1,1,64]{3,2,1,0} %Rsqrt.55, f32[1,1,1,64]{3,2,1,0} %Reshape_3.55), metadata={op_type="Mul" op_name="resnet50_1/conv2_block1_1_bn_1/batchnorm/mul" source_file="<repo-root>/src/cuda-spirv/xla_hlo/.venv-tf/lib/python3.12/site-packages/tensorflow/python/framework/ops.py" source_line=1221}
  %mul_1.165 = f32[1,64]{1,0} reshape(f32[1,1,1,64]{3,2,1,0} %mul.55), metadata={op_type="Mul" op_name="resnet50_1/conv2_block1_1_bn_1/batchnorm/mul_1" source_file="<repo-root>/src/cuda-spirv/xla_hlo/.venv-tf/lib/python3.12/site-packages/tensorflow/python/framework/ops.py" source_line=1221}
  %mul_1.166 = f32[1,56,56,64]{3,2,1,0} broadcast(f32[1,64]{1,0} %mul_1.165), dimensions={0,3}, metadata={op_type="Mul" op_name="resnet50_1/conv2_block1_1_bn_1/batchnorm/mul_1" source_file="<repo-root>/src/cuda-spirv/xla_hlo/.venv-tf/lib/python3.12/site-packages/tensorflow/python/framework/ops.py" source_line=1221}
  %mul_1.167 = f32[1,56,56,64]{3,2,1,0} multiply(f32[1,56,56,64]{3,2,1,0} %BiasAdd.113, f32[1,56,56,64]{3,2,1,0} %mul_1.166), metadata={op_type="Mul" op_name="resnet50_1/conv2_block1_1_bn_1/batchnorm/mul_1" source_file="<repo-root>/src/cuda-spirv/xla_hlo/.venv-tf/lib/python3.12/site-packages/tensorflow/python/framework/ops.py" source_line=1221}
  %arg12.1 = f32[64]{0} parameter(12), parameter_replication={false}, metadata={op_name="XLA_Args"}
  %Reshape_2.55 = f32[1,1,1,64]{3,2,1,0} reshape(f32[64]{0} %arg12.1), metadata={op_type="Reshape" op_name="resnet50_1/conv2_block1_1_bn_1/Reshape_2" source_file="<repo-root>/src/cuda-spirv/xla_hlo/.venv-tf/lib/python3.12/site-packages/tensorflow/python/framework/ops.py" source_line=1221}
  %arg9.1 = f32[64]{0} parameter(9), parameter_replication={false}, metadata={op_name="XLA_Args"}
  %Reshape.110 = f32[1,1,1,64]{3,2,1,0} reshape(f32[64]{0} %arg9.1), metadata={op_type="Reshape" op_name="resnet50_1/conv2_block1_1_bn_1/Reshape" source_file="<repo-root>/src/cuda-spirv/xla_hlo/.venv-tf/lib/python3.12/site-packages/tensorflow/python/framework/ops.py" source_line=1221}
  %mul_2.55 = f32[1,1,1,64]{3,2,1,0} multiply(f32[1,1,1,64]{3,2,1,0} %Reshape.110, f32[1,1,1,64]{3,2,1,0} %mul.55), metadata={op_type="Mul" op_name="resnet50_1/conv2_block1_1_bn_1/batchnorm/mul_2" source_file="<repo-root>/src/cuda-spirv/xla_hlo/.venv-tf/lib/python3.12/site-packages/tensorflow/python/framework/ops.py" source_line=1221}
  %sub.55 = f32[1,1,1,64]{3,2,1,0} subtract(f32[1,1,1,64]{3,2,1,0} %Reshape_2.55, f32[1,1,1,64]{3,2,1,0} %mul_2.55), metadata={op_type="Sub" op_name="resnet50_1/conv2_block1_1_bn_1/batchnorm/sub" source_file="<repo-root>/src/cuda-spirv/xla_hlo/.venv-tf/lib/python3.12/site-packages/tensorflow/python/framework/ops.py" source_line=1221}
  %add_1.165 = f32[1,64]{1,0} reshape(f32[1,1,1,64]{3,2,1,0} %sub.55), metadata={op_type="AddV2" op_name="resnet50_1/conv2_block1_1_bn_1/batchnorm/add_1" source_file="<repo-root>/src/cuda-spirv/xla_hlo/.venv-tf/lib/python3.12/site-packages/tensorflow/python/framework/ops.py" source_line=1221}
  %add_1.166 = f32[1,56,56,64]{3,2,1,0} broadcast(f32[1,64]{1,0} %add_1.165), dimensions={0,3}, metadata={op_type="AddV2" op_name="resnet50_1/conv2_block1_1_bn_1/batchnorm/add_1" source_file="<repo-root>/src/cuda-spirv/xla_hlo/.venv-tf/lib/python3.12/site-packages/tensorflow/python/framework/ops.py" source_line=1221}
  %add_1.167 = f32[1,56,56,64]{3,2,1,0} add(f32[1,56,56,64]{3,2,1,0} %mul_1.167, f32[1,56,56,64]{3,2,1,0} %add_1.166), metadata={op_type="AddV2" op_name="resnet50_1/conv2_block1_1_bn_1/batchnorm/add_1" source_file="<repo-root>/src/cuda-spirv/xla_hlo/.venv-tf/lib/python3.12/site-packages/tensorflow/python/framework/ops.py" source_line=1221}
  %Relu.150 = f32[] constant(0), metadata={op_type="Relu" op_name="resnet50_1/conv2_block1_1_relu_1/Relu" source_file="<repo-root>/src/cuda-spirv/xla_hlo/.venv-tf/lib/python3.12/site-packages/tensorflow/python/framework/ops.py" source_line=1221}
  %Relu.151 = f32[1,56,56,64]{3,2,1,0} broadcast(f32[] %Relu.150), dimensions={}, metadata={op_type="Relu" op_name="resnet50_1/conv2_block1_1_relu_1/Relu"}
  %Relu.152 = f32[1,56,56,64]{3,2,1,0} maximum(f32[1,56,56,64]{3,2,1,0} %add_1.167, f32[1,56,56,64]{3,2,1,0} %Relu.151), metadata={op_type="Relu" op_name="resnet50_1/conv2_block1_1_relu_1/Relu"}
  %arg13.1 = f32[3,3,64,64]{3,2,1,0} parameter(13), parameter_replication={false}, metadata={op_name="XLA_Args"}
  %convolution.56 = f32[1,56,56,64]{3,2,1,0} convolution(f32[1,56,56,64]{3,2,1,0} %Relu.152, f32[3,3,64,64]{3,2,1,0} %arg13.1), window={size=3x3 pad=1_1x1_1}, dim_labels=b01f_01io->b01f, metadata={op_type="Conv2D" op_name="resnet50_1/conv2_block1_2_conv_1/convolution" source_file="<repo-root>/src/cuda-spirv/xla_hlo/.venv-tf/lib/python3.12/site-packages/tensorflow/python/framework/ops.py" source_line=1221}
  %arg14.1 = f32[64]{0} parameter(14), parameter_replication={false}, metadata={op_name="XLA_Args"}
  %Reshape.113 = f32[1,1,1,64]{3,2,1,0} reshape(f32[64]{0} %arg14.1), metadata={op_type="Reshape" op_name="resnet50_1/conv2_block1_2_conv_1/Reshape" source_file="<repo-root>/src/cuda-spirv/xla_hlo/.venv-tf/lib/python3.12/site-packages/tensorflow/python/framework/ops.py" source_line=1221}
  %Squeeze.56 = f32[64]{0} reshape(f32[1,1,1,64]{3,2,1,0} %Reshape.113), metadata={op_type="Squeeze" op_name="resnet50_1/conv2_block1_2_conv_1/Squeeze" source_file="<repo-root>/src/cuda-spirv/xla_hlo/.venv-tf/lib/python3.12/site-packages/tensorflow/python/framework/ops.py" source_line=1221}
  %BiasAdd.114 = f32[1,56,56,64]{3,2,1,0} broadcast(f32[64]{0} %Squeeze.56), dimensions={3}, metadata={op_type="BiasAdd" op_name="resnet50_1/conv2_block1_2_conv_1/BiasAdd" source_file="<repo-root>/src/cuda-spirv/xla_hlo/.venv-tf/lib/python3.12/site-packages/tensorflow/python/framework/ops.py" source_line=1221}
  %BiasAdd.115 = f32[1,56,56,64]{3,2,1,0} add(f32[1,56,56,64]{3,2,1,0} %convolution.56, f32[1,56,56,64]{3,2,1,0} %BiasAdd.114), metadata={op_type="BiasAdd" op_name="resnet50_1/conv2_block1_2_conv_1/BiasAdd" source_file="<repo-root>/src/cuda-spirv/xla_hlo/.venv-tf/lib/python3.12/site-packages/tensorflow/python/framework/ops.py" source_line=1221}
  %arg16.1 = f32[64]{0} parameter(16), parameter_replication={false}, metadata={op_name="XLA_Args"}
  %Reshape_1.56 = f32[1,1,1,64]{3,2,1,0} reshape(f32[64]{0} %arg16.1), metadata={op_type="Reshape" op_name="resnet50_1/conv2_block1_2_bn_1/Reshape_1" source_file="<repo-root>/src/cuda-spirv/xla_hlo/.venv-tf/lib/python3.12/site-packages/tensorflow/python/framework/ops.py" source_line=1221}
  %add.169 = f32[] constant(1.001e-05), metadata={op_type="AddV2" op_name="resnet50_1/conv2_block1_2_bn_1/batchnorm/add" source_file="<repo-root>/src/cuda-spirv/xla_hlo/.venv-tf/lib/python3.12/site-packages/tensorflow/python/framework/ops.py" source_line=1221}
  %add.170 = f32[1,1,1,64]{3,2,1,0} broadcast(f32[] %add.169), dimensions={}, metadata={op_type="AddV2" op_name="resnet50_1/conv2_block1_2_bn_1/batchnorm/add" source_file="<repo-root>/src/cuda-spirv/xla_hlo/.venv-tf/lib/python3.12/site-packages/tensorflow/python/framework/ops.py" source_line=1221}
  %add.171 = f32[1,1,1,64]{3,2,1,0} add(f32[1,1,1,64]{3,2,1,0} %Reshape_1.56, f32[1,1,1,64]{3,2,1,0} %add.170), metadata={op_type="AddV2" op_name="resnet50_1/conv2_block1_2_bn_1/batchnorm/add" source_file="<repo-root>/src/cuda-spirv/xla_hlo/.venv-tf/lib/python3.12/site-packages/tensorflow/python/framework/ops.py" source_line=1221}
  %Rsqrt.56 = f32[1,1,1,64]{3,2,1,0} rsqrt(f32[1,1,1,64]{3,2,1,0} %add.171), metadata={op_type="Rsqrt" op_name="resnet50_1/conv2_block1_2_bn_1/batchnorm/Rsqrt"}
  %arg17.1 = f32[64]{0} parameter(17), parameter_replication={false}, metadata={op_name="XLA_Args"}
  %Reshape_3.56 = f32[1,1,1,64]{3,2,1,0} reshape(f32[64]{0} %arg17.1), metadata={op_type="Reshape" op_name="resnet50_1/conv2_block1_2_bn_1/Reshape_3" source_file="<repo-root>/src/cuda-spirv/xla_hlo/.venv-tf/lib/python3.12/site-packages/tensorflow/python/framework/ops.py" source_line=1221}
  %mul.56 = f32[1,1,1,64]{3,2,1,0} multiply(f32[1,1,1,64]{3,2,1,0} %Rsqrt.56, f32[1,1,1,64]{3,2,1,0} %Reshape_3.56), metadata={op_type="Mul" op_name="resnet50_1/conv2_block1_2_bn_1/batchnorm/mul" source_file="<repo-root>/src/cuda-spirv/xla_hlo/.venv-tf/lib/python3.12/site-packages/tensorflow/python/framework/ops.py" source_line=1221}
  %mul_1.168 = f32[1,64]{1,0} reshape(f32[1,1,1,64]{3,2,1,0} %mul.56), metadata={op_type="Mul" op_name="resnet50_1/conv2_block1_2_bn_1/batchnorm/mul_1" source_file="<repo-root>/src/cuda-spirv/xla_hlo/.venv-tf/lib/python3.12/site-packages/tensorflow/python/framework/ops.py" source_line=1221}
  %mul_1.169 = f32[1,56,56,64]{3,2,1,0} broadcast(f32[1,64]{1,0} %mul_1.168), dimensions={0,3}, metadata={op_type="Mul" op_name="resnet50_1/conv2_block1_2_bn_1/batchnorm/mul_1" source_file="<repo-root>/src/cuda-spirv/xla_hlo/.venv-tf/lib/python3.12/site-packages/tensorflow/python/framework/ops.py" source_line=1221}
  %mul_1.170 = f32[1,56,56,64]{3,2,1,0} multiply(f32[1,56,56,64]{3,2,1,0} %BiasAdd.115, f32[1,56,56,64]{3,2,1,0} %mul_1.169), metadata={op_type="Mul" op_name="resnet50_1/conv2_block1_2_bn_1/batchnorm/mul_1" source_file="<repo-root>/src/cuda-spirv/xla_hlo/.venv-tf/lib/python3.12/site-packages/tensorflow/python/framework/ops.py" source_line=1221}
  %arg18.1 = f32[64]{0} parameter(18), parameter_replication={false}, metadata={op_name="XLA_Args"}
  %Reshape_2.56 = f32[1,1,1,64]{3,2,1,0} reshape(f32[64]{0} %arg18.1), metadata={op_type="Reshape" op_name="resnet50_1/conv2_block1_2_bn_1/Reshape_2" source_file="<repo-root>/src/cuda-spirv/xla_hlo/.venv-tf/lib/python3.12/site-packages/tensorflow/python/framework/ops.py" source_line=1221}
  %arg15.1 = f32[64]{0} parameter(15), parameter_replication={false}, metadata={op_name="XLA_Args"}
  %Reshape.112 = f32[1,1,1,64]{3,2,1,0} reshape(f32[64]{0} %arg15.1), metadata={op_type="Reshape" op_name="resnet50_1/conv2_block1_2_bn_1/Reshape" source_file="<repo-root>/src/cuda-spirv/xla_hlo/.venv-tf/lib/python3.12/site-packages/tensorflow/python/framework/ops.py" source_line=1221}
  %mul_2.56 = f32[1,1,1,64]{3,2,1,0} multiply(f32[1,1,1,64]{3,2,1,0} %Reshape.112, f32[1,1,1,64]{3,2,1,0} %mul.56), metadata={op_type="Mul" op_name="resnet50_1/conv2_block1_2_bn_1/batchnorm/mul_2" source_file="<repo-root>/src/cuda-spirv/xla_hlo/.venv-tf/lib/python3.12/site-packages/tensorflow/python/framework/ops.py" source_line=1221}
  %sub.56 = f32[1,1,1,64]{3,2,1,0} subtract(f32[1,1,1,64]{3,2,1,0} %Reshape_2.56, f32[1,1,1,64]{3,2,1,0} %mul_2.56), metadata={op_type="Sub" op_name="resnet50_1/conv2_block1_2_bn_1/batchnorm/sub" source_file="<repo-root>/src/cuda-spirv/xla_hlo/.venv-tf/lib/python3.12/site-packages/tensorflow/python/framework/ops.py" source_line=1221}
  %add_1.168 = f32[1,64]{1,0} reshape(f32[1,1,1,64]{3,2,1,0} %sub.56), metadata={op_type="AddV2" op_name="resnet50_1/conv2_block1_2_bn_1/batchnorm/add_1" source_file="<repo-root>/src/cuda-spirv/xla_hlo/.venv-tf/lib/python3.12/site-packages/tensorflow/python/framework/ops.py" source_line=1221}
  %add_1.169 = f32[1,56,56,64]{3,2,1,0} broadcast(f32[1,64]{1,0} %add_1.168), dimensions={0,3}, metadata={op_type="AddV2" op_name="resnet50_1/conv2_block1_2_bn_1/batchnorm/add_1" source_file="<repo-root>/src/cuda-spirv/xla_hlo/.venv-tf/lib/python3.12/site-packages/tensorflow/python/framework/ops.py" source_line=1221}
  %add_1.170 = f32[1,56,56,64]{3,2,1,0} add(f32[1,56,56,64]{3,2,1,0} %mul_1.170, f32[1,56,56,64]{3,2,1,0} %add_1.169), metadata={op_type="AddV2" op_name="resnet50_1/conv2_block1_2_bn_1/batchnorm/add_1" source_file="<repo-root>/src/cuda-spirv/xla_hlo/.venv-tf/lib/python3.12/site-packages/tensorflow/python/framework/ops.py" source_line=1221}
  %Relu.153 = f32[] constant(0), metadata={op_type="Relu" op_name="resnet50_1/conv2_block1_2_relu_1/Relu" source_file="<repo-root>/src/cuda-spirv/xla_hlo/.venv-tf/lib/python3.12/site-packages/tensorflow/python/framework/ops.py" source_line=1221}
  %Relu.154 = f32[1,56,56,64]{3,2,1,0} broadcast(f32[] %Relu.153), dimensions={}, metadata={op_type="Relu" op_name="resnet50_1/conv2_block1_2_relu_1/Relu"}
  %Relu.155 = f32[1,56,56,64]{3,2,1,0} maximum(f32[1,56,56,64]{3,2,1,0} %add_1.170, f32[1,56,56,64]{3,2,1,0} %Relu.154), metadata={op_type="Relu" op_name="resnet50_1/conv2_block1_2_relu_1/Relu"}
  %arg19.1 = f32[1,1,64,256]{3,2,1,0} parameter(19), parameter_replication={false}, metadata={op_name="XLA_Args"}
  %convolution.57 = f32[1,56,56,256]{3,2,1,0} convolution(f32[1,56,56,64]{3,2,1,0} %Relu.155, f32[1,1,64,256]{3,2,1,0} %arg19.1), window={size=1x1}, dim_labels=b01f_01io->b01f, metadata={op_type="Conv2D" op_name="resnet50_1/conv2_block1_3_conv_1/convolution" source_file="<repo-root>/src/cuda-spirv/xla_hlo/.venv-tf/lib/python3.12/site-packages/tensorflow/python/framework/ops.py" source_line=1221}
  %arg20.1 = f32[256]{0} parameter(20), parameter_replication={false}, metadata={op_name="XLA_Args"}
  %Reshape.115 = f32[1,1,1,256]{3,2,1,0} reshape(f32[256]{0} %arg20.1), metadata={op_type="Reshape" op_name="resnet50_1/conv2_block1_3_conv_1/Reshape" source_file="<repo-root>/src/cuda-spirv/xla_hlo/.venv-tf/lib/python3.12/site-packages/tensorflow/python/framework/ops.py" source_line=1221}
  %Squeeze.57 = f32[256]{0} reshape(f32[1,1,1,256]{3,2,1,0} %Reshape.115), metadata={op_type="Squeeze" op_name="resnet50_1/conv2_block1_3_conv_1/Squeeze" source_file="<repo-root>/src/cuda-spirv/xla_hlo/.venv-tf/lib/python3.12/site-packages/tensorflow/python/framework/ops.py" source_line=1221}
  %BiasAdd.116 = f32[1,56,56,256]{3,2,1,0} broadcast(f32[256]{0} %Squeeze.57), dimensions={3}, metadata={op_type="BiasAdd" op_name="resnet50_1/conv2_block1_3_conv_1/BiasAdd" source_file="<repo-root>/src/cuda-spirv/xla_hlo/.venv-tf/lib/python3.12/site-packages/tensorflow/python/framework/ops.py" source_line=1221}
  %BiasAdd.117 = f32[1,56,56,256]{3,2,1,0} add(f32[1,56,56,256]{3,2,1,0} %convolution.57, f32[1,56,56,256]{3,2,1,0} %BiasAdd.116), metadata={op_type="BiasAdd" op_name="resnet50_1/conv2_block1_3_conv_1/BiasAdd" source_file="<repo-root>/src/cuda-spirv/xla_hlo/.venv-tf/lib/python3.12/site-packages/tensorflow/python/framework/ops.py" source_line=1221}
  %arg28.1 = f32[256]{0} parameter(28), parameter_replication={false}, metadata={op_name="XLA_Args"}
  %Reshape_1.57 = f32[1,1,1,256]{3,2,1,0} reshape(f32[256]{0} %arg28.1), metadata={op_type="Reshape" op_name="resnet50_1/conv2_block1_3_bn_1/Reshape_1" source_file="<repo-root>/src/cuda-spirv/xla_hlo/.venv-tf/lib/python3.12/site-packages/tensorflow/python/framework/ops.py" source_line=1221}
  %add.172 = f32[] constant(1.001e-05), metadata={op_type="AddV2" op_name="resnet50_1/conv2_block1_3_bn_1/batchnorm/add" source_file="<repo-root>/src/cuda-spirv/xla_hlo/.venv-tf/lib/python3.12/site-packages/tensorflow/python/framework/ops.py" source_line=1221}
  %add.173 = f32[1,1,1,256]{3,2,1,0} broadcast(f32[] %add.172), dimensions={}, metadata={op_type="AddV2" op_name="resnet50_1/conv2_block1_3_bn_1/batchnorm/add" source_file="<repo-root>/src/cuda-spirv/xla_hlo/.venv-tf/lib/python3.12/site-packages/tensorflow/python/framework/ops.py" source_line=1221}
  %add.174 = f32[1,1,1,256]{3,2,1,0} add(f32[1,1,1,256]{3,2,1,0} %Reshape_1.57, f32[1,1,1,256]{3,2,1,0} %add.173), metadata={op_type="AddV2" op_name="resnet50_1/conv2_block1_3_bn_1/batchnorm/add" source_file="<repo-root>/src/cuda-spirv/xla_hlo/.venv-tf/lib/python3.12/site-packages/tensorflow/python/framework/ops.py" source_line=1221}
  %Rsqrt.57 = f32[1,1,1,256]{3,2,1,0} rsqrt(f32[1,1,1,256]{3,2,1,0} %add.174), metadata={op_type="Rsqrt" op_name="resnet50_1/conv2_block1_3_bn_1/batchnorm/Rsqrt"}
  %arg29.1 = f32[256]{0} parameter(29), parameter_replication={false}, metadata={op_name="XLA_Args"}
  %Reshape_3.57 = f32[1,1,1,256]{3,2,1,0} reshape(f32[256]{0} %arg29.1), metadata={op_type="Reshape" op_name="resnet50_1/conv2_block1_3_bn_1/Reshape_3" source_file="<repo-root>/src/cuda-spirv/xla_hlo/.venv-tf/lib/python3.12/site-packages/tensorflow/python/framework/ops.py" source_line=1221}
  %mul.57 = f32[1,1,1,256]{3,2,1,0} multiply(f32[1,1,1,256]{3,2,1,0} %Rsqrt.57, f32[1,1,1,256]{3,2,1,0} %Reshape_3.57), metadata={op_type="Mul" op_name="resnet50_1/conv2_block1_3_bn_1/batchnorm/mul" source_file="<repo-root>/src/cuda-spirv/xla_hlo/.venv-tf/lib/python3.12/site-packages/tensorflow/python/framework/ops.py" source_line=1221}
  %mul_1.171 = f32[1,256]{1,0} reshape(f32[1,1,1,256]{3,2,1,0} %mul.57), metadata={op_type="Mul" op_name="resnet50_1/conv2_block1_3_bn_1/batchnorm/mul_1" source_file="<repo-root>/src/cuda-spirv/xla_hlo/.venv-tf/lib/python3.12/site-packages/tensorflow/python/framework/ops.py" source_line=1221}
  %mul_1.172 = f32[1,56,56,256]{3,2,1,0} broadcast(f32[1,256]{1,0} %mul_1.171), dimensions={0,3}, metadata={op_type="Mul" op_name="resnet50_1/conv2_block1_3_bn_1/batchnorm/mul_1" source_file="<repo-root>/src/cuda-spirv/xla_hlo/.venv-tf/lib/python3.12/site-packages/tensorflow/python/framework/ops.py" source_line=1221}
  %mul_1.173 = f32[1,56,56,256]{3,2,1,0} multiply(f32[1,56,56,256]{3,2,1,0} %BiasAdd.117, f32[1,56,56,256]{3,2,1,0} %mul_1.172), metadata={op_type="Mul" op_name="resnet50_1/conv2_block1_3_bn_1/batchnorm/mul_1" source_file="<repo-root>/src/cuda-spirv/xla_hlo/.venv-tf/lib/python3.12/site-packages/tensorflow/python/framework/ops.py" source_line=1221}
  %arg30.1 = f32[256]{0} parameter(30), parameter_replication={false}, metadata={op_name="XLA_Args"}
  %Reshape_2.57 = f32[1,1,1,256]{3,2,1,0} reshape(f32[256]{0} %arg30.1), metadata={op_type="Reshape" op_name="resnet50_1/conv2_block1_3_bn_1/Reshape_2" source_file="<repo-root>/src/cuda-spirv/xla_hlo/.venv-tf/lib/python3.12/site-packages/tensorflow/python/framework/ops.py" source_line=1221}
  %arg27.1 = f32[256]{0} parameter(27), parameter_replication={false}, metadata={op_name="XLA_Args"}
  %Reshape.114 = f32[1,1,1,256]{3,2,1,0} reshape(f32[256]{0} %arg27.1), metadata={op_type="Reshape" op_name="resnet50_1/conv2_block1_3_bn_1/Reshape" source_file="<repo-root>/src/cuda-spirv/xla_hlo/.venv-tf/lib/python3.12/site-packages/tensorflow/python/framework/ops.py" source_line=1221}
  %mul_2.57 = f32[1,1,1,256]{3,2,1,0} multiply(f32[1,1,1,256]{3,2,1,0} %Reshape.114, f32[1,1,1,256]{3,2,1,0} %mul.57), metadata={op_type="Mul" op_name="resnet50_1/conv2_block1_3_bn_1/batchnorm/mul_2" source_file="<repo-root>/src/cuda-spirv/xla_hlo/.venv-tf/lib/python3.12/site-packages/tensorflow/python/framework/ops.py" source_line=1221}
  %sub.57 = f32[1,1,1,256]{3,2,1,0} subtract(f32[1,1,1,256]{3,2,1,0} %Reshape_2.57, f32[1,1,1,256]{3,2,1,0} %mul_2.57), metadata={op_type="Sub" op_name="resnet50_1/conv2_block1_3_bn_1/batchnorm/sub" source_file="<repo-root>/src/cuda-spirv/xla_hlo/.venv-tf/lib/python3.12/site-packages/tensorflow/python/framework/ops.py" source_line=1221}
  %add_1.171 = f32[1,256]{1,0} reshape(f32[1,1,1,256]{3,2,1,0} %sub.57), metadata={op_type="AddV2" op_name="resnet50_1/conv2_block1_3_bn_1/batchnorm/add_1" source_file="<repo-root>/src/cuda-spirv/xla_hlo/.venv-tf/lib/python3.12/site-packages/tensorflow/python/framework/ops.py" source_line=1221}
  %add_1.172 = f32[1,56,56,256]{3,2,1,0} broadcast(f32[1,256]{1,0} %add_1.171), dimensions={0,3}, metadata={op_type="AddV2" op_name="resnet50_1/conv2_block1_3_bn_1/batchnorm/add_1" source_file="<repo-root>/src/cuda-spirv/xla_hlo/.venv-tf/lib/python3.12/site-packages/tensorflow/python/framework/ops.py" source_line=1221}
  %add_1.173 = f32[1,56,56,256]{3,2,1,0} add(f32[1,56,56,256]{3,2,1,0} %mul_1.173, f32[1,56,56,256]{3,2,1,0} %add_1.172), metadata={op_type="AddV2" op_name="resnet50_1/conv2_block1_3_bn_1/batchnorm/add_1" source_file="<repo-root>/src/cuda-spirv/xla_hlo/.venv-tf/lib/python3.12/site-packages/tensorflow/python/framework/ops.py" source_line=1221}
  %Add.16 = f32[1,56,56,256]{3,2,1,0} add(f32[1,56,56,256]{3,2,1,0} %add_1.164, f32[1,56,56,256]{3,2,1,0} %add_1.173), metadata={op_type="AddV2" op_name="resnet50_1/conv2_block1_add_1/Add" source_file="<repo-root>/src/cuda-spirv/xla_hlo/.venv-tf/lib/python3.12/site-packages/tensorflow/python/framework/ops.py" source_line=1221}
  %Relu.156 = f32[] constant(0), metadata={op_type="Relu" op_name="resnet50_1/conv2_block1_out_1/Relu" source_file="<repo-root>/src/cuda-spirv/xla_hlo/.venv-tf/lib/python3.12/site-packages/tensorflow/python/framework/ops.py" source_line=1221}
  %Relu.157 = f32[1,56,56,256]{3,2,1,0} broadcast(f32[] %Relu.156), dimensions={}, metadata={op_type="Relu" op_name="resnet50_1/conv2_block1_out_1/Relu"}
  %Relu.158 = f32[1,56,56,256]{3,2,1,0} maximum(f32[1,56,56,256]{3,2,1,0} %Add.16, f32[1,56,56,256]{3,2,1,0} %Relu.157), metadata={op_type="Relu" op_name="resnet50_1/conv2_block1_out_1/Relu"}
  %arg31.1 = f32[1,1,256,64]{3,2,1,0} parameter(31), parameter_replication={false}, metadata={op_name="XLA_Args"}
  %convolution.58 = f32[1,56,56,64]{3,2,1,0} convolution(f32[1,56,56,256]{3,2,1,0} %Relu.158, f32[1,1,256,64]{3,2,1,0} %arg31.1), window={size=1x1}, dim_labels=b01f_01io->b01f, metadata={op_type="Conv2D" op_name="resnet50_1/conv2_block2_1_conv_1/convolution" source_file="<repo-root>/src/cuda-spirv/xla_hlo/.venv-tf/lib/python3.12/site-packages/tensorflow/python/framework/ops.py" source_line=1221}
  %arg32.1 = f32[64]{0} parameter(32), parameter_replication={false}, metadata={op_name="XLA_Args"}
  %Reshape.117 = f32[1,1,1,64]{3,2,1,0} reshape(f32[64]{0} %arg32.1), metadata={op_type="Reshape" op_name="resnet50_1/conv2_block2_1_conv_1/Reshape" source_file="<repo-root>/src/cuda-spirv/xla_hlo/.venv-tf/lib/python3.12/site-packages/tensorflow/python/framework/ops.py" source_line=1221}
  %Squeeze.58 = f32[64]{0} reshape(f32[1,1,1,64]{3,2,1,0} %Reshape.117), metadata={op_type="Squeeze" op_name="resnet50_1/conv2_block2_1_conv_1/Squeeze" source_file="<repo-root>/src/cuda-spirv/xla_hlo/.venv-tf/lib/python3.12/site-packages/tensorflow/python/framework/ops.py" source_line=1221}
  %BiasAdd.118 = f32[1,56,56,64]{3,2,1,0} broadcast(f32[64]{0} %Squeeze.58), dimensions={3}, metadata={op_type="BiasAdd" op_name="resnet50_1/conv2_block2_1_conv_1/BiasAdd" source_file="<repo-root>/src/cuda-spirv/xla_hlo/.venv-tf/lib/python3.12/site-packages/tensorflow/python/framework/ops.py" source_line=1221}
  %BiasAdd.119 = f32[1,56,56,64]{3,2,1,0} add(f32[1,56,56,64]{3,2,1,0} %convolution.58, f32[1,56,56,64]{3,2,1,0} %BiasAdd.118), metadata={op_type="BiasAdd" op_name="resnet50_1/conv2_block2_1_conv_1/BiasAdd" source_file="<repo-root>/src/cuda-spirv/xla_hlo/.venv-tf/lib/python3.12/site-packages/tensorflow/python/framework/ops.py" source_line=1221}
  %arg34.1 = f32[64]{0} parameter(34), parameter_replication={false}, metadata={op_name="XLA_Args"}
  %Reshape_1.58 = f32[1,1,1,64]{3,2,1,0} reshape(f32[64]{0} %arg34.1), metadata={op_type="Reshape" op_name="resnet50_1/conv2_block2_1_bn_1/Reshape_1" source_file="<repo-root>/src/cuda-spirv/xla_hlo/.venv-tf/lib/python3.12/site-packages/tensorflow/python/framework/ops.py" source_line=1221}
  %add.175 = f32[] constant(1.001e-05), metadata={op_type="AddV2" op_name="resnet50_1/conv2_block2_1_bn_1/batchnorm/add" source_file="<repo-root>/src/cuda-spirv/xla_hlo/.venv-tf/lib/python3.12/site-packages/tensorflow/python/framework/ops.py" source_line=1221}
  %add.176 = f32[1,1,1,64]{3,2,1,0} broadcast(f32[] %add.175), dimensions={}, metadata={op_type="AddV2" op_name="resnet50_1/conv2_block2_1_bn_1/batchnorm/add" source_file="<repo-root>/src/cuda-spirv/xla_hlo/.venv-tf/lib/python3.12/site-packages/tensorflow/python/framework/ops.py" source_line=1221}
  %add.177 = f32[1,1,1,64]{3,2,1,0} add(f32[1,1,1,64]{3,2,1,0} %Reshape_1.58, f32[1,1,1,64]{3,2,1,0} %add.176), metadata={op_type="AddV2" op_name="resnet50_1/conv2_block2_1_bn_1/batchnorm/add" source_file="<repo-root>/src/cuda-spirv/xla_hlo/.venv-tf/lib/python3.12/site-packages/tensorflow/python/framework/ops.py" source_line=1221}
  %Rsqrt.58 = f32[1,1,1,64]{3,2,1,0} rsqrt(f32[1,1,1,64]{3,2,1,0} %add.177), metadata={op_type="Rsqrt" op_name="resnet50_1/conv2_block2_1_bn_1/batchnorm/Rsqrt"}
  %arg35.1 = f32[64]{0} parameter(35), parameter_replication={false}, metadata={op_name="XLA_Args"}
  %Reshape_3.58 = f32[1,1,1,64]{3,2,1,0} reshape(f32[64]{0} %arg35.1), metadata={op_type="Reshape" op_name="resnet50_1/conv2_block2_1_bn_1/Reshape_3" source_file="<repo-root>/src/cuda-spirv/xla_hlo/.venv-tf/lib/python3.12/site-packages/tensorflow/python/framework/ops.py" source_line=1221}
  %mul.58 = f32[1,1,1,64]{3,2,1,0} multiply(f32[1,1,1,64]{3,2,1,0} %Rsqrt.58, f32[1,1,1,64]{3,2,1,0} %Reshape_3.58), metadata={op_type="Mul" op_name="resnet50_1/conv2_block2_1_bn_1/batchnorm/mul" source_file="<repo-root>/src/cuda-spirv/xla_hlo/.venv-tf/lib/python3.12/site-packages/tensorflow/python/framework/ops.py" source_line=1221}
  %mul_1.174 = f32[1,64]{1,0} reshape(f32[1,1,1,64]{3,2,1,0} %mul.58), metadata={op_type="Mul" op_name="resnet50_1/conv2_block2_1_bn_1/batchnorm/mul_1" source_file="<repo-root>/src/cuda-spirv/xla_hlo/.venv-tf/lib/python3.12/site-packages/tensorflow/python/framework/ops.py" source_line=1221}
  %mul_1.175 = f32[1,56,56,64]{3,2,1,0} broadcast(f32[1,64]{1,0} %mul_1.174), dimensions={0,3}, metadata={op_type="Mul" op_name="resnet50_1/conv2_block2_1_bn_1/batchnorm/mul_1" source_file="<repo-root>/src/cuda-spirv/xla_hlo/.venv-tf/lib/python3.12/site-packages/tensorflow/python/framework/ops.py" source_line=1221}
  %mul_1.176 = f32[1,56,56,64]{3,2,1,0} multiply(f32[1,56,56,64]{3,2,1,0} %BiasAdd.119, f32[1,56,56,64]{3,2,1,0} %mul_1.175), metadata={op_type="Mul" op_name="resnet50_1/conv2_block2_1_bn_1/batchnorm/mul_1" source_file="<repo-root>/src/cuda-spirv/xla_hlo/.venv-tf/lib/python3.12/site-packages/tensorflow/python/framework/ops.py" source_line=1221}
  %arg36.1 = f32[64]{0} parameter(36), parameter_replication={false}, metadata={op_name="XLA_Args"}
  %Reshape_2.58 = f32[1,1,1,64]{3,2,1,0} reshape(f32[64]{0} %arg36.1), metadata={op_type="Reshape" op_name="resnet50_1/conv2_block2_1_bn_1/Reshape_2" source_file="<repo-root>/src/cuda-spirv/xla_hlo/.venv-tf/lib/python3.12/site-packages/tensorflow/python/framework/ops.py" source_line=1221}
  %arg33.1 = f32[64]{0} parameter(33), parameter_replication={false}, metadata={op_name="XLA_Args"}
  %Reshape.116 = f32[1,1,1,64]{3,2,1,0} reshape(f32[64]{0} %arg33.1), metadata={op_type="Reshape" op_name="resnet50_1/conv2_block2_1_bn_1/Reshape" source_file="<repo-root>/src/cuda-spirv/xla_hlo/.venv-tf/lib/python3.12/site-packages/tensorflow/python/framework/ops.py" source_line=1221}
  %mul_2.58 = f32[1,1,1,64]{3,2,1,0} multiply(f32[1,1,1,64]{3,2,1,0} %Reshape.116, f32[1,1,1,64]{3,2,1,0} %mul.58), metadata={op_type="Mul" op_name="resnet50_1/conv2_block2_1_bn_1/batchnorm/mul_2" source_file="<repo-root>/src/cuda-spirv/xla_hlo/.venv-tf/lib/python3.12/site-packages/tensorflow/python/framework/ops.py" source_line=1221}
  %sub.58 = f32[1,1,1,64]{3,2,1,0} subtract(f32[1,1,1,64]{3,2,1,0} %Reshape_2.58, f32[1,1,1,64]{3,2,1,0} %mul_2.58), metadata={op_type="Sub" op_name="resnet50_1/conv2_block2_1_bn_1/batchnorm/sub" source_file="<repo-root>/src/cuda-spirv/xla_hlo/.venv-tf/lib/python3.12/site-packages/tensorflow/python/framework/ops.py" source_line=1221}
  %add_1.174 = f32[1,64]{1,0} reshape(f32[1,1,1,64]{3,2,1,0} %sub.58), metadata={op_type="AddV2" op_name="resnet50_1/conv2_block2_1_bn_1/batchnorm/add_1" source_file="<repo-root>/src/cuda-spirv/xla_hlo/.venv-tf/lib/python3.12/site-packages/tensorflow/python/framework/ops.py" source_line=1221}
  %add_1.175 = f32[1,56,56,64]{3,2,1,0} broadcast(f32[1,64]{1,0} %add_1.174), dimensions={0,3}, metadata={op_type="AddV2" op_name="resnet50_1/conv2_block2_1_bn_1/batchnorm/add_1" source_file="<repo-root>/src/cuda-spirv/xla_hlo/.venv-tf/lib/python3.12/site-packages/tensorflow/python/framework/ops.py" source_line=1221}
  %add_1.176 = f32[1,56,56,64]{3,2,1,0} add(f32[1,56,56,64]{3,2,1,0} %mul_1.176, f32[1,56,56,64]{3,2,1,0} %add_1.175), metadata={op_type="AddV2" op_name="resnet50_1/conv2_block2_1_bn_1/batchnorm/add_1" source_file="<repo-root>/src/cuda-spirv/xla_hlo/.venv-tf/lib/python3.12/site-packages/tensorflow/python/framework/ops.py" source_line=1221}
  %Relu.159 = f32[] constant(0), metadata={op_type="Relu" op_name="resnet50_1/conv2_block2_1_relu_1/Relu" source_file="<repo-root>/src/cuda-spirv/xla_hlo/.venv-tf/lib/python3.12/site-packages/tensorflow/python/framework/ops.py" source_line=1221}
  %Relu.160 = f32[1,56,56,64]{3,2,1,0} broadcast(f32[] %Relu.159), dimensions={}, metadata={op_type="Relu" op_name="resnet50_1/conv2_block2_1_relu_1/Relu"}
  %Relu.161 = f32[1,56,56,64]{3,2,1,0} maximum(f32[1,56,56,64]{3,2,1,0} %add_1.176, f32[1,56,56,64]{3,2,1,0} %Relu.160), metadata={op_type="Relu" op_name="resnet50_1/conv2_block2_1_relu_1/Relu"}
  %arg37.1 = f32[3,3,64,64]{3,2,1,0} parameter(37), parameter_replication={false}, metadata={op_name="XLA_Args"}
  %convolution.59 = f32[1,56,56,64]{3,2,1,0} convolution(f32[1,56,56,64]{3,2,1,0} %Relu.161, f32[3,3,64,64]{3,2,1,0} %arg37.1), window={size=3x3 pad=1_1x1_1}, dim_labels=b01f_01io->b01f, metadata={op_type="Conv2D" op_name="resnet50_1/conv2_block2_2_conv_1/convolution" source_file="<repo-root>/src/cuda-spirv/xla_hlo/.venv-tf/lib/python3.12/site-packages/tensorflow/python/framework/ops.py" source_line=1221}
  %arg38.1 = f32[64]{0} parameter(38), parameter_replication={false}, metadata={op_name="XLA_Args"}
  %Reshape.119 = f32[1,1,1,64]{3,2,1,0} reshape(f32[64]{0} %arg38.1), metadata={op_type="Reshape" op_name="resnet50_1/conv2_block2_2_conv_1/Reshape" source_file="<repo-root>/src/cuda-spirv/xla_hlo/.venv-tf/lib/python3.12/site-packages/tensorflow/python/framework/ops.py" source_line=1221}
  %Squeeze.59 = f32[64]{0} reshape(f32[1,1,1,64]{3,2,1,0} %Reshape.119), metadata={op_type="Squeeze" op_name="resnet50_1/conv2_block2_2_conv_1/Squeeze" source_file="<repo-root>/src/cuda-spirv/xla_hlo/.venv-tf/lib/python3.12/site-packages/tensorflow/python/framework/ops.py" source_line=1221}
  %BiasAdd.120 = f32[1,56,56,64]{3,2,1,0} broadcast(f32[64]{0} %Squeeze.59), dimensions={3}, metadata={op_type="BiasAdd" op_name="resnet50_1/conv2_block2_2_conv_1/BiasAdd" source_file="<repo-root>/src/cuda-spirv/xla_hlo/.venv-tf/lib/python3.12/site-packages/tensorflow/python/framework/ops.py" source_line=1221}
  %BiasAdd.121 = f32[1,56,56,64]{3,2,1,0} add(f32[1,56,56,64]{3,2,1,0} %convolution.59, f32[1,56,56,64]{3,2,1,0} %BiasAdd.120), metadata={op_type="BiasAdd" op_name="resnet50_1/conv2_block2_2_conv_1/BiasAdd" source_file="<repo-root>/src/cuda-spirv/xla_hlo/.venv-tf/lib/python3.12/site-packages/tensorflow/python/framework/ops.py" source_line=1221}
  %arg40.1 = f32[64]{0} parameter(40), parameter_replication={false}, metadata={op_name="XLA_Args"}
  %Reshape_1.59 = f32[1,1,1,64]{3,2,1,0} reshape(f32[64]{0} %arg40.1), metadata={op_type="Reshape" op_name="resnet50_1/conv2_block2_2_bn_1/Reshape_1" source_file="<repo-root>/src/cuda-spirv/xla_hlo/.venv-tf/lib/python3.12/site-packages/tensorflow/python/framework/ops.py" source_line=1221}
  %add.178 = f32[] constant(1.001e-05), metadata={op_type="AddV2" op_name="resnet50_1/conv2_block2_2_bn_1/batchnorm/add" source_file="<repo-root>/src/cuda-spirv/xla_hlo/.venv-tf/lib/python3.12/site-packages/tensorflow/python/framework/ops.py" source_line=1221}
  %add.179 = f32[1,1,1,64]{3,2,1,0} broadcast(f32[] %add.178), dimensions={}, metadata={op_type="AddV2" op_name="resnet50_1/conv2_block2_2_bn_1/batchnorm/add" source_file="<repo-root>/src/cuda-spirv/xla_hlo/.venv-tf/lib/python3.12/site-packages/tensorflow/python/framework/ops.py" source_line=1221}
  %add.180 = f32[1,1,1,64]{3,2,1,0} add(f32[1,1,1,64]{3,2,1,0} %Reshape_1.59, f32[1,1,1,64]{3,2,1,0} %add.179), metadata={op_type="AddV2" op_name="resnet50_1/conv2_block2_2_bn_1/batchnorm/add" source_file="<repo-root>/src/cuda-spirv/xla_hlo/.venv-tf/lib/python3.12/site-packages/tensorflow/python/framework/ops.py" source_line=1221}
  %Rsqrt.59 = f32[1,1,1,64]{3,2,1,0} rsqrt(f32[1,1,1,64]{3,2,1,0} %add.180), metadata={op_type="Rsqrt" op_name="resnet50_1/conv2_block2_2_bn_1/batchnorm/Rsqrt"}
  %arg41.1 = f32[64]{0} parameter(41), parameter_replication={false}, metadata={op_name="XLA_Args"}
  %Reshape_3.59 = f32[1,1,1,64]{3,2,1,0} reshape(f32[64]{0} %arg41.1), metadata={op_type="Reshape" op_name="resnet50_1/conv2_block2_2_bn_1/Reshape_3" source_file="<repo-root>/src/cuda-spirv/xla_hlo/.venv-tf/lib/python3.12/site-packages/tensorflow/python/framework/ops.py" source_line=1221}
  %mul.59 = f32[1,1,1,64]{3,2,1,0} multiply(f32[1,1,1,64]{3,2,1,0} %Rsqrt.59, f32[1,1,1,64]{3,2,1,0} %Reshape_3.59), metadata={op_type="Mul" op_name="resnet50_1/conv2_block2_2_bn_1/batchnorm/mul" source_file="<repo-root>/src/cuda-spirv/xla_hlo/.venv-tf/lib/python3.12/site-packages/tensorflow/python/framework/ops.py" source_line=1221}
  %mul_1.177 = f32[1,64]{1,0} reshape(f32[1,1,1,64]{3,2,1,0} %mul.59), metadata={op_type="Mul" op_name="resnet50_1/conv2_block2_2_bn_1/batchnorm/mul_1" source_file="<repo-root>/src/cuda-spirv/xla_hlo/.venv-tf/lib/python3.12/site-packages/tensorflow/python/framework/ops.py" source_line=1221}
  %mul_1.178 = f32[1,56,56,64]{3,2,1,0} broadcast(f32[1,64]{1,0} %mul_1.177), dimensions={0,3}, metadata={op_type="Mul" op_name="resnet50_1/conv2_block2_2_bn_1/batchnorm/mul_1" source_file="<repo-root>/src/cuda-spirv/xla_hlo/.venv-tf/lib/python3.12/site-packages/tensorflow/python/framework/ops.py" source_line=1221}
  %mul_1.179 = f32[1,56,56,64]{3,2,1,0} multiply(f32[1,56,56,64]{3,2,1,0} %BiasAdd.121, f32[1,56,56,64]{3,2,1,0} %mul_1.178), metadata={op_type="Mul" op_name="resnet50_1/conv2_block2_2_bn_1/batchnorm/mul_1" source_file="<repo-root>/src/cuda-spirv/xla_hlo/.venv-tf/lib/python3.12/site-packages/tensorflow/python/framework/ops.py" source_line=1221}
  %arg42.1 = f32[64]{0} parameter(42), parameter_replication={false}, metadata={op_name="XLA_Args"}
  %Reshape_2.59 = f32[1,1,1,64]{3,2,1,0} reshape(f32[64]{0} %arg42.1), metadata={op_type="Reshape" op_name="resnet50_1/conv2_block2_2_bn_1/Reshape_2" source_file="<repo-root>/src/cuda-spirv/xla_hlo/.venv-tf/lib/python3.12/site-packages/tensorflow/python/framework/ops.py" source_line=1221}
  %arg39.1 = f32[64]{0} parameter(39), parameter_replication={false}, metadata={op_name="XLA_Args"}
  %Reshape.118 = f32[1,1,1,64]{3,2,1,0} reshape(f32[64]{0} %arg39.1), metadata={op_type="Reshape" op_name="resnet50_1/conv2_block2_2_bn_1/Reshape" source_file="<repo-root>/src/cuda-spirv/xla_hlo/.venv-tf/lib/python3.12/site-packages/tensorflow/python/framework/ops.py" source_line=1221}
  %mul_2.59 = f32[1,1,1,64]{3,2,1,0} multiply(f32[1,1,1,64]{3,2,1,0} %Reshape.118, f32[1,1,1,64]{3,2,1,0} %mul.59), metadata={op_type="Mul" op_name="resnet50_1/conv2_block2_2_bn_1/batchnorm/mul_2" source_file="<repo-root>/src/cuda-spirv/xla_hlo/.venv-tf/lib/python3.12/site-packages/tensorflow/python/framework/ops.py" source_line=1221}
  %sub.59 = f32[1,1,1,64]{3,2,1,0} subtract(f32[1,1,1,64]{3,2,1,0} %Reshape_2.59, f32[1,1,1,64]{3,2,1,0} %mul_2.59), metadata={op_type="Sub" op_name="resnet50_1/conv2_block2_2_bn_1/batchnorm/sub" source_file="<repo-root>/src/cuda-spirv/xla_hlo/.venv-tf/lib/python3.12/site-packages/tensorflow/python/framework/ops.py" source_line=1221}
  %add_1.177 = f32[1,64]{1,0} reshape(f32[1,1,1,64]{3,2,1,0} %sub.59), metadata={op_type="AddV2" op_name="resnet50_1/conv2_block2_2_bn_1/batchnorm/add_1" source_file="<repo-root>/src/cuda-spirv/xla_hlo/.venv-tf/lib/python3.12/site-packages/tensorflow/python/framework/ops.py" source_line=1221}
  %add_1.178 = f32[1,56,56,64]{3,2,1,0} broadcast(f32[1,64]{1,0} %add_1.177), dimensions={0,3}, metadata={op_type="AddV2" op_name="resnet50_1/conv2_block2_2_bn_1/batchnorm/add_1" source_file="<repo-root>/src/cuda-spirv/xla_hlo/.venv-tf/lib/python3.12/site-packages/tensorflow/python/framework/ops.py" source_line=1221}
  %add_1.179 = f32[1,56,56,64]{3,2,1,0} add(f32[1,56,56,64]{3,2,1,0} %mul_1.179, f32[1,56,56,64]{3,2,1,0} %add_1.178), metadata={op_type="AddV2" op_name="resnet50_1/conv2_block2_2_bn_1/batchnorm/add_1" source_file="<repo-root>/src/cuda-spirv/xla_hlo/.venv-tf/lib/python3.12/site-packages/tensorflow/python/framework/ops.py" source_line=1221}
  %Relu.162 = f32[] constant(0), metadata={op_type="Relu" op_name="resnet50_1/conv2_block2_2_relu_1/Relu" source_file="<repo-root>/src/cuda-spirv/xla_hlo/.venv-tf/lib/python3.12/site-packages/tensorflow/python/framework/ops.py" source_line=1221}
  %Relu.163 = f32[1,56,56,64]{3,2,1,0} broadcast(f32[] %Relu.162), dimensions={}, metadata={op_type="Relu" op_name="resnet50_1/conv2_block2_2_relu_1/Relu"}
  %Relu.164 = f32[1,56,56,64]{3,2,1,0} maximum(f32[1,56,56,64]{3,2,1,0} %add_1.179, f32[1,56,56,64]{3,2,1,0} %Relu.163), metadata={op_type="Relu" op_name="resnet50_1/conv2_block2_2_relu_1/Relu"}
  %arg43.1 = f32[1,1,64,256]{3,2,1,0} parameter(43), parameter_replication={false}, metadata={op_name="XLA_Args"}
  %convolution.60 = f32[1,56,56,256]{3,2,1,0} convolution(f32[1,56,56,64]{3,2,1,0} %Relu.164, f32[1,1,64,256]{3,2,1,0} %arg43.1), window={size=1x1}, dim_labels=b01f_01io->b01f, metadata={op_type="Conv2D" op_name="resnet50_1/conv2_block2_3_conv_1/convolution" source_file="<repo-root>/src/cuda-spirv/xla_hlo/.venv-tf/lib/python3.12/site-packages/tensorflow/python/framework/ops.py" source_line=1221}
  %arg44.1 = f32[256]{0} parameter(44), parameter_replication={false}, metadata={op_name="XLA_Args"}
  %Reshape.121 = f32[1,1,1,256]{3,2,1,0} reshape(f32[256]{0} %arg44.1), metadata={op_type="Reshape" op_name="resnet50_1/conv2_block2_3_conv_1/Reshape" source_file="<repo-root>/src/cuda-spirv/xla_hlo/.venv-tf/lib/python3.12/site-packages/tensorflow/python/framework/ops.py" source_line=1221}
  %Squeeze.60 = f32[256]{0} reshape(f32[1,1,1,256]{3,2,1,0} %Reshape.121), metadata={op_type="Squeeze" op_name="resnet50_1/conv2_block2_3_conv_1/Squeeze" source_file="<repo-root>/src/cuda-spirv/xla_hlo/.venv-tf/lib/python3.12/site-packages/tensorflow/python/framework/ops.py" source_line=1221}
  %BiasAdd.122 = f32[1,56,56,256]{3,2,1,0} broadcast(f32[256]{0} %Squeeze.60), dimensions={3}, metadata={op_type="BiasAdd" op_name="resnet50_1/conv2_block2_3_conv_1/BiasAdd" source_file="<repo-root>/src/cuda-spirv/xla_hlo/.venv-tf/lib/python3.12/site-packages/tensorflow/python/framework/ops.py" source_line=1221}
  %BiasAdd.123 = f32[1,56,56,256]{3,2,1,0} add(f32[1,56,56,256]{3,2,1,0} %convolution.60, f32[1,56,56,256]{3,2,1,0} %BiasAdd.122), metadata={op_type="BiasAdd" op_name="resnet50_1/conv2_block2_3_conv_1/BiasAdd" source_file="<repo-root>/src/cuda-spirv/xla_hlo/.venv-tf/lib/python3.12/site-packages/tensorflow/python/framework/ops.py" source_line=1221}
  %arg46.1 = f32[256]{0} parameter(46), parameter_replication={false}, metadata={op_name="XLA_Args"}
  %Reshape_1.60 = f32[1,1,1,256]{3,2,1,0} reshape(f32[256]{0} %arg46.1), metadata={op_type="Reshape" op_name="resnet50_1/conv2_block2_3_bn_1/Reshape_1" source_file="<repo-root>/src/cuda-spirv/xla_hlo/.venv-tf/lib/python3.12/site-packages/tensorflow/python/framework/ops.py" source_line=1221}
  %add.181 = f32[] constant(1.001e-05), metadata={op_type="AddV2" op_name="resnet50_1/conv2_block2_3_bn_1/batchnorm/add" source_file="<repo-root>/src/cuda-spirv/xla_hlo/.venv-tf/lib/python3.12/site-packages/tensorflow/python/framework/ops.py" source_line=1221}
  %add.182 = f32[1,1,1,256]{3,2,1,0} broadcast(f32[] %add.181), dimensions={}, metadata={op_type="AddV2" op_name="resnet50_1/conv2_block2_3_bn_1/batchnorm/add" source_file="<repo-root>/src/cuda-spirv/xla_hlo/.venv-tf/lib/python3.12/site-packages/tensorflow/python/framework/ops.py" source_line=1221}
  %add.183 = f32[1,1,1,256]{3,2,1,0} add(f32[1,1,1,256]{3,2,1,0} %Reshape_1.60, f32[1,1,1,256]{3,2,1,0} %add.182), metadata={op_type="AddV2" op_name="resnet50_1/conv2_block2_3_bn_1/batchnorm/add" source_file="<repo-root>/src/cuda-spirv/xla_hlo/.venv-tf/lib/python3.12/site-packages/tensorflow/python/framework/ops.py" source_line=1221}
  %Rsqrt.60 = f32[1,1,1,256]{3,2,1,0} rsqrt(f32[1,1,1,256]{3,2,1,0} %add.183), metadata={op_type="Rsqrt" op_name="resnet50_1/conv2_block2_3_bn_1/batchnorm/Rsqrt"}
  %arg47.1 = f32[256]{0} parameter(47), parameter_replication={false}, metadata={op_name="XLA_Args"}
  %Reshape_3.60 = f32[1,1,1,256]{3,2,1,0} reshape(f32[256]{0} %arg47.1), metadata={op_type="Reshape" op_name="resnet50_1/conv2_block2_3_bn_1/Reshape_3" source_file="<repo-root>/src/cuda-spirv/xla_hlo/.venv-tf/lib/python3.12/site-packages/tensorflow/python/framework/ops.py" source_line=1221}
  %mul.60 = f32[1,1,1,256]{3,2,1,0} multiply(f32[1,1,1,256]{3,2,1,0} %Rsqrt.60, f32[1,1,1,256]{3,2,1,0} %Reshape_3.60), metadata={op_type="Mul" op_name="resnet50_1/conv2_block2_3_bn_1/batchnorm/mul" source_file="<repo-root>/src/cuda-spirv/xla_hlo/.venv-tf/lib/python3.12/site-packages/tensorflow/python/framework/ops.py" source_line=1221}
  %mul_1.180 = f32[1,256]{1,0} reshape(f32[1,1,1,256]{3,2,1,0} %mul.60), metadata={op_type="Mul" op_name="resnet50_1/conv2_block2_3_bn_1/batchnorm/mul_1" source_file="<repo-root>/src/cuda-spirv/xla_hlo/.venv-tf/lib/python3.12/site-packages/tensorflow/python/framework/ops.py" source_line=1221}
  %mul_1.181 = f32[1,56,56,256]{3,2,1,0} broadcast(f32[1,256]{1,0} %mul_1.180), dimensions={0,3}, metadata={op_type="Mul" op_name="resnet50_1/conv2_block2_3_bn_1/batchnorm/mul_1" source_file="<repo-root>/src/cuda-spirv/xla_hlo/.venv-tf/lib/python3.12/site-packages/tensorflow/python/framework/ops.py" source_line=1221}
  %mul_1.182 = f32[1,56,56,256]{3,2,1,0} multiply(f32[1,56,56,256]{3,2,1,0} %BiasAdd.123, f32[1,56,56,256]{3,2,1,0} %mul_1.181), metadata={op_type="Mul" op_name="resnet50_1/conv2_block2_3_bn_1/batchnorm/mul_1" source_file="<repo-root>/src/cuda-spirv/xla_hlo/.venv-tf/lib/python3.12/site-packages/tensorflow/python/framework/ops.py" source_line=1221}
  %arg48.1 = f32[256]{0} parameter(48), parameter_replication={false}, metadata={op_name="XLA_Args"}
  %Reshape_2.60 = f32[1,1,1,256]{3,2,1,0} reshape(f32[256]{0} %arg48.1), metadata={op_type="Reshape" op_name="resnet50_1/conv2_block2_3_bn_1/Reshape_2" source_file="<repo-root>/src/cuda-spirv/xla_hlo/.venv-tf/lib/python3.12/site-packages/tensorflow/python/framework/ops.py" source_line=1221}
  %arg45.1 = f32[256]{0} parameter(45), parameter_replication={false}, metadata={op_name="XLA_Args"}
  %Reshape.120 = f32[1,1,1,256]{3,2,1,0} reshape(f32[256]{0} %arg45.1), metadata={op_type="Reshape" op_name="resnet50_1/conv2_block2_3_bn_1/Reshape" source_file="<repo-root>/src/cuda-spirv/xla_hlo/.venv-tf/lib/python3.12/site-packages/tensorflow/python/framework/ops.py" source_line=1221}
  %mul_2.60 = f32[1,1,1,256]{3,2,1,0} multiply(f32[1,1,1,256]{3,2,1,0} %Reshape.120, f32[1,1,1,256]{3,2,1,0} %mul.60), metadata={op_type="Mul" op_name="resnet50_1/conv2_block2_3_bn_1/batchnorm/mul_2" source_file="<repo-root>/src/cuda-spirv/xla_hlo/.venv-tf/lib/python3.12/site-packages/tensorflow/python/framework/ops.py" source_line=1221}
  %sub.60 = f32[1,1,1,256]{3,2,1,0} subtract(f32[1,1,1,256]{3,2,1,0} %Reshape_2.60, f32[1,1,1,256]{3,2,1,0} %mul_2.60), metadata={op_type="Sub" op_name="resnet50_1/conv2_block2_3_bn_1/batchnorm/sub" source_file="<repo-root>/src/cuda-spirv/xla_hlo/.venv-tf/lib/python3.12/site-packages/tensorflow/python/framework/ops.py" source_line=1221}
  %add_1.180 = f32[1,256]{1,0} reshape(f32[1,1,1,256]{3,2,1,0} %sub.60), metadata={op_type="AddV2" op_name="resnet50_1/conv2_block2_3_bn_1/batchnorm/add_1" source_file="<repo-root>/src/cuda-spirv/xla_hlo/.venv-tf/lib/python3.12/site-packages/tensorflow/python/framework/ops.py" source_line=1221}
  %add_1.181 = f32[1,56,56,256]{3,2,1,0} broadcast(f32[1,256]{1,0} %add_1.180), dimensions={0,3}, metadata={op_type="AddV2" op_name="resnet50_1/conv2_block2_3_bn_1/batchnorm/add_1" source_file="<repo-root>/src/cuda-spirv/xla_hlo/.venv-tf/lib/python3.12/site-packages/tensorflow/python/framework/ops.py" source_line=1221}
  %add_1.182 = f32[1,56,56,256]{3,2,1,0} add(f32[1,56,56,256]{3,2,1,0} %mul_1.182, f32[1,56,56,256]{3,2,1,0} %add_1.181), metadata={op_type="AddV2" op_name="resnet50_1/conv2_block2_3_bn_1/batchnorm/add_1" source_file="<repo-root>/src/cuda-spirv/xla_hlo/.venv-tf/lib/python3.12/site-packages/tensorflow/python/framework/ops.py" source_line=1221}
  %Add.17 = f32[1,56,56,256]{3,2,1,0} add(f32[1,56,56,256]{3,2,1,0} %Relu.158, f32[1,56,56,256]{3,2,1,0} %add_1.182), metadata={op_type="AddV2" op_name="resnet50_1/conv2_block2_add_1/Add" source_file="<repo-root>/src/cuda-spirv/xla_hlo/.venv-tf/lib/python3.12/site-packages/tensorflow/python/framework/ops.py" source_line=1221}
  %Relu.165 = f32[] constant(0), metadata={op_type="Relu" op_name="resnet50_1/conv2_block2_out_1/Relu" source_file="<repo-root>/src/cuda-spirv/xla_hlo/.venv-tf/lib/python3.12/site-packages/tensorflow/python/framework/ops.py" source_line=1221}
  %Relu.166 = f32[1,56,56,256]{3,2,1,0} broadcast(f32[] %Relu.165), dimensions={}, metadata={op_type="Relu" op_name="resnet50_1/conv2_block2_out_1/Relu"}
  %Relu.167 = f32[1,56,56,256]{3,2,1,0} maximum(f32[1,56,56,256]{3,2,1,0} %Add.17, f32[1,56,56,256]{3,2,1,0} %Relu.166), metadata={op_type="Relu" op_name="resnet50_1/conv2_block2_out_1/Relu"}
  %arg49.1 = f32[1,1,256,64]{3,2,1,0} parameter(49), parameter_replication={false}, metadata={op_name="XLA_Args"}
  %convolution.61 = f32[1,56,56,64]{3,2,1,0} convolution(f32[1,56,56,256]{3,2,1,0} %Relu.167, f32[1,1,256,64]{3,2,1,0} %arg49.1), window={size=1x1}, dim_labels=b01f_01io->b01f, metadata={op_type="Conv2D" op_name="resnet50_1/conv2_block3_1_conv_1/convolution" source_file="<repo-root>/src/cuda-spirv/xla_hlo/.venv-tf/lib/python3.12/site-packages/tensorflow/python/framework/ops.py" source_line=1221}
  %arg50.1 = f32[64]{0} parameter(50), parameter_replication={false}, metadata={op_name="XLA_Args"}
  %Reshape.123 = f32[1,1,1,64]{3,2,1,0} reshape(f32[64]{0} %arg50.1), metadata={op_type="Reshape" op_name="resnet50_1/conv2_block3_1_conv_1/Reshape" source_file="<repo-root>/src/cuda-spirv/xla_hlo/.venv-tf/lib/python3.12/site-packages/tensorflow/python/framework/ops.py" source_line=1221}
  %Squeeze.61 = f32[64]{0} reshape(f32[1,1,1,64]{3,2,1,0} %Reshape.123), metadata={op_type="Squeeze" op_name="resnet50_1/conv2_block3_1_conv_1/Squeeze" source_file="<repo-root>/src/cuda-spirv/xla_hlo/.venv-tf/lib/python3.12/site-packages/tensorflow/python/framework/ops.py" source_line=1221}
  %BiasAdd.124 = f32[1,56,56,64]{3,2,1,0} broadcast(f32[64]{0} %Squeeze.61), dimensions={3}, metadata={op_type="BiasAdd" op_name="resnet50_1/conv2_block3_1_conv_1/BiasAdd" source_file="<repo-root>/src/cuda-spirv/xla_hlo/.venv-tf/lib/python3.12/site-packages/tensorflow/python/framework/ops.py" source_line=1221}
  %BiasAdd.125 = f32[1,56,56,64]{3,2,1,0} add(f32[1,56,56,64]{3,2,1,0} %convolution.61, f32[1,56,56,64]{3,2,1,0} %BiasAdd.124), metadata={op_type="BiasAdd" op_name="resnet50_1/conv2_block3_1_conv_1/BiasAdd" source_file="<repo-root>/src/cuda-spirv/xla_hlo/.venv-tf/lib/python3.12/site-packages/tensorflow/python/framework/ops.py" source_line=1221}
  %arg52.1 = f32[64]{0} parameter(52), parameter_replication={false}, metadata={op_name="XLA_Args"}
  %Reshape_1.61 = f32[1,1,1,64]{3,2,1,0} reshape(f32[64]{0} %arg52.1), metadata={op_type="Reshape" op_name="resnet50_1/conv2_block3_1_bn_1/Reshape_1" source_file="<repo-root>/src/cuda-spirv/xla_hlo/.venv-tf/lib/python3.12/site-packages/tensorflow/python/framework/ops.py" source_line=1221}
  %add.184 = f32[] constant(1.001e-05), metadata={op_type="AddV2" op_name="resnet50_1/conv2_block3_1_bn_1/batchnorm/add" source_file="<repo-root>/src/cuda-spirv/xla_hlo/.venv-tf/lib/python3.12/site-packages/tensorflow/python/framework/ops.py" source_line=1221}
  %add.185 = f32[1,1,1,64]{3,2,1,0} broadcast(f32[] %add.184), dimensions={}, metadata={op_type="AddV2" op_name="resnet50_1/conv2_block3_1_bn_1/batchnorm/add" source_file="<repo-root>/src/cuda-spirv/xla_hlo/.venv-tf/lib/python3.12/site-packages/tensorflow/python/framework/ops.py" source_line=1221}
  %add.186 = f32[1,1,1,64]{3,2,1,0} add(f32[1,1,1,64]{3,2,1,0} %Reshape_1.61, f32[1,1,1,64]{3,2,1,0} %add.185), metadata={op_type="AddV2" op_name="resnet50_1/conv2_block3_1_bn_1/batchnorm/add" source_file="<repo-root>/src/cuda-spirv/xla_hlo/.venv-tf/lib/python3.12/site-packages/tensorflow/python/framework/ops.py" source_line=1221}
  %Rsqrt.61 = f32[1,1,1,64]{3,2,1,0} rsqrt(f32[1,1,1,64]{3,2,1,0} %add.186), metadata={op_type="Rsqrt" op_name="resnet50_1/conv2_block3_1_bn_1/batchnorm/Rsqrt"}
  %arg53.1 = f32[64]{0} parameter(53), parameter_replication={false}, metadata={op_name="XLA_Args"}
  %Reshape_3.61 = f32[1,1,1,64]{3,2,1,0} reshape(f32[64]{0} %arg53.1), metadata={op_type="Reshape" op_name="resnet50_1/conv2_block3_1_bn_1/Reshape_3" source_file="<repo-root>/src/cuda-spirv/xla_hlo/.venv-tf/lib/python3.12/site-packages/tensorflow/python/framework/ops.py" source_line=1221}
  %mul.61 = f32[1,1,1,64]{3,2,1,0} multiply(f32[1,1,1,64]{3,2,1,0} %Rsqrt.61, f32[1,1,1,64]{3,2,1,0} %Reshape_3.61), metadata={op_type="Mul" op_name="resnet50_1/conv2_block3_1_bn_1/batchnorm/mul" source_file="<repo-root>/src/cuda-spirv/xla_hlo/.venv-tf/lib/python3.12/site-packages/tensorflow/python/framework/ops.py" source_line=1221}
  %mul_1.183 = f32[1,64]{1,0} reshape(f32[1,1,1,64]{3,2,1,0} %mul.61), metadata={op_type="Mul" op_name="resnet50_1/conv2_block3_1_bn_1/batchnorm/mul_1" source_file="<repo-root>/src/cuda-spirv/xla_hlo/.venv-tf/lib/python3.12/site-packages/tensorflow/python/framework/ops.py" source_line=1221}
  %mul_1.184 = f32[1,56,56,64]{3,2,1,0} broadcast(f32[1,64]{1,0} %mul_1.183), dimensions={0,3}, metadata={op_type="Mul" op_name="resnet50_1/conv2_block3_1_bn_1/batchnorm/mul_1" source_file="<repo-root>/src/cuda-spirv/xla_hlo/.venv-tf/lib/python3.12/site-packages/tensorflow/python/framework/ops.py" source_line=1221}
  %mul_1.185 = f32[1,56,56,64]{3,2,1,0} multiply(f32[1,56,56,64]{3,2,1,0} %BiasAdd.125, f32[1,56,56,64]{3,2,1,0} %mul_1.184), metadata={op_type="Mul" op_name="resnet50_1/conv2_block3_1_bn_1/batchnorm/mul_1" source_file="<repo-root>/src/cuda-spirv/xla_hlo/.venv-tf/lib/python3.12/site-packages/tensorflow/python/framework/ops.py" source_line=1221}
  %arg54.1 = f32[64]{0} parameter(54), parameter_replication={false}, metadata={op_name="XLA_Args"}
  %Reshape_2.61 = f32[1,1,1,64]{3,2,1,0} reshape(f32[64]{0} %arg54.1), metadata={op_type="Reshape" op_name="resnet50_1/conv2_block3_1_bn_1/Reshape_2" source_file="<repo-root>/src/cuda-spirv/xla_hlo/.venv-tf/lib/python3.12/site-packages/tensorflow/python/framework/ops.py" source_line=1221}
  %arg51.1 = f32[64]{0} parameter(51), parameter_replication={false}, metadata={op_name="XLA_Args"}
  %Reshape.122 = f32[1,1,1,64]{3,2,1,0} reshape(f32[64]{0} %arg51.1), metadata={op_type="Reshape" op_name="resnet50_1/conv2_block3_1_bn_1/Reshape" source_file="<repo-root>/src/cuda-spirv/xla_hlo/.venv-tf/lib/python3.12/site-packages/tensorflow/python/framework/ops.py" source_line=1221}
  %mul_2.61 = f32[1,1,1,64]{3,2,1,0} multiply(f32[1,1,1,64]{3,2,1,0} %Reshape.122, f32[1,1,1,64]{3,2,1,0} %mul.61), metadata={op_type="Mul" op_name="resnet50_1/conv2_block3_1_bn_1/batchnorm/mul_2" source_file="<repo-root>/src/cuda-spirv/xla_hlo/.venv-tf/lib/python3.12/site-packages/tensorflow/python/framework/ops.py" source_line=1221}
  %sub.61 = f32[1,1,1,64]{3,2,1,0} subtract(f32[1,1,1,64]{3,2,1,0} %Reshape_2.61, f32[1,1,1,64]{3,2,1,0} %mul_2.61), metadata={op_type="Sub" op_name="resnet50_1/conv2_block3_1_bn_1/batchnorm/sub" source_file="<repo-root>/src/cuda-spirv/xla_hlo/.venv-tf/lib/python3.12/site-packages/tensorflow/python/framework/ops.py" source_line=1221}
  %add_1.183 = f32[1,64]{1,0} reshape(f32[1,1,1,64]{3,2,1,0} %sub.61), metadata={op_type="AddV2" op_name="resnet50_1/conv2_block3_1_bn_1/batchnorm/add_1" source_file="<repo-root>/src/cuda-spirv/xla_hlo/.venv-tf/lib/python3.12/site-packages/tensorflow/python/framework/ops.py" source_line=1221}
  %add_1.184 = f32[1,56,56,64]{3,2,1,0} broadcast(f32[1,64]{1,0} %add_1.183), dimensions={0,3}, metadata={op_type="AddV2" op_name="resnet50_1/conv2_block3_1_bn_1/batchnorm/add_1" source_file="<repo-root>/src/cuda-spirv/xla_hlo/.venv-tf/lib/python3.12/site-packages/tensorflow/python/framework/ops.py" source_line=1221}
  %add_1.185 = f32[1,56,56,64]{3,2,1,0} add(f32[1,56,56,64]{3,2,1,0} %mul_1.185, f32[1,56,56,64]{3,2,1,0} %add_1.184), metadata={op_type="AddV2" op_name="resnet50_1/conv2_block3_1_bn_1/batchnorm/add_1" source_file="<repo-root>/src/cuda-spirv/xla_hlo/.venv-tf/lib/python3.12/site-packages/tensorflow/python/framework/ops.py" source_line=1221}
  %Relu.168 = f32[] constant(0), metadata={op_type="Relu" op_name="resnet50_1/conv2_block3_1_relu_1/Relu" source_file="<repo-root>/src/cuda-spirv/xla_hlo/.venv-tf/lib/python3.12/site-packages/tensorflow/python/framework/ops.py" source_line=1221}
  %Relu.169 = f32[1,56,56,64]{3,2,1,0} broadcast(f32[] %Relu.168), dimensions={}, metadata={op_type="Relu" op_name="resnet50_1/conv2_block3_1_relu_1/Relu"}
  %Relu.170 = f32[1,56,56,64]{3,2,1,0} maximum(f32[1,56,56,64]{3,2,1,0} %add_1.185, f32[1,56,56,64]{3,2,1,0} %Relu.169), metadata={op_type="Relu" op_name="resnet50_1/conv2_block3_1_relu_1/Relu"}
  %arg55.1 = f32[3,3,64,64]{3,2,1,0} parameter(55), parameter_replication={false}, metadata={op_name="XLA_Args"}
  %convolution.62 = f32[1,56,56,64]{3,2,1,0} convolution(f32[1,56,56,64]{3,2,1,0} %Relu.170, f32[3,3,64,64]{3,2,1,0} %arg55.1), window={size=3x3 pad=1_1x1_1}, dim_labels=b01f_01io->b01f, metadata={op_type="Conv2D" op_name="resnet50_1/conv2_block3_2_conv_1/convolution" source_file="<repo-root>/src/cuda-spirv/xla_hlo/.venv-tf/lib/python3.12/site-packages/tensorflow/python/framework/ops.py" source_line=1221}
  %arg56.1 = f32[64]{0} parameter(56), parameter_replication={false}, metadata={op_name="XLA_Args"}
  %Reshape.125 = f32[1,1,1,64]{3,2,1,0} reshape(f32[64]{0} %arg56.1), metadata={op_type="Reshape" op_name="resnet50_1/conv2_block3_2_conv_1/Reshape" source_file="<repo-root>/src/cuda-spirv/xla_hlo/.venv-tf/lib/python3.12/site-packages/tensorflow/python/framework/ops.py" source_line=1221}
  %Squeeze.62 = f32[64]{0} reshape(f32[1,1,1,64]{3,2,1,0} %Reshape.125), metadata={op_type="Squeeze" op_name="resnet50_1/conv2_block3_2_conv_1/Squeeze" source_file="<repo-root>/src/cuda-spirv/xla_hlo/.venv-tf/lib/python3.12/site-packages/tensorflow/python/framework/ops.py" source_line=1221}
  %BiasAdd.126 = f32[1,56,56,64]{3,2,1,0} broadcast(f32[64]{0} %Squeeze.62), dimensions={3}, metadata={op_type="BiasAdd" op_name="resnet50_1/conv2_block3_2_conv_1/BiasAdd" source_file="<repo-root>/src/cuda-spirv/xla_hlo/.venv-tf/lib/python3.12/site-packages/tensorflow/python/framework/ops.py" source_line=1221}
  %BiasAdd.127 = f32[1,56,56,64]{3,2,1,0} add(f32[1,56,56,64]{3,2,1,0} %convolution.62, f32[1,56,56,64]{3,2,1,0} %BiasAdd.126), metadata={op_type="BiasAdd" op_name="resnet50_1/conv2_block3_2_conv_1/BiasAdd" source_file="<repo-root>/src/cuda-spirv/xla_hlo/.venv-tf/lib/python3.12/site-packages/tensorflow/python/framework/ops.py" source_line=1221}
  %arg58.1 = f32[64]{0} parameter(58), parameter_replication={false}, metadata={op_name="XLA_Args"}
  %Reshape_1.62 = f32[1,1,1,64]{3,2,1,0} reshape(f32[64]{0} %arg58.1), metadata={op_type="Reshape" op_name="resnet50_1/conv2_block3_2_bn_1/Reshape_1" source_file="<repo-root>/src/cuda-spirv/xla_hlo/.venv-tf/lib/python3.12/site-packages/tensorflow/python/framework/ops.py" source_line=1221}
  %add.187 = f32[] constant(1.001e-05), metadata={op_type="AddV2" op_name="resnet50_1/conv2_block3_2_bn_1/batchnorm/add" source_file="<repo-root>/src/cuda-spirv/xla_hlo/.venv-tf/lib/python3.12/site-packages/tensorflow/python/framework/ops.py" source_line=1221}
  %add.188 = f32[1,1,1,64]{3,2,1,0} broadcast(f32[] %add.187), dimensions={}, metadata={op_type="AddV2" op_name="resnet50_1/conv2_block3_2_bn_1/batchnorm/add" source_file="<repo-root>/src/cuda-spirv/xla_hlo/.venv-tf/lib/python3.12/site-packages/tensorflow/python/framework/ops.py" source_line=1221}
  %add.189 = f32[1,1,1,64]{3,2,1,0} add(f32[1,1,1,64]{3,2,1,0} %Reshape_1.62, f32[1,1,1,64]{3,2,1,0} %add.188), metadata={op_type="AddV2" op_name="resnet50_1/conv2_block3_2_bn_1/batchnorm/add" source_file="<repo-root>/src/cuda-spirv/xla_hlo/.venv-tf/lib/python3.12/site-packages/tensorflow/python/framework/ops.py" source_line=1221}
  %Rsqrt.62 = f32[1,1,1,64]{3,2,1,0} rsqrt(f32[1,1,1,64]{3,2,1,0} %add.189), metadata={op_type="Rsqrt" op_name="resnet50_1/conv2_block3_2_bn_1/batchnorm/Rsqrt"}
  %arg59.1 = f32[64]{0} parameter(59), parameter_replication={false}, metadata={op_name="XLA_Args"}
  %Reshape_3.62 = f32[1,1,1,64]{3,2,1,0} reshape(f32[64]{0} %arg59.1), metadata={op_type="Reshape" op_name="resnet50_1/conv2_block3_2_bn_1/Reshape_3" source_file="<repo-root>/src/cuda-spirv/xla_hlo/.venv-tf/lib/python3.12/site-packages/tensorflow/python/framework/ops.py" source_line=1221}
  %mul.62 = f32[1,1,1,64]{3,2,1,0} multiply(f32[1,1,1,64]{3,2,1,0} %Rsqrt.62, f32[1,1,1,64]{3,2,1,0} %Reshape_3.62), metadata={op_type="Mul" op_name="resnet50_1/conv2_block3_2_bn_1/batchnorm/mul" source_file="<repo-root>/src/cuda-spirv/xla_hlo/.venv-tf/lib/python3.12/site-packages/tensorflow/python/framework/ops.py" source_line=1221}
  %mul_1.186 = f32[1,64]{1,0} reshape(f32[1,1,1,64]{3,2,1,0} %mul.62), metadata={op_type="Mul" op_name="resnet50_1/conv2_block3_2_bn_1/batchnorm/mul_1" source_file="<repo-root>/src/cuda-spirv/xla_hlo/.venv-tf/lib/python3.12/site-packages/tensorflow/python/framework/ops.py" source_line=1221}
  %mul_1.187 = f32[1,56,56,64]{3,2,1,0} broadcast(f32[1,64]{1,0} %mul_1.186), dimensions={0,3}, metadata={op_type="Mul" op_name="resnet50_1/conv2_block3_2_bn_1/batchnorm/mul_1" source_file="<repo-root>/src/cuda-spirv/xla_hlo/.venv-tf/lib/python3.12/site-packages/tensorflow/python/framework/ops.py" source_line=1221}
  %mul_1.188 = f32[1,56,56,64]{3,2,1,0} multiply(f32[1,56,56,64]{3,2,1,0} %BiasAdd.127, f32[1,56,56,64]{3,2,1,0} %mul_1.187), metadata={op_type="Mul" op_name="resnet50_1/conv2_block3_2_bn_1/batchnorm/mul_1" source_file="<repo-root>/src/cuda-spirv/xla_hlo/.venv-tf/lib/python3.12/site-packages/tensorflow/python/framework/ops.py" source_line=1221}
  %arg60.1 = f32[64]{0} parameter(60), parameter_replication={false}, metadata={op_name="XLA_Args"}
  %Reshape_2.62 = f32[1,1,1,64]{3,2,1,0} reshape(f32[64]{0} %arg60.1), metadata={op_type="Reshape" op_name="resnet50_1/conv2_block3_2_bn_1/Reshape_2" source_file="<repo-root>/src/cuda-spirv/xla_hlo/.venv-tf/lib/python3.12/site-packages/tensorflow/python/framework/ops.py" source_line=1221}
  %arg57.1 = f32[64]{0} parameter(57), parameter_replication={false}, metadata={op_name="XLA_Args"}
  %Reshape.124 = f32[1,1,1,64]{3,2,1,0} reshape(f32[64]{0} %arg57.1), metadata={op_type="Reshape" op_name="resnet50_1/conv2_block3_2_bn_1/Reshape" source_file="<repo-root>/src/cuda-spirv/xla_hlo/.venv-tf/lib/python3.12/site-packages/tensorflow/python/framework/ops.py" source_line=1221}
  %mul_2.62 = f32[1,1,1,64]{3,2,1,0} multiply(f32[1,1,1,64]{3,2,1,0} %Reshape.124, f32[1,1,1,64]{3,2,1,0} %mul.62), metadata={op_type="Mul" op_name="resnet50_1/conv2_block3_2_bn_1/batchnorm/mul_2" source_file="<repo-root>/src/cuda-spirv/xla_hlo/.venv-tf/lib/python3.12/site-packages/tensorflow/python/framework/ops.py" source_line=1221}
  %sub.62 = f32[1,1,1,64]{3,2,1,0} subtract(f32[1,1,1,64]{3,2,1,0} %Reshape_2.62, f32[1,1,1,64]{3,2,1,0} %mul_2.62), metadata={op_type="Sub" op_name="resnet50_1/conv2_block3_2_bn_1/batchnorm/sub" source_file="<repo-root>/src/cuda-spirv/xla_hlo/.venv-tf/lib/python3.12/site-packages/tensorflow/python/framework/ops.py" source_line=1221}
  %add_1.186 = f32[1,64]{1,0} reshape(f32[1,1,1,64]{3,2,1,0} %sub.62), metadata={op_type="AddV2" op_name="resnet50_1/conv2_block3_2_bn_1/batchnorm/add_1" source_file="<repo-root>/src/cuda-spirv/xla_hlo/.venv-tf/lib/python3.12/site-packages/tensorflow/python/framework/ops.py" source_line=1221}
  %add_1.187 = f32[1,56,56,64]{3,2,1,0} broadcast(f32[1,64]{1,0} %add_1.186), dimensions={0,3}, metadata={op_type="AddV2" op_name="resnet50_1/conv2_block3_2_bn_1/batchnorm/add_1" source_file="<repo-root>/src/cuda-spirv/xla_hlo/.venv-tf/lib/python3.12/site-packages/tensorflow/python/framework/ops.py" source_line=1221}
  %add_1.188 = f32[1,56,56,64]{3,2,1,0} add(f32[1,56,56,64]{3,2,1,0} %mul_1.188, f32[1,56,56,64]{3,2,1,0} %add_1.187), metadata={op_type="AddV2" op_name="resnet50_1/conv2_block3_2_bn_1/batchnorm/add_1" source_file="<repo-root>/src/cuda-spirv/xla_hlo/.venv-tf/lib/python3.12/site-packages/tensorflow/python/framework/ops.py" source_line=1221}
  %Relu.171 = f32[] constant(0), metadata={op_type="Relu" op_name="resnet50_1/conv2_block3_2_relu_1/Relu" source_file="<repo-root>/src/cuda-spirv/xla_hlo/.venv-tf/lib/python3.12/site-packages/tensorflow/python/framework/ops.py" source_line=1221}
  %Relu.172 = f32[1,56,56,64]{3,2,1,0} broadcast(f32[] %Relu.171), dimensions={}, metadata={op_type="Relu" op_name="resnet50_1/conv2_block3_2_relu_1/Relu"}
  %Relu.173 = f32[1,56,56,64]{3,2,1,0} maximum(f32[1,56,56,64]{3,2,1,0} %add_1.188, f32[1,56,56,64]{3,2,1,0} %Relu.172), metadata={op_type="Relu" op_name="resnet50_1/conv2_block3_2_relu_1/Relu"}
  %arg61.1 = f32[1,1,64,256]{3,2,1,0} parameter(61), parameter_replication={false}, metadata={op_name="XLA_Args"}
  %convolution.63 = f32[1,56,56,256]{3,2,1,0} convolution(f32[1,56,56,64]{3,2,1,0} %Relu.173, f32[1,1,64,256]{3,2,1,0} %arg61.1), window={size=1x1}, dim_labels=b01f_01io->b01f, metadata={op_type="Conv2D" op_name="resnet50_1/conv2_block3_3_conv_1/convolution" source_file="<repo-root>/src/cuda-spirv/xla_hlo/.venv-tf/lib/python3.12/site-packages/tensorflow/python/framework/ops.py" source_line=1221}
  %arg62.1 = f32[256]{0} parameter(62), parameter_replication={false}, metadata={op_name="XLA_Args"}
  %Reshape.127 = f32[1,1,1,256]{3,2,1,0} reshape(f32[256]{0} %arg62.1), metadata={op_type="Reshape" op_name="resnet50_1/conv2_block3_3_conv_1/Reshape" source_file="<repo-root>/src/cuda-spirv/xla_hlo/.venv-tf/lib/python3.12/site-packages/tensorflow/python/framework/ops.py" source_line=1221}
  %Squeeze.63 = f32[256]{0} reshape(f32[1,1,1,256]{3,2,1,0} %Reshape.127), metadata={op_type="Squeeze" op_name="resnet50_1/conv2_block3_3_conv_1/Squeeze" source_file="<repo-root>/src/cuda-spirv/xla_hlo/.venv-tf/lib/python3.12/site-packages/tensorflow/python/framework/ops.py" source_line=1221}
  %BiasAdd.128 = f32[1,56,56,256]{3,2,1,0} broadcast(f32[256]{0} %Squeeze.63), dimensions={3}, metadata={op_type="BiasAdd" op_name="resnet50_1/conv2_block3_3_conv_1/BiasAdd" source_file="<repo-root>/src/cuda-spirv/xla_hlo/.venv-tf/lib/python3.12/site-packages/tensorflow/python/framework/ops.py" source_line=1221}
  %BiasAdd.129 = f32[1,56,56,256]{3,2,1,0} add(f32[1,56,56,256]{3,2,1,0} %convolution.63, f32[1,56,56,256]{3,2,1,0} %BiasAdd.128), metadata={op_type="BiasAdd" op_name="resnet50_1/conv2_block3_3_conv_1/BiasAdd" source_file="<repo-root>/src/cuda-spirv/xla_hlo/.venv-tf/lib/python3.12/site-packages/tensorflow/python/framework/ops.py" source_line=1221}
  %arg64.1 = f32[256]{0} parameter(64), parameter_replication={false}, metadata={op_name="XLA_Args"}
  %Reshape_1.63 = f32[1,1,1,256]{3,2,1,0} reshape(f32[256]{0} %arg64.1), metadata={op_type="Reshape" op_name="resnet50_1/conv2_block3_3_bn_1/Reshape_1" source_file="<repo-root>/src/cuda-spirv/xla_hlo/.venv-tf/lib/python3.12/site-packages/tensorflow/python/framework/ops.py" source_line=1221}
  %add.190 = f32[] constant(1.001e-05), metadata={op_type="AddV2" op_name="resnet50_1/conv2_block3_3_bn_1/batchnorm/add" source_file="<repo-root>/src/cuda-spirv/xla_hlo/.venv-tf/lib/python3.12/site-packages/tensorflow/python/framework/ops.py" source_line=1221}
  %add.191 = f32[1,1,1,256]{3,2,1,0} broadcast(f32[] %add.190), dimensions={}, metadata={op_type="AddV2" op_name="resnet50_1/conv2_block3_3_bn_1/batchnorm/add" source_file="<repo-root>/src/cuda-spirv/xla_hlo/.venv-tf/lib/python3.12/site-packages/tensorflow/python/framework/ops.py" source_line=1221}
  %add.192 = f32[1,1,1,256]{3,2,1,0} add(f32[1,1,1,256]{3,2,1,0} %Reshape_1.63, f32[1,1,1,256]{3,2,1,0} %add.191), metadata={op_type="AddV2" op_name="resnet50_1/conv2_block3_3_bn_1/batchnorm/add" source_file="<repo-root>/src/cuda-spirv/xla_hlo/.venv-tf/lib/python3.12/site-packages/tensorflow/python/framework/ops.py" source_line=1221}
  %Rsqrt.63 = f32[1,1,1,256]{3,2,1,0} rsqrt(f32[1,1,1,256]{3,2,1,0} %add.192), metadata={op_type="Rsqrt" op_name="resnet50_1/conv2_block3_3_bn_1/batchnorm/Rsqrt"}
  %arg65.1 = f32[256]{0} parameter(65), parameter_replication={false}, metadata={op_name="XLA_Args"}
  %Reshape_3.63 = f32[1,1,1,256]{3,2,1,0} reshape(f32[256]{0} %arg65.1), metadata={op_type="Reshape" op_name="resnet50_1/conv2_block3_3_bn_1/Reshape_3" source_file="<repo-root>/src/cuda-spirv/xla_hlo/.venv-tf/lib/python3.12/site-packages/tensorflow/python/framework/ops.py" source_line=1221}
  %mul.63 = f32[1,1,1,256]{3,2,1,0} multiply(f32[1,1,1,256]{3,2,1,0} %Rsqrt.63, f32[1,1,1,256]{3,2,1,0} %Reshape_3.63), metadata={op_type="Mul" op_name="resnet50_1/conv2_block3_3_bn_1/batchnorm/mul" source_file="<repo-root>/src/cuda-spirv/xla_hlo/.venv-tf/lib/python3.12/site-packages/tensorflow/python/framework/ops.py" source_line=1221}
  %mul_1.189 = f32[1,256]{1,0} reshape(f32[1,1,1,256]{3,2,1,0} %mul.63), metadata={op_type="Mul" op_name="resnet50_1/conv2_block3_3_bn_1/batchnorm/mul_1" source_file="<repo-root>/src/cuda-spirv/xla_hlo/.venv-tf/lib/python3.12/site-packages/tensorflow/python/framework/ops.py" source_line=1221}
  %mul_1.190 = f32[1,56,56,256]{3,2,1,0} broadcast(f32[1,256]{1,0} %mul_1.189), dimensions={0,3}, metadata={op_type="Mul" op_name="resnet50_1/conv2_block3_3_bn_1/batchnorm/mul_1" source_file="<repo-root>/src/cuda-spirv/xla_hlo/.venv-tf/lib/python3.12/site-packages/tensorflow/python/framework/ops.py" source_line=1221}
  %mul_1.191 = f32[1,56,56,256]{3,2,1,0} multiply(f32[1,56,56,256]{3,2,1,0} %BiasAdd.129, f32[1,56,56,256]{3,2,1,0} %mul_1.190), metadata={op_type="Mul" op_name="resnet50_1/conv2_block3_3_bn_1/batchnorm/mul_1" source_file="<repo-root>/src/cuda-spirv/xla_hlo/.venv-tf/lib/python3.12/site-packages/tensorflow/python/framework/ops.py" source_line=1221}
  %arg66.1 = f32[256]{0} parameter(66), parameter_replication={false}, metadata={op_name="XLA_Args"}
  %Reshape_2.63 = f32[1,1,1,256]{3,2,1,0} reshape(f32[256]{0} %arg66.1), metadata={op_type="Reshape" op_name="resnet50_1/conv2_block3_3_bn_1/Reshape_2" source_file="<repo-root>/src/cuda-spirv/xla_hlo/.venv-tf/lib/python3.12/site-packages/tensorflow/python/framework/ops.py" source_line=1221}
  %arg63.1 = f32[256]{0} parameter(63), parameter_replication={false}, metadata={op_name="XLA_Args"}
  %Reshape.126 = f32[1,1,1,256]{3,2,1,0} reshape(f32[256]{0} %arg63.1), metadata={op_type="Reshape" op_name="resnet50_1/conv2_block3_3_bn_1/Reshape" source_file="<repo-root>/src/cuda-spirv/xla_hlo/.venv-tf/lib/python3.12/site-packages/tensorflow/python/framework/ops.py" source_line=1221}
  %mul_2.63 = f32[1,1,1,256]{3,2,1,0} multiply(f32[1,1,1,256]{3,2,1,0} %Reshape.126, f32[1,1,1,256]{3,2,1,0} %mul.63), metadata={op_type="Mul" op_name="resnet50_1/conv2_block3_3_bn_1/batchnorm/mul_2" source_file="<repo-root>/src/cuda-spirv/xla_hlo/.venv-tf/lib/python3.12/site-packages/tensorflow/python/framework/ops.py" source_line=1221}
  %sub.63 = f32[1,1,1,256]{3,2,1,0} subtract(f32[1,1,1,256]{3,2,1,0} %Reshape_2.63, f32[1,1,1,256]{3,2,1,0} %mul_2.63), metadata={op_type="Sub" op_name="resnet50_1/conv2_block3_3_bn_1/batchnorm/sub" source_file="<repo-root>/src/cuda-spirv/xla_hlo/.venv-tf/lib/python3.12/site-packages/tensorflow/python/framework/ops.py" source_line=1221}
  %add_1.189 = f32[1,256]{1,0} reshape(f32[1,1,1,256]{3,2,1,0} %sub.63), metadata={op_type="AddV2" op_name="resnet50_1/conv2_block3_3_bn_1/batchnorm/add_1" source_file="<repo-root>/src/cuda-spirv/xla_hlo/.venv-tf/lib/python3.12/site-packages/tensorflow/python/framework/ops.py" source_line=1221}
  %add_1.190 = f32[1,56,56,256]{3,2,1,0} broadcast(f32[1,256]{1,0} %add_1.189), dimensions={0,3}, metadata={op_type="AddV2" op_name="resnet50_1/conv2_block3_3_bn_1/batchnorm/add_1" source_file="<repo-root>/src/cuda-spirv/xla_hlo/.venv-tf/lib/python3.12/site-packages/tensorflow/python/framework/ops.py" source_line=1221}
  %add_1.191 = f32[1,56,56,256]{3,2,1,0} add(f32[1,56,56,256]{3,2,1,0} %mul_1.191, f32[1,56,56,256]{3,2,1,0} %add_1.190), metadata={op_type="AddV2" op_name="resnet50_1/conv2_block3_3_bn_1/batchnorm/add_1" source_file="<repo-root>/src/cuda-spirv/xla_hlo/.venv-tf/lib/python3.12/site-packages/tensorflow/python/framework/ops.py" source_line=1221}
  %Add.18 = f32[1,56,56,256]{3,2,1,0} add(f32[1,56,56,256]{3,2,1,0} %Relu.167, f32[1,56,56,256]{3,2,1,0} %add_1.191), metadata={op_type="AddV2" op_name="resnet50_1/conv2_block3_add_1/Add" source_file="<repo-root>/src/cuda-spirv/xla_hlo/.venv-tf/lib/python3.12/site-packages/tensorflow/python/framework/ops.py" source_line=1221}
  %Relu.174 = f32[] constant(0), metadata={op_type="Relu" op_name="resnet50_1/conv2_block3_out_1/Relu" source_file="<repo-root>/src/cuda-spirv/xla_hlo/.venv-tf/lib/python3.12/site-packages/tensorflow/python/framework/ops.py" source_line=1221}
  %Relu.175 = f32[1,56,56,256]{3,2,1,0} broadcast(f32[] %Relu.174), dimensions={}, metadata={op_type="Relu" op_name="resnet50_1/conv2_block3_out_1/Relu"}
  %Relu.176 = f32[1,56,56,256]{3,2,1,0} maximum(f32[1,56,56,256]{3,2,1,0} %Add.18, f32[1,56,56,256]{3,2,1,0} %Relu.175), metadata={op_type="Relu" op_name="resnet50_1/conv2_block3_out_1/Relu"}
  %arg81.1 = f32[1,1,256,512]{3,2,1,0} parameter(81), parameter_replication={false}, metadata={op_name="XLA_Args"}
  %convolution.64 = f32[1,28,28,512]{3,2,1,0} convolution(f32[1,56,56,256]{3,2,1,0} %Relu.176, f32[1,1,256,512]{3,2,1,0} %arg81.1), window={size=1x1 stride=2x2}, dim_labels=b01f_01io->b01f, metadata={op_type="Conv2D" op_name="resnet50_1/conv3_block1_0_conv_1/convolution" source_file="<repo-root>/src/cuda-spirv/xla_hlo/.venv-tf/lib/python3.12/site-packages/tensorflow/python/framework/ops.py" source_line=1221}
  %arg82.1 = f32[512]{0} parameter(82), parameter_replication={false}, metadata={op_name="XLA_Args"}
  %Reshape.129 = f32[1,1,1,512]{3,2,1,0} reshape(f32[512]{0} %arg82.1), metadata={op_type="Reshape" op_name="resnet50_1/conv3_block1_0_conv_1/Reshape" source_file="<repo-root>/src/cuda-spirv/xla_hlo/.venv-tf/lib/python3.12/site-packages/tensorflow/python/framework/ops.py" source_line=1221}
  %Squeeze.64 = f32[512]{0} reshape(f32[1,1,1,512]{3,2,1,0} %Reshape.129), metadata={op_type="Squeeze" op_name="resnet50_1/conv3_block1_0_conv_1/Squeeze" source_file="<repo-root>/src/cuda-spirv/xla_hlo/.venv-tf/lib/python3.12/site-packages/tensorflow/python/framework/ops.py" source_line=1221}
  %BiasAdd.130 = f32[1,28,28,512]{3,2,1,0} broadcast(f32[512]{0} %Squeeze.64), dimensions={3}, metadata={op_type="BiasAdd" op_name="resnet50_1/conv3_block1_0_conv_1/BiasAdd" source_file="<repo-root>/src/cuda-spirv/xla_hlo/.venv-tf/lib/python3.12/site-packages/tensorflow/python/framework/ops.py" source_line=1221}
  %BiasAdd.131 = f32[1,28,28,512]{3,2,1,0} add(f32[1,28,28,512]{3,2,1,0} %convolution.64, f32[1,28,28,512]{3,2,1,0} %BiasAdd.130), metadata={op_type="BiasAdd" op_name="resnet50_1/conv3_block1_0_conv_1/BiasAdd" source_file="<repo-root>/src/cuda-spirv/xla_hlo/.venv-tf/lib/python3.12/site-packages/tensorflow/python/framework/ops.py" source_line=1221}
  %arg84.1 = f32[512]{0} parameter(84), parameter_replication={false}, metadata={op_name="XLA_Args"}
  %Reshape_1.64 = f32[1,1,1,512]{3,2,1,0} reshape(f32[512]{0} %arg84.1), metadata={op_type="Reshape" op_name="resnet50_1/conv3_block1_0_bn_1/Reshape_1" source_file="<repo-root>/src/cuda-spirv/xla_hlo/.venv-tf/lib/python3.12/site-packages/tensorflow/python/framework/ops.py" source_line=1221}
  %add.193 = f32[] constant(1.001e-05), metadata={op_type="AddV2" op_name="resnet50_1/conv3_block1_0_bn_1/batchnorm/add" source_file="<repo-root>/src/cuda-spirv/xla_hlo/.venv-tf/lib/python3.12/site-packages/tensorflow/python/framework/ops.py" source_line=1221}
  %add.194 = f32[1,1,1,512]{3,2,1,0} broadcast(f32[] %add.193), dimensions={}, metadata={op_type="AddV2" op_name="resnet50_1/conv3_block1_0_bn_1/batchnorm/add" source_file="<repo-root>/src/cuda-spirv/xla_hlo/.venv-tf/lib/python3.12/site-packages/tensorflow/python/framework/ops.py" source_line=1221}
  %add.195 = f32[1,1,1,512]{3,2,1,0} add(f32[1,1,1,512]{3,2,1,0} %Reshape_1.64, f32[1,1,1,512]{3,2,1,0} %add.194), metadata={op_type="AddV2" op_name="resnet50_1/conv3_block1_0_bn_1/batchnorm/add" source_file="<repo-root>/src/cuda-spirv/xla_hlo/.venv-tf/lib/python3.12/site-packages/tensorflow/python/framework/ops.py" source_line=1221}
  %Rsqrt.64 = f32[1,1,1,512]{3,2,1,0} rsqrt(f32[1,1,1,512]{3,2,1,0} %add.195), metadata={op_type="Rsqrt" op_name="resnet50_1/conv3_block1_0_bn_1/batchnorm/Rsqrt"}
  %arg85.1 = f32[512]{0} parameter(85), parameter_replication={false}, metadata={op_name="XLA_Args"}
  %Reshape_3.64 = f32[1,1,1,512]{3,2,1,0} reshape(f32[512]{0} %arg85.1), metadata={op_type="Reshape" op_name="resnet50_1/conv3_block1_0_bn_1/Reshape_3" source_file="<repo-root>/src/cuda-spirv/xla_hlo/.venv-tf/lib/python3.12/site-packages/tensorflow/python/framework/ops.py" source_line=1221}
  %mul.64 = f32[1,1,1,512]{3,2,1,0} multiply(f32[1,1,1,512]{3,2,1,0} %Rsqrt.64, f32[1,1,1,512]{3,2,1,0} %Reshape_3.64), metadata={op_type="Mul" op_name="resnet50_1/conv3_block1_0_bn_1/batchnorm/mul" source_file="<repo-root>/src/cuda-spirv/xla_hlo/.venv-tf/lib/python3.12/site-packages/tensorflow/python/framework/ops.py" source_line=1221}
  %mul_1.192 = f32[1,512]{1,0} reshape(f32[1,1,1,512]{3,2,1,0} %mul.64), metadata={op_type="Mul" op_name="resnet50_1/conv3_block1_0_bn_1/batchnorm/mul_1" source_file="<repo-root>/src/cuda-spirv/xla_hlo/.venv-tf/lib/python3.12/site-packages/tensorflow/python/framework/ops.py" source_line=1221}
  %mul_1.193 = f32[1,28,28,512]{3,2,1,0} broadcast(f32[1,512]{1,0} %mul_1.192), dimensions={0,3}, metadata={op_type="Mul" op_name="resnet50_1/conv3_block1_0_bn_1/batchnorm/mul_1" source_file="<repo-root>/src/cuda-spirv/xla_hlo/.venv-tf/lib/python3.12/site-packages/tensorflow/python/framework/ops.py" source_line=1221}
  %mul_1.194 = f32[1,28,28,512]{3,2,1,0} multiply(f32[1,28,28,512]{3,2,1,0} %BiasAdd.131, f32[1,28,28,512]{3,2,1,0} %mul_1.193), metadata={op_type="Mul" op_name="resnet50_1/conv3_block1_0_bn_1/batchnorm/mul_1" source_file="<repo-root>/src/cuda-spirv/xla_hlo/.venv-tf/lib/python3.12/site-packages/tensorflow/python/framework/ops.py" source_line=1221}
  %arg86.1 = f32[512]{0} parameter(86), parameter_replication={false}, metadata={op_name="XLA_Args"}
  %Reshape_2.64 = f32[1,1,1,512]{3,2,1,0} reshape(f32[512]{0} %arg86.1), metadata={op_type="Reshape" op_name="resnet50_1/conv3_block1_0_bn_1/Reshape_2" source_file="<repo-root>/src/cuda-spirv/xla_hlo/.venv-tf/lib/python3.12/site-packages/tensorflow/python/framework/ops.py" source_line=1221}
  %arg83.1 = f32[512]{0} parameter(83), parameter_replication={false}, metadata={op_name="XLA_Args"}
  %Reshape.128 = f32[1,1,1,512]{3,2,1,0} reshape(f32[512]{0} %arg83.1), metadata={op_type="Reshape" op_name="resnet50_1/conv3_block1_0_bn_1/Reshape" source_file="<repo-root>/src/cuda-spirv/xla_hlo/.venv-tf/lib/python3.12/site-packages/tensorflow/python/framework/ops.py" source_line=1221}
  %mul_2.64 = f32[1,1,1,512]{3,2,1,0} multiply(f32[1,1,1,512]{3,2,1,0} %Reshape.128, f32[1,1,1,512]{3,2,1,0} %mul.64), metadata={op_type="Mul" op_name="resnet50_1/conv3_block1_0_bn_1/batchnorm/mul_2" source_file="<repo-root>/src/cuda-spirv/xla_hlo/.venv-tf/lib/python3.12/site-packages/tensorflow/python/framework/ops.py" source_line=1221}
  %sub.64 = f32[1,1,1,512]{3,2,1,0} subtract(f32[1,1,1,512]{3,2,1,0} %Reshape_2.64, f32[1,1,1,512]{3,2,1,0} %mul_2.64), metadata={op_type="Sub" op_name="resnet50_1/conv3_block1_0_bn_1/batchnorm/sub" source_file="<repo-root>/src/cuda-spirv/xla_hlo/.venv-tf/lib/python3.12/site-packages/tensorflow/python/framework/ops.py" source_line=1221}
  %add_1.192 = f32[1,512]{1,0} reshape(f32[1,1,1,512]{3,2,1,0} %sub.64), metadata={op_type="AddV2" op_name="resnet50_1/conv3_block1_0_bn_1/batchnorm/add_1" source_file="<repo-root>/src/cuda-spirv/xla_hlo/.venv-tf/lib/python3.12/site-packages/tensorflow/python/framework/ops.py" source_line=1221}
  %add_1.193 = f32[1,28,28,512]{3,2,1,0} broadcast(f32[1,512]{1,0} %add_1.192), dimensions={0,3}, metadata={op_type="AddV2" op_name="resnet50_1/conv3_block1_0_bn_1/batchnorm/add_1" source_file="<repo-root>/src/cuda-spirv/xla_hlo/.venv-tf/lib/python3.12/site-packages/tensorflow/python/framework/ops.py" source_line=1221}
  %add_1.194 = f32[1,28,28,512]{3,2,1,0} add(f32[1,28,28,512]{3,2,1,0} %mul_1.194, f32[1,28,28,512]{3,2,1,0} %add_1.193), metadata={op_type="AddV2" op_name="resnet50_1/conv3_block1_0_bn_1/batchnorm/add_1" source_file="<repo-root>/src/cuda-spirv/xla_hlo/.venv-tf/lib/python3.12/site-packages/tensorflow/python/framework/ops.py" source_line=1221}
  %arg67.1 = f32[1,1,256,128]{3,2,1,0} parameter(67), parameter_replication={false}, metadata={op_name="XLA_Args"}
  %convolution.65 = f32[1,28,28,128]{3,2,1,0} convolution(f32[1,56,56,256]{3,2,1,0} %Relu.176, f32[1,1,256,128]{3,2,1,0} %arg67.1), window={size=1x1 stride=2x2}, dim_labels=b01f_01io->b01f, metadata={op_type="Conv2D" op_name="resnet50_1/conv3_block1_1_conv_1/convolution" source_file="<repo-root>/src/cuda-spirv/xla_hlo/.venv-tf/lib/python3.12/site-packages/tensorflow/python/framework/ops.py" source_line=1221}
  %arg68.1 = f32[128]{0} parameter(68), parameter_replication={false}, metadata={op_name="XLA_Args"}
  %Reshape.131 = f32[1,1,1,128]{3,2,1,0} reshape(f32[128]{0} %arg68.1), metadata={op_type="Reshape" op_name="resnet50_1/conv3_block1_1_conv_1/Reshape" source_file="<repo-root>/src/cuda-spirv/xla_hlo/.venv-tf/lib/python3.12/site-packages/tensorflow/python/framework/ops.py" source_line=1221}
  %Squeeze.65 = f32[128]{0} reshape(f32[1,1,1,128]{3,2,1,0} %Reshape.131), metadata={op_type="Squeeze" op_name="resnet50_1/conv3_block1_1_conv_1/Squeeze" source_file="<repo-root>/src/cuda-spirv/xla_hlo/.venv-tf/lib/python3.12/site-packages/tensorflow/python/framework/ops.py" source_line=1221}
  %BiasAdd.132 = f32[1,28,28,128]{3,2,1,0} broadcast(f32[128]{0} %Squeeze.65), dimensions={3}, metadata={op_type="BiasAdd" op_name="resnet50_1/conv3_block1_1_conv_1/BiasAdd" source_file="<repo-root>/src/cuda-spirv/xla_hlo/.venv-tf/lib/python3.12/site-packages/tensorflow/python/framework/ops.py" source_line=1221}
  %BiasAdd.133 = f32[1,28,28,128]{3,2,1,0} add(f32[1,28,28,128]{3,2,1,0} %convolution.65, f32[1,28,28,128]{3,2,1,0} %BiasAdd.132), metadata={op_type="BiasAdd" op_name="resnet50_1/conv3_block1_1_conv_1/BiasAdd" source_file="<repo-root>/src/cuda-spirv/xla_hlo/.venv-tf/lib/python3.12/site-packages/tensorflow/python/framework/ops.py" source_line=1221}
  %arg70.1 = f32[128]{0} parameter(70), parameter_replication={false}, metadata={op_name="XLA_Args"}
  %Reshape_1.65 = f32[1,1,1,128]{3,2,1,0} reshape(f32[128]{0} %arg70.1), metadata={op_type="Reshape" op_name="resnet50_1/conv3_block1_1_bn_1/Reshape_1" source_file="<repo-root>/src/cuda-spirv/xla_hlo/.venv-tf/lib/python3.12/site-packages/tensorflow/python/framework/ops.py" source_line=1221}
  %add.196 = f32[] constant(1.001e-05), metadata={op_type="AddV2" op_name="resnet50_1/conv3_block1_1_bn_1/batchnorm/add" source_file="<repo-root>/src/cuda-spirv/xla_hlo/.venv-tf/lib/python3.12/site-packages/tensorflow/python/framework/ops.py" source_line=1221}
  %add.197 = f32[1,1,1,128]{3,2,1,0} broadcast(f32[] %add.196), dimensions={}, metadata={op_type="AddV2" op_name="resnet50_1/conv3_block1_1_bn_1/batchnorm/add" source_file="<repo-root>/src/cuda-spirv/xla_hlo/.venv-tf/lib/python3.12/site-packages/tensorflow/python/framework/ops.py" source_line=1221}
  %add.198 = f32[1,1,1,128]{3,2,1,0} add(f32[1,1,1,128]{3,2,1,0} %Reshape_1.65, f32[1,1,1,128]{3,2,1,0} %add.197), metadata={op_type="AddV2" op_name="resnet50_1/conv3_block1_1_bn_1/batchnorm/add" source_file="<repo-root>/src/cuda-spirv/xla_hlo/.venv-tf/lib/python3.12/site-packages/tensorflow/python/framework/ops.py" source_line=1221}
  %Rsqrt.65 = f32[1,1,1,128]{3,2,1,0} rsqrt(f32[1,1,1,128]{3,2,1,0} %add.198), metadata={op_type="Rsqrt" op_name="resnet50_1/conv3_block1_1_bn_1/batchnorm/Rsqrt"}
  %arg71.1 = f32[128]{0} parameter(71), parameter_replication={false}, metadata={op_name="XLA_Args"}
  %Reshape_3.65 = f32[1,1,1,128]{3,2,1,0} reshape(f32[128]{0} %arg71.1), metadata={op_type="Reshape" op_name="resnet50_1/conv3_block1_1_bn_1/Reshape_3" source_file="<repo-root>/src/cuda-spirv/xla_hlo/.venv-tf/lib/python3.12/site-packages/tensorflow/python/framework/ops.py" source_line=1221}
  %mul.65 = f32[1,1,1,128]{3,2,1,0} multiply(f32[1,1,1,128]{3,2,1,0} %Rsqrt.65, f32[1,1,1,128]{3,2,1,0} %Reshape_3.65), metadata={op_type="Mul" op_name="resnet50_1/conv3_block1_1_bn_1/batchnorm/mul" source_file="<repo-root>/src/cuda-spirv/xla_hlo/.venv-tf/lib/python3.12/site-packages/tensorflow/python/framework/ops.py" source_line=1221}
  %mul_1.195 = f32[1,128]{1,0} reshape(f32[1,1,1,128]{3,2,1,0} %mul.65), metadata={op_type="Mul" op_name="resnet50_1/conv3_block1_1_bn_1/batchnorm/mul_1" source_file="<repo-root>/src/cuda-spirv/xla_hlo/.venv-tf/lib/python3.12/site-packages/tensorflow/python/framework/ops.py" source_line=1221}
  %mul_1.196 = f32[1,28,28,128]{3,2,1,0} broadcast(f32[1,128]{1,0} %mul_1.195), dimensions={0,3}, metadata={op_type="Mul" op_name="resnet50_1/conv3_block1_1_bn_1/batchnorm/mul_1" source_file="<repo-root>/src/cuda-spirv/xla_hlo/.venv-tf/lib/python3.12/site-packages/tensorflow/python/framework/ops.py" source_line=1221}
  %mul_1.197 = f32[1,28,28,128]{3,2,1,0} multiply(f32[1,28,28,128]{3,2,1,0} %BiasAdd.133, f32[1,28,28,128]{3,2,1,0} %mul_1.196), metadata={op_type="Mul" op_name="resnet50_1/conv3_block1_1_bn_1/batchnorm/mul_1" source_file="<repo-root>/src/cuda-spirv/xla_hlo/.venv-tf/lib/python3.12/site-packages/tensorflow/python/framework/ops.py" source_line=1221}
  %arg72.1 = f32[128]{0} parameter(72), parameter_replication={false}, metadata={op_name="XLA_Args"}
  %Reshape_2.65 = f32[1,1,1,128]{3,2,1,0} reshape(f32[128]{0} %arg72.1), metadata={op_type="Reshape" op_name="resnet50_1/conv3_block1_1_bn_1/Reshape_2" source_file="<repo-root>/src/cuda-spirv/xla_hlo/.venv-tf/lib/python3.12/site-packages/tensorflow/python/framework/ops.py" source_line=1221}
  %arg69.1 = f32[128]{0} parameter(69), parameter_replication={false}, metadata={op_name="XLA_Args"}
  %Reshape.130 = f32[1,1,1,128]{3,2,1,0} reshape(f32[128]{0} %arg69.1), metadata={op_type="Reshape" op_name="resnet50_1/conv3_block1_1_bn_1/Reshape" source_file="<repo-root>/src/cuda-spirv/xla_hlo/.venv-tf/lib/python3.12/site-packages/tensorflow/python/framework/ops.py" source_line=1221}
  %mul_2.65 = f32[1,1,1,128]{3,2,1,0} multiply(f32[1,1,1,128]{3,2,1,0} %Reshape.130, f32[1,1,1,128]{3,2,1,0} %mul.65), metadata={op_type="Mul" op_name="resnet50_1/conv3_block1_1_bn_1/batchnorm/mul_2" source_file="<repo-root>/src/cuda-spirv/xla_hlo/.venv-tf/lib/python3.12/site-packages/tensorflow/python/framework/ops.py" source_line=1221}
  %sub.65 = f32[1,1,1,128]{3,2,1,0} subtract(f32[1,1,1,128]{3,2,1,0} %Reshape_2.65, f32[1,1,1,128]{3,2,1,0} %mul_2.65), metadata={op_type="Sub" op_name="resnet50_1/conv3_block1_1_bn_1/batchnorm/sub" source_file="<repo-root>/src/cuda-spirv/xla_hlo/.venv-tf/lib/python3.12/site-packages/tensorflow/python/framework/ops.py" source_line=1221}
  %add_1.195 = f32[1,128]{1,0} reshape(f32[1,1,1,128]{3,2,1,0} %sub.65), metadata={op_type="AddV2" op_name="resnet50_1/conv3_block1_1_bn_1/batchnorm/add_1" source_file="<repo-root>/src/cuda-spirv/xla_hlo/.venv-tf/lib/python3.12/site-packages/tensorflow/python/framework/ops.py" source_line=1221}
  %add_1.196 = f32[1,28,28,128]{3,2,1,0} broadcast(f32[1,128]{1,0} %add_1.195), dimensions={0,3}, metadata={op_type="AddV2" op_name="resnet50_1/conv3_block1_1_bn_1/batchnorm/add_1" source_file="<repo-root>/src/cuda-spirv/xla_hlo/.venv-tf/lib/python3.12/site-packages/tensorflow/python/framework/ops.py" source_line=1221}
  %add_1.197 = f32[1,28,28,128]{3,2,1,0} add(f32[1,28,28,128]{3,2,1,0} %mul_1.197, f32[1,28,28,128]{3,2,1,0} %add_1.196), metadata={op_type="AddV2" op_name="resnet50_1/conv3_block1_1_bn_1/batchnorm/add_1" source_file="<repo-root>/src/cuda-spirv/xla_hlo/.venv-tf/lib/python3.12/site-packages/tensorflow/python/framework/ops.py" source_line=1221}
  %Relu.177 = f32[] constant(0), metadata={op_type="Relu" op_name="resnet50_1/conv3_block1_1_relu_1/Relu" source_file="<repo-root>/src/cuda-spirv/xla_hlo/.venv-tf/lib/python3.12/site-packages/tensorflow/python/framework/ops.py" source_line=1221}
  %Relu.178 = f32[1,28,28,128]{3,2,1,0} broadcast(f32[] %Relu.177), dimensions={}, metadata={op_type="Relu" op_name="resnet50_1/conv3_block1_1_relu_1/Relu"}
  %Relu.179 = f32[1,28,28,128]{3,2,1,0} maximum(f32[1,28,28,128]{3,2,1,0} %add_1.197, f32[1,28,28,128]{3,2,1,0} %Relu.178), metadata={op_type="Relu" op_name="resnet50_1/conv3_block1_1_relu_1/Relu"}
  %arg73.1 = f32[3,3,128,128]{3,2,1,0} parameter(73), parameter_replication={false}, metadata={op_name="XLA_Args"}
  %convolution.66 = f32[1,28,28,128]{3,2,1,0} convolution(f32[1,28,28,128]{3,2,1,0} %Relu.179, f32[3,3,128,128]{3,2,1,0} %arg73.1), window={size=3x3 pad=1_1x1_1}, dim_labels=b01f_01io->b01f, metadata={op_type="Conv2D" op_name="resnet50_1/conv3_block1_2_conv_1/convolution" source_file="<repo-root>/src/cuda-spirv/xla_hlo/.venv-tf/lib/python3.12/site-packages/tensorflow/python/framework/ops.py" source_line=1221}
  %arg74.1 = f32[128]{0} parameter(74), parameter_replication={false}, metadata={op_name="XLA_Args"}
  %Reshape.133 = f32[1,1,1,128]{3,2,1,0} reshape(f32[128]{0} %arg74.1), metadata={op_type="Reshape" op_name="resnet50_1/conv3_block1_2_conv_1/Reshape" source_file="<repo-root>/src/cuda-spirv/xla_hlo/.venv-tf/lib/python3.12/site-packages/tensorflow/python/framework/ops.py" source_line=1221}
  %Squeeze.66 = f32[128]{0} reshape(f32[1,1,1,128]{3,2,1,0} %Reshape.133), metadata={op_type="Squeeze" op_name="resnet50_1/conv3_block1_2_conv_1/Squeeze" source_file="<repo-root>/src/cuda-spirv/xla_hlo/.venv-tf/lib/python3.12/site-packages/tensorflow/python/framework/ops.py" source_line=1221}
  %BiasAdd.134 = f32[1,28,28,128]{3,2,1,0} broadcast(f32[128]{0} %Squeeze.66), dimensions={3}, metadata={op_type="BiasAdd" op_name="resnet50_1/conv3_block1_2_conv_1/BiasAdd" source_file="<repo-root>/src/cuda-spirv/xla_hlo/.venv-tf/lib/python3.12/site-packages/tensorflow/python/framework/ops.py" source_line=1221}
  %BiasAdd.135 = f32[1,28,28,128]{3,2,1,0} add(f32[1,28,28,128]{3,2,1,0} %convolution.66, f32[1,28,28,128]{3,2,1,0} %BiasAdd.134), metadata={op_type="BiasAdd" op_name="resnet50_1/conv3_block1_2_conv_1/BiasAdd" source_file="<repo-root>/src/cuda-spirv/xla_hlo/.venv-tf/lib/python3.12/site-packages/tensorflow/python/framework/ops.py" source_line=1221}
  %arg76.1 = f32[128]{0} parameter(76), parameter_replication={false}, metadata={op_name="XLA_Args"}
  %Reshape_1.66 = f32[1,1,1,128]{3,2,1,0} reshape(f32[128]{0} %arg76.1), metadata={op_type="Reshape" op_name="resnet50_1/conv3_block1_2_bn_1/Reshape_1" source_file="<repo-root>/src/cuda-spirv/xla_hlo/.venv-tf/lib/python3.12/site-packages/tensorflow/python/framework/ops.py" source_line=1221}
  %add.199 = f32[] constant(1.001e-05), metadata={op_type="AddV2" op_name="resnet50_1/conv3_block1_2_bn_1/batchnorm/add" source_file="<repo-root>/src/cuda-spirv/xla_hlo/.venv-tf/lib/python3.12/site-packages/tensorflow/python/framework/ops.py" source_line=1221}
  %add.200 = f32[1,1,1,128]{3,2,1,0} broadcast(f32[] %add.199), dimensions={}, metadata={op_type="AddV2" op_name="resnet50_1/conv3_block1_2_bn_1/batchnorm/add" source_file="<repo-root>/src/cuda-spirv/xla_hlo/.venv-tf/lib/python3.12/site-packages/tensorflow/python/framework/ops.py" source_line=1221}
  %add.201 = f32[1,1,1,128]{3,2,1,0} add(f32[1,1,1,128]{3,2,1,0} %Reshape_1.66, f32[1,1,1,128]{3,2,1,0} %add.200), metadata={op_type="AddV2" op_name="resnet50_1/conv3_block1_2_bn_1/batchnorm/add" source_file="<repo-root>/src/cuda-spirv/xla_hlo/.venv-tf/lib/python3.12/site-packages/tensorflow/python/framework/ops.py" source_line=1221}
  %Rsqrt.66 = f32[1,1,1,128]{3,2,1,0} rsqrt(f32[1,1,1,128]{3,2,1,0} %add.201), metadata={op_type="Rsqrt" op_name="resnet50_1/conv3_block1_2_bn_1/batchnorm/Rsqrt"}
  %arg77.1 = f32[128]{0} parameter(77), parameter_replication={false}, metadata={op_name="XLA_Args"}
  %Reshape_3.66 = f32[1,1,1,128]{3,2,1,0} reshape(f32[128]{0} %arg77.1), metadata={op_type="Reshape" op_name="resnet50_1/conv3_block1_2_bn_1/Reshape_3" source_file="<repo-root>/src/cuda-spirv/xla_hlo/.venv-tf/lib/python3.12/site-packages/tensorflow/python/framework/ops.py" source_line=1221}
  %mul.66 = f32[1,1,1,128]{3,2,1,0} multiply(f32[1,1,1,128]{3,2,1,0} %Rsqrt.66, f32[1,1,1,128]{3,2,1,0} %Reshape_3.66), metadata={op_type="Mul" op_name="resnet50_1/conv3_block1_2_bn_1/batchnorm/mul" source_file="<repo-root>/src/cuda-spirv/xla_hlo/.venv-tf/lib/python3.12/site-packages/tensorflow/python/framework/ops.py" source_line=1221}
  %mul_1.198 = f32[1,128]{1,0} reshape(f32[1,1,1,128]{3,2,1,0} %mul.66), metadata={op_type="Mul" op_name="resnet50_1/conv3_block1_2_bn_1/batchnorm/mul_1" source_file="<repo-root>/src/cuda-spirv/xla_hlo/.venv-tf/lib/python3.12/site-packages/tensorflow/python/framework/ops.py" source_line=1221}
  %mul_1.199 = f32[1,28,28,128]{3,2,1,0} broadcast(f32[1,128]{1,0} %mul_1.198), dimensions={0,3}, metadata={op_type="Mul" op_name="resnet50_1/conv3_block1_2_bn_1/batchnorm/mul_1" source_file="<repo-root>/src/cuda-spirv/xla_hlo/.venv-tf/lib/python3.12/site-packages/tensorflow/python/framework/ops.py" source_line=1221}
  %mul_1.200 = f32[1,28,28,128]{3,2,1,0} multiply(f32[1,28,28,128]{3,2,1,0} %BiasAdd.135, f32[1,28,28,128]{3,2,1,0} %mul_1.199), metadata={op_type="Mul" op_name="resnet50_1/conv3_block1_2_bn_1/batchnorm/mul_1" source_file="<repo-root>/src/cuda-spirv/xla_hlo/.venv-tf/lib/python3.12/site-packages/tensorflow/python/framework/ops.py" source_line=1221}
  %arg78.1 = f32[128]{0} parameter(78), parameter_replication={false}, metadata={op_name="XLA_Args"}
  %Reshape_2.66 = f32[1,1,1,128]{3,2,1,0} reshape(f32[128]{0} %arg78.1), metadata={op_type="Reshape" op_name="resnet50_1/conv3_block1_2_bn_1/Reshape_2" source_file="<repo-root>/src/cuda-spirv/xla_hlo/.venv-tf/lib/python3.12/site-packages/tensorflow/python/framework/ops.py" source_line=1221}
  %arg75.1 = f32[128]{0} parameter(75), parameter_replication={false}, metadata={op_name="XLA_Args"}
  %Reshape.132 = f32[1,1,1,128]{3,2,1,0} reshape(f32[128]{0} %arg75.1), metadata={op_type="Reshape" op_name="resnet50_1/conv3_block1_2_bn_1/Reshape" source_file="<repo-root>/src/cuda-spirv/xla_hlo/.venv-tf/lib/python3.12/site-packages/tensorflow/python/framework/ops.py" source_line=1221}
  %mul_2.66 = f32[1,1,1,128]{3,2,1,0} multiply(f32[1,1,1,128]{3,2,1,0} %Reshape.132, f32[1,1,1,128]{3,2,1,0} %mul.66), metadata={op_type="Mul" op_name="resnet50_1/conv3_block1_2_bn_1/batchnorm/mul_2" source_file="<repo-root>/src/cuda-spirv/xla_hlo/.venv-tf/lib/python3.12/site-packages/tensorflow/python/framework/ops.py" source_line=1221}
  %sub.66 = f32[1,1,1,128]{3,2,1,0} subtract(f32[1,1,1,128]{3,2,1,0} %Reshape_2.66, f32[1,1,1,128]{3,2,1,0} %mul_2.66), metadata={op_type="Sub" op_name="resnet50_1/conv3_block1_2_bn_1/batchnorm/sub" source_file="<repo-root>/src/cuda-spirv/xla_hlo/.venv-tf/lib/python3.12/site-packages/tensorflow/python/framework/ops.py" source_line=1221}
  %add_1.198 = f32[1,128]{1,0} reshape(f32[1,1,1,128]{3,2,1,0} %sub.66), metadata={op_type="AddV2" op_name="resnet50_1/conv3_block1_2_bn_1/batchnorm/add_1" source_file="<repo-root>/src/cuda-spirv/xla_hlo/.venv-tf/lib/python3.12/site-packages/tensorflow/python/framework/ops.py" source_line=1221}
  %add_1.199 = f32[1,28,28,128]{3,2,1,0} broadcast(f32[1,128]{1,0} %add_1.198), dimensions={0,3}, metadata={op_type="AddV2" op_name="resnet50_1/conv3_block1_2_bn_1/batchnorm/add_1" source_file="<repo-root>/src/cuda-spirv/xla_hlo/.venv-tf/lib/python3.12/site-packages/tensorflow/python/framework/ops.py" source_line=1221}
  %add_1.200 = f32[1,28,28,128]{3,2,1,0} add(f32[1,28,28,128]{3,2,1,0} %mul_1.200, f32[1,28,28,128]{3,2,1,0} %add_1.199), metadata={op_type="AddV2" op_name="resnet50_1/conv3_block1_2_bn_1/batchnorm/add_1" source_file="<repo-root>/src/cuda-spirv/xla_hlo/.venv-tf/lib/python3.12/site-packages/tensorflow/python/framework/ops.py" source_line=1221}
  %Relu.180 = f32[] constant(0), metadata={op_type="Relu" op_name="resnet50_1/conv3_block1_2_relu_1/Relu" source_file="<repo-root>/src/cuda-spirv/xla_hlo/.venv-tf/lib/python3.12/site-packages/tensorflow/python/framework/ops.py" source_line=1221}
  %Relu.181 = f32[1,28,28,128]{3,2,1,0} broadcast(f32[] %Relu.180), dimensions={}, metadata={op_type="Relu" op_name="resnet50_1/conv3_block1_2_relu_1/Relu"}
  %Relu.182 = f32[1,28,28,128]{3,2,1,0} maximum(f32[1,28,28,128]{3,2,1,0} %add_1.200, f32[1,28,28,128]{3,2,1,0} %Relu.181), metadata={op_type="Relu" op_name="resnet50_1/conv3_block1_2_relu_1/Relu"}
  %arg79.1 = f32[1,1,128,512]{3,2,1,0} parameter(79), parameter_replication={false}, metadata={op_name="XLA_Args"}
  %convolution.67 = f32[1,28,28,512]{3,2,1,0} convolution(f32[1,28,28,128]{3,2,1,0} %Relu.182, f32[1,1,128,512]{3,2,1,0} %arg79.1), window={size=1x1}, dim_labels=b01f_01io->b01f, metadata={op_type="Conv2D" op_name="resnet50_1/conv3_block1_3_conv_1/convolution" source_file="<repo-root>/src/cuda-spirv/xla_hlo/.venv-tf/lib/python3.12/site-packages/tensorflow/python/framework/ops.py" source_line=1221}
  %arg80.1 = f32[512]{0} parameter(80), parameter_replication={false}, metadata={op_name="XLA_Args"}
  %Reshape.135 = f32[1,1,1,512]{3,2,1,0} reshape(f32[512]{0} %arg80.1), metadata={op_type="Reshape" op_name="resnet50_1/conv3_block1_3_conv_1/Reshape" source_file="<repo-root>/src/cuda-spirv/xla_hlo/.venv-tf/lib/python3.12/site-packages/tensorflow/python/framework/ops.py" source_line=1221}
  %Squeeze.67 = f32[512]{0} reshape(f32[1,1,1,512]{3,2,1,0} %Reshape.135), metadata={op_type="Squeeze" op_name="resnet50_1/conv3_block1_3_conv_1/Squeeze" source_file="<repo-root>/src/cuda-spirv/xla_hlo/.venv-tf/lib/python3.12/site-packages/tensorflow/python/framework/ops.py" source_line=1221}
  %BiasAdd.136 = f32[1,28,28,512]{3,2,1,0} broadcast(f32[512]{0} %Squeeze.67), dimensions={3}, metadata={op_type="BiasAdd" op_name="resnet50_1/conv3_block1_3_conv_1/BiasAdd" source_file="<repo-root>/src/cuda-spirv/xla_hlo/.venv-tf/lib/python3.12/site-packages/tensorflow/python/framework/ops.py" source_line=1221}
  %BiasAdd.137 = f32[1,28,28,512]{3,2,1,0} add(f32[1,28,28,512]{3,2,1,0} %convolution.67, f32[1,28,28,512]{3,2,1,0} %BiasAdd.136), metadata={op_type="BiasAdd" op_name="resnet50_1/conv3_block1_3_conv_1/BiasAdd" source_file="<repo-root>/src/cuda-spirv/xla_hlo/.venv-tf/lib/python3.12/site-packages/tensorflow/python/framework/ops.py" source_line=1221}
  %arg88.1 = f32[512]{0} parameter(88), parameter_replication={false}, metadata={op_name="XLA_Args"}
  %Reshape_1.67 = f32[1,1,1,512]{3,2,1,0} reshape(f32[512]{0} %arg88.1), metadata={op_type="Reshape" op_name="resnet50_1/conv3_block1_3_bn_1/Reshape_1" source_file="<repo-root>/src/cuda-spirv/xla_hlo/.venv-tf/lib/python3.12/site-packages/tensorflow/python/framework/ops.py" source_line=1221}
  %add.202 = f32[] constant(1.001e-05), metadata={op_type="AddV2" op_name="resnet50_1/conv3_block1_3_bn_1/batchnorm/add" source_file="<repo-root>/src/cuda-spirv/xla_hlo/.venv-tf/lib/python3.12/site-packages/tensorflow/python/framework/ops.py" source_line=1221}
  %add.203 = f32[1,1,1,512]{3,2,1,0} broadcast(f32[] %add.202), dimensions={}, metadata={op_type="AddV2" op_name="resnet50_1/conv3_block1_3_bn_1/batchnorm/add" source_file="<repo-root>/src/cuda-spirv/xla_hlo/.venv-tf/lib/python3.12/site-packages/tensorflow/python/framework/ops.py" source_line=1221}
  %add.204 = f32[1,1,1,512]{3,2,1,0} add(f32[1,1,1,512]{3,2,1,0} %Reshape_1.67, f32[1,1,1,512]{3,2,1,0} %add.203), metadata={op_type="AddV2" op_name="resnet50_1/conv3_block1_3_bn_1/batchnorm/add" source_file="<repo-root>/src/cuda-spirv/xla_hlo/.venv-tf/lib/python3.12/site-packages/tensorflow/python/framework/ops.py" source_line=1221}
  %Rsqrt.67 = f32[1,1,1,512]{3,2,1,0} rsqrt(f32[1,1,1,512]{3,2,1,0} %add.204), metadata={op_type="Rsqrt" op_name="resnet50_1/conv3_block1_3_bn_1/batchnorm/Rsqrt"}
  %arg89.1 = f32[512]{0} parameter(89), parameter_replication={false}, metadata={op_name="XLA_Args"}
  %Reshape_3.67 = f32[1,1,1,512]{3,2,1,0} reshape(f32[512]{0} %arg89.1), metadata={op_type="Reshape" op_name="resnet50_1/conv3_block1_3_bn_1/Reshape_3" source_file="<repo-root>/src/cuda-spirv/xla_hlo/.venv-tf/lib/python3.12/site-packages/tensorflow/python/framework/ops.py" source_line=1221}
  %mul.67 = f32[1,1,1,512]{3,2,1,0} multiply(f32[1,1,1,512]{3,2,1,0} %Rsqrt.67, f32[1,1,1,512]{3,2,1,0} %Reshape_3.67), metadata={op_type="Mul" op_name="resnet50_1/conv3_block1_3_bn_1/batchnorm/mul" source_file="<repo-root>/src/cuda-spirv/xla_hlo/.venv-tf/lib/python3.12/site-packages/tensorflow/python/framework/ops.py" source_line=1221}
  %mul_1.201 = f32[1,512]{1,0} reshape(f32[1,1,1,512]{3,2,1,0} %mul.67), metadata={op_type="Mul" op_name="resnet50_1/conv3_block1_3_bn_1/batchnorm/mul_1" source_file="<repo-root>/src/cuda-spirv/xla_hlo/.venv-tf/lib/python3.12/site-packages/tensorflow/python/framework/ops.py" source_line=1221}
  %mul_1.202 = f32[1,28,28,512]{3,2,1,0} broadcast(f32[1,512]{1,0} %mul_1.201), dimensions={0,3}, metadata={op_type="Mul" op_name="resnet50_1/conv3_block1_3_bn_1/batchnorm/mul_1" source_file="<repo-root>/src/cuda-spirv/xla_hlo/.venv-tf/lib/python3.12/site-packages/tensorflow/python/framework/ops.py" source_line=1221}
  %mul_1.203 = f32[1,28,28,512]{3,2,1,0} multiply(f32[1,28,28,512]{3,2,1,0} %BiasAdd.137, f32[1,28,28,512]{3,2,1,0} %mul_1.202), metadata={op_type="Mul" op_name="resnet50_1/conv3_block1_3_bn_1/batchnorm/mul_1" source_file="<repo-root>/src/cuda-spirv/xla_hlo/.venv-tf/lib/python3.12/site-packages/tensorflow/python/framework/ops.py" source_line=1221}
  %arg90.1 = f32[512]{0} parameter(90), parameter_replication={false}, metadata={op_name="XLA_Args"}
  %Reshape_2.67 = f32[1,1,1,512]{3,2,1,0} reshape(f32[512]{0} %arg90.1), metadata={op_type="Reshape" op_name="resnet50_1/conv3_block1_3_bn_1/Reshape_2" source_file="<repo-root>/src/cuda-spirv/xla_hlo/.venv-tf/lib/python3.12/site-packages/tensorflow/python/framework/ops.py" source_line=1221}
  %arg87.1 = f32[512]{0} parameter(87), parameter_replication={false}, metadata={op_name="XLA_Args"}
  %Reshape.134 = f32[1,1,1,512]{3,2,1,0} reshape(f32[512]{0} %arg87.1), metadata={op_type="Reshape" op_name="resnet50_1/conv3_block1_3_bn_1/Reshape" source_file="<repo-root>/src/cuda-spirv/xla_hlo/.venv-tf/lib/python3.12/site-packages/tensorflow/python/framework/ops.py" source_line=1221}
  %mul_2.67 = f32[1,1,1,512]{3,2,1,0} multiply(f32[1,1,1,512]{3,2,1,0} %Reshape.134, f32[1,1,1,512]{3,2,1,0} %mul.67), metadata={op_type="Mul" op_name="resnet50_1/conv3_block1_3_bn_1/batchnorm/mul_2" source_file="<repo-root>/src/cuda-spirv/xla_hlo/.venv-tf/lib/python3.12/site-packages/tensorflow/python/framework/ops.py" source_line=1221}
  %sub.67 = f32[1,1,1,512]{3,2,1,0} subtract(f32[1,1,1,512]{3,2,1,0} %Reshape_2.67, f32[1,1,1,512]{3,2,1,0} %mul_2.67), metadata={op_type="Sub" op_name="resnet50_1/conv3_block1_3_bn_1/batchnorm/sub" source_file="<repo-root>/src/cuda-spirv/xla_hlo/.venv-tf/lib/python3.12/site-packages/tensorflow/python/framework/ops.py" source_line=1221}
  %add_1.201 = f32[1,512]{1,0} reshape(f32[1,1,1,512]{3,2,1,0} %sub.67), metadata={op_type="AddV2" op_name="resnet50_1/conv3_block1_3_bn_1/batchnorm/add_1" source_file="<repo-root>/src/cuda-spirv/xla_hlo/.venv-tf/lib/python3.12/site-packages/tensorflow/python/framework/ops.py" source_line=1221}
  %add_1.202 = f32[1,28,28,512]{3,2,1,0} broadcast(f32[1,512]{1,0} %add_1.201), dimensions={0,3}, metadata={op_type="AddV2" op_name="resnet50_1/conv3_block1_3_bn_1/batchnorm/add_1" source_file="<repo-root>/src/cuda-spirv/xla_hlo/.venv-tf/lib/python3.12/site-packages/tensorflow/python/framework/ops.py" source_line=1221}
  %add_1.203 = f32[1,28,28,512]{3,2,1,0} add(f32[1,28,28,512]{3,2,1,0} %mul_1.203, f32[1,28,28,512]{3,2,1,0} %add_1.202), metadata={op_type="AddV2" op_name="resnet50_1/conv3_block1_3_bn_1/batchnorm/add_1" source_file="<repo-root>/src/cuda-spirv/xla_hlo/.venv-tf/lib/python3.12/site-packages/tensorflow/python/framework/ops.py" source_line=1221}
  %Add.19 = f32[1,28,28,512]{3,2,1,0} add(f32[1,28,28,512]{3,2,1,0} %add_1.194, f32[1,28,28,512]{3,2,1,0} %add_1.203), metadata={op_type="AddV2" op_name="resnet50_1/conv3_block1_add_1/Add" source_file="<repo-root>/src/cuda-spirv/xla_hlo/.venv-tf/lib/python3.12/site-packages/tensorflow/python/framework/ops.py" source_line=1221}
  %Relu.183 = f32[] constant(0), metadata={op_type="Relu" op_name="resnet50_1/conv3_block1_out_1/Relu" source_file="<repo-root>/src/cuda-spirv/xla_hlo/.venv-tf/lib/python3.12/site-packages/tensorflow/python/framework/ops.py" source_line=1221}
  %Relu.184 = f32[1,28,28,512]{3,2,1,0} broadcast(f32[] %Relu.183), dimensions={}, metadata={op_type="Relu" op_name="resnet50_1/conv3_block1_out_1/Relu"}
  %Relu.185 = f32[1,28,28,512]{3,2,1,0} maximum(f32[1,28,28,512]{3,2,1,0} %Add.19, f32[1,28,28,512]{3,2,1,0} %Relu.184), metadata={op_type="Relu" op_name="resnet50_1/conv3_block1_out_1/Relu"}
  %arg91.1 = f32[1,1,512,128]{3,2,1,0} parameter(91), parameter_replication={false}, metadata={op_name="XLA_Args"}
  %convolution.68 = f32[1,28,28,128]{3,2,1,0} convolution(f32[1,28,28,512]{3,2,1,0} %Relu.185, f32[1,1,512,128]{3,2,1,0} %arg91.1), window={size=1x1}, dim_labels=b01f_01io->b01f, metadata={op_type="Conv2D" op_name="resnet50_1/conv3_block2_1_conv_1/convolution" source_file="<repo-root>/src/cuda-spirv/xla_hlo/.venv-tf/lib/python3.12/site-packages/tensorflow/python/framework/ops.py" source_line=1221}
  %arg92.1 = f32[128]{0} parameter(92), parameter_replication={false}, metadata={op_name="XLA_Args"}
  %Reshape.137 = f32[1,1,1,128]{3,2,1,0} reshape(f32[128]{0} %arg92.1), metadata={op_type="Reshape" op_name="resnet50_1/conv3_block2_1_conv_1/Reshape" source_file="<repo-root>/src/cuda-spirv/xla_hlo/.venv-tf/lib/python3.12/site-packages/tensorflow/python/framework/ops.py" source_line=1221}
  %Squeeze.68 = f32[128]{0} reshape(f32[1,1,1,128]{3,2,1,0} %Reshape.137), metadata={op_type="Squeeze" op_name="resnet50_1/conv3_block2_1_conv_1/Squeeze" source_file="<repo-root>/src/cuda-spirv/xla_hlo/.venv-tf/lib/python3.12/site-packages/tensorflow/python/framework/ops.py" source_line=1221}
  %BiasAdd.138 = f32[1,28,28,128]{3,2,1,0} broadcast(f32[128]{0} %Squeeze.68), dimensions={3}, metadata={op_type="BiasAdd" op_name="resnet50_1/conv3_block2_1_conv_1/BiasAdd" source_file="<repo-root>/src/cuda-spirv/xla_hlo/.venv-tf/lib/python3.12/site-packages/tensorflow/python/framework/ops.py" source_line=1221}
  %BiasAdd.139 = f32[1,28,28,128]{3,2,1,0} add(f32[1,28,28,128]{3,2,1,0} %convolution.68, f32[1,28,28,128]{3,2,1,0} %BiasAdd.138), metadata={op_type="BiasAdd" op_name="resnet50_1/conv3_block2_1_conv_1/BiasAdd" source_file="<repo-root>/src/cuda-spirv/xla_hlo/.venv-tf/lib/python3.12/site-packages/tensorflow/python/framework/ops.py" source_line=1221}
  %arg94.1 = f32[128]{0} parameter(94), parameter_replication={false}, metadata={op_name="XLA_Args"}
  %Reshape_1.68 = f32[1,1,1,128]{3,2,1,0} reshape(f32[128]{0} %arg94.1), metadata={op_type="Reshape" op_name="resnet50_1/conv3_block2_1_bn_1/Reshape_1" source_file="<repo-root>/src/cuda-spirv/xla_hlo/.venv-tf/lib/python3.12/site-packages/tensorflow/python/framework/ops.py" source_line=1221}
  %add.205 = f32[] constant(1.001e-05), metadata={op_type="AddV2" op_name="resnet50_1/conv3_block2_1_bn_1/batchnorm/add" source_file="<repo-root>/src/cuda-spirv/xla_hlo/.venv-tf/lib/python3.12/site-packages/tensorflow/python/framework/ops.py" source_line=1221}
  %add.206 = f32[1,1,1,128]{3,2,1,0} broadcast(f32[] %add.205), dimensions={}, metadata={op_type="AddV2" op_name="resnet50_1/conv3_block2_1_bn_1/batchnorm/add" source_file="<repo-root>/src/cuda-spirv/xla_hlo/.venv-tf/lib/python3.12/site-packages/tensorflow/python/framework/ops.py" source_line=1221}
  %add.207 = f32[1,1,1,128]{3,2,1,0} add(f32[1,1,1,128]{3,2,1,0} %Reshape_1.68, f32[1,1,1,128]{3,2,1,0} %add.206), metadata={op_type="AddV2" op_name="resnet50_1/conv3_block2_1_bn_1/batchnorm/add" source_file="<repo-root>/src/cuda-spirv/xla_hlo/.venv-tf/lib/python3.12/site-packages/tensorflow/python/framework/ops.py" source_line=1221}
  %Rsqrt.68 = f32[1,1,1,128]{3,2,1,0} rsqrt(f32[1,1,1,128]{3,2,1,0} %add.207), metadata={op_type="Rsqrt" op_name="resnet50_1/conv3_block2_1_bn_1/batchnorm/Rsqrt"}
  %arg95.1 = f32[128]{0} parameter(95), parameter_replication={false}, metadata={op_name="XLA_Args"}
  %Reshape_3.68 = f32[1,1,1,128]{3,2,1,0} reshape(f32[128]{0} %arg95.1), metadata={op_type="Reshape" op_name="resnet50_1/conv3_block2_1_bn_1/Reshape_3" source_file="<repo-root>/src/cuda-spirv/xla_hlo/.venv-tf/lib/python3.12/site-packages/tensorflow/python/framework/ops.py" source_line=1221}
  %mul.68 = f32[1,1,1,128]{3,2,1,0} multiply(f32[1,1,1,128]{3,2,1,0} %Rsqrt.68, f32[1,1,1,128]{3,2,1,0} %Reshape_3.68), metadata={op_type="Mul" op_name="resnet50_1/conv3_block2_1_bn_1/batchnorm/mul" source_file="<repo-root>/src/cuda-spirv/xla_hlo/.venv-tf/lib/python3.12/site-packages/tensorflow/python/framework/ops.py" source_line=1221}
  %mul_1.204 = f32[1,128]{1,0} reshape(f32[1,1,1,128]{3,2,1,0} %mul.68), metadata={op_type="Mul" op_name="resnet50_1/conv3_block2_1_bn_1/batchnorm/mul_1" source_file="<repo-root>/src/cuda-spirv/xla_hlo/.venv-tf/lib/python3.12/site-packages/tensorflow/python/framework/ops.py" source_line=1221}
  %mul_1.205 = f32[1,28,28,128]{3,2,1,0} broadcast(f32[1,128]{1,0} %mul_1.204), dimensions={0,3}, metadata={op_type="Mul" op_name="resnet50_1/conv3_block2_1_bn_1/batchnorm/mul_1" source_file="<repo-root>/src/cuda-spirv/xla_hlo/.venv-tf/lib/python3.12/site-packages/tensorflow/python/framework/ops.py" source_line=1221}
  %mul_1.206 = f32[1,28,28,128]{3,2,1,0} multiply(f32[1,28,28,128]{3,2,1,0} %BiasAdd.139, f32[1,28,28,128]{3,2,1,0} %mul_1.205), metadata={op_type="Mul" op_name="resnet50_1/conv3_block2_1_bn_1/batchnorm/mul_1" source_file="<repo-root>/src/cuda-spirv/xla_hlo/.venv-tf/lib/python3.12/site-packages/tensorflow/python/framework/ops.py" source_line=1221}
  %arg96.1 = f32[128]{0} parameter(96), parameter_replication={false}, metadata={op_name="XLA_Args"}
  %Reshape_2.68 = f32[1,1,1,128]{3,2,1,0} reshape(f32[128]{0} %arg96.1), metadata={op_type="Reshape" op_name="resnet50_1/conv3_block2_1_bn_1/Reshape_2" source_file="<repo-root>/src/cuda-spirv/xla_hlo/.venv-tf/lib/python3.12/site-packages/tensorflow/python/framework/ops.py" source_line=1221}
  %arg93.1 = f32[128]{0} parameter(93), parameter_replication={false}, metadata={op_name="XLA_Args"}
  %Reshape.136 = f32[1,1,1,128]{3,2,1,0} reshape(f32[128]{0} %arg93.1), metadata={op_type="Reshape" op_name="resnet50_1/conv3_block2_1_bn_1/Reshape" source_file="<repo-root>/src/cuda-spirv/xla_hlo/.venv-tf/lib/python3.12/site-packages/tensorflow/python/framework/ops.py" source_line=1221}
  %mul_2.68 = f32[1,1,1,128]{3,2,1,0} multiply(f32[1,1,1,128]{3,2,1,0} %Reshape.136, f32[1,1,1,128]{3,2,1,0} %mul.68), metadata={op_type="Mul" op_name="resnet50_1/conv3_block2_1_bn_1/batchnorm/mul_2" source_file="<repo-root>/src/cuda-spirv/xla_hlo/.venv-tf/lib/python3.12/site-packages/tensorflow/python/framework/ops.py" source_line=1221}
  %sub.68 = f32[1,1,1,128]{3,2,1,0} subtract(f32[1,1,1,128]{3,2,1,0} %Reshape_2.68, f32[1,1,1,128]{3,2,1,0} %mul_2.68), metadata={op_type="Sub" op_name="resnet50_1/conv3_block2_1_bn_1/batchnorm/sub" source_file="<repo-root>/src/cuda-spirv/xla_hlo/.venv-tf/lib/python3.12/site-packages/tensorflow/python/framework/ops.py" source_line=1221}
  %add_1.204 = f32[1,128]{1,0} reshape(f32[1,1,1,128]{3,2,1,0} %sub.68), metadata={op_type="AddV2" op_name="resnet50_1/conv3_block2_1_bn_1/batchnorm/add_1" source_file="<repo-root>/src/cuda-spirv/xla_hlo/.venv-tf/lib/python3.12/site-packages/tensorflow/python/framework/ops.py" source_line=1221}
  %add_1.205 = f32[1,28,28,128]{3,2,1,0} broadcast(f32[1,128]{1,0} %add_1.204), dimensions={0,3}, metadata={op_type="AddV2" op_name="resnet50_1/conv3_block2_1_bn_1/batchnorm/add_1" source_file="<repo-root>/src/cuda-spirv/xla_hlo/.venv-tf/lib/python3.12/site-packages/tensorflow/python/framework/ops.py" source_line=1221}
  %add_1.206 = f32[1,28,28,128]{3,2,1,0} add(f32[1,28,28,128]{3,2,1,0} %mul_1.206, f32[1,28,28,128]{3,2,1,0} %add_1.205), metadata={op_type="AddV2" op_name="resnet50_1/conv3_block2_1_bn_1/batchnorm/add_1" source_file="<repo-root>/src/cuda-spirv/xla_hlo/.venv-tf/lib/python3.12/site-packages/tensorflow/python/framework/ops.py" source_line=1221}
  %Relu.186 = f32[] constant(0), metadata={op_type="Relu" op_name="resnet50_1/conv3_block2_1_relu_1/Relu" source_file="<repo-root>/src/cuda-spirv/xla_hlo/.venv-tf/lib/python3.12/site-packages/tensorflow/python/framework/ops.py" source_line=1221}
  %Relu.187 = f32[1,28,28,128]{3,2,1,0} broadcast(f32[] %Relu.186), dimensions={}, metadata={op_type="Relu" op_name="resnet50_1/conv3_block2_1_relu_1/Relu"}
  %Relu.188 = f32[1,28,28,128]{3,2,1,0} maximum(f32[1,28,28,128]{3,2,1,0} %add_1.206, f32[1,28,28,128]{3,2,1,0} %Relu.187), metadata={op_type="Relu" op_name="resnet50_1/conv3_block2_1_relu_1/Relu"}
  %arg97.1 = f32[3,3,128,128]{3,2,1,0} parameter(97), parameter_replication={false}, metadata={op_name="XLA_Args"}
  %convolution.69 = f32[1,28,28,128]{3,2,1,0} convolution(f32[1,28,28,128]{3,2,1,0} %Relu.188, f32[3,3,128,128]{3,2,1,0} %arg97.1), window={size=3x3 pad=1_1x1_1}, dim_labels=b01f_01io->b01f, metadata={op_type="Conv2D" op_name="resnet50_1/conv3_block2_2_conv_1/convolution" source_file="<repo-root>/src/cuda-spirv/xla_hlo/.venv-tf/lib/python3.12/site-packages/tensorflow/python/framework/ops.py" source_line=1221}
  %arg98.1 = f32[128]{0} parameter(98), parameter_replication={false}, metadata={op_name="XLA_Args"}
  %Reshape.139 = f32[1,1,1,128]{3,2,1,0} reshape(f32[128]{0} %arg98.1), metadata={op_type="Reshape" op_name="resnet50_1/conv3_block2_2_conv_1/Reshape" source_file="<repo-root>/src/cuda-spirv/xla_hlo/.venv-tf/lib/python3.12/site-packages/tensorflow/python/framework/ops.py" source_line=1221}
  %Squeeze.69 = f32[128]{0} reshape(f32[1,1,1,128]{3,2,1,0} %Reshape.139), metadata={op_type="Squeeze" op_name="resnet50_1/conv3_block2_2_conv_1/Squeeze" source_file="<repo-root>/src/cuda-spirv/xla_hlo/.venv-tf/lib/python3.12/site-packages/tensorflow/python/framework/ops.py" source_line=1221}
  %BiasAdd.140 = f32[1,28,28,128]{3,2,1,0} broadcast(f32[128]{0} %Squeeze.69), dimensions={3}, metadata={op_type="BiasAdd" op_name="resnet50_1/conv3_block2_2_conv_1/BiasAdd" source_file="<repo-root>/src/cuda-spirv/xla_hlo/.venv-tf/lib/python3.12/site-packages/tensorflow/python/framework/ops.py" source_line=1221}
  %BiasAdd.141 = f32[1,28,28,128]{3,2,1,0} add(f32[1,28,28,128]{3,2,1,0} %convolution.69, f32[1,28,28,128]{3,2,1,0} %BiasAdd.140), metadata={op_type="BiasAdd" op_name="resnet50_1/conv3_block2_2_conv_1/BiasAdd" source_file="<repo-root>/src/cuda-spirv/xla_hlo/.venv-tf/lib/python3.12/site-packages/tensorflow/python/framework/ops.py" source_line=1221}
  %arg100.1 = f32[128]{0} parameter(100), parameter_replication={false}, metadata={op_name="XLA_Args"}
  %Reshape_1.69 = f32[1,1,1,128]{3,2,1,0} reshape(f32[128]{0} %arg100.1), metadata={op_type="Reshape" op_name="resnet50_1/conv3_block2_2_bn_1/Reshape_1" source_file="<repo-root>/src/cuda-spirv/xla_hlo/.venv-tf/lib/python3.12/site-packages/tensorflow/python/framework/ops.py" source_line=1221}
  %add.208 = f32[] constant(1.001e-05), metadata={op_type="AddV2" op_name="resnet50_1/conv3_block2_2_bn_1/batchnorm/add" source_file="<repo-root>/src/cuda-spirv/xla_hlo/.venv-tf/lib/python3.12/site-packages/tensorflow/python/framework/ops.py" source_line=1221}
  %add.209 = f32[1,1,1,128]{3,2,1,0} broadcast(f32[] %add.208), dimensions={}, metadata={op_type="AddV2" op_name="resnet50_1/conv3_block2_2_bn_1/batchnorm/add" source_file="<repo-root>/src/cuda-spirv/xla_hlo/.venv-tf/lib/python3.12/site-packages/tensorflow/python/framework/ops.py" source_line=1221}
  %add.210 = f32[1,1,1,128]{3,2,1,0} add(f32[1,1,1,128]{3,2,1,0} %Reshape_1.69, f32[1,1,1,128]{3,2,1,0} %add.209), metadata={op_type="AddV2" op_name="resnet50_1/conv3_block2_2_bn_1/batchnorm/add" source_file="<repo-root>/src/cuda-spirv/xla_hlo/.venv-tf/lib/python3.12/site-packages/tensorflow/python/framework/ops.py" source_line=1221}
  %Rsqrt.69 = f32[1,1,1,128]{3,2,1,0} rsqrt(f32[1,1,1,128]{3,2,1,0} %add.210), metadata={op_type="Rsqrt" op_name="resnet50_1/conv3_block2_2_bn_1/batchnorm/Rsqrt"}
  %arg101.1 = f32[128]{0} parameter(101), parameter_replication={false}, metadata={op_name="XLA_Args"}
  %Reshape_3.69 = f32[1,1,1,128]{3,2,1,0} reshape(f32[128]{0} %arg101.1), metadata={op_type="Reshape" op_name="resnet50_1/conv3_block2_2_bn_1/Reshape_3" source_file="<repo-root>/src/cuda-spirv/xla_hlo/.venv-tf/lib/python3.12/site-packages/tensorflow/python/framework/ops.py" source_line=1221}
  %mul.69 = f32[1,1,1,128]{3,2,1,0} multiply(f32[1,1,1,128]{3,2,1,0} %Rsqrt.69, f32[1,1,1,128]{3,2,1,0} %Reshape_3.69), metadata={op_type="Mul" op_name="resnet50_1/conv3_block2_2_bn_1/batchnorm/mul" source_file="<repo-root>/src/cuda-spirv/xla_hlo/.venv-tf/lib/python3.12/site-packages/tensorflow/python/framework/ops.py" source_line=1221}
  %mul_1.207 = f32[1,128]{1,0} reshape(f32[1,1,1,128]{3,2,1,0} %mul.69), metadata={op_type="Mul" op_name="resnet50_1/conv3_block2_2_bn_1/batchnorm/mul_1" source_file="<repo-root>/src/cuda-spirv/xla_hlo/.venv-tf/lib/python3.12/site-packages/tensorflow/python/framework/ops.py" source_line=1221}
  %mul_1.208 = f32[1,28,28,128]{3,2,1,0} broadcast(f32[1,128]{1,0} %mul_1.207), dimensions={0,3}, metadata={op_type="Mul" op_name="resnet50_1/conv3_block2_2_bn_1/batchnorm/mul_1" source_file="<repo-root>/src/cuda-spirv/xla_hlo/.venv-tf/lib/python3.12/site-packages/tensorflow/python/framework/ops.py" source_line=1221}
  %mul_1.209 = f32[1,28,28,128]{3,2,1,0} multiply(f32[1,28,28,128]{3,2,1,0} %BiasAdd.141, f32[1,28,28,128]{3,2,1,0} %mul_1.208), metadata={op_type="Mul" op_name="resnet50_1/conv3_block2_2_bn_1/batchnorm/mul_1" source_file="<repo-root>/src/cuda-spirv/xla_hlo/.venv-tf/lib/python3.12/site-packages/tensorflow/python/framework/ops.py" source_line=1221}
  %arg102.1 = f32[128]{0} parameter(102), parameter_replication={false}, metadata={op_name="XLA_Args"}
  %Reshape_2.69 = f32[1,1,1,128]{3,2,1,0} reshape(f32[128]{0} %arg102.1), metadata={op_type="Reshape" op_name="resnet50_1/conv3_block2_2_bn_1/Reshape_2" source_file="<repo-root>/src/cuda-spirv/xla_hlo/.venv-tf/lib/python3.12/site-packages/tensorflow/python/framework/ops.py" source_line=1221}
  %arg99.1 = f32[128]{0} parameter(99), parameter_replication={false}, metadata={op_name="XLA_Args"}
  %Reshape.138 = f32[1,1,1,128]{3,2,1,0} reshape(f32[128]{0} %arg99.1), metadata={op_type="Reshape" op_name="resnet50_1/conv3_block2_2_bn_1/Reshape" source_file="<repo-root>/src/cuda-spirv/xla_hlo/.venv-tf/lib/python3.12/site-packages/tensorflow/python/framework/ops.py" source_line=1221}
  %mul_2.69 = f32[1,1,1,128]{3,2,1,0} multiply(f32[1,1,1,128]{3,2,1,0} %Reshape.138, f32[1,1,1,128]{3,2,1,0} %mul.69), metadata={op_type="Mul" op_name="resnet50_1/conv3_block2_2_bn_1/batchnorm/mul_2" source_file="<repo-root>/src/cuda-spirv/xla_hlo/.venv-tf/lib/python3.12/site-packages/tensorflow/python/fr…
  %sub.100 = f32[1,1,1,512]{3,2,1,0} subtract(f32[1,1,1,512]{3,2,1,0} %Reshape_2.100, f32[1,1,1,512]{3,2,1,0} %mul_2.100), metadata={op_type="Sub" op_name="resnet50_1/conv5_block2_1_bn_1/batchnorm/sub" source_file="<repo-root>/src/cuda-spirv/xla_hlo/.venv-tf/lib/python3.12/site-packages/tensorflow/python/framework/ops.py" source_line=1221}
  %add_1.300 = f32[1,512]{1,0} reshape(f32[1,1,1,512]{3,2,1,0} %sub.100), metadata={op_type="AddV2" op_name="resnet50_1/conv5_block2_1_bn_1/batchnorm/add_1" source_file="<repo-root>/src/cuda-spirv/xla_hlo/.venv-tf/lib/python3.12/site-packages/tensorflow/python/framework/ops.py" source_line=1221}
  %add_1.301 = f32[1,7,7,512]{3,2,1,0} broadcast(f32[1,512]{1,0} %add_1.300), dimensions={0,3}, metadata={op_type="AddV2" op_name="resnet50_1/conv5_block2_1_bn_1/batchnorm/add_1" source_file="<repo-root>/src/cuda-spirv/xla_hlo/.venv-tf/lib/python3.12/site-packages/tensorflow/python/framework/ops.py" source_line=1221}
  %add_1.302 = f32[1,7,7,512]{3,2,1,0} add(f32[1,7,7,512]{3,2,1,0} %mul_1.302, f32[1,7,7,512]{3,2,1,0} %add_1.301), metadata={op_type="AddV2" op_name="resnet50_1/conv5_block2_1_bn_1/batchnorm/add_1" source_file="<repo-root>/src/cuda-spirv/xla_hlo/.venv-tf/lib/python3.12/site-packages/tensorflow/python/framework/ops.py" source_line=1221}
  %Relu.276 = f32[] constant(0), metadata={op_type="Relu" op_name="resnet50_1/conv5_block2_1_relu_1/Relu" source_file="<repo-root>/src/cuda-spirv/xla_hlo/.venv-tf/lib/python3.12/site-packages/tensorflow/python/framework/ops.py" source_line=1221}
  %Relu.277 = f32[1,7,7,512]{3,2,1,0} broadcast(f32[] %Relu.276), dimensions={}, metadata={op_type="Relu" op_name="resnet50_1/conv5_block2_1_relu_1/Relu"}
  %Relu.278 = f32[1,7,7,512]{3,2,1,0} maximum(f32[1,7,7,512]{3,2,1,0} %add_1.302, f32[1,7,7,512]{3,2,1,0} %Relu.277), metadata={op_type="Relu" op_name="resnet50_1/conv5_block2_1_relu_1/Relu"}
  %arg289.1 = f32[3,3,512,512]{3,2,1,0} parameter(289), parameter_replication={false}, metadata={op_name="XLA_Args"}
  %convolution.101 = f32[1,7,7,512]{3,2,1,0} convolution(f32[1,7,7,512]{3,2,1,0} %Relu.278, f32[3,3,512,512]{3,2,1,0} %arg289.1), window={size=3x3 pad=1_1x1_1}, dim_labels=b01f_01io->b01f, metadata={op_type="Conv2D" op_name="resnet50_1/conv5_block2_2_conv_1/convolution" source_file="<repo-root>/src/cuda-spirv/xla_hlo/.venv-tf/lib/python3.12/site-packages/tensorflow/python/framework/ops.py" source_line=1221}
  %arg290.1 = f32[512]{0} parameter(290), parameter_replication={false}, metadata={op_name="XLA_Args"}
  %Reshape.203 = f32[1,1,1,512]{3,2,1,0} reshape(f32[512]{0} %arg290.1), metadata={op_type="Reshape" op_name="resnet50_1/conv5_block2_2_conv_1/Reshape" source_file="<repo-root>/src/cuda-spirv/xla_hlo/.venv-tf/lib/python3.12/site-packages/tensorflow/python/framework/ops.py" source_line=1221}
  %Squeeze.101 = f32[512]{0} reshape(f32[1,1,1,512]{3,2,1,0} %Reshape.203), metadata={op_type="Squeeze" op_name="resnet50_1/conv5_block2_2_conv_1/Squeeze" source_file="<repo-root>/src/cuda-spirv/xla_hlo/.venv-tf/lib/python3.12/site-packages/tensorflow/python/framework/ops.py" source_line=1221}
  %BiasAdd.204 = f32[1,7,7,512]{3,2,1,0} broadcast(f32[512]{0} %Squeeze.101), dimensions={3}, metadata={op_type="BiasAdd" op_name="resnet50_1/conv5_block2_2_conv_1/BiasAdd" source_file="<repo-root>/src/cuda-spirv/xla_hlo/.venv-tf/lib/python3.12/site-packages/tensorflow/python/framework/ops.py" source_line=1221}
  %BiasAdd.205 = f32[1,7,7,512]{3,2,1,0} add(f32[1,7,7,512]{3,2,1,0} %convolution.101, f32[1,7,7,512]{3,2,1,0} %BiasAdd.204), metadata={op_type="BiasAdd" op_name="resnet50_1/conv5_block2_2_conv_1/BiasAdd" source_file="<repo-root>/src/cuda-spirv/xla_hlo/.venv-tf/lib/python3.12/site-packages/tensorflow/python/framework/ops.py" source_line=1221}
  %arg292.1 = f32[512]{0} parameter(292), parameter_replication={false}, metadata={op_name="XLA_Args"}
  %Reshape_1.101 = f32[1,1,1,512]{3,2,1,0} reshape(f32[512]{0} %arg292.1), metadata={op_type="Reshape" op_name="resnet50_1/conv5_block2_2_bn_1/Reshape_1" source_file="<repo-root>/src/cuda-spirv/xla_hlo/.venv-tf/lib/python3.12/site-packages/tensorflow/python/framework/ops.py" source_line=1221}
  %add.304 = f32[] constant(1.001e-05), metadata={op_type="AddV2" op_name="resnet50_1/conv5_block2_2_bn_1/batchnorm/add" source_file="<repo-root>/src/cuda-spirv/xla_hlo/.venv-tf/lib/python3.12/site-packages/tensorflow/python/framework/ops.py" source_line=1221}
  %add.305 = f32[1,1,1,512]{3,2,1,0} broadcast(f32[] %add.304), dimensions={}, metadata={op_type="AddV2" op_name="resnet50_1/conv5_block2_2_bn_1/batchnorm/add" source_file="<repo-root>/src/cuda-spirv/xla_hlo/.venv-tf/lib/python3.12/site-packages/tensorflow/python/framework/ops.py" source_line=1221}
  %add.306 = f32[1,1,1,512]{3,2,1,0} add(f32[1,1,1,512]{3,2,1,0} %Reshape_1.101, f32[1,1,1,512]{3,2,1,0} %add.305), metadata={op_type="AddV2" op_name="resnet50_1/conv5_block2_2_bn_1/batchnorm/add" source_file="<repo-root>/src/cuda-spirv/xla_hlo/.venv-tf/lib/python3.12/site-packages/tensorflow/python/framework/ops.py" source_line=1221}
  %Rsqrt.101 = f32[1,1,1,512]{3,2,1,0} rsqrt(f32[1,1,1,512]{3,2,1,0} %add.306), metadata={op_type="Rsqrt" op_name="resnet50_1/conv5_block2_2_bn_1/batchnorm/Rsqrt"}
  %arg293.1 = f32[512]{0} parameter(293), parameter_replication={false}, metadata={op_name="XLA_Args"}
  %Reshape_3.101 = f32[1,1,1,512]{3,2,1,0} reshape(f32[512]{0} %arg293.1), metadata={op_type="Reshape" op_name="resnet50_1/conv5_block2_2_bn_1/Reshape_3" source_file="<repo-root>/src/cuda-spirv/xla_hlo/.venv-tf/lib/python3.12/site-packages/tensorflow/python/framework/ops.py" source_line=1221}
  %mul.101 = f32[1,1,1,512]{3,2,1,0} multiply(f32[1,1,1,512]{3,2,1,0} %Rsqrt.101, f32[1,1,1,512]{3,2,1,0} %Reshape_3.101), metadata={op_type="Mul" op_name="resnet50_1/conv5_block2_2_bn_1/batchnorm/mul" source_file="<repo-root>/src/cuda-spirv/xla_hlo/.venv-tf/lib/python3.12/site-packages/tensorflow/python/framework/ops.py" source_line=1221}
  %mul_1.303 = f32[1,512]{1,0} reshape(f32[1,1,1,512]{3,2,1,0} %mul.101), metadata={op_type="Mul" op_name="resnet50_1/conv5_block2_2_bn_1/batchnorm/mul_1" source_file="<repo-root>/src/cuda-spirv/xla_hlo/.venv-tf/lib/python3.12/site-packages/tensorflow/python/framework/ops.py" source_line=1221}
  %mul_1.304 = f32[1,7,7,512]{3,2,1,0} broadcast(f32[1,512]{1,0} %mul_1.303), dimensions={0,3}, metadata={op_type="Mul" op_name="resnet50_1/conv5_block2_2_bn_1/batchnorm/mul_1" source_file="<repo-root>/src/cuda-spirv/xla_hlo/.venv-tf/lib/python3.12/site-packages/tensorflow/python/framework/ops.py" source_line=1221}
  %mul_1.305 = f32[1,7,7,512]{3,2,1,0} multiply(f32[1,7,7,512]{3,2,1,0} %BiasAdd.205, f32[1,7,7,512]{3,2,1,0} %mul_1.304), metadata={op_type="Mul" op_name="resnet50_1/conv5_block2_2_bn_1/batchnorm/mul_1" source_file="<repo-root>/src/cuda-spirv/xla_hlo/.venv-tf/lib/python3.12/site-packages/tensorflow/python/framework/ops.py" source_line=1221}
  %arg294.1 = f32[512]{0} parameter(294), parameter_replication={false}, metadata={op_name="XLA_Args"}
  %Reshape_2.101 = f32[1,1,1,512]{3,2,1,0} reshape(f32[512]{0} %arg294.1), metadata={op_type="Reshape" op_name="resnet50_1/conv5_block2_2_bn_1/Reshape_2" source_file="<repo-root>/src/cuda-spirv/xla_hlo/.venv-tf/lib/python3.12/site-packages/tensorflow/python/framework/ops.py" source_line=1221}
  %arg291.1 = f32[512]{0} parameter(291), parameter_replication={false}, metadata={op_name="XLA_Args"}
  %Reshape.202 = f32[1,1,1,512]{3,2,1,0} reshape(f32[512]{0} %arg291.1), metadata={op_type="Reshape" op_name="resnet50_1/conv5_block2_2_bn_1/Reshape" source_file="<repo-root>/src/cuda-spirv/xla_hlo/.venv-tf/lib/python3.12/site-packages/tensorflow/python/framework/ops.py" source_line=1221}
  %mul_2.101 = f32[1,1,1,512]{3,2,1,0} multiply(f32[1,1,1,512]{3,2,1,0} %Reshape.202, f32[1,1,1,512]{3,2,1,0} %mul.101), metadata={op_type="Mul" op_name="resnet50_1/conv5_block2_2_bn_1/batchnorm/mul_2" source_file="<repo-root>/src/cuda-spirv/xla_hlo/.venv-tf/lib/python3.12/site-packages/tensorflow/python/framework/ops.py" source_line=1221}
  %sub.101 = f32[1,1,1,512]{3,2,1,0} subtract(f32[1,1,1,512]{3,2,1,0} %Reshape_2.101, f32[1,1,1,512]{3,2,1,0} %mul_2.101), metadata={op_type="Sub" op_name="resnet50_1/conv5_block2_2_bn_1/batchnorm/sub" source_file="<repo-root>/src/cuda-spirv/xla_hlo/.venv-tf/lib/python3.12/site-packages/tensorflow/python/framework/ops.py" source_line=1221}
  %add_1.303 = f32[1,512]{1,0} reshape(f32[1,1,1,512]{3,2,1,0} %sub.101), metadata={op_type="AddV2" op_name="resnet50_1/conv5_block2_2_bn_1/batchnorm/add_1" source_file="<repo-root>/src/cuda-spirv/xla_hlo/.venv-tf/lib/python3.12/site-packages/tensorflow/python/framework/ops.py" source_line=1221}
  %add_1.304 = f32[1,7,7,512]{3,2,1,0} broadcast(f32[1,512]{1,0} %add_1.303), dimensions={0,3}, metadata={op_type="AddV2" op_name="resnet50_1/conv5_block2_2_bn_1/batchnorm/add_1" source_file="<repo-root>/src/cuda-spirv/xla_hlo/.venv-tf/lib/python3.12/site-packages/tensorflow/python/framework/ops.py" source_line=1221}
  %add_1.305 = f32[1,7,7,512]{3,2,1,0} add(f32[1,7,7,512]{3,2,1,0} %mul_1.305, f32[1,7,7,512]{3,2,1,0} %add_1.304), metadata={op_type="AddV2" op_name="resnet50_1/conv5_block2_2_bn_1/batchnorm/add_1" source_file="<repo-root>/src/cuda-spirv/xla_hlo/.venv-tf/lib/python3.12/site-packages/tensorflow/python/framework/ops.py" source_line=1221}
  %Relu.279 = f32[] constant(0), metadata={op_type="Relu" op_name="resnet50_1/conv5_block2_2_relu_1/Relu" source_file="<repo-root>/src/cuda-spirv/xla_hlo/.venv-tf/lib/python3.12/site-packages/tensorflow/python/framework/ops.py" source_line=1221}
  %Relu.280 = f32[1,7,7,512]{3,2,1,0} broadcast(f32[] %Relu.279), dimensions={}, metadata={op_type="Relu" op_name="resnet50_1/conv5_block2_2_relu_1/Relu"}
  %Relu.281 = f32[1,7,7,512]{3,2,1,0} maximum(f32[1,7,7,512]{3,2,1,0} %add_1.305, f32[1,7,7,512]{3,2,1,0} %Relu.280), metadata={op_type="Relu" op_name="resnet50_1/conv5_block2_2_relu_1/Relu"}
  %arg295.1 = f32[1,1,512,2048]{3,2,1,0} parameter(295), parameter_replication={false}, metadata={op_name="XLA_Args"}
  %convolution.102 = f32[1,7,7,2048]{3,2,1,0} convolution(f32[1,7,7,512]{3,2,1,0} %Relu.281, f32[1,1,512,2048]{3,2,1,0} %arg295.1), window={size=1x1}, dim_labels=b01f_01io->b01f, metadata={op_type="Conv2D" op_name="resnet50_1/conv5_block2_3_conv_1/convolution" source_file="<repo-root>/src/cuda-spirv/xla_hlo/.venv-tf/lib/python3.12/site-packages/tensorflow/python/framework/ops.py" source_line=1221}
  %arg296.1 = f32[2048]{0} parameter(296), parameter_replication={false}, metadata={op_name="XLA_Args"}
  %Reshape.205 = f32[1,1,1,2048]{3,2,1,0} reshape(f32[2048]{0} %arg296.1), metadata={op_type="Reshape" op_name="resnet50_1/conv5_block2_3_conv_1/Reshape" source_file="<repo-root>/src/cuda-spirv/xla_hlo/.venv-tf/lib/python3.12/site-packages/tensorflow/python/framework/ops.py" source_line=1221}
  %Squeeze.102 = f32[2048]{0} reshape(f32[1,1,1,2048]{3,2,1,0} %Reshape.205), metadata={op_type="Squeeze" op_name="resnet50_1/conv5_block2_3_conv_1/Squeeze" source_file="<repo-root>/src/cuda-spirv/xla_hlo/.venv-tf/lib/python3.12/site-packages/tensorflow/python/framework/ops.py" source_line=1221}
  %BiasAdd.206 = f32[1,7,7,2048]{3,2,1,0} broadcast(f32[2048]{0} %Squeeze.102), dimensions={3}, metadata={op_type="BiasAdd" op_name="resnet50_1/conv5_block2_3_conv_1/BiasAdd" source_file="<repo-root>/src/cuda-spirv/xla_hlo/.venv-tf/lib/python3.12/site-packages/tensorflow/python/framework/ops.py" source_line=1221}
  %BiasAdd.207 = f32[1,7,7,2048]{3,2,1,0} add(f32[1,7,7,2048]{3,2,1,0} %convolution.102, f32[1,7,7,2048]{3,2,1,0} %BiasAdd.206), metadata={op_type="BiasAdd" op_name="resnet50_1/conv5_block2_3_conv_1/BiasAdd" source_file="<repo-root>/src/cuda-spirv/xla_hlo/.venv-tf/lib/python3.12/site-packages/tensorflow/python/framework/ops.py" source_line=1221}
  %arg298.1 = f32[2048]{0} parameter(298), parameter_replication={false}, metadata={op_name="XLA_Args"}
  %Reshape_1.102 = f32[1,1,1,2048]{3,2,1,0} reshape(f32[2048]{0} %arg298.1), metadata={op_type="Reshape" op_name="resnet50_1/conv5_block2_3_bn_1/Reshape_1" source_file="<repo-root>/src/cuda-spirv/xla_hlo/.venv-tf/lib/python3.12/site-packages/tensorflow/python/framework/ops.py" source_line=1221}
  %add.307 = f32[] constant(1.001e-05), metadata={op_type="AddV2" op_name="resnet50_1/conv5_block2_3_bn_1/batchnorm/add" source_file="<repo-root>/src/cuda-spirv/xla_hlo/.venv-tf/lib/python3.12/site-packages/tensorflow/python/framework/ops.py" source_line=1221}
  %add.308 = f32[1,1,1,2048]{3,2,1,0} broadcast(f32[] %add.307), dimensions={}, metadata={op_type="AddV2" op_name="resnet50_1/conv5_block2_3_bn_1/batchnorm/add" source_file="<repo-root>/src/cuda-spirv/xla_hlo/.venv-tf/lib/python3.12/site-packages/tensorflow/python/framework/ops.py" source_line=1221}
  %add.309 = f32[1,1,1,2048]{3,2,1,0} add(f32[1,1,1,2048]{3,2,1,0} %Reshape_1.102, f32[1,1,1,2048]{3,2,1,0} %add.308), metadata={op_type="AddV2" op_name="resnet50_1/conv5_block2_3_bn_1/batchnorm/add" source_file="<repo-root>/src/cuda-spirv/xla_hlo/.venv-tf/lib/python3.12/site-packages/tensorflow/python/framework/ops.py" source_line=1221}
  %Rsqrt.102 = f32[1,1,1,2048]{3,2,1,0} rsqrt(f32[1,1,1,2048]{3,2,1,0} %add.309), metadata={op_type="Rsqrt" op_name="resnet50_1/conv5_block2_3_bn_1/batchnorm/Rsqrt"}
  %arg299.1 = f32[2048]{0} parameter(299), parameter_replication={false}, metadata={op_name="XLA_Args"}
  %Reshape_3.102 = f32[1,1,1,2048]{3,2,1,0} reshape(f32[2048]{0} %arg299.1), metadata={op_type="Reshape" op_name="resnet50_1/conv5_block2_3_bn_1/Reshape_3" source_file="<repo-root>/src/cuda-spirv/xla_hlo/.venv-tf/lib/python3.12/site-packages/tensorflow/python/framework/ops.py" source_line=1221}
  %mul.102 = f32[1,1,1,2048]{3,2,1,0} multiply(f32[1,1,1,2048]{3,2,1,0} %Rsqrt.102, f32[1,1,1,2048]{3,2,1,0} %Reshape_3.102), metadata={op_type="Mul" op_name="resnet50_1/conv5_block2_3_bn_1/batchnorm/mul" source_file="<repo-root>/src/cuda-spirv/xla_hlo/.venv-tf/lib/python3.12/site-packages/tensorflow/python/framework/ops.py" source_line=1221}
  %mul_1.306 = f32[1,2048]{1,0} reshape(f32[1,1,1,2048]{3,2,1,0} %mul.102), metadata={op_type="Mul" op_name="resnet50_1/conv5_block2_3_bn_1/batchnorm/mul_1" source_file="<repo-root>/src/cuda-spirv/xla_hlo/.venv-tf/lib/python3.12/site-packages/tensorflow/python/framework/ops.py" source_line=1221}
  %mul_1.307 = f32[1,7,7,2048]{3,2,1,0} broadcast(f32[1,2048]{1,0} %mul_1.306), dimensions={0,3}, metadata={op_type="Mul" op_name="resnet50_1/conv5_block2_3_bn_1/batchnorm/mul_1" source_file="<repo-root>/src/cuda-spirv/xla_hlo/.venv-tf/lib/python3.12/site-packages/tensorflow/python/framework/ops.py" source_line=1221}
  %mul_1.308 = f32[1,7,7,2048]{3,2,1,0} multiply(f32[1,7,7,2048]{3,2,1,0} %BiasAdd.207, f32[1,7,7,2048]{3,2,1,0} %mul_1.307), metadata={op_type="Mul" op_name="resnet50_1/conv5_block2_3_bn_1/batchnorm/mul_1" source_file="<repo-root>/src/cuda-spirv/xla_hlo/.venv-tf/lib/python3.12/site-packages/tensorflow/python/framework/ops.py" source_line=1221}
  %arg300.1 = f32[2048]{0} parameter(300), parameter_replication={false}, metadata={op_name="XLA_Args"}
  %Reshape_2.102 = f32[1,1,1,2048]{3,2,1,0} reshape(f32[2048]{0} %arg300.1), metadata={op_type="Reshape" op_name="resnet50_1/conv5_block2_3_bn_1/Reshape_2" source_file="<repo-root>/src/cuda-spirv/xla_hlo/.venv-tf/lib/python3.12/site-packages/tensorflow/python/framework/ops.py" source_line=1221}
  %arg297.1 = f32[2048]{0} parameter(297), parameter_replication={false}, metadata={op_name="XLA_Args"}
  %Reshape.204 = f32[1,1,1,2048]{3,2,1,0} reshape(f32[2048]{0} %arg297.1), metadata={op_type="Reshape" op_name="resnet50_1/conv5_block2_3_bn_1/Reshape" source_file="<repo-root>/src/cuda-spirv/xla_hlo/.venv-tf/lib/python3.12/site-packages/tensorflow/python/framework/ops.py" source_line=1221}
  %mul_2.102 = f32[1,1,1,2048]{3,2,1,0} multiply(f32[1,1,1,2048]{3,2,1,0} %Reshape.204, f32[1,1,1,2048]{3,2,1,0} %mul.102), metadata={op_type="Mul" op_name="resnet50_1/conv5_block2_3_bn_1/batchnorm/mul_2" source_file="<repo-root>/src/cuda-spirv/xla_hlo/.venv-tf/lib/python3.12/site-packages/tensorflow/python/framework/ops.py" source_line=1221}
  %sub.102 = f32[1,1,1,2048]{3,2,1,0} subtract(f32[1,1,1,2048]{3,2,1,0} %Reshape_2.102, f32[1,1,1,2048]{3,2,1,0} %mul_2.102), metadata={op_type="Sub" op_name="resnet50_1/conv5_block2_3_bn_1/batchnorm/sub" source_file="<repo-root>/src/cuda-spirv/xla_hlo/.venv-tf/lib/python3.12/site-packages/tensorflow/python/framework/ops.py" source_line=1221}
  %add_1.306 = f32[1,2048]{1,0} reshape(f32[1,1,1,2048]{3,2,1,0} %sub.102), metadata={op_type="AddV2" op_name="resnet50_1/conv5_block2_3_bn_1/batchnorm/add_1" source_file="<repo-root>/src/cuda-spirv/xla_hlo/.venv-tf/lib/python3.12/site-packages/tensorflow/python/framework/ops.py" source_line=1221}
  %add_1.307 = f32[1,7,7,2048]{3,2,1,0} broadcast(f32[1,2048]{1,0} %add_1.306), dimensions={0,3}, metadata={op_type="AddV2" op_name="resnet50_1/conv5_block2_3_bn_1/batchnorm/add_1" source_file="<repo-root>/src/cuda-spirv/xla_hlo/.venv-tf/lib/python3.12/site-packages/tensorflow/python/framework/ops.py" source_line=1221}
  %add_1.308 = f32[1,7,7,2048]{3,2,1,0} add(f32[1,7,7,2048]{3,2,1,0} %mul_1.308, f32[1,7,7,2048]{3,2,1,0} %add_1.307), metadata={op_type="AddV2" op_name="resnet50_1/conv5_block2_3_bn_1/batchnorm/add_1" source_file="<repo-root>/src/cuda-spirv/xla_hlo/.venv-tf/lib/python3.12/site-packages/tensorflow/python/framework/ops.py" source_line=1221}
  %Add.30 = f32[1,7,7,2048]{3,2,1,0} add(f32[1,7,7,2048]{3,2,1,0} %Relu.275, f32[1,7,7,2048]{3,2,1,0} %add_1.308), metadata={op_type="AddV2" op_name="resnet50_1/conv5_block2_add_1/Add" source_file="<repo-root>/src/cuda-spirv/xla_hlo/.venv-tf/lib/python3.12/site-packages/tensorflow/python/framework/ops.py" source_line=1221}
  %Relu.282 = f32[] constant(0), metadata={op_type="Relu" op_name="resnet50_1/conv5_block2_out_1/Relu" source_file="<repo-root>/src/cuda-spirv/xla_hlo/.venv-tf/lib/python3.12/site-packages/tensorflow/python/framework/ops.py" source_line=1221}
  %Relu.283 = f32[1,7,7,2048]{3,2,1,0} broadcast(f32[] %Relu.282), dimensions={}, metadata={op_type="Relu" op_name="resnet50_1/conv5_block2_out_1/Relu"}
  %Relu.284 = f32[1,7,7,2048]{3,2,1,0} maximum(f32[1,7,7,2048]{3,2,1,0} %Add.30, f32[1,7,7,2048]{3,2,1,0} %Relu.283), metadata={op_type="Relu" op_name="resnet50_1/conv5_block2_out_1/Relu"}
  %arg301.1 = f32[1,1,2048,512]{3,2,1,0} parameter(301), parameter_replication={false}, metadata={op_name="XLA_Args"}
  %convolution.103 = f32[1,7,7,512]{3,2,1,0} convolution(f32[1,7,7,2048]{3,2,1,0} %Relu.284, f32[1,1,2048,512]{3,2,1,0} %arg301.1), window={size=1x1}, dim_labels=b01f_01io->b01f, metadata={op_type="Conv2D" op_name="resnet50_1/conv5_block3_1_conv_1/convolution" source_file="<repo-root>/src/cuda-spirv/xla_hlo/.venv-tf/lib/python3.12/site-packages/tensorflow/python/framework/ops.py" source_line=1221}
  %arg302.1 = f32[512]{0} parameter(302), parameter_replication={false}, metadata={op_name="XLA_Args"}
  %Reshape.207 = f32[1,1,1,512]{3,2,1,0} reshape(f32[512]{0} %arg302.1), metadata={op_type="Reshape" op_name="resnet50_1/conv5_block3_1_conv_1/Reshape" source_file="<repo-root>/src/cuda-spirv/xla_hlo/.venv-tf/lib/python3.12/site-packages/tensorflow/python/framework/ops.py" source_line=1221}
  %Squeeze.103 = f32[512]{0} reshape(f32[1,1,1,512]{3,2,1,0} %Reshape.207), metadata={op_type="Squeeze" op_name="resnet50_1/conv5_block3_1_conv_1/Squeeze" source_file="<repo-root>/src/cuda-spirv/xla_hlo/.venv-tf/lib/python3.12/site-packages/tensorflow/python/framework/ops.py" source_line=1221}
  %BiasAdd.208 = f32[1,7,7,512]{3,2,1,0} broadcast(f32[512]{0} %Squeeze.103), dimensions={3}, metadata={op_type="BiasAdd" op_name="resnet50_1/conv5_block3_1_conv_1/BiasAdd" source_file="<repo-root>/src/cuda-spirv/xla_hlo/.venv-tf/lib/python3.12/site-packages/tensorflow/python/framework/ops.py" source_line=1221}
  %BiasAdd.209 = f32[1,7,7,512]{3,2,1,0} add(f32[1,7,7,512]{3,2,1,0} %convolution.103, f32[1,7,7,512]{3,2,1,0} %BiasAdd.208), metadata={op_type="BiasAdd" op_name="resnet50_1/conv5_block3_1_conv_1/BiasAdd" source_file="<repo-root>/src/cuda-spirv/xla_hlo/.venv-tf/lib/python3.12/site-packages/tensorflow/python/framework/ops.py" source_line=1221}
  %arg304.1 = f32[512]{0} parameter(304), parameter_replication={false}, metadata={op_name="XLA_Args"}
  %Reshape_1.103 = f32[1,1,1,512]{3,2,1,0} reshape(f32[512]{0} %arg304.1), metadata={op_type="Reshape" op_name="resnet50_1/conv5_block3_1_bn_1/Reshape_1" source_file="<repo-root>/src/cuda-spirv/xla_hlo/.venv-tf/lib/python3.12/site-packages/tensorflow/python/framework/ops.py" source_line=1221}
  %add.310 = f32[] constant(1.001e-05), metadata={op_type="AddV2" op_name="resnet50_1/conv5_block3_1_bn_1/batchnorm/add" source_file="<repo-root>/src/cuda-spirv/xla_hlo/.venv-tf/lib/python3.12/site-packages/tensorflow/python/framework/ops.py" source_line=1221}
  %add.311 = f32[1,1,1,512]{3,2,1,0} broadcast(f32[] %add.310), dimensions={}, metadata={op_type="AddV2" op_name="resnet50_1/conv5_block3_1_bn_1/batchnorm/add" source_file="<repo-root>/src/cuda-spirv/xla_hlo/.venv-tf/lib/python3.12/site-packages/tensorflow/python/framework/ops.py" source_line=1221}
  %add.312 = f32[1,1,1,512]{3,2,1,0} add(f32[1,1,1,512]{3,2,1,0} %Reshape_1.103, f32[1,1,1,512]{3,2,1,0} %add.311), metadata={op_type="AddV2" op_name="resnet50_1/conv5_block3_1_bn_1/batchnorm/add" source_file="<repo-root>/src/cuda-spirv/xla_hlo/.venv-tf/lib/python3.12/site-packages/tensorflow/python/framework/ops.py" source_line=1221}
  %Rsqrt.103 = f32[1,1,1,512]{3,2,1,0} rsqrt(f32[1,1,1,512]{3,2,1,0} %add.312), metadata={op_type="Rsqrt" op_name="resnet50_1/conv5_block3_1_bn_1/batchnorm/Rsqrt"}
  %arg305.1 = f32[512]{0} parameter(305), parameter_replication={false}, metadata={op_name="XLA_Args"}
  %Reshape_3.103 = f32[1,1,1,512]{3,2,1,0} reshape(f32[512]{0} %arg305.1), metadata={op_type="Reshape" op_name="resnet50_1/conv5_block3_1_bn_1/Reshape_3" source_file="<repo-root>/src/cuda-spirv/xla_hlo/.venv-tf/lib/python3.12/site-packages/tensorflow/python/framework/ops.py" source_line=1221}
  %mul.103 = f32[1,1,1,512]{3,2,1,0} multiply(f32[1,1,1,512]{3,2,1,0} %Rsqrt.103, f32[1,1,1,512]{3,2,1,0} %Reshape_3.103), metadata={op_type="Mul" op_name="resnet50_1/conv5_block3_1_bn_1/batchnorm/mul" source_file="<repo-root>/src/cuda-spirv/xla_hlo/.venv-tf/lib/python3.12/site-packages/tensorflow/python/framework/ops.py" source_line=1221}
  %mul_1.309 = f32[1,512]{1,0} reshape(f32[1,1,1,512]{3,2,1,0} %mul.103), metadata={op_type="Mul" op_name="resnet50_1/conv5_block3_1_bn_1/batchnorm/mul_1" source_file="<repo-root>/src/cuda-spirv/xla_hlo/.venv-tf/lib/python3.12/site-packages/tensorflow/python/framework/ops.py" source_line=1221}
  %mul_1.310 = f32[1,7,7,512]{3,2,1,0} broadcast(f32[1,512]{1,0} %mul_1.309), dimensions={0,3}, metadata={op_type="Mul" op_name="resnet50_1/conv5_block3_1_bn_1/batchnorm/mul_1" source_file="<repo-root>/src/cuda-spirv/xla_hlo/.venv-tf/lib/python3.12/site-packages/tensorflow/python/framework/ops.py" source_line=1221}
  %mul_1.311 = f32[1,7,7,512]{3,2,1,0} multiply(f32[1,7,7,512]{3,2,1,0} %BiasAdd.209, f32[1,7,7,512]{3,2,1,0} %mul_1.310), metadata={op_type="Mul" op_name="resnet50_1/conv5_block3_1_bn_1/batchnorm/mul_1" source_file="<repo-root>/src/cuda-spirv/xla_hlo/.venv-tf/lib/python3.12/site-packages/tensorflow/python/framework/ops.py" source_line=1221}
  %arg306.1 = f32[512]{0} parameter(306), parameter_replication={false}, metadata={op_name="XLA_Args"}
  %Reshape_2.103 = f32[1,1,1,512]{3,2,1,0} reshape(f32[512]{0} %arg306.1), metadata={op_type="Reshape" op_name="resnet50_1/conv5_block3_1_bn_1/Reshape_2" source_file="<repo-root>/src/cuda-spirv/xla_hlo/.venv-tf/lib/python3.12/site-packages/tensorflow/python/framework/ops.py" source_line=1221}
  %arg303.1 = f32[512]{0} parameter(303), parameter_replication={false}, metadata={op_name="XLA_Args"}
  %Reshape.206 = f32[1,1,1,512]{3,2,1,0} reshape(f32[512]{0} %arg303.1), metadata={op_type="Reshape" op_name="resnet50_1/conv5_block3_1_bn_1/Reshape" source_file="<repo-root>/src/cuda-spirv/xla_hlo/.venv-tf/lib/python3.12/site-packages/tensorflow/python/framework/ops.py" source_line=1221}
  %mul_2.103 = f32[1,1,1,512]{3,2,1,0} multiply(f32[1,1,1,512]{3,2,1,0} %Reshape.206, f32[1,1,1,512]{3,2,1,0} %mul.103), metadata={op_type="Mul" op_name="resnet50_1/conv5_block3_1_bn_1/batchnorm/mul_2" source_file="<repo-root>/src/cuda-spirv/xla_hlo/.venv-tf/lib/python3.12/site-packages/tensorflow/python/framework/ops.py" source_line=1221}
  %sub.103 = f32[1,1,1,512]{3,2,1,0} subtract(f32[1,1,1,512]{3,2,1,0} %Reshape_2.103, f32[1,1,1,512]{3,2,1,0} %mul_2.103), metadata={op_type="Sub" op_name="resnet50_1/conv5_block3_1_bn_1/batchnorm/sub" source_file="<repo-root>/src/cuda-spirv/xla_hlo/.venv-tf/lib/python3.12/site-packages/tensorflow/python/framework/ops.py" source_line=1221}
  %add_1.309 = f32[1,512]{1,0} reshape(f32[1,1,1,512]{3,2,1,0} %sub.103), metadata={op_type="AddV2" op_name="resnet50_1/conv5_block3_1_bn_1/batchnorm/add_1" source_file="<repo-root>/src/cuda-spirv/xla_hlo/.venv-tf/lib/python3.12/site-packages/tensorflow/python/framework/ops.py" source_line=1221}
  %add_1.310 = f32[1,7,7,512]{3,2,1,0} broadcast(f32[1,512]{1,0} %add_1.309), dimensions={0,3}, metadata={op_type="AddV2" op_name="resnet50_1/conv5_block3_1_bn_1/batchnorm/add_1" source_file="<repo-root>/src/cuda-spirv/xla_hlo/.venv-tf/lib/python3.12/site-packages/tensorflow/python/framework/ops.py" source_line=1221}
  %add_1.311 = f32[1,7,7,512]{3,2,1,0} add(f32[1,7,7,512]{3,2,1,0} %mul_1.311, f32[1,7,7,512]{3,2,1,0} %add_1.310), metadata={op_type="AddV2" op_name="resnet50_1/conv5_block3_1_bn_1/batchnorm/add_1" source_file="<repo-root>/src/cuda-spirv/xla_hlo/.venv-tf/lib/python3.12/site-packages/tensorflow/python/framework/ops.py" source_line=1221}
  %Relu.285 = f32[] constant(0), metadata={op_type="Relu" op_name="resnet50_1/conv5_block3_1_relu_1/Relu" source_file="<repo-root>/src/cuda-spirv/xla_hlo/.venv-tf/lib/python3.12/site-packages/tensorflow/python/framework/ops.py" source_line=1221}
  %Relu.286 = f32[1,7,7,512]{3,2,1,0} broadcast(f32[] %Relu.285), dimensions={}, metadata={op_type="Relu" op_name="resnet50_1/conv5_block3_1_relu_1/Relu"}
  %Relu.287 = f32[1,7,7,512]{3,2,1,0} maximum(f32[1,7,7,512]{3,2,1,0} %add_1.311, f32[1,7,7,512]{3,2,1,0} %Relu.286), metadata={op_type="Relu" op_name="resnet50_1/conv5_block3_1_relu_1/Relu"}
  %arg307.1 = f32[3,3,512,512]{3,2,1,0} parameter(307), parameter_replication={false}, metadata={op_name="XLA_Args"}
  %convolution.104 = f32[1,7,7,512]{3,2,1,0} convolution(f32[1,7,7,512]{3,2,1,0} %Relu.287, f32[3,3,512,512]{3,2,1,0} %arg307.1), window={size=3x3 pad=1_1x1_1}, dim_labels=b01f_01io->b01f, metadata={op_type="Conv2D" op_name="resnet50_1/conv5_block3_2_conv_1/convolution" source_file="<repo-root>/src/cuda-spirv/xla_hlo/.venv-tf/lib/python3.12/site-packages/tensorflow/python/framework/ops.py" source_line=1221}
  %arg308.1 = f32[512]{0} parameter(308), parameter_replication={false}, metadata={op_name="XLA_Args"}
  %Reshape.209 = f32[1,1,1,512]{3,2,1,0} reshape(f32[512]{0} %arg308.1), metadata={op_type="Reshape" op_name="resnet50_1/conv5_block3_2_conv_1/Reshape" source_file="<repo-root>/src/cuda-spirv/xla_hlo/.venv-tf/lib/python3.12/site-packages/tensorflow/python/framework/ops.py" source_line=1221}
  %Squeeze.104 = f32[512]{0} reshape(f32[1,1,1,512]{3,2,1,0} %Reshape.209), metadata={op_type="Squeeze" op_name="resnet50_1/conv5_block3_2_conv_1/Squeeze" source_file="<repo-root>/src/cuda-spirv/xla_hlo/.venv-tf/lib/python3.12/site-packages/tensorflow/python/framework/ops.py" source_line=1221}
  %BiasAdd.210 = f32[1,7,7,512]{3,2,1,0} broadcast(f32[512]{0} %Squeeze.104), dimensions={3}, metadata={op_type="BiasAdd" op_name="resnet50_1/conv5_block3_2_conv_1/BiasAdd" source_file="<repo-root>/src/cuda-spirv/xla_hlo/.venv-tf/lib/python3.12/site-packages/tensorflow/python/framework/ops.py" source_line=1221}
  %BiasAdd.211 = f32[1,7,7,512]{3,2,1,0} add(f32[1,7,7,512]{3,2,1,0} %convolution.104, f32[1,7,7,512]{3,2,1,0} %BiasAdd.210), metadata={op_type="BiasAdd" op_name="resnet50_1/conv5_block3_2_conv_1/BiasAdd" source_file="<repo-root>/src/cuda-spirv/xla_hlo/.venv-tf/lib/python3.12/site-packages/tensorflow/python/framework/ops.py" source_line=1221}
  %arg310.1 = f32[512]{0} parameter(310), parameter_replication={false}, metadata={op_name="XLA_Args"}
  %Reshape_1.104 = f32[1,1,1,512]{3,2,1,0} reshape(f32[512]{0} %arg310.1), metadata={op_type="Reshape" op_name="resnet50_1/conv5_block3_2_bn_1/Reshape_1" source_file="<repo-root>/src/cuda-spirv/xla_hlo/.venv-tf/lib/python3.12/site-packages/tensorflow/python/framework/ops.py" source_line=1221}
  %add.313 = f32[] constant(1.001e-05), metadata={op_type="AddV2" op_name="resnet50_1/conv5_block3_2_bn_1/batchnorm/add" source_file="<repo-root>/src/cuda-spirv/xla_hlo/.venv-tf/lib/python3.12/site-packages/tensorflow/python/framework/ops.py" source_line=1221}
  %add.314 = f32[1,1,1,512]{3,2,1,0} broadcast(f32[] %add.313), dimensions={}, metadata={op_type="AddV2" op_name="resnet50_1/conv5_block3_2_bn_1/batchnorm/add" source_file="<repo-root>/src/cuda-spirv/xla_hlo/.venv-tf/lib/python3.12/site-packages/tensorflow/python/framework/ops.py" source_line=1221}
  %add.315 = f32[1,1,1,512]{3,2,1,0} add(f32[1,1,1,512]{3,2,1,0} %Reshape_1.104, f32[1,1,1,512]{3,2,1,0} %add.314), metadata={op_type="AddV2" op_name="resnet50_1/conv5_block3_2_bn_1/batchnorm/add" source_file="<repo-root>/src/cuda-spirv/xla_hlo/.venv-tf/lib/python3.12/site-packages/tensorflow/python/framework/ops.py" source_line=1221}
  %Rsqrt.104 = f32[1,1,1,512]{3,2,1,0} rsqrt(f32[1,1,1,512]{3,2,1,0} %add.315), metadata={op_type="Rsqrt" op_name="resnet50_1/conv5_block3_2_bn_1/batchnorm/Rsqrt"}
  %arg311.1 = f32[512]{0} parameter(311), parameter_replication={false}, metadata={op_name="XLA_Args"}
  %Reshape_3.104 = f32[1,1,1,512]{3,2,1,0} reshape(f32[512]{0} %arg311.1), metadata={op_type="Reshape" op_name="resnet50_1/conv5_block3_2_bn_1/Reshape_3" source_file="<repo-root>/src/cuda-spirv/xla_hlo/.venv-tf/lib/python3.12/site-packages/tensorflow/python/framework/ops.py" source_line=1221}
  %mul.104 = f32[1,1,1,512]{3,2,1,0} multiply(f32[1,1,1,512]{3,2,1,0} %Rsqrt.104, f32[1,1,1,512]{3,2,1,0} %Reshape_3.104), metadata={op_type="Mul" op_name="resnet50_1/conv5_block3_2_bn_1/batchnorm/mul" source_file="<repo-root>/src/cuda-spirv/xla_hlo/.venv-tf/lib/python3.12/site-packages/tensorflow/python/framework/ops.py" source_line=1221}
  %mul_1.312 = f32[1,512]{1,0} reshape(f32[1,1,1,512]{3,2,1,0} %mul.104), metadata={op_type="Mul" op_name="resnet50_1/conv5_block3_2_bn_1/batchnorm/mul_1" source_file="<repo-root>/src/cuda-spirv/xla_hlo/.venv-tf/lib/python3.12/site-packages/tensorflow/python/framework/ops.py" source_line=1221}
  %mul_1.313 = f32[1,7,7,512]{3,2,1,0} broadcast(f32[1,512]{1,0} %mul_1.312), dimensions={0,3}, metadata={op_type="Mul" op_name="resnet50_1/conv5_block3_2_bn_1/batchnorm/mul_1" source_file="<repo-root>/src/cuda-spirv/xla_hlo/.venv-tf/lib/python3.12/site-packages/tensorflow/python/framework/ops.py" source_line=1221}
  %mul_1.314 = f32[1,7,7,512]{3,2,1,0} multiply(f32[1,7,7,512]{3,2,1,0} %BiasAdd.211, f32[1,7,7,512]{3,2,1,0} %mul_1.313), metadata={op_type="Mul" op_name="resnet50_1/conv5_block3_2_bn_1/batchnorm/mul_1" source_file="<repo-root>/src/cuda-spirv/xla_hlo/.venv-tf/lib/python3.12/site-packages/tensorflow/python/framework/ops.py" source_line=1221}
  %arg312.1 = f32[512]{0} parameter(312), parameter_replication={false}, metadata={op_name="XLA_Args"}
  %Reshape_2.104 = f32[1,1,1,512]{3,2,1,0} reshape(f32[512]{0} %arg312.1), metadata={op_type="Reshape" op_name="resnet50_1/conv5_block3_2_bn_1/Reshape_2" source_file="<repo-root>/src/cuda-spirv/xla_hlo/.venv-tf/lib/python3.12/site-packages/tensorflow/python/framework/ops.py" source_line=1221}
  %arg309.1 = f32[512]{0} parameter(309), parameter_replication={false}, metadata={op_name="XLA_Args"}
  %Reshape.208 = f32[1,1,1,512]{3,2,1,0} reshape(f32[512]{0} %arg309.1), metadata={op_type="Reshape" op_name="resnet50_1/conv5_block3_2_bn_1/Reshape" source_file="<repo-root>/src/cuda-spirv/xla_hlo/.venv-tf/lib/python3.12/site-packages/tensorflow/python/framework/ops.py" source_line=1221}
  %mul_2.104 = f32[1,1,1,512]{3,2,1,0} multiply(f32[1,1,1,512]{3,2,1,0} %Reshape.208, f32[1,1,1,512]{3,2,1,0} %mul.104), metadata={op_type="Mul" op_name="resnet50_1/conv5_block3_2_bn_1/batchnorm/mul_2" source_file="<repo-root>/src/cuda-spirv/xla_hlo/.venv-tf/lib/python3.12/site-packages/tensorflow/python/framework/ops.py" source_line=1221}
  %sub.104 = f32[1,1,1,512]{3,2,1,0} subtract(f32[1,1,1,512]{3,2,1,0} %Reshape_2.104, f32[1,1,1,512]{3,2,1,0} %mul_2.104), metadata={op_type="Sub" op_name="resnet50_1/conv5_block3_2_bn_1/batchnorm/sub" source_file="<repo-root>/src/cuda-spirv/xla_hlo/.venv-tf/lib/python3.12/site-packages/tensorflow/python/framework/ops.py" source_line=1221}
  %add_1.312 = f32[1,512]{1,0} reshape(f32[1,1,1,512]{3,2,1,0} %sub.104), metadata={op_type="AddV2" op_name="resnet50_1/conv5_block3_2_bn_1/batchnorm/add_1" source_file="<repo-root>/src/cuda-spirv/xla_hlo/.venv-tf/lib/python3.12/site-packages/tensorflow/python/framework/ops.py" source_line=1221}
  %add_1.313 = f32[1,7,7,512]{3,2,1,0} broadcast(f32[1,512]{1,0} %add_1.312), dimensions={0,3}, metadata={op_type="AddV2" op_name="resnet50_1/conv5_block3_2_bn_1/batchnorm/add_1" source_file="<repo-root>/src/cuda-spirv/xla_hlo/.venv-tf/lib/python3.12/site-packages/tensorflow/python/framework/ops.py" source_line=1221}
  %add_1.314 = f32[1,7,7,512]{3,2,1,0} add(f32[1,7,7,512]{3,2,1,0} %mul_1.314, f32[1,7,7,512]{3,2,1,0} %add_1.313), metadata={op_type="AddV2" op_name="resnet50_1/conv5_block3_2_bn_1/batchnorm/add_1" source_file="<repo-root>/src/cuda-spirv/xla_hlo/.venv-tf/lib/python3.12/site-packages/tensorflow/python/framework/ops.py" source_line=1221}
  %Relu.288 = f32[] constant(0), metadata={op_type="Relu" op_name="resnet50_1/conv5_block3_2_relu_1/Relu" source_file="<repo-root>/src/cuda-spirv/xla_hlo/.venv-tf/lib/python3.12/site-packages/tensorflow/python/framework/ops.py" source_line=1221}
  %Relu.289 = f32[1,7,7,512]{3,2,1,0} broadcast(f32[] %Relu.288), dimensions={}, metadata={op_type="Relu" op_name="resnet50_1/conv5_block3_2_relu_1/Relu"}
  %Relu.290 = f32[1,7,7,512]{3,2,1,0} maximum(f32[1,7,7,512]{3,2,1,0} %add_1.314, f32[1,7,7,512]{3,2,1,0} %Relu.289), metadata={op_type="Relu" op_name="resnet50_1/conv5_block3_2_relu_1/Relu"}
  %arg313.1 = f32[1,1,512,2048]{3,2,1,0} parameter(313), parameter_replication={false}, metadata={op_name="XLA_Args"}
  %convolution.105 = f32[1,7,7,2048]{3,2,1,0} convolution(f32[1,7,7,512]{3,2,1,0} %Relu.290, f32[1,1,512,2048]{3,2,1,0} %arg313.1), window={size=1x1}, dim_labels=b01f_01io->b01f, metadata={op_type="Conv2D" op_name="resnet50_1/conv5_block3_3_conv_1/convolution" source_file="<repo-root>/src/cuda-spirv/xla_hlo/.venv-tf/lib/python3.12/site-packages/tensorflow/python/framework/ops.py" source_line=1221}
  %arg314.1 = f32[2048]{0} parameter(314), parameter_replication={false}, metadata={op_name="XLA_Args"}
  %Reshape.211 = f32[1,1,1,2048]{3,2,1,0} reshape(f32[2048]{0} %arg314.1), metadata={op_type="Reshape" op_name="resnet50_1/conv5_block3_3_conv_1/Reshape" source_file="<repo-root>/src/cuda-spirv/xla_hlo/.venv-tf/lib/python3.12/site-packages/tensorflow/python/framework/ops.py" source_line=1221}
  %Squeeze.105 = f32[2048]{0} reshape(f32[1,1,1,2048]{3,2,1,0} %Reshape.211), metadata={op_type="Squeeze" op_name="resnet50_1/conv5_block3_3_conv_1/Squeeze" source_file="<repo-root>/src/cuda-spirv/xla_hlo/.venv-tf/lib/python3.12/site-packages/tensorflow/python/framework/ops.py" source_line=1221}
  %BiasAdd.212 = f32[1,7,7,2048]{3,2,1,0} broadcast(f32[2048]{0} %Squeeze.105), dimensions={3}, metadata={op_type="BiasAdd" op_name="resnet50_1/conv5_block3_3_conv_1/BiasAdd" source_file="<repo-root>/src/cuda-spirv/xla_hlo/.venv-tf/lib/python3.12/site-packages/tensorflow/python/framework/ops.py" source_line=1221}
  %BiasAdd.213 = f32[1,7,7,2048]{3,2,1,0} add(f32[1,7,7,2048]{3,2,1,0} %convolution.105, f32[1,7,7,2048]{3,2,1,0} %BiasAdd.212), metadata={op_type="BiasAdd" op_name="resnet50_1/conv5_block3_3_conv_1/BiasAdd" source_file="<repo-root>/src/cuda-spirv/xla_hlo/.venv-tf/lib/python3.12/site-packages/tensorflow/python/framework/ops.py" source_line=1221}
  %arg316.1 = f32[2048]{0} parameter(316), parameter_replication={false}, metadata={op_name="XLA_Args"}
  %Reshape_1.105 = f32[1,1,1,2048]{3,2,1,0} reshape(f32[2048]{0} %arg316.1), metadata={op_type="Reshape" op_name="resnet50_1/conv5_block3_3_bn_1/Reshape_1" source_file="<repo-root>/src/cuda-spirv/xla_hlo/.venv-tf/lib/python3.12/site-packages/tensorflow/python/framework/ops.py" source_line=1221}
  %add.316 = f32[] constant(1.001e-05), metadata={op_type="AddV2" op_name="resnet50_1/conv5_block3_3_bn_1/batchnorm/add" source_file="<repo-root>/src/cuda-spirv/xla_hlo/.venv-tf/lib/python3.12/site-packages/tensorflow/python/framework/ops.py" source_line=1221}
  %add.317 = f32[1,1,1,2048]{3,2,1,0} broadcast(f32[] %add.316), dimensions={}, metadata={op_type="AddV2" op_name="resnet50_1/conv5_block3_3_bn_1/batchnorm/add" source_file="<repo-root>/src/cuda-spirv/xla_hlo/.venv-tf/lib/python3.12/site-packages/tensorflow/python/framework/ops.py" source_line=1221}
  %add.318 = f32[1,1,1,2048]{3,2,1,0} add(f32[1,1,1,2048]{3,2,1,0} %Reshape_1.105, f32[1,1,1,2048]{3,2,1,0} %add.317), metadata={op_type="AddV2" op_name="resnet50_1/conv5_block3_3_bn_1/batchnorm/add" source_file="<repo-root>/src/cuda-spirv/xla_hlo/.venv-tf/lib/python3.12/site-packages/tensorflow/python/framework/ops.py" source_line=1221}
  %Rsqrt.105 = f32[1,1,1,2048]{3,2,1,0} rsqrt(f32[1,1,1,2048]{3,2,1,0} %add.318), metadata={op_type="Rsqrt" op_name="resnet50_1/conv5_block3_3_bn_1/batchnorm/Rsqrt"}
  %arg317.1 = f32[2048]{0} parameter(317), parameter_replication={false}, metadata={op_name="XLA_Args"}
  %Reshape_3.105 = f32[1,1,1,2048]{3,2,1,0} reshape(f32[2048]{0} %arg317.1), metadata={op_type="Reshape" op_name="resnet50_1/conv5_block3_3_bn_1/Reshape_3" source_file="<repo-root>/src/cuda-spirv/xla_hlo/.venv-tf/lib/python3.12/site-packages/tensorflow/python/framework/ops.py" source_line=1221}
  %mul.105 = f32[1,1,1,2048]{3,2,1,0} multiply(f32[1,1,1,2048]{3,2,1,0} %Rsqrt.105, f32[1,1,1,2048]{3,2,1,0} %Reshape_3.105), metadata={op_type="Mul" op_name="resnet50_1/conv5_block3_3_bn_1/batchnorm/mul" source_file="<repo-root>/src/cuda-spirv/xla_hlo/.venv-tf/lib/python3.12/site-packages/tensorflow/python/framework/ops.py" source_line=1221}
  %mul_1.315 = f32[1,2048]{1,0} reshape(f32[1,1,1,2048]{3,2,1,0} %mul.105), metadata={op_type="Mul" op_name="resnet50_1/conv5_block3_3_bn_1/batchnorm/mul_1" source_file="<repo-root>/src/cuda-spirv/xla_hlo/.venv-tf/lib/python3.12/site-packages/tensorflow/python/framework/ops.py" source_line=1221}
  %mul_1.316 = f32[1,7,7,2048]{3,2,1,0} broadcast(f32[1,2048]{1,0} %mul_1.315), dimensions={0,3}, metadata={op_type="Mul" op_name="resnet50_1/conv5_block3_3_bn_1/batchnorm/mul_1" source_file="<repo-root>/src/cuda-spirv/xla_hlo/.venv-tf/lib/python3.12/site-packages/tensorflow/python/framework/ops.py" source_line=1221}
  %mul_1.317 = f32[1,7,7,2048]{3,2,1,0} multiply(f32[1,7,7,2048]{3,2,1,0} %BiasAdd.213, f32[1,7,7,2048]{3,2,1,0} %mul_1.316), metadata={op_type="Mul" op_name="resnet50_1/conv5_block3_3_bn_1/batchnorm/mul_1" source_file="<repo-root>/src/cuda-spirv/xla_hlo/.venv-tf/lib/python3.12/site-packages/tensorflow/python/framework/ops.py" source_line=1221}
  %arg318.1 = f32[2048]{0} parameter(318), parameter_replication={false}, metadata={op_name="XLA_Args"}
  %Reshape_2.105 = f32[1,1,1,2048]{3,2,1,0} reshape(f32[2048]{0} %arg318.1), metadata={op_type="Reshape" op_name="resnet50_1/conv5_block3_3_bn_1/Reshape_2" source_file="<repo-root>/src/cuda-spirv/xla_hlo/.venv-tf/lib/python3.12/site-packages/tensorflow/python/framework/ops.py" source_line=1221}
  %arg315.1 = f32[2048]{0} parameter(315), parameter_replication={false}, metadata={op_name="XLA_Args"}
  %Reshape.210 = f32[1,1,1,2048]{3,2,1,0} reshape(f32[2048]{0} %arg315.1), metadata={op_type="Reshape" op_name="resnet50_1/conv5_block3_3_bn_1/Reshape" source_file="<repo-root>/src/cuda-spirv/xla_hlo/.venv-tf/lib/python3.12/site-packages/tensorflow/python/framework/ops.py" source_line=1221}
  %mul_2.105 = f32[1,1,1,2048]{3,2,1,0} multiply(f32[1,1,1,2048]{3,2,1,0} %Reshape.210, f32[1,1,1,2048]{3,2,1,0} %mul.105), metadata={op_type="Mul" op_name="resnet50_1/conv5_block3_3_bn_1/batchnorm/mul_2" source_file="<repo-root>/src/cuda-spirv/xla_hlo/.venv-tf/lib/python3.12/site-packages/tensorflow/python/framework/ops.py" source_line=1221}
  %sub.105 = f32[1,1,1,2048]{3,2,1,0} subtract(f32[1,1,1,2048]{3,2,1,0} %Reshape_2.105, f32[1,1,1,2048]{3,2,1,0} %mul_2.105), metadata={op_type="Sub" op_name="resnet50_1/conv5_block3_3_bn_1/batchnorm/sub" source_file="<repo-root>/src/cuda-spirv/xla_hlo/.venv-tf/lib/python3.12/site-packages/tensorflow/python/framework/ops.py" source_line=1221}
  %add_1.315 = f32[1,2048]{1,0} reshape(f32[1,1,1,2048]{3,2,1,0} %sub.105), metadata={op_type="AddV2" op_name="resnet50_1/conv5_block3_3_bn_1/batchnorm/add_1" source_file="<repo-root>/src/cuda-spirv/xla_hlo/.venv-tf/lib/python3.12/site-packages/tensorflow/python/framework/ops.py" source_line=1221}
  %add_1.316 = f32[1,7,7,2048]{3,2,1,0} broadcast(f32[1,2048]{1,0} %add_1.315), dimensions={0,3}, metadata={op_type="AddV2" op_name="resnet50_1/conv5_block3_3_bn_1/batchnorm/add_1" source_file="<repo-root>/src/cuda-spirv/xla_hlo/.venv-tf/lib/python3.12/site-packages/tensorflow/python/framework/ops.py" source_line=1221}
  %add_1.317 = f32[1,7,7,2048]{3,2,1,0} add(f32[1,7,7,2048]{3,2,1,0} %mul_1.317, f32[1,7,7,2048]{3,2,1,0} %add_1.316), metadata={op_type="AddV2" op_name="resnet50_1/conv5_block3_3_bn_1/batchnorm/add_1" source_file="<repo-root>/src/cuda-spirv/xla_hlo/.venv-tf/lib/python3.12/site-packages/tensorflow/python/framework/ops.py" source_line=1221}
  %Add.31 = f32[1,7,7,2048]{3,2,1,0} add(f32[1,7,7,2048]{3,2,1,0} %Relu.284, f32[1,7,7,2048]{3,2,1,0} %add_1.317), metadata={op_type="AddV2" op_name="resnet50_1/conv5_block3_add_1/Add" source_file="<repo-root>/src/cuda-spirv/xla_hlo/.venv-tf/lib/python3.12/site-packages/tensorflow/python/framework/ops.py" source_line=1221}
  %Relu.291 = f32[] constant(0), metadata={op_type="Relu" op_name="resnet50_1/conv5_block3_out_1/Relu" source_file="<repo-root>/src/cuda-spirv/xla_hlo/.venv-tf/lib/python3.12/site-packages/tensorflow/python/framework/ops.py" source_line=1221}
  %Relu.292 = f32[1,7,7,2048]{3,2,1,0} broadcast(f32[] %Relu.291), dimensions={}, metadata={op_type="Relu" op_name="resnet50_1/conv5_block3_out_1/Relu"}
  %Relu.293 = f32[1,7,7,2048]{3,2,1,0} maximum(f32[1,7,7,2048]{3,2,1,0} %Add.31, f32[1,7,7,2048]{3,2,1,0} %Relu.292), metadata={op_type="Relu" op_name="resnet50_1/conv5_block3_out_1/Relu"}
  %Mean.11 = f32[1,7,7,2048]{3,2,1,0} convert(f32[1,7,7,2048]{3,2,1,0} %Relu.293), metadata={op_type="Mean" op_name="resnet50_1/avg_pool_1/Mean" source_file="<repo-root>/src/cuda-spirv/xla_hlo/.venv-tf/lib/python3.12/site-packages/tensorflow/python/framework/ops.py" source_line=1221}
  %Mean.12 = f32[] constant(0), metadata={op_type="Mean" op_name="resnet50_1/avg_pool_1/Mean" source_file="<repo-root>/src/cuda-spirv/xla_hlo/.venv-tf/lib/python3.12/site-packages/tensorflow/python/framework/ops.py" source_line=1221}
  %Mean.13 = f32[] convert(f32[] %Mean.12), metadata={op_type="Mean" op_name="resnet50_1/avg_pool_1/Mean" source_file="<repo-root>/src/cuda-spirv/xla_hlo/.venv-tf/lib/python3.12/site-packages/tensorflow/python/framework/ops.py" source_line=1221}
  %Mean.14 = f32[1,2048]{1,0} reduce(f32[1,7,7,2048]{3,2,1,0} %Mean.11, f32[] %Mean.13), dimensions={1,2}, to_apply=%resnet50_1_avg_pool_1_Mean-reduction.3, metadata={op_type="Mean" op_name="resnet50_1/avg_pool_1/Mean" source_file="<repo-root>/src/cuda-spirv/xla_hlo/.venv-tf/lib/python3.12/site-packages/tensorflow/python/framework/ops.py" source_line=1221}
  %Mean.15 = s32[] constant(7), metadata={op_type="Mean" op_name="resnet50_1/avg_pool_1/Mean" source_file="<repo-root>/src/cuda-spirv/xla_hlo/.venv-tf/lib/python3.12/site-packages/tensorflow/python/framework/ops.py" source_line=1221}
  %Mean.16 = s32[] constant(7), metadata={op_type="Mean" op_name="resnet50_1/avg_pool_1/Mean" source_file="<repo-root>/src/cuda-spirv/xla_hlo/.venv-tf/lib/python3.12/site-packages/tensorflow/python/framework/ops.py" source_line=1221}
  %Mean.17 = s32[] multiply(s32[] %Mean.15, s32[] %Mean.16), metadata={op_type="Mean" op_name="resnet50_1/avg_pool_1/Mean" source_file="<repo-root>/src/cuda-spirv/xla_hlo/.venv-tf/lib/python3.12/site-packages/tensorflow/python/framework/ops.py" source_line=1221}
  %Mean.18 = f32[] convert(s32[] %Mean.17), metadata={op_type="Mean" op_name="resnet50_1/avg_pool_1/Mean" source_file="<repo-root>/src/cuda-spirv/xla_hlo/.venv-tf/lib/python3.12/site-packages/tensorflow/python/framework/ops.py" source_line=1221}
  %Mean.19 = f32[1,2048]{1,0} broadcast(f32[] %Mean.18), dimensions={}, metadata={op_type="Mean" op_name="resnet50_1/avg_pool_1/Mean" source_file="<repo-root>/src/cuda-spirv/xla_hlo/.venv-tf/lib/python3.12/site-packages/tensorflow/python/framework/ops.py" source_line=1221}
  %Mean.20 = f32[1,2048]{1,0} divide(f32[1,2048]{1,0} %Mean.14, f32[1,2048]{1,0} %Mean.19), metadata={op_type="Mean" op_name="resnet50_1/avg_pool_1/Mean" source_file="<repo-root>/src/cuda-spirv/xla_hlo/.venv-tf/lib/python3.12/site-packages/tensorflow/python/framework/ops.py" source_line=1221}
  %Mean.21 = f32[1,2048]{1,0} convert(f32[1,2048]{1,0} %Mean.20), metadata={op_type="Mean" op_name="resnet50_1/avg_pool_1/Mean" source_file="<repo-root>/src/cuda-spirv/xla_hlo/.venv-tf/lib/python3.12/site-packages/tensorflow/python/framework/ops.py" source_line=1221}
  %arg319.1 = f32[2048,1000]{1,0} parameter(319), parameter_replication={false}, metadata={op_name="XLA_Args"}
  %MatMul.2 = f32[1,1000]{1,0} dot(f32[1,2048]{1,0} %Mean.21, f32[2048,1000]{1,0} %arg319.1), lhs_contracting_dims={1}, rhs_contracting_dims={0}, frontend_attributes={grad_x="false",grad_y="false"}, metadata={op_type="MatMul" op_name="resnet50_1/predictions_1/MatMul" source_file="<repo-root>/src/cuda-spirv/xla_hlo/.venv-tf/lib/python3.12/site-packages/tensorflow/python/framework/ops.py" source_line=1221}
  %MatMul.3 = f32[1,1000]{1,0} transpose(f32[1,1000]{1,0} %MatMul.2), dimensions={0,1}, metadata={op_type="MatMul" op_name="resnet50_1/predictions_1/MatMul" source_file="<repo-root>/src/cuda-spirv/xla_hlo/.venv-tf/lib/python3.12/site-packages/tensorflow/python/framework/ops.py" source_line=1221}
  %arg320.1 = f32[1000]{0} parameter(320), parameter_replication={false}, metadata={op_name="XLA_Args"}
  %BiasAdd.214 = f32[1,1000]{1,0} broadcast(f32[1000]{0} %arg320.1), dimensions={1}, metadata={op_type="BiasAdd" op_name="resnet50_1/predictions_1/BiasAdd" source_file="<repo-root>/src/cuda-spirv/xla_hlo/.venv-tf/lib/python3.12/site-packages/tensorflow/python/framework/ops.py" source_line=1221}
  %BiasAdd.215 = f32[1,1000]{1,0} add(f32[1,1000]{1,0} %MatMul.3, f32[1,1000]{1,0} %BiasAdd.214), metadata={op_type="BiasAdd" op_name="resnet50_1/predictions_1/BiasAdd" source_file="<repo-root>/src/cuda-spirv/xla_hlo/.venv-tf/lib/python3.12/site-packages/tensorflow/python/framework/ops.py" source_line=1221}
  %Softmax.28 = f32[] constant(-inf), metadata={op_type="Softmax" op_name="resnet50_1/predictions_1/Softmax" source_file="<repo-root>/src/cuda-spirv/xla_hlo/.venv-tf/lib/python3.12/site-packages/tensorflow/python/framework/ops.py" source_line=1221}
  %Softmax.29 = f32[1]{0} reduce(f32[1,1000]{1,0} %BiasAdd.215, f32[] %Softmax.28), dimensions={1}, to_apply=%region_0.4, metadata={op_type="Softmax" op_name="resnet50_1/predictions_1/Softmax"}
  %Softmax.30 = f32[1,1]{1,0} reshape(f32[1]{0} %Softmax.29), metadata={op_type="Softmax" op_name="resnet50_1/predictions_1/Softmax"}
  %Softmax.31 = f32[1,1]{1,0} broadcast(f32[1,1]{1,0} %Softmax.30), dimensions={0,1}, metadata={op_type="Softmax" op_name="resnet50_1/predictions_1/Softmax"}
  %Softmax.32 = f32[1]{0} reshape(f32[1,1]{1,0} %Softmax.31), metadata={op_type="Softmax" op_name="resnet50_1/predictions_1/Softmax"}
  %Softmax.33 = f32[1,1000]{1,0} broadcast(f32[1]{0} %Softmax.32), dimensions={0}, metadata={op_type="Softmax" op_name="resnet50_1/predictions_1/Softmax"}
  %Softmax.34 = f32[1,1000]{1,0} subtract(f32[1,1000]{1,0} %BiasAdd.215, f32[1,1000]{1,0} %Softmax.33), metadata={op_type="Softmax" op_name="resnet50_1/predictions_1/Softmax"}
  %Softmax.35 = f32[1,1000]{1,0} exponential(f32[1,1000]{1,0} %Softmax.34), metadata={op_type="Softmax" op_name="resnet50_1/predictions_1/Softmax"}
  %Softmax.27 = f32[] constant(-0), metadata={op_type="Softmax" op_name="resnet50_1/predictions_1/Softmax" source_file="<repo-root>/src/cuda-spirv/xla_hlo/.venv-tf/lib/python3.12/site-packages/tensorflow/python/framework/ops.py" source_line=1221}
  %Softmax.36 = f32[1]{0} reduce(f32[1,1000]{1,0} %Softmax.35, f32[] %Softmax.27), dimensions={1}, to_apply=%region_1.5, metadata={op_type="Softmax" op_name="resnet50_1/predictions_1/Softmax"}
  %Softmax.37 = f32[1,1]{1,0} reshape(f32[1]{0} %Softmax.36), metadata={op_type="Softmax" op_name="resnet50_1/predictions_1/Softmax"}
  %Softmax.38 = f32[1,1]{1,0} broadcast(f32[1,1]{1,0} %Softmax.37), dimensions={0,1}, metadata={op_type="Softmax" op_name="resnet50_1/predictions_1/Softmax"}
  %Softmax.39 = f32[1]{0} reshape(f32[1,1]{1,0} %Softmax.38), metadata={op_type="Softmax" op_name="resnet50_1/predictions_1/Softmax"}
  %Softmax.40 = f32[1,1000]{1,0} broadcast(f32[1]{0} %Softmax.39), dimensions={0}, metadata={op_type="Softmax" op_name="resnet50_1/predictions_1/Softmax"}
  %Softmax.41 = f32[1,1000]{1,0} divide(f32[1,1000]{1,0} %Softmax.35, f32[1,1000]{1,0} %Softmax.40), metadata={op_type="Softmax" op_name="resnet50_1/predictions_1/Softmax"}
  %XLA_Retvals.3 = f32[1,1000]{1,0} reshape(f32[1,1000]{1,0} %Softmax.41), metadata={op_name="XLA_Retvals"}
  %XLA_Retvals.4 = (f32[1,1000]{1,0}) tuple(f32[1,1000]{1,0} %XLA_Retvals.3), metadata={op_name="XLA_Retvals"}
  ROOT %XLA_Retvals.5 = f32[1,1000]{1,0} get-tuple-element((f32[1,1000]{1,0}) %XLA_Retvals.4), index=0, metadata={op_name="XLA_Retvals"}
}

