HloModule a_inference_llama_step_2218__.90, entry_computation_layout={(f32[1,64,2048]{2,1,0}, f32[1,1,64,64]{3,2,1,0}, f32[1,1,64,64]{3,2,1,0}, f32[1,1,64,64]{3,2,1,0}, f32[2048]{0}, /*index=5*/f32[2048,2048]{1,0}, f32[2048,256]{1,0}, f32[2048,256]{1,0}, f32[2048,2048]{1,0}, f32[2048]{0}, /*index=10*/f32[2048,5632]{1,0}, f32[2048,5632]{1,0}, f32[5632,2048]{1,0}, f32[2048]{0}, f32[2048,2048]{1,0}, /*index=15*/f32[2048,256]{1,0}, f32[2048,256]{1,0}, f32[2048,2048]{1,0}, f32[2048]{0}, f32[2048,5632]{1,0}, /*index=20*/f32[2048,5632]{1,0}, f32[5632,2048]{1,0}, f32[2048]{0}, f32[2048,2048]{1,0}, f32[2048,256]{1,0}, /*index=25*/f32[2048,256]{1,0}, f32[2048,2048]{1,0}, f32[2048]{0}, f32[2048,5632]{1,0}, f32[2048,5632]{1,0}, /*index=30*/f32[5632,2048]{1,0}, f32[2048]{0}, f32[2048,2048]{1,0}, f32[2048,256]{1,0}, f32[2048,256]{1,0}, /*index=35*/f32[2048,2048]{1,0}, f32[2048]{0}, f32[2048,5632]{1,0}, f32[2048,5632]{1,0}, f32[5632,2048]{1,0}, /*index=40*/f32[2048]{0}, f32[2048,2048]{1,0}, f32[2048,256]{1,0}, f32[2048,256]{1,0}, f32[2048,2048]{1,0}, /*index=45*/f32[2048]{0}, f32[2048,5632]{1,0}, f32[2048,5632]{1,0}, f32[5632,2048]{1,0}, f32[2048]{0}, /*index=50*/f32[2048,2048]{1,0}, f32[2048,256]{1,0}, f32[2048,256]{1,0}, f32[2048,2048]{1,0}, f32[2048]{0}, /*index=55*/f32[2048,5632]{1,0}, f32[2048,5632]{1,0}, f32[5632,2048]{1,0}, f32[2048]{0}, f32[2048,2048]{1,0}, /*index=60*/f32[2048,256]{1,0}, f32[2048,256]{1,0}, f32[2048,2048]{1,0}, f32[2048]{0}, f32[2048,5632]{1,0}, /*index=65*/f32[2048,5632]{1,0}, f32[5632,2048]{1,0}, f32[2048]{0}, f32[2048,2048]{1,0}, f32[2048,256]{1,0}, /*index=70*/f32[2048,256]{1,0}, f32[2048,2048]{1,0}, f32[2048]{0}, f32[2048,5632]{1,0}, f32[2048,5632]{1,0}, /*index=75*/f32[5632,2048]{1,0}, f32[2048]{0}, f32[2048,2048]{1,0}, f32[2048,256]{1,0}, f32[2048,256]{1,0}, /*index=80*/f32[2048,2048]{1,0}, f32[2048]{0}, f32[2048,5632]{1,0}, f32[2048,5632]{1,0}, f32[5632,2048]{1,0}, /*index=85*/f32[2048]{0}, f32[2048,2048]{1,0}, f32[2048,256]{1,0}, f32[2048,256]{1,0}, f32[2048,2048]{1,0}, /*index=90*/f32[2048]{0}, f32[2048,5632]{1,0}, f32[2048,5632]{1,0}, f32[5632,2048]{1,0}, f32[2048]{0}, /*index=95*/f32[2048,2048]{1,0}, f32[2048,256]{1,0}, f32[2048,256]{1,0}, f32[2048,2048]{1,0}, f32[2048]{0}, /*index=100*/f32[2048,5632]{1,0}, f32[2048,5632]{1,0}, f32[5632,2048]{1,0}, f32[2048]{0}, f32[2048,2048]{1,0}, /*index=105*/f32[2048,256]{1,0}, f32[2048,256]{1,0}, f32[2048,2048]{1,0}, f32[2048]{0}, f32[2048,5632]{1,0}, /*index=110*/f32[2048,5632]{1,0}, f32[5632,2048]{1,0}, f32[2048]{0}, f32[2048,2048]{1,0}, f32[2048,256]{1,0}, /*index=115*/f32[2048,256]{1,0}, f32[2048,2048]{1,0}, f32[2048]{0}, f32[2048,5632]{1,0}, f32[2048,5632]{1,0}, /*index=120*/f32[5632,2048]{1,0}, f32[2048]{0}, f32[2048,2048]{1,0}, f32[2048,256]{1,0}, f32[2048,256]{1,0}, /*index=125*/f32[2048,2048]{1,0}, f32[2048]{0}, f32[2048,5632]{1,0}, f32[2048,5632]{1,0}, f32[5632,2048]{1,0}, /*index=130*/f32[2048]{0}, f32[2048,2048]{1,0}, f32[2048,256]{1,0}, f32[2048,256]{1,0}, f32[2048,2048]{1,0}, /*index=135*/f32[2048]{0}, f32[2048,5632]{1,0}, f32[2048,5632]{1,0}, f32[5632,2048]{1,0}, f32[2048]{0}, /*index=140*/f32[2048,2048]{1,0}, f32[2048,256]{1,0}, f32[2048,256]{1,0}, f32[2048,2048]{1,0}, f32[2048]{0}, /*index=145*/f32[2048,5632]{1,0}, f32[2048,5632]{1,0}, f32[5632,2048]{1,0}, f32[2048]{0}, f32[2048,2048]{1,0}, /*index=150*/f32[2048,256]{1,0}, f32[2048,256]{1,0}, f32[2048,2048]{1,0}, f32[2048]{0}, f32[2048,5632]{1,0}, /*index=155*/f32[2048,5632]{1,0}, f32[5632,2048]{1,0}, f32[2048]{0}, f32[2048,2048]{1,0}, f32[2048,256]{1,0}, /*index=160*/f32[2048,256]{1,0}, f32[2048,2048]{1,0}, f32[2048]{0}, f32[2048,5632]{1,0}, f32[2048,5632]{1,0}, /*index=165*/f32[5632,2048]{1,0}, f32[2048]{0}, f32[2048,2048]{1,0}, f32[2048,256]{1,0}, f32[2048,256]{1,0}, /*index=170*/f32[2048,2048]{1,0}, f32[2048]{0}, f32[2048,5632]{1,0}, f32[2048,5632]{1,0}, f32[5632,2048]{1,0}, /*index=175*/f32[2048]{0}, f32[2048,2048]{1,0}, f32[2048,256]{1,0}, f32[2048,256]{1,0}, f32[2048,2048]{1,0}, /*index=180*/f32[2048]{0}, f32[2048,5632]{1,0}, f32[2048,5632]{1,0}, f32[5632,2048]{1,0}, f32[2048]{0}, /*index=185*/f32[2048,2048]{1,0}, f32[2048,256]{1,0}, f32[2048,256]{1,0}, f32[2048,2048]{1,0}, f32[2048]{0}, /*index=190*/f32[2048,5632]{1,0}, f32[2048,5632]{1,0}, f32[5632,2048]{1,0}, f32[2048]{0}, f32[2048,2048]{1,0}, /*index=195*/f32[2048,256]{1,0}, f32[2048,256]{1,0}, f32[2048,2048]{1,0}, f32[2048]{0}, f32[2048,5632]{1,0}, /*index=200*/f32[2048,5632]{1,0}, f32[5632,2048]{1,0}, f32[2048]{0}, f32[2048,32000]{1,0})->f32[1,64,32000]{2,1,0}}

%Mean-reduction.1 (x.1: f32[], y.1: f32[]) -> f32[] {
  %x.1 = f32[] parameter(0)
  %y.1 = f32[] parameter(1)
  ROOT %add.1 = f32[] add(f32[] %x.1, f32[] %y.1)
}

%region_0.2 (Softmax.5: f32[], Softmax.6: f32[]) -> f32[] {
  %Softmax.5 = f32[] parameter(0), metadata={op_name="Softmax"}
  %Softmax.6 = f32[] parameter(1), metadata={op_name="Softmax"}
  ROOT %Softmax.7 = f32[] maximum(f32[] %Softmax.5, f32[] %Softmax.6), metadata={op_type="Softmax" op_name="Softmax"}
}

%region_1.3 (Softmax.18: f32[], Softmax.19: f32[]) -> f32[] {
  %Softmax.18 = f32[] parameter(0), metadata={op_name="Softmax"}
  %Softmax.19 = f32[] parameter(1), metadata={op_name="Softmax"}
  ROOT %Softmax.20 = f32[] add(f32[] %Softmax.18, f32[] %Softmax.19), metadata={op_type="Softmax" op_name="Softmax"}
}

%Mean_1-reduction.4 (x.0: f32[], y.0: f32[]) -> f32[] {
  %x.0 = f32[] parameter(0)
  %y.0 = f32[] parameter(1)
  ROOT %add.4 = f32[] add(f32[] %x.0, f32[] %y.0)
}

%Mean_2-reduction.5 (x.2: f32[], y.2: f32[]) -> f32[] {
  %x.2 = f32[] parameter(0)
  %y.2 = f32[] parameter(1)
  ROOT %add.5 = f32[] add(f32[] %x.2, f32[] %y.2)
}

%region_0.6 (Softmax_1.5: f32[], Softmax_1.6: f32[]) -> f32[] {
  %Softmax_1.5 = f32[] parameter(0), metadata={op_name="Softmax_1"}
  %Softmax_1.6 = f32[] parameter(1), metadata={op_name="Softmax_1"}
  ROOT %Softmax_1.7 = f32[] maximum(f32[] %Softmax_1.5, f32[] %Softmax_1.6), metadata={op_type="Softmax" op_name="Softmax_1"}
}

%region_1.7 (Softmax_1.18: f32[], Softmax_1.19: f32[]) -> f32[] {
  %Softmax_1.18 = f32[] parameter(0), metadata={op_name="Softmax_1"}
  %Softmax_1.19 = f32[] parameter(1), metadata={op_name="Softmax_1"}
  ROOT %Softmax_1.20 = f32[] add(f32[] %Softmax_1.18, f32[] %Softmax_1.19), metadata={op_type="Softmax" op_name="Softmax_1"}
}

%Mean_3-reduction.8 (x.3: f32[], y.3: f32[]) -> f32[] {
  %x.3 = f32[] parameter(0)
  %y.3 = f32[] parameter(1)
  ROOT %add.6 = f32[] add(f32[] %x.3, f32[] %y.3)
}

%Mean_4-reduction.9 (x.4: f32[], y.4: f32[]) -> f32[] {
  %x.4 = f32[] parameter(0)
  %y.4 = f32[] parameter(1)
  ROOT %add.7 = f32[] add(f32[] %x.4, f32[] %y.4)
}

%region_0.10 (Softmax_2.5: f32[], Softmax_2.6: f32[]) -> f32[] {
  %Softmax_2.5 = f32[] parameter(0), metadata={op_name="Softmax_2"}
  %Softmax_2.6 = f32[] parameter(1), metadata={op_name="Softmax_2"}
  ROOT %Softmax_2.7 = f32[] maximum(f32[] %Softmax_2.5, f32[] %Softmax_2.6), metadata={op_type="Softmax" op_name="Softmax_2"}
}

%region_1.11 (Softmax_2.18: f32[], Softmax_2.19: f32[]) -> f32[] {
  %Softmax_2.18 = f32[] parameter(0), metadata={op_name="Softmax_2"}
  %Softmax_2.19 = f32[] parameter(1), metadata={op_name="Softmax_2"}
  ROOT %Softmax_2.20 = f32[] add(f32[] %Softmax_2.18, f32[] %Softmax_2.19), metadata={op_type="Softmax" op_name="Softmax_2"}
}

%Mean_5-reduction.12 (x.5: f32[], y.5: f32[]) -> f32[] {
  %x.5 = f32[] parameter(0)
  %y.5 = f32[] parameter(1)
  ROOT %add.8 = f32[] add(f32[] %x.5, f32[] %y.5)
}

%Mean_6-reduction.13 (x.6: f32[], y.6: f32[]) -> f32[] {
  %x.6 = f32[] parameter(0)
  %y.6 = f32[] parameter(1)
  ROOT %add.9 = f32[] add(f32[] %x.6, f32[] %y.6)
}

%region_0.14 (Softmax_3.5: f32[], Softmax_3.6: f32[]) -> f32[] {
  %Softmax_3.5 = f32[] parameter(0), metadata={op_name="Softmax_3"}
  %Softmax_3.6 = f32[] parameter(1), metadata={op_name="Softmax_3"}
  ROOT %Softmax_3.7 = f32[] maximum(f32[] %Softmax_3.5, f32[] %Softmax_3.6), metadata={op_type="Softmax" op_name="Softmax_3"}
}

%region_1.15 (Softmax_3.18: f32[], Softmax_3.19: f32[]) -> f32[] {
  %Softmax_3.18 = f32[] parameter(0), metadata={op_name="Softmax_3"}
  %Softmax_3.19 = f32[] parameter(1), metadata={op_name="Softmax_3"}
  ROOT %Softmax_3.20 = f32[] add(f32[] %Softmax_3.18, f32[] %Softmax_3.19), metadata={op_type="Softmax" op_name="Softmax_3"}
}

%Mean_7-reduction.16 (x.7: f32[], y.7: f32[]) -> f32[] {
  %x.7 = f32[] parameter(0)
  %y.7 = f32[] parameter(1)
  ROOT %add.10 = f32[] add(f32[] %x.7, f32[] %y.7)
}

%Mean_8-reduction.17 (x.8: f32[], y.8: f32[]) -> f32[] {
  %x.8 = f32[] parameter(0)
  %y.8 = f32[] parameter(1)
  ROOT %add.11 = f32[] add(f32[] %x.8, f32[] %y.8)
}

%region_0.18 (Softmax_4.5: f32[], Softmax_4.6: f32[]) -> f32[] {
  %Softmax_4.5 = f32[] parameter(0), metadata={op_name="Softmax_4"}
  %Softmax_4.6 = f32[] parameter(1), metadata={op_name="Softmax_4"}
  ROOT %Softmax_4.7 = f32[] maximum(f32[] %Softmax_4.5, f32[] %Softmax_4.6), metadata={op_type="Softmax" op_name="Softmax_4"}
}

%region_1.19 (Softmax_4.18: f32[], Softmax_4.19: f32[]) -> f32[] {
  %Softmax_4.18 = f32[] parameter(0), metadata={op_name="Softmax_4"}
  %Softmax_4.19 = f32[] parameter(1), metadata={op_name="Softmax_4"}
  ROOT %Softmax_4.20 = f32[] add(f32[] %Softmax_4.18, f32[] %Softmax_4.19), metadata={op_type="Softmax" op_name="Softmax_4"}
}

%Mean_9-reduction.20 (x.9: f32[], y.9: f32[]) -> f32[] {
  %x.9 = f32[] parameter(0)
  %y.9 = f32[] parameter(1)
  ROOT %add.12 = f32[] add(f32[] %x.9, f32[] %y.9)
}

%Mean_10-reduction.21 (x.10: f32[], y.10: f32[]) -> f32[] {
  %x.10 = f32[] parameter(0)
  %y.10 = f32[] parameter(1)
  ROOT %add.13 = f32[] add(f32[] %x.10, f32[] %y.10)
}

%region_0.22 (Softmax_5.5: f32[], Softmax_5.6: f32[]) -> f32[] {
  %Softmax_5.5 = f32[] parameter(0), metadata={op_name="Softmax_5"}
  %Softmax_5.6 = f32[] parameter(1), metadata={op_name="Softmax_5"}
  ROOT %Softmax_5.7 = f32[] maximum(f32[] %Softmax_5.5, f32[] %Softmax_5.6), metadata={op_type="Softmax" op_name="Softmax_5"}
}

%region_1.23 (Softmax_5.18: f32[], Softmax_5.19: f32[]) -> f32[] {
  %Softmax_5.18 = f32[] parameter(0), metadata={op_name="Softmax_5"}
  %Softmax_5.19 = f32[] parameter(1), metadata={op_name="Softmax_5"}
  ROOT %Softmax_5.20 = f32[] add(f32[] %Softmax_5.18, f32[] %Softmax_5.19), metadata={op_type="Softmax" op_name="Softmax_5"}
}

%Mean_11-reduction.24 (x.11: f32[], y.11: f32[]) -> f32[] {
  %x.11 = f32[] parameter(0)
  %y.11 = f32[] parameter(1)
  ROOT %add.14 = f32[] add(f32[] %x.11, f32[] %y.11)
}

%Mean_12-reduction.25 (x.12: f32[], y.12: f32[]) -> f32[] {
  %x.12 = f32[] parameter(0)
  %y.12 = f32[] parameter(1)
  ROOT %add.15 = f32[] add(f32[] %x.12, f32[] %y.12)
}

%region_0.26 (Softmax_6.5: f32[], Softmax_6.6: f32[]) -> f32[] {
  %Softmax_6.5 = f32[] parameter(0), metadata={op_name="Softmax_6"}
  %Softmax_6.6 = f32[] parameter(1), metadata={op_name="Softmax_6"}
  ROOT %Softmax_6.7 = f32[] maximum(f32[] %Softmax_6.5, f32[] %Softmax_6.6), metadata={op_type="Softmax" op_name="Softmax_6"}
}

%region_1.27 (Softmax_6.18: f32[], Softmax_6.19: f32[]) -> f32[] {
  %Softmax_6.18 = f32[] parameter(0), metadata={op_name="Softmax_6"}
  %Softmax_6.19 = f32[] parameter(1), metadata={op_name="Softmax_6"}
  ROOT %Softmax_6.20 = f32[] add(f32[] %Softmax_6.18, f32[] %Softmax_6.19), metadata={op_type="Softmax" op_name="Softmax_6"}
}

%Mean_13-reduction.28 (x.13: f32[], y.13: f32[]) -> f32[] {
  %x.13 = f32[] parameter(0)
  %y.13 = f32[] parameter(1)
  ROOT %add.16 = f32[] add(f32[] %x.13, f32[] %y.13)
}

%Mean_14-reduction.29 (x.14: f32[], y.14: f32[]) -> f32[] {
  %x.14 = f32[] parameter(0)
  %y.14 = f32[] parameter(1)
  ROOT %add.17 = f32[] add(f32[] %x.14, f32[] %y.14)
}

%region_0.30 (Softmax_7.5: f32[], Softmax_7.6: f32[]) -> f32[] {
  %Softmax_7.5 = f32[] parameter(0), metadata={op_name="Softmax_7"}
  %Softmax_7.6 = f32[] parameter(1), metadata={op_name="Softmax_7"}
  ROOT %Softmax_7.7 = f32[] maximum(f32[] %Softmax_7.5, f32[] %Softmax_7.6), metadata={op_type="Softmax" op_name="Softmax_7"}
}

%region_1.31 (Softmax_7.18: f32[], Softmax_7.19: f32[]) -> f32[] {
  %Softmax_7.18 = f32[] parameter(0), metadata={op_name="Softmax_7"}
  %Softmax_7.19 = f32[] parameter(1), metadata={op_name="Softmax_7"}
  ROOT %Softmax_7.20 = f32[] add(f32[] %Softmax_7.18, f32[] %Softmax_7.19), metadata={op_type="Softmax" op_name="Softmax_7"}
}

%Mean_15-reduction.32 (x.15: f32[], y.15: f32[]) -> f32[] {
  %x.15 = f32[] parameter(0)
  %y.15 = f32[] parameter(1)
  ROOT %add.18 = f32[] add(f32[] %x.15, f32[] %y.15)
}

%Mean_16-reduction.33 (x.16: f32[], y.16: f32[]) -> f32[] {
  %x.16 = f32[] parameter(0)
  %y.16 = f32[] parameter(1)
  ROOT %add.19 = f32[] add(f32[] %x.16, f32[] %y.16)
}

%region_0.34 (Softmax_8.5: f32[], Softmax_8.6: f32[]) -> f32[] {
  %Softmax_8.5 = f32[] parameter(0), metadata={op_name="Softmax_8"}
  %Softmax_8.6 = f32[] parameter(1), metadata={op_name="Softmax_8"}
  ROOT %Softmax_8.7 = f32[] maximum(f32[] %Softmax_8.5, f32[] %Softmax_8.6), metadata={op_type="Softmax" op_name="Softmax_8"}
}

%region_1.35 (Softmax_8.18: f32[], Softmax_8.19: f32[]) -> f32[] {
  %Softmax_8.18 = f32[] parameter(0), metadata={op_name="Softmax_8"}
  %Softmax_8.19 = f32[] parameter(1), metadata={op_name="Softmax_8"}
  ROOT %Softmax_8.20 = f32[] add(f32[] %Softmax_8.18, f32[] %Softmax_8.19), metadata={op_type="Softmax" op_name="Softmax_8"}
}

%Mean_17-reduction.36 (x.17: f32[], y.17: f32[]) -> f32[] {
  %x.17 = f32[] parameter(0)
  %y.17 = f32[] parameter(1)
  ROOT %add.20 = f32[] add(f32[] %x.17, f32[] %y.17)
}

%Mean_18-reduction.37 (x.18: f32[], y.18: f32[]) -> f32[] {
  %x.18 = f32[] parameter(0)
  %y.18 = f32[] parameter(1)
  ROOT %add.21 = f32[] add(f32[] %x.18, f32[] %y.18)
}

%region_0.38 (Softmax_9.5: f32[], Softmax_9.6: f32[]) -> f32[] {
  %Softmax_9.5 = f32[] parameter(0), metadata={op_name="Softmax_9"}
  %Softmax_9.6 = f32[] parameter(1), metadata={op_name="Softmax_9"}
  ROOT %Softmax_9.7 = f32[] maximum(f32[] %Softmax_9.5, f32[] %Softmax_9.6), metadata={op_type="Softmax" op_name="Softmax_9"}
}

%region_1.39 (Softmax_9.18: f32[], Softmax_9.19: f32[]) -> f32[] {
  %Softmax_9.18 = f32[] parameter(0), metadata={op_name="Softmax_9"}
  %Softmax_9.19 = f32[] parameter(1), metadata={op_name="Softmax_9"}
  ROOT %Softmax_9.20 = f32[] add(f32[] %Softmax_9.18, f32[] %Softmax_9.19), metadata={op_type="Softmax" op_name="Softmax_9"}
}

%Mean_19-reduction.40 (x.19: f32[], y.19: f32[]) -> f32[] {
  %x.19 = f32[] parameter(0)
  %y.19 = f32[] parameter(1)
  ROOT %add.22 = f32[] add(f32[] %x.19, f32[] %y.19)
}

%Mean_20-reduction.41 (x.20: f32[], y.20: f32[]) -> f32[] {
  %x.20 = f32[] parameter(0)
  %y.20 = f32[] parameter(1)
  ROOT %add.23 = f32[] add(f32[] %x.20, f32[] %y.20)
}

%region_0.42 (Softmax_10.5: f32[], Softmax_10.6: f32[]) -> f32[] {
  %Softmax_10.5 = f32[] parameter(0), metadata={op_name="Softmax_10"}
  %Softmax_10.6 = f32[] parameter(1), metadata={op_name="Softmax_10"}
  ROOT %Softmax_10.7 = f32[] maximum(f32[] %Softmax_10.5, f32[] %Softmax_10.6), metadata={op_type="Softmax" op_name="Softmax_10"}
}

%region_1.43 (Softmax_10.18: f32[], Softmax_10.19: f32[]) -> f32[] {
  %Softmax_10.18 = f32[] parameter(0), metadata={op_name="Softmax_10"}
  %Softmax_10.19 = f32[] parameter(1), metadata={op_name="Softmax_10"}
  ROOT %Softmax_10.20 = f32[] add(f32[] %Softmax_10.18, f32[] %Softmax_10.19), metadata={op_type="Softmax" op_name="Softmax_10"}
}

%Mean_21-reduction.44 (x.21: f32[], y.21: f32[]) -> f32[] {
  %x.21 = f32[] parameter(0)
  %y.21 = f32[] parameter(1)
  ROOT %add.24 = f32[] add(f32[] %x.21, f32[] %y.21)
}

%Mean_22-reduction.45 (x.22: f32[], y.22: f32[]) -> f32[] {
  %x.22 = f32[] parameter(0)
  %y.22 = f32[] parameter(1)
  ROOT %add.25 = f32[] add(f32[] %x.22, f32[] %y.22)
}

%region_0.46 (Softmax_11.5: f32[], Softmax_11.6: f32[]) -> f32[] {
  %Softmax_11.5 = f32[] parameter(0), metadata={op_name="Softmax_11"}
  %Softmax_11.6 = f32[] parameter(1), metadata={op_name="Softmax_11"}
  ROOT %Softmax_11.7 = f32[] maximum(f32[] %Softmax_11.5, f32[] %Softmax_11.6), metadata={op_type="Softmax" op_name="Softmax_11"}
}

%region_1.47 (Softmax_11.18: f32[], Softmax_11.19: f32[]) -> f32[] {
  %Softmax_11.18 = f32[] parameter(0), metadata={op_name="Softmax_11"}
  %Softmax_11.19 = f32[] parameter(1), metadata={op_name="Softmax_11"}
  ROOT %Softmax_11.20 = f32[] add(f32[] %Softmax_11.18, f32[] %Softmax_11.19), metadata={op_type="Softmax" op_name="Softmax_11"}
}

%Mean_23-reduction.48 (x.23: f32[], y.23: f32[]) -> f32[] {
  %x.23 = f32[] parameter(0)
  %y.23 = f32[] parameter(1)
  ROOT %add.26 = f32[] add(f32[] %x.23, f32[] %y.23)
}

%Mean_24-reduction.49 (x.24: f32[], y.24: f32[]) -> f32[] {
  %x.24 = f32[] parameter(0)
  %y.24 = f32[] parameter(1)
  ROOT %add.27 = f32[] add(f32[] %x.24, f32[] %y.24)
}

%region_0.50 (Softmax_12.5: f32[], Softmax_12.6: f32[]) -> f32[] {
  %Softmax_12.5 = f32[] parameter(0), metadata={op_name="Softmax_12"}
  %Softmax_12.6 = f32[] parameter(1), metadata={op_name="Softmax_12"}
  ROOT %Softmax_12.7 = f32[] maximum(f32[] %Softmax_12.5, f32[] %Softmax_12.6), metadata={op_type="Softmax" op_name="Softmax_12"}
}

%region_1.51 (Softmax_12.18: f32[], Softmax_12.19: f32[]) -> f32[] {
  %Softmax_12.18 = f32[] parameter(0), metadata={op_name="Softmax_12"}
  %Softmax_12.19 = f32[] parameter(1), metadata={op_name="Softmax_12"}
  ROOT %Softmax_12.20 = f32[] add(f32[] %Softmax_12.18, f32[] %Softmax_12.19), metadata={op_type="Softmax" op_name="Softmax_12"}
}

%Mean_25-reduction.52 (x.25: f32[], y.25: f32[]) -> f32[] {
  %x.25 = f32[] parameter(0)
  %y.25 = f32[] parameter(1)
  ROOT %add.28 = f32[] add(f32[] %x.25, f32[] %y.25)
}

%Mean_26-reduction.53 (x.26: f32[], y.26: f32[]) -> f32[] {
  %x.26 = f32[] parameter(0)
  %y.26 = f32[] parameter(1)
  ROOT %add.29 = f32[] add(f32[] %x.26, f32[] %y.26)
}

%region_0.54 (Softmax_13.5: f32[], Softmax_13.6: f32[]) -> f32[] {
  %Softmax_13.5 = f32[] parameter(0), metadata={op_name="Softmax_13"}
  %Softmax_13.6 = f32[] parameter(1), metadata={op_name="Softmax_13"}
  ROOT %Softmax_13.7 = f32[] maximum(f32[] %Softmax_13.5, f32[] %Softmax_13.6), metadata={op_type="Softmax" op_name="Softmax_13"}
}

%region_1.55 (Softmax_13.18: f32[], Softmax_13.19: f32[]) -> f32[] {
  %Softmax_13.18 = f32[] parameter(0), metadata={op_name="Softmax_13"}
  %Softmax_13.19 = f32[] parameter(1), metadata={op_name="Softmax_13"}
  ROOT %Softmax_13.20 = f32[] add(f32[] %Softmax_13.18, f32[] %Softmax_13.19), metadata={op_type="Softmax" op_name="Softmax_13"}
}

%Mean_27-reduction.56 (x.27: f32[], y.27: f32[]) -> f32[] {
  %x.27 = f32[] parameter(0)
  %y.27 = f32[] parameter(1)
  ROOT %add.30 = f32[] add(f32[] %x.27, f32[] %y.27)
}

%Mean_28-reduction.57 (x.28: f32[], y.28: f32[]) -> f32[] {
  %x.28 = f32[] parameter(0)
  %y.28 = f32[] parameter(1)
  ROOT %add.31 = f32[] add(f32[] %x.28, f32[] %y.28)
}

%region_0.58 (Softmax_14.5: f32[], Softmax_14.6: f32[]) -> f32[] {
  %Softmax_14.5 = f32[] parameter(0), metadata={op_name="Softmax_14"}
  %Softmax_14.6 = f32[] parameter(1), metadata={op_name="Softmax_14"}
  ROOT %Softmax_14.7 = f32[] maximum(f32[] %Softmax_14.5, f32[] %Softmax_14.6), metadata={op_type="Softmax" op_name="Softmax_14"}
}

%region_1.59 (Softmax_14.18: f32[], Softmax_14.19: f32[]) -> f32[] {
  %Softmax_14.18 = f32[] parameter(0), metadata={op_name="Softmax_14"}
  %Softmax_14.19 = f32[] parameter(1), metadata={op_name="Softmax_14"}
  ROOT %Softmax_14.20 = f32[] add(f32[] %Softmax_14.18, f32[] %Softmax_14.19), metadata={op_type="Softmax" op_name="Softmax_14"}
}

%Mean_29-reduction.60 (x.29: f32[], y.29: f32[]) -> f32[] {
  %x.29 = f32[] parameter(0)
  %y.29 = f32[] parameter(1)
  ROOT %add.32 = f32[] add(f32[] %x.29, f32[] %y.29)
}

%Mean_30-reduction.61 (x.30: f32[], y.30: f32[]) -> f32[] {
  %x.30 = f32[] parameter(0)
  %y.30 = f32[] parameter(1)
  ROOT %add.33 = f32[] add(f32[] %x.30, f32[] %y.30)
}

%region_0.62 (Softmax_15.5: f32[], Softmax_15.6: f32[]) -> f32[] {
  %Softmax_15.5 = f32[] parameter(0), metadata={op_name="Softmax_15"}
  %Softmax_15.6 = f32[] parameter(1), metadata={op_name="Softmax_15"}
  ROOT %Softmax_15.7 = f32[] maximum(f32[] %Softmax_15.5, f32[] %Softmax_15.6), metadata={op_type="Softmax" op_name="Softmax_15"}
}

%region_1.63 (Softmax_15.18: f32[], Softmax_15.19: f32[]) -> f32[] {
  %Softmax_15.18 = f32[] parameter(0), metadata={op_name="Softmax_15"}
  %Softmax_15.19 = f32[] parameter(1), metadata={op_name="Softmax_15"}
  ROOT %Softmax_15.20 = f32[] add(f32[] %Softmax_15.18, f32[] %Softmax_15.19), metadata={op_type="Softmax" op_name="Softmax_15"}
}

%Mean_31-reduction.64 (x.31: f32[], y.31: f32[]) -> f32[] {
  %x.31 = f32[] parameter(0)
  %y.31 = f32[] parameter(1)
  ROOT %add.34 = f32[] add(f32[] %x.31, f32[] %y.31)
}

%Mean_32-reduction.65 (x.32: f32[], y.32: f32[]) -> f32[] {
  %x.32 = f32[] parameter(0)
  %y.32 = f32[] parameter(1)
  ROOT %add.35 = f32[] add(f32[] %x.32, f32[] %y.32)
}

%region_0.66 (Softmax_16.5: f32[], Softmax_16.6: f32[]) -> f32[] {
  %Softmax_16.5 = f32[] parameter(0), metadata={op_name="Softmax_16"}
  %Softmax_16.6 = f32[] parameter(1), metadata={op_name="Softmax_16"}
  ROOT %Softmax_16.7 = f32[] maximum(f32[] %Softmax_16.5, f32[] %Softmax_16.6), metadata={op_type="Softmax" op_name="Softmax_16"}
}

%region_1.67 (Softmax_16.18: f32[], Softmax_16.19: f32[]) -> f32[] {
  %Softmax_16.18 = f32[] parameter(0), metadata={op_name="Softmax_16"}
  %Softmax_16.19 = f32[] parameter(1), metadata={op_name="Softmax_16"}
  ROOT %Softmax_16.20 = f32[] add(f32[] %Softmax_16.18, f32[] %Softmax_16.19), metadata={op_type="Softmax" op_name="Softmax_16"}
}

%Mean_33-reduction.68 (x.33: f32[], y.33: f32[]) -> f32[] {
  %x.33 = f32[] parameter(0)
  %y.33 = f32[] parameter(1)
  ROOT %add.36 = f32[] add(f32[] %x.33, f32[] %y.33)
}

%Mean_34-reduction.69 (x.34: f32[], y.34: f32[]) -> f32[] {
  %x.34 = f32[] parameter(0)
  %y.34 = f32[] parameter(1)
  ROOT %add.37 = f32[] add(f32[] %x.34, f32[] %y.34)
}

%region_0.70 (Softmax_17.5: f32[], Softmax_17.6: f32[]) -> f32[] {
  %Softmax_17.5 = f32[] parameter(0), metadata={op_name="Softmax_17"}
  %Softmax_17.6 = f32[] parameter(1), metadata={op_name="Softmax_17"}
  ROOT %Softmax_17.7 = f32[] maximum(f32[] %Softmax_17.5, f32[] %Softmax_17.6), metadata={op_type="Softmax" op_name="Softmax_17"}
}

%region_1.71 (Softmax_17.18: f32[], Softmax_17.19: f32[]) -> f32[] {
  %Softmax_17.18 = f32[] parameter(0), metadata={op_name="Softmax_17"}
  %Softmax_17.19 = f32[] parameter(1), metadata={op_name="Softmax_17"}
  ROOT %Softmax_17.20 = f32[] add(f32[] %Softmax_17.18, f32[] %Softmax_17.19), metadata={op_type="Softmax" op_name="Softmax_17"}
}

%Mean_35-reduction.72 (x.35: f32[], y.35: f32[]) -> f32[] {
  %x.35 = f32[] parameter(0)
  %y.35 = f32[] parameter(1)
  ROOT %add.38 = f32[] add(f32[] %x.35, f32[] %y.35)
}

%Mean_36-reduction.73 (x.36: f32[], y.36: f32[]) -> f32[] {
  %x.36 = f32[] parameter(0)
  %y.36 = f32[] parameter(1)
  ROOT %add.39 = f32[] add(f32[] %x.36, f32[] %y.36)
}

%region_0.74 (Softmax_18.5: f32[], Softmax_18.6: f32[]) -> f32[] {
  %Softmax_18.5 = f32[] parameter(0), metadata={op_name="Softmax_18"}
  %Softmax_18.6 = f32[] parameter(1), metadata={op_name="Softmax_18"}
  ROOT %Softmax_18.7 = f32[] maximum(f32[] %Softmax_18.5, f32[] %Softmax_18.6), metadata={op_type="Softmax" op_name="Softmax_18"}
}

%region_1.75 (Softmax_18.18: f32[], Softmax_18.19: f32[]) -> f32[] {
  %Softmax_18.18 = f32[] parameter(0), metadata={op_name="Softmax_18"}
  %Softmax_18.19 = f32[] parameter(1), metadata={op_name="Softmax_18"}
  ROOT %Softmax_18.20 = f32[] add(f32[] %Softmax_18.18, f32[] %Softmax_18.19), metadata={op_type="Softmax" op_name="Softmax_18"}
}

%Mean_37-reduction.76 (x.37: f32[], y.37: f32[]) -> f32[] {
  %x.37 = f32[] parameter(0)
  %y.37 = f32[] parameter(1)
  ROOT %add.40 = f32[] add(f32[] %x.37, f32[] %y.37)
}

%Mean_38-reduction.77 (x.38: f32[], y.38: f32[]) -> f32[] {
  %x.38 = f32[] parameter(0)
  %y.38 = f32[] parameter(1)
  ROOT %add.41 = f32[] add(f32[] %x.38, f32[] %y.38)
}

%region_0.78 (Softmax_19.5: f32[], Softmax_19.6: f32[]) -> f32[] {
  %Softmax_19.5 = f32[] parameter(0), metadata={op_name="Softmax_19"}
  %Softmax_19.6 = f32[] parameter(1), metadata={op_name="Softmax_19"}
  ROOT %Softmax_19.7 = f32[] maximum(f32[] %Softmax_19.5, f32[] %Softmax_19.6), metadata={op_type="Softmax" op_name="Softmax_19"}
}

%region_1.79 (Softmax_19.18: f32[], Softmax_19.19: f32[]) -> f32[] {
  %Softmax_19.18 = f32[] parameter(0), metadata={op_name="Softmax_19"}
  %Softmax_19.19 = f32[] parameter(1), metadata={op_name="Softmax_19"}
  ROOT %Softmax_19.20 = f32[] add(f32[] %Softmax_19.18, f32[] %Softmax_19.19), metadata={op_type="Softmax" op_name="Softmax_19"}
}

%Mean_39-reduction.80 (x.39: f32[], y.39: f32[]) -> f32[] {
  %x.39 = f32[] parameter(0)
  %y.39 = f32[] parameter(1)
  ROOT %add.42 = f32[] add(f32[] %x.39, f32[] %y.39)
}

%Mean_40-reduction.81 (x.40: f32[], y.40: f32[]) -> f32[] {
  %x.40 = f32[] parameter(0)
  %y.40 = f32[] parameter(1)
  ROOT %add.43 = f32[] add(f32[] %x.40, f32[] %y.40)
}

%region_0.82 (Softmax_20.5: f32[], Softmax_20.6: f32[]) -> f32[] {
  %Softmax_20.5 = f32[] parameter(0), metadata={op_name="Softmax_20"}
  %Softmax_20.6 = f32[] parameter(1), metadata={op_name="Softmax_20"}
  ROOT %Softmax_20.7 = f32[] maximum(f32[] %Softmax_20.5, f32[] %Softmax_20.6), metadata={op_type="Softmax" op_name="Softmax_20"}
}

%region_1.83 (Softmax_20.18: f32[], Softmax_20.19: f32[]) -> f32[] {
  %Softmax_20.18 = f32[] parameter(0), metadata={op_name="Softmax_20"}
  %Softmax_20.19 = f32[] parameter(1), metadata={op_name="Softmax_20"}
  ROOT %Softmax_20.20 = f32[] add(f32[] %Softmax_20.18, f32[] %Softmax_20.19), metadata={op_type="Softmax" op_name="Softmax_20"}
}

%Mean_41-reduction.84 (x.41: f32[], y.41: f32[]) -> f32[] {
  %x.41 = f32[] parameter(0)
  %y.41 = f32[] parameter(1)
  ROOT %add.44 = f32[] add(f32[] %x.41, f32[] %y.41)
}

%Mean_42-reduction.85 (x.42: f32[], y.42: f32[]) -> f32[] {
  %x.42 = f32[] parameter(0)
  %y.42 = f32[] parameter(1)
  ROOT %add.45 = f32[] add(f32[] %x.42, f32[] %y.42)
}

%region_0.86 (Softmax_21.5: f32[], Softmax_21.6: f32[]) -> f32[] {
  %Softmax_21.5 = f32[] parameter(0), metadata={op_name="Softmax_21"}
  %Softmax_21.6 = f32[] parameter(1), metadata={op_name="Softmax_21"}
  ROOT %Softmax_21.7 = f32[] maximum(f32[] %Softmax_21.5, f32[] %Softmax_21.6), metadata={op_type="Softmax" op_name="Softmax_21"}
}

%region_1.87 (Softmax_21.18: f32[], Softmax_21.19: f32[]) -> f32[] {
  %Softmax_21.18 = f32[] parameter(0), metadata={op_name="Softmax_21"}
  %Softmax_21.19 = f32[] parameter(1), metadata={op_name="Softmax_21"}
  ROOT %Softmax_21.20 = f32[] add(f32[] %Softmax_21.18, f32[] %Softmax_21.19), metadata={op_type="Softmax" op_name="Softmax_21"}
}

%Mean_43-reduction.88 (x.43: f32[], y.43: f32[]) -> f32[] {
  %x.43 = f32[] parameter(0)
  %y.43 = f32[] parameter(1)
  ROOT %add.46 = f32[] add(f32[] %x.43, f32[] %y.43)
}

%Mean_44-reduction.89 (x.44: f32[], y.44: f32[]) -> f32[] {
  %x.44 = f32[] parameter(0)
  %y.44 = f32[] parameter(1)
  ROOT %add.47 = f32[] add(f32[] %x.44, f32[] %y.44)
}

ENTRY %a_inference_llama_step_2218__.90 (arg0.1: f32[1,64,2048], arg1.1: f32[1,1,64,64], arg2.1: f32[1,1,64,64], arg3.1: f32[1,1,64,64], arg4.1: f32[2048], arg5.1: f32[2048,2048], arg6.1: f32[2048,256], arg7.1: f32[2048,256], arg8.1: f32[2048,2048], arg9.1: f32[2048], arg10.1: f32[2048,5632], arg11.1: f32[2048,5632], arg12.1: f32[5632,2048], arg13.1: f32[2048], arg14.1: f32[2048,2048], arg15.1: f32[2048,256], arg16.1: f32[2048,256], arg17.1: f32[2048,2048], arg18.1: f32[2048], arg19.1: f32[2048,5632], arg20.1: f32[2048,5632], arg21.1: f32[5632,2048], arg22.1: f32[2048], arg23.1: f32[2048,2048], arg24.1: f32[2048,256], arg25.1: f32[2048,256], arg26.1: f32[2048,2048], arg27.1: f32[2048], arg28.1: f32[2048,5632], arg29.1: f32[2048,5632], arg30.1: f32[5632,2048], arg31.1: f32[2048], arg32.1: f32[2048,2048], arg33.1: f32[2048,256], arg34.1: f32[2048,256], arg35.1: f32[2048,2048], arg36.1: f32[2048], arg37.1: f32[2048,5632], arg38.1: f32[2048,5632], arg39.1: f32[5632,2048], arg40.1: f32[2048], arg41.1: f32[2048,2048], arg42.1: f32[2048,256], arg43.1: f32[2048,256], arg44.1: f32[2048,2048], arg45.1: f32[2048], arg46.1: f32[2048,5632], arg47.1: f32[2048,5632], arg48.1: f32[5632,2048], arg49.1: f32[2048], arg50.1: f32[2048,2048], arg51.1: f32[2048,256], arg52.1: f32[2048,256], arg53.1: f32[2048,2048], arg54.1: f32[2048], arg55.1: f32[2048,5632], arg56.1: f32[2048,5632], arg57.1: f32[5632,2048], arg58.1: f32[2048], arg59.1: f32[2048,2048], arg60.1: f32[2048,256], arg61.1: f32[2048,256], arg62.1: f32[2048,2048], arg63.1: f32[2048], arg64.1: f32[2048,5632], arg65.1: f32[2048,5632], arg66.1: f32[5632,2048], arg67.1: f32[2048], arg68.1: f32[2048,2048], arg69.1: f32[2048,256], arg70.1: f32[2048,256], arg71.1: f32[2048,2048], arg72.1: f32[2048], arg73.1: f32[2048,5632], arg74.1: f32[2048,5632], arg75.1: f32[5632,2048], arg76.1: f32[2048], arg77.1: f32[2048,2048], arg78.1: f32[2048,256], arg79.1: f32[2048,256], arg80.1: f32[2048,2048], arg81.1: f32[2048], arg82.1: f32[2048,5632], arg83.1: f32[2048,5632], arg84.1: f32[5632,2048], arg85.1: f32[2048], arg86.1: f32[2048,2048], arg87.1: f32[2048,256], arg88.1: f32[2048,256], arg89.1: f32[2048,2048], arg90.1: f32[2048], arg91.1: f32[2048,5632], arg92.1: f32[2048,5632], arg93.1: f32[5632,2048], arg94.1: f32[2048], arg95.1: f32[2048,2048], arg96.1: f32[2048,256], arg97.1: f32[2048,256], arg98.1: f32[2048,2048], arg99.1: f32[2048], arg100.1: f32[2048,5632], arg101.1: f32[2048,5632], arg102.1: f32[5632,2048], arg103.1: f32[2048], arg104.1: f32[2048,2048], arg105.1: f32[2048,256], arg106.1: f32[2048,256], arg107.1: f32[2048,2048], arg108.1: f32[2048], arg109.1: f32[2048,5632], arg110.1: f32[2048,5632], arg111.1: f32[5632,2048], arg112.1: f32[2048], arg113.1: f32[2048,2048], arg114.1: f32[2048,256], arg115.1: f32[2048,256], arg116.1: f32[2048,2048], arg117.1: f32[2048], arg118.1: f32[2048,5632], arg119.1: f32[2048,5632], arg120.1: f32[5632,2048], arg121.1: f32[2048], arg122.1: f32[2048,2048], arg123.1: f32[2048,256], arg124.1: f32[2048,256], arg125.1: f32[2048,2048], arg126.1: f32[2048], arg127.1: f32[2048,5632], arg128.1: f32[2048,5632], arg129.1: f32[5632,2048], arg130.1: f32[2048], arg131.1: f32[2048,2048], arg132.1: f32[2048,256], arg133.1: f32[2048,256], arg134.1: f32[2048,2048], arg135.1: f32[2048], arg136.1: f32[2048,5632], arg137.1: f32[2048,5632], arg138.1: f32[5632,2048], arg139.1: f32[2048], arg140.1: f32[2048,2048], arg141.1: f32[2048,256], arg142.1: f32[2048,256], arg143.1: f32[2048,2048], arg144.1: f32[2048], arg145.1: f32[2048,5632], arg146.1: f32[2048,5632], arg147.1: f32[5632,2048], arg148.1: f32[2048], arg149.1: f32[2048,2048], arg150.1: f32[2048,256], arg151.1: f32[2048,256], arg152.1: f32[2048,2048], arg153.1: f32[2048], arg154.1: f32[2048,5632], arg155.1: f32[2048,5632], arg156.1: f32[5632,2048], arg157.1: f32[2048], arg158.1: f32[2048,2048], arg159.1: f32[2048,256], arg160.1: f32[2048,256], arg161.1: f32[2048,2048], arg162.1: f32[2048], arg163.1: f32[2048,5632], arg164.1: f32[2048,5632], arg165.1: f32[5632,2048], arg166.1: f32[2048], arg167.1: f32[2048,2048], arg168.1: f32[2048,256], arg169.1: f32[2048,256], arg170.1: f32[2048,2048], arg171.1: f32[2048], arg172.1: f32[2048,5632], arg173.1: f32[2048,5632], arg174.1: f32[5632,2048], arg175.1: f32[2048], arg176.1: f32[2048,2048], arg177.1: f32[2048,256], arg178.1: f32[2048,256], arg179.1: f32[2048,2048], arg180.1: f32[2048], arg181.1: f32[2048,5632], arg182.1: f32[2048,5632], arg183.1: f32[5632,2048], arg184.1: f32[2048], arg185.1: f32[2048,2048], arg186.1: f32[2048,256], arg187.1: f32[2048,256], arg188.1: f32[2048,2048], arg189.1: f32[2048], arg190.1: f32[2048,5632], arg191.1: f32[2048,5632], arg192.1: f32[5632,2048], arg193.1: f32[2048], arg194.1: f32[2048,2048], arg195.1: f32[2048,256], arg196.1: f32[2048,256], arg197.1: f32[2048,2048], arg198.1: f32[2048], arg199.1: f32[2048,5632], arg200.1: f32[2048,5632], arg201.1: f32[5632,2048], arg202.1: f32[2048], arg203.1: f32[2048,32000]) -> f32[1,64,32000] {
  %arg0.1 = f32[1,64,2048]{2,1,0} parameter(0), parameter_replication={false}, metadata={op_name="XLA_Args"}
  %reshape.204 = f32[1,64,2048]{2,1,0} reshape(f32[1,64,2048]{2,1,0} %arg0.1)
  %Square.1 = f32[1,64,2048]{2,1,0} multiply(f32[1,64,2048]{2,1,0} %reshape.204, f32[1,64,2048]{2,1,0} %reshape.204), metadata={op_type="Square" op_name="Square" source_file="<repo-root>/.venv/lib/python3.12/site-packages/tensorflow/python/framework/ops.py" source_line=1221}
  %Mean.10 = f32[1,64,2048]{2,1,0} convert(f32[1,64,2048]{2,1,0} %Square.1), metadata={op_type="Mean" op_name="Mean" source_file="<repo-root>/.venv/lib/python3.12/site-packages/tensorflow/python/framework/ops.py" source_line=1221}
  %Mean.11 = f32[] constant(0), metadata={op_type="Mean" op_name="Mean" source_file="<repo-root>/.venv/lib/python3.12/site-packages/tensorflow/python/framework/ops.py" source_line=1221}
  %Mean.12 = f32[] convert(f32[] %Mean.11), metadata={op_type="Mean" op_name="Mean" source_file="<repo-root>/.venv/lib/python3.12/site-packages/tensorflow/python/framework/ops.py" source_line=1221}
  %Mean.13 = f32[1,64]{1,0} reduce(f32[1,64,2048]{2,1,0} %Mean.10, f32[] %Mean.12), dimensions={2}, to_apply=%Mean-reduction.1, metadata={op_type="Mean" op_name="Mean" source_file="<repo-root>/.venv/lib/python3.12/site-packages/tensorflow/python/framework/ops.py" source_line=1221}
  %Mean.14 = s32[] constant(2048), metadata={op_type="Mean" op_name="Mean" source_file="<repo-root>/.venv/lib/python3.12/site-packages/tensorflow/python/framework/ops.py" source_line=1221}
  %Mean.15 = f32[] convert(s32[] %Mean.14), metadata={op_type="Mean" op_name="Mean" source_file="<repo-root>/.venv/lib/python3.12/site-packages/tensorflow/python/framework/ops.py" source_line=1221}
  %Mean.16 = f32[1,64]{1,0} broadcast(f32[] %Mean.15), dimensions={}, metadata={op_type="Mean" op_name="Mean" source_file="<repo-root>/.venv/lib/python3.12/site-packages/tensorflow/python/framework/ops.py" source_line=1221}
  %Mean.17 = f32[1,64]{1,0} divide(f32[1,64]{1,0} %Mean.13, f32[1,64]{1,0} %Mean.16), metadata={op_type="Mean" op_name="Mean" source_file="<repo-root>/.venv/lib/python3.12/site-packages/tensorflow/python/framework/ops.py" source_line=1221}
  %Mean.18 = f32[1,64]{1,0} convert(f32[1,64]{1,0} %Mean.17), metadata={op_type="Mean" op_name="Mean" source_file="<repo-root>/.venv/lib/python3.12/site-packages/tensorflow/python/framework/ops.py" source_line=1221}
  %Mean.19 = f32[1,64,1]{2,1,0} reshape(f32[1,64]{1,0} %Mean.18), metadata={op_type="Mean" op_name="Mean" source_file="<repo-root>/.venv/lib/python3.12/site-packages/tensorflow/python/framework/ops.py" source_line=1221}
  %add.48 = f32[] constant(1e-05), metadata={op_type="AddV2" op_name="add" source_file="<repo-root>/.venv/lib/python3.12/site-packages/tensorflow/python/framework/ops.py" source_line=1221}
  %add.49 = f32[1,64,1]{2,1,0} broadcast(f32[] %add.48), dimensions={}, metadata={op_type="AddV2" op_name="add" source_file="<repo-root>/.venv/lib/python3.12/site-packages/tensorflow/python/framework/ops.py" source_line=1221}
  %add.50 = f32[1,64,1]{2,1,0} add(f32[1,64,1]{2,1,0} %Mean.19, f32[1,64,1]{2,1,0} %add.49), metadata={op_type="AddV2" op_name="add" source_file="<repo-root>/.venv/lib/python3.12/site-packages/tensorflow/python/framework/ops.py" source_line=1221}
  %Rsqrt.1 = f32[1,64,1]{2,1,0} rsqrt(f32[1,64,1]{2,1,0} %add.50), metadata={op_type="Rsqrt" op_name="Rsqrt"}
  %mul.3 = f32[1,64]{1,0} reshape(f32[1,64,1]{2,1,0} %Rsqrt.1), metadata={op_type="Mul" op_name="mul" source_file="<repo-root>/.venv/lib/python3.12/site-packages/tensorflow/python/framework/ops.py" source_line=1221}
  %mul.4 = f32[1,64,2048]{2,1,0} broadcast(f32[1,64]{1,0} %mul.3), dimensions={0,1}, metadata={op_type="Mul" op_name="mul" source_file="<repo-root>/.venv/lib/python3.12/site-packages/tensorflow/python/framework/ops.py" source_line=1221}
  %mul.5 = f32[1,64,2048]{2,1,0} multiply(f32[1,64,2048]{2,1,0} %reshape.204, f32[1,64,2048]{2,1,0} %mul.4), metadata={op_type="Mul" op_name="mul" source_file="<repo-root>/.venv/lib/python3.12/site-packages/tensorflow/python/framework/ops.py" source_line=1221}
  %arg4.1 = f32[2048]{0} parameter(4), parameter_replication={false}, metadata={op_name="XLA_Args"}
  %reshape.208 = f32[2048]{0} reshape(f32[2048]{0} %arg4.1)
  %mul_1.2 = f32[1,64,2048]{2,1,0} broadcast(f32[2048]{0} %reshape.208), dimensions={2}, metadata={op_type="Mul" op_name="mul_1" source_file="<repo-root>/.venv/lib/python3.12/site-packages/tensorflow/python/framework/ops.py" source_line=1221}
  %mul_1.3 = f32[1,64,2048]{2,1,0} multiply(f32[1,64,2048]{2,1,0} %mul.5, f32[1,64,2048]{2,1,0} %mul_1.2), metadata={op_type="Mul" op_name="mul_1" source_file="<repo-root>/.venv/lib/python3.12/site-packages/tensorflow/python/framework/ops.py" source_line=1221}
  %arg5.1 = f32[2048,2048]{1,0} parameter(5), parameter_replication={false}, metadata={op_name="XLA_Args"}
  %reshape.209 = f32[2048,2048]{1,0} reshape(f32[2048,2048]{1,0} %arg5.1)
  %MatMul.2 = f32[1,64,2048]{2,1,0} dot(f32[1,64,2048]{2,1,0} %mul_1.3, f32[2048,2048]{1,0} %reshape.209), lhs_contracting_dims={2}, rhs_contracting_dims={0}, frontend_attributes={grad_x="false",grad_y="false"}, metadata={op_type="BatchMatMulV2" op_name="MatMul" source_file="<repo-root>/.venv/lib/python3.12/site-packages/tensorflow/python/framework/ops.py" source_line=1221}
  %MatMul.3 = f32[1,64,2048]{2,1,0} transpose(f32[1,64,2048]{2,1,0} %MatMul.2), dimensions={0,1,2}, metadata={op_type="BatchMatMulV2" op_name="MatMul" source_file="<repo-root>/.venv/lib/python3.12/site-packages/tensorflow/python/framework/ops.py" source_line=1221}
  %Reshape.1 = f32[1,64,32,64]{3,2,1,0} reshape(f32[1,64,2048]{2,1,0} %MatMul.3), metadata={op_type="Reshape" op_name="Reshape" source_file="<repo-root>/.venv/lib/python3.12/site-packages/tensorflow/python/framework/ops.py" source_line=1221}
  %transpose.1 = f32[1,32,64,64]{3,1,2,0} transpose(f32[1,64,32,64]{3,2,1,0} %Reshape.1), dimensions={0,2,1,3}, metadata={op_type="Transpose" op_name="transpose" source_file="<repo-root>/.venv/lib/python3.12/site-packages/tensorflow/python/framework/ops.py" source_line=1221}
  %arg1.1 = f32[1,1,64,64]{3,2,1,0} parameter(1), parameter_replication={false}, metadata={op_name="XLA_Args"}
  %reshape.205 = f32[1,1,64,64]{3,2,1,0} reshape(f32[1,1,64,64]{3,2,1,0} %arg1.1)
  %mul_2.3 = f32[1,64,64]{2,1,0} reshape(f32[1,1,64,64]{3,2,1,0} %reshape.205), metadata={op_type="Mul" op_name="mul_2" source_file="<repo-root>/.venv/lib/python3.12/site-packages/tensorflow/python/framework/ops.py" source_line=1221}
  %mul_2.4 = f32[1,32,64,64]{3,2,1,0} broadcast(f32[1,64,64]{2,1,0} %mul_2.3), dimensions={0,2,3}, metadata={op_type="Mul" op_name="mul_2" source_file="<repo-root>/.venv/lib/python3.12/site-packages/tensorflow/python/framework/ops.py" source_line=1221}
  %mul_2.5 = f32[1,32,64,64]{3,2,1,0} multiply(f32[1,32,64,64]{3,1,2,0} %transpose.1, f32[1,32,64,64]{3,2,1,0} %mul_2.4), metadata={op_type="Mul" op_name="mul_2" source_file="<repo-root>/.venv/lib/python3.12/site-packages/tensorflow/python/framework/ops.py" source_line=1221}
  %strided_slice_1.2 = f32[1,32,64,32]{3,2,1,0} slice(f32[1,32,64,64]{3,1,2,0} %transpose.1), slice={[0:1], [0:32], [0:64], [32:64]}, metadata={op_type="StridedSlice" op_name="strided_slice_1" source_file="<repo-root>/.venv/lib/python3.12/site-packages/tensorflow/python/framework/ops.py" source_line=1221}
  %strided_slice_1.3 = f32[1,32,64,32]{3,2,1,0} reshape(f32[1,32,64,32]{3,2,1,0} %strided_slice_1.2), metadata={op_type="StridedSlice" op_name="strided_slice_1" source_file="<repo-root>/.venv/lib/python3.12/site-packages/tensorflow/python/framework/ops.py" source_line=1221}
  %Neg.1 = f32[1,32,64,32]{3,2,1,0} negate(f32[1,32,64,32]{3,2,1,0} %strided_slice_1.3), metadata={op_type="Neg" op_name="Neg" source_file="<repo-root>/.venv/lib/python3.12/site-packages/tensorflow/python/framework/ops.py" source_line=1221}
  %strided_slice.2 = f32[1,32,64,32]{3,2,1,0} slice(f32[1,32,64,64]{3,1,2,0} %transpose.1), slice={[0:1], [0:32], [0:64], [0:32]}, metadata={op_type="StridedSlice" op_name="strided_slice" source_file="<repo-root>/.venv/lib/python3.12/site-packages/tensorflow/python/framework/ops.py" source_line=1221}
  %strided_slice.3 = f32[1,32,64,32]{3,2,1,0} reshape(f32[1,32,64,32]{3,2,1,0} %strided_slice.2), metadata={op_type="StridedSlice" op_name="strided_slice" source_file="<repo-root>/.venv/lib/python3.12/site-packages/tensorflow/python/framework/ops.py" source_line=1221}
  %concat.1 = f32[1,32,64,64]{3,2,1,0} concatenate(f32[1,32,64,32]{3,2,1,0} %Neg.1, f32[1,32,64,32]{3,2,1,0} %strided_slice.3), dimensions={3}, metadata={op_type="ConcatV2" op_name="concat" source_file="<repo-root>/.venv/lib/python3.12/site-packages/tensorflow/python/framework/ops.py" source_line=1221}
  %arg2.1 = f32[1,1,64,64]{3,2,1,0} parameter(2), parameter_replication={false}, metadata={op_name="XLA_Args"}
  %reshape.206 = f32[1,1,64,64]{3,2,1,0} reshape(f32[1,1,64,64]{3,2,1,0} %arg2.1)
  %mul_3.3 = f32[1,64,64]{2,1,0} reshape(f32[1,1,64,64]{3,2,1,0} %reshape.206), metadata={op_type="Mul" op_name="mul_3" source_file="<repo-root>/.venv/lib/python3.12/site-packages/tensorflow/python/framework/ops.py" source_line=1221}
  %mul_3.4 = f32[1,32,64,64]{3,2,1,0} broadcast(f32[1,64,64]{2,1,0} %mul_3.3), dimensions={0,2,3}, metadata={op_type="Mul" op_name="mul_3" source_file="<repo-root>/.venv/lib/python3.12/site-packages/tensorflow/python/framework/ops.py" source_line=1221}
  %mul_3.5 = f32[1,32,64,64]{3,2,1,0} multiply(f32[1,32,64,64]{3,2,1,0} %concat.1, f32[1,32,64,64]{3,2,1,0} %mul_3.4), metadata={op_type="Mul" op_name="mul_3" source_file="<repo-root>/.venv/lib/python3.12/site-packages/tensorflow/python/framework/ops.py" source_line=1221}
  %add_1.1 = f32[1,32,64,64]{3,2,1,0} add(f32[1,32,64,64]{3,2,1,0} %mul_2.5, f32[1,32,64,64]{3,2,1,0} %mul_3.5), metadata={op_type="AddV2" op_name="add_1" source_file="<repo-root>/.venv/lib/python3.12/site-packages/tensorflow/python/framework/ops.py" source_line=1221}
  %arg6.1 = f32[2048,256]{1,0} parameter(6), parameter_replication={false}, metadata={op_name="XLA_Args"}
  %reshape.210 = f32[2048,256]{1,0} reshape(f32[2048,256]{1,0} %arg6.1)
  %MatMul_1.2 = f32[1,64,256]{2,1,0} dot(f32[1,64,2048]{2,1,0} %mul_1.3, f32[2048,256]{1,0} %reshape.210), lhs_contracting_dims={2}, rhs_contracting_dims={0}, frontend_attributes={grad_x="false",grad_y="false"}, metadata={op_type="BatchMatMulV2" op_name="MatMul_1" source_file="<repo-root>/.venv/lib/python3.12/site-packages/tensorflow/python/framework/ops.py" source_line=1221}
  %MatMul_1.3 = f32[1,64,256]{2,1,0} transpose(f32[1,64,256]{2,1,0} %MatMul_1.2), dimensions={0,1,2}, metadata={op_type="BatchMatMulV2" op_name="MatMul_1" source_file="<repo-root>/.venv/lib/python3.12/site-packages/tensorflow/python/framework/ops.py" source_line=1221}
  %Reshape_1.1 = f32[1,64,4,64]{3,2,1,0} reshape(f32[1,64,256]{2,1,0} %MatMul_1.3), metadata={op_type="Reshape" op_name="Reshape_1" source_file="<repo-root>/.venv/lib/python3.12/site-packages/tensorflow/python/framework/ops.py" source_line=1221}
  %transpose_1.1 = f32[1,4,64,64]{3,1,2,0} transpose(f32[1,64,4,64]{3,2,1,0} %Reshape_1.1), dimensions={0,2,1,3}, metadata={op_type="Transpose" op_name="transpose_1" source_file="<repo-root>/.venv/lib/python3.12/site-packages/tensorflow/python/framework/ops.py" source_line=1221}
  %mul_4.3 = f32[1,64,64]{2,1,0} reshape(f32[1,1,64,64]{3,2,1,0} %reshape.205), metadata={op_type="Mul" op_name="mul_4" source_file="<repo-root>/.venv/lib/python3.12/site-packages/tensorflow/python/framework/ops.py" source_line=1221}
  %mul_4.4 = f32[1,4,64,64]{3,2,1,0} broadcast(f32[1,64,64]{2,1,0} %mul_4.3), dimensions={0,2,3}, metadata={op_type="Mul" op_name="mul_4" source_file="<repo-root>/.venv/lib/python3.12/site-packages/tensorflow/python/framework/ops.py" source_line=1221}
  %mul_4.5 = f32[1,4,64,64]{3,2,1,0} multiply(f32[1,4,64,64]{3,1,2,0} %transpose_1.1, f32[1,4,64,64]{3,2,1,0} %mul_4.4), metadata={op_type="Mul" op_name="mul_4" source_file="<repo-root>/.venv/lib/python3.12/site-packages/tensorflow/python/framework/ops.py" source_line=1221}
  %strided_slice_3.2 = f32[1,4,64,32]{3,2,1,0} slice(f32[1,4,64,64]{3,1,2,0} %transpose_1.1), slice={[0:1], [0:4], [0:64], [32:64]}, metadata={op_type="StridedSlice" op_name="strided_slice_3" source_file="<repo-root>/.venv/lib/python3.12/site-packages/tensorflow/python/framework/ops.py" source_line=1221}
  %strided_slice_3.3 = f32[1,4,64,32]{3,2,1,0} reshape(f32[1,4,64,32]{3,2,1,0} %strided_slice_3.2), metadata={op_type="StridedSlice" op_name="strided_slice_3" source_file="<repo-root>/.venv/lib/python3.12/site-packages/tensorflow/python/framework/ops.py" source_line=1221}
  %Neg_1.1 = f32[1,4,64,32]{3,2,1,0} negate(f32[1,4,64,32]{3,2,1,0} %strided_slice_3.3), metadata={op_type="Neg" op_name="Neg_1" source_file="<repo-root>/.venv/lib/python3.12/site-packages/tensorflow/python/framework/ops.py" source_line=1221}
  %strided_slice_2.2 = f32[1,4,64,32]{3,2,1,0} slice(f32[1,4,64,64]{3,1,2,0} %transpose_1.1), slice={[0:1], [0:4], [0:64], [0:32]}, metadata={op_type="StridedSlice" op_name="strided_slice_2" source_file="<repo-root>/.venv/lib/python3.12/site-packages/tensorflow/python/framework/ops.py" source_line=1221}
  %strided_slice_2.3 = f32[1,4,64,32]{3,2,1,0} reshape(f32[1,4,64,32]{3,2,1,0} %strided_slice_2.2), metadata={op_type="StridedSlice" op_name="strided_slice_2" source_file="<repo-root>/.venv/lib/python3.12/site-packages/tensorflow/python/framework/ops.py" source_line=1221}
  %concat_1.1 = f32[1,4,64,64]{3,2,1,0} concatenate(f32[1,4,64,32]{3,2,1,0} %Neg_1.1, f32[1,4,64,32]{3,2,1,0} %strided_slice_2.3), dimensions={3}, metadata={op_type="ConcatV2" op_name="concat_1" source_file="<repo-root>/.venv/lib/python3.12/site-packages/tensorflow/python/framework/ops.py" source_line=1221}
  %mul_5.3 = f32[1,64,64]{2,1,0} reshape(f32[1,1,64,64]{3,2,1,0} %reshape.206), metadata={op_type="Mul" op_name="mul_5" source_file="<repo-root>/.venv/lib/python3.12/site-packages/tensorflow/python/framework/ops.py" source_line=1221}
  %mul_5.4 = f32[1,4,64,64]{3,2,1,0} broadcast(f32[1,64,64]{2,1,0} %mul_5.3), dimensions={0,2,3}, metadata={op_type="Mul" op_name="mul_5" source_file="<repo-root>/.venv/lib/python3.12/site-packages/tensorflow/python/framework/ops.py" source_line=1221}
  %mul_5.5 = f32[1,4,64,64]{3,2,1,0} multiply(f32[1,4,64,64]{3,2,1,0} %concat_1.1, f32[1,4,64,64]{3,2,1,0} %mul_5.4), metadata={op_type="Mul" op_name="mul_5" source_file="<repo-root>/.venv/lib/python3.12/site-packages/tensorflow/python/framework/ops.py" source_line=1221}
  %add_2.1 = f32[1,4,64,64]{3,2,1,0} add(f32[1,4,64,64]{3,2,1,0} %mul_4.5, f32[1,4,64,64]{3,2,1,0} %mul_5.5), metadata={op_type="AddV2" op_name="add_2" source_file="<repo-root>/.venv/lib/python3.12/site-packages/tensorflow/python/framework/ops.py" source_line=1221}
  %Reshape_3.1 = f32[1,4,1,64,64]{4,3,2,1,0} reshape(f32[1,4,64,64]{3,2,1,0} %add_2.1), metadata={op_type="Reshape" op_name="Reshape_3" source_file="<repo-root>/.venv/lib/python3.12/site-packages/tensorflow/python/framework/ops.py" source_line=1221}
  %Tile.3 = f32[1,4,1,64,64]{4,3,2,1,0} broadcast(f32[1,4,1,64,64]{4,3,2,1,0} %Reshape_3.1), dimensions={0,1,2,3,4}, metadata={op_type="Tile" op_name="Tile" source_file="<repo-root>/.venv/lib/python3.12/site-packages/tensorflow/python/framework/ops.py" source_line=1221}
  %Tile.4 = f32[1,4,64,64]{3,2,1,0} reshape(f32[1,4,1,64,64]{4,3,2,1,0} %Tile.3), metadata={op_type="Tile" op_name="Tile" source_file="<repo-root>/.venv/lib/python3.12/site-packages/tensorflow/python/framework/ops.py" source_line=1221}
  %Tile.5 = f32[1,4,8,64,64]{4,3,2,1,0} broadcast(f32[1,4,64,64]{3,2,1,0} %Tile.4), dimensions={0,1,3,4}, metadata={op_type="Tile" op_name="Tile" source_file="<repo-root>/.venv/lib/python3.12/site-packages/tensorflow/python/framework/ops.py" source_line=1221}
  %Reshape_4.1 = f32[1,32,64,64]{3,2,1,0} reshape(f32[1,4,8,64,64]{4,3,2,1,0} %Tile.5), metadata={op_type="Reshape" op_name="Reshape_4" source_file="<repo-root>/.venv/lib/python3.12/site-packages/tensorflow/python/framework/ops.py" source_line=1221}
  %MatMul_3.2 = f32[1,32,64,64]{3,2,1,0} dot(f32[1,32,64,64]{3,2,1,0} %add_1.1, f32[1,32,64,64]{3,2,1,0} %Reshape_4.1), lhs_batch_dims={0,1}, lhs_contracting_dims={3}, rhs_batch_dims={0,1}, rhs_contracting_dims={3}, frontend_attributes={grad_x="false",grad_y="false"}, metadata={op_type="BatchMatMulV2" op_name="MatMul_3" source_file="<repo-root>/.venv/lib/python3.12/site-packages/tensorflow/python/framework/ops.py" source_line=1221}
  %MatMul_3.3 = f32[1,32,64,64]{3,2,1,0} transpose(f32[1,32,64,64]{3,2,1,0} %MatMul_3.2), dimensions={0,1,2,3}, metadata={op_type="BatchMatMulV2" op_name="MatMul_3" source_file="<repo-root>/.venv/lib/python3.12/site-packages/tensorflow/python/framework/ops.py" source_line=1221}
  %mul_6.3 = f32[] constant(0.125), metadata={op_type="Mul" op_name="mul_6" source_file="<repo-root>/.venv/lib/python3.12/site-packages/tensorflow/python/framework/ops.py" source_line=1221}
  %mul_6.4 = f32[1,32,64,64]{3,2,1,0} broadcast(f32[] %mul_6.3), dimensions={}, metadata={op_type="Mul" op_name="mul_6" source_file="<repo-root>/.venv/lib/python3.12/site-packages/tensorflow/python/framework/ops.py" source_line=1221}
  %mul_6.5 = f32[1,32,64,64]{3,2,1,0} multiply(f32[1,32,64,64]{3,2,1,0} %MatMul_3.3, f32[1,32,64,64]{3,2,1,0} %mul_6.4), metadata={op_type="Mul" op_name="mul_6" source_file="<repo-root>/.venv/lib/python3.12/site-packages/tensorflow/python/framework/ops.py" source_line=1221}
  %arg3.1 = f32[1,1,64,64]{3,2,1,0} parameter(3), parameter_replication={false}, metadata={op_name="XLA_Args"}
  %reshape.207 = f32[1,1,64,64]{3,2,1,0} reshape(f32[1,1,64,64]{3,2,1,0} %arg3.1)
  %add_3.3 = f32[1,64,64]{2,1,0} reshape(f32[1,1,64,64]{3,2,1,0} %reshape.207), metadata={op_type="AddV2" op_name="add_3" source_file="<repo-root>/.venv/lib/python3.12/site-packages/tensorflow/python/framework/ops.py" source_line=1221}
  %add_3.4 = f32[1,32,64,64]{3,2,1,0} broadcast(f32[1,64,64]{2,1,0} %add_3.3), dimensions={0,2,3}, metadata={op_type="AddV2" op_name="add_3" source_file="<repo-root>/.venv/lib/python3.12/site-packages/tensorflow/python/framework/ops.py" source_line=1221}
  %add_3.5 = f32[1,32,64,64]{3,2,1,0} add(f32[1,32,64,64]{3,2,1,0} %mul_6.5, f32[1,32,64,64]{3,2,1,0} %add_3.4), metadata={op_type="AddV2" op_name="add_3" source_file="<repo-root>/.venv/lib/python3.12/site-packages/tensorflow/python/framework/ops.py" source_line=1221}
  %Softmax.28 = f32[] constant(-inf), metadata={op_type="Softmax" op_name="Softmax" source_file="<repo-root>/.venv/lib/python3.12/site-packages/tensorflow/python/framework/ops.py" source_line=1221}
  %Softmax.29 = f32[1,32,64]{2,1,0} reduce(f32[1,32,64,64]{3,2,1,0} %add_3.5, f32[] %Softmax.28), dimensions={3}, to_apply=%region_0.2, metadata={op_type="Softmax" op_name="Softmax"}
  %Softmax.30 = f32[1,32,64,1]{3,2,1,0} reshape(f32[1,32,64]{2,1,0} %Softmax.29), metadata={op_type="Softmax" op_name="Softmax"}
  %Softmax.31 = f32[1,32,64,1]{3,2,1,0} broadcast(f32[1,32,64,1]{3,2,1,0} %Softmax.30), dimensions={0,1,2,3}, metadata={op_type="Softmax" op_name="Softmax"}
  %Softmax.32 = f32[1,32,64]{2,1,0} reshape(f32[1,32,64,1]{3,2,1,0} %Softmax.31), metadata={op_type="Softmax" op_name="Softmax"}
  %Softmax.33 = f32[1,32,64,64]{3,2,1,0} broadcast(f32[1,32,64]{2,1,0} %Softmax.32), dimensions={0,1,2}, metadata={op_type="Softmax" op_name="Softmax"}
  %Softmax.34 = f32[1,32,64,64]{3,2,1,0} subtract(f32[1,32,64,64]{3,2,1,0} %add_3.5, f32[1,32,64,64]{3,2,1,0} %Softmax.33), metadata={op_type="Softmax" op_name="Softmax"}
  %Softmax.35 = f32[1,32,64,64]{3,2,1,0} exponential(f32[1,32,64,64]{3,2,1,0} %Softmax.34), metadata={op_type="Softmax" op_name="Softmax"}
  %Softmax.27 = f32[] constant(-0), metadata={op_type="Softmax" op_name="Softmax" source_file="<repo-root>/.venv/lib/python3.12/site-packages/tensorflow/python/framework/ops.py" source_line=1221}
  %Softmax.36 = f32[1,32,64]{2,1,0} reduce(f32[1,32,64,64]{3,2,1,0} %Softmax.35, f32[] %Softmax.27), dimensions={3}, to_apply=%region_1.3, metadata={op_type="Softmax" op_name="Softmax"}
  %Softmax.37 = f32[1,32,64,1]{3,2,1,0} reshape(f32[1,32,64]{2,1,0} %Softmax.36), metadata={op_type="Softmax" op_name="Softmax"}
  %Softmax.38 = f32[1,32,64,1]{3,2,1,0} broadcast(f32[1,32,64,1]{3,2,1,0} %Softmax.37), dimensions={0,1,2,3}, metadata={op_type="Softmax" op_name="Softmax"}
  %Softmax.39 = f32[1,32,64]{2,1,0} reshape(f32[1,32,64,1]{3,2,1,0} %Softmax.38), metadata={op_type="Softmax" op_name="Softmax"}
  %Softmax.40 = f32[1,32,64,64]{3,2,1,0} broadcast(f32[1,32,64]{2,1,0} %Softmax.39), dimensions={0,1,2}, metadata={op_type="Softmax" op_name="Softmax"}
  %Softmax.41 = f32[1,32,64,64]{3,2,1,0} divide(f32[1,32,64,64]{3,2,1,0} %Softmax.35, f32[1,32,64,64]{3,2,1,0} %Softmax.40), metadata={op_type="Softmax" op_name="Softmax"}
  %arg7.1 = f32[2048,256]{1,0} parameter(7), parameter_replication={false}, metadata={op_name="XLA_Args"}
  %reshape.211 = f32[2048,256]{1,0} reshape(f32[2048,256]{1,0} %arg7.1)
  %MatMul_2.2 = f32[1,64,256]{2,1,0} dot(f32[1,64,2048]{2,1,0} %mul_1.3, f32[2048,256]{1,0} %reshape.211), lhs_contracting_dims={2}, rhs_contracting_dims={0}, frontend_attributes={grad_x="false",grad_y="false"}, metadata={op_type="BatchMatMulV2" op_name="MatMul_2" source_file="<repo-root>/.venv/lib/python3.12/site-packages/tensorflow/python/framework/ops.py" source_line=1221}
  %MatMul_2.3 = f32[1,64,256]{2,1,0} transpose(f32[1,64,256]{2,1,0} %MatMul_2.2), dimensions={0,1,2}, metadata={op_type="BatchMatMulV2" op_name="MatMul_2" source_file="<repo-root>/.venv/lib/python3.12/site-packages/tensorflow/python/framework/ops.py" source_line=1221}
  %Reshape_2.1 = f32[1,64,4,64]{3,2,1,0} reshape(f32[1,64,256]{2,1,0} %MatMul_2.3), metadata={op_type="Reshape" op_name="Reshape_2" source_file="<repo-root>/.venv/lib/python3.12/site-packages/tensorflow/python/framework/ops.py" source_line=1221}
  %transpose_2.1 = f32[1,4,64,64]{3,1,2,0} transpose(f32[1,64,4,64]{3,2,1,0} %Reshape_2.1), dimensions={0,2,1,3}, metadata={op_type="Transpose" op_name="transpose_2" source_file="<repo-root>/.venv/lib/python3.12/site-packages/tensorflow/python/framework/ops.py" source_line=1221}
  %Reshape_5.1 = f32[1,4,1,64,64]{4,3,2,1,0} reshape(f32[1,4,64,64]{3,1,2,0} %transpose_2.1), metadata={op_type="Reshape" op_name="Reshape_5" source_file="<repo-root>/.venv/lib/python3.12/site-packages/tensorflow/python/framework/ops.py" source_line=1221}
  %Tile_1.3 = f32[1,4,1,64,64]{4,3,2,1,0} broadcast(f32[1,4,1,64,64]{4,3,2,1,0} %Reshape_5.1), dimensions={0,1,2,3,4}, metadata={op_type="Tile" op_name="Tile_1" source_file="<repo-root>/.venv/lib/python3.12/site-packages/tensorflow/python/framework/ops.py" source_line=1221}
  %Tile_1.4 = f32[1,4,64,64]{3,2,1,0} reshape(f32[1,4,1,64,64]{4,3,2,1,0} %Tile_1.3), metadata={op_type="Tile" op_name="Tile_1" source_file="<repo-root>/.venv/lib/python3.12/site-packages/tensorflow/python/framework/ops.py" source_line=1221}
  %Tile_1.5 = f32[1,4,8,64,64]{4,3,2,1,0} broadcast(f32[1,4,64,64]{3,2,1,0} %Tile_1.4), dimensions={0,1,3,4}, metadata={op_type="Tile" op_name="Tile_1" source_file="<repo-root>/.venv/lib/python3.12/site-packages/tensorflow/python/framework/ops.py" source_line=1221}
  %Reshape_6.1 = f32[1,32,64,64]{3,2,1,0} reshape(f32[1,4,8,64,64]{4,3,2,1,0} %Tile_1.5), metadata={op_type="Reshape" op_name="Reshape_6" source_file="<repo-root>/.venv/lib/python3.12/site-packages/tensorflow/python/framework/ops.py" source_line=1221}
  %MatMul_4.2 = f32[1,32,64,64]{3,2,1,0} dot(f32[1,32,64,64]{3,2,1,0} %Softmax.41, f32[1,32,64,64]{3,2,1,0} %Reshape_6.1), lhs_batch_dims={0,1}, lhs_contracting_dims={3}, rhs_batch_dims={0,1}, rhs_contracting_dims={2}, frontend_attributes={grad_x="false",grad_y="false"}, metadata={op_type="BatchMatMulV2" op_name="MatMul_4" source_file="<repo-root>/.venv/lib/python3.12/site-packages/tensorflow/python/framework/ops.py" source_line=1221}
  %MatMul_4.3 = f32[1,32,64,64]{3,2,1,0} transpose(f32[1,32,64,64]{3,2,1,0} %MatMul_4.2), dimensions={0,1,2,3}, metadata={op_type="BatchMatMulV2" op_name="MatMul_4" source_file="<repo-root>/.venv/lib/python3.12/site-packages/tensorflow/python/framework/ops.py" source_line=1221}
  %transpose_3.1 = f32[1,64,32,64]{3,1,2,0} transpose(f32[1,32,64,64]{3,2,1,0} %MatMul_4.3), dimensions={0,2,1,3}, metadata={op_type="Transpose" op_name="transpose_3" source_file="<repo-root>/.venv/lib/python3.12/site-packages/tensorflow/python/framework/ops.py" source_line=1221}
  %Reshape_7.1 = f32[1,64,2048]{2,1,0} reshape(f32[1,64,32,64]{3,1,2,0} %transpose_3.1), metadata={op_type="Reshape" op_name="Reshape_7" source_file="<repo-root>/.venv/lib/python3.12/site-packages/tensorflow/python/framework/ops.py" source_line=1221}
  %arg8.1 = f32[2048,2048]{1,0} parameter(8), parameter_replication={false}, metadata={op_name="XLA_Args"}
  %reshape.212 = f32[2048,2048]{1,0} reshape(f32[2048,2048]{1,0} %arg8.1)
  %MatMul_5.2 = f32[1,64,2048]{2,1,0} dot(f32[1,64,2048]{2,1,0} %Reshape_7.1, f32[2048,2048]{1,0} %reshape.212), lhs_contracting_dims={2}, rhs_contracting_dims={0}, frontend_attributes={grad_x="false",grad_y="false"}, metadata={op_type="BatchMatMulV2" op_name="MatMul_5" source_file="<repo-root>/.venv/lib/python3.12/site-packages/tensorflow/python/framework/ops.py" source_line=1221}
  %MatMul_5.3 = f32[1,64,2048]{2,1,0} transpose(f32[1,64,2048]{2,1,0} %MatMul_5.2), dimensions={0,1,2}, metadata={op_type="BatchMatMulV2" op_name="MatMul_5" source_file="<repo-root>/.venv/lib/python3.12/site-packages/tensorflow/python/framework/ops.py" source_line=1221}
  %add_4.1 = f32[1,64,2048]{2,1,0} add(f32[1,64,2048]{2,1,0} %reshape.204, f32[1,64,2048]{2,1,0} %MatMul_5.3), metadata={op_type="AddV2" op_name="add_4" source_file="<repo-root>/.venv/lib/python3.12/site-packages/tensorflow/python/framework/ops.py" source_line=1221}
  %Square_1.1 = f32[1,64,2048]{2,1,0} multiply(f32[1,64,2048]{2,1,0} %add_4.1, f32[1,64,2048]{2,1,0} %add_4.1), metadata={op_type="Square" op_name="Square_1" source_file="<repo-root>/.venv/lib/python3.12/site-packages/tensorflow/python/framework/ops.py" source_line=1221}
  %Mean_1.10 = f32[1,64,2048]{2,1,0} convert(f32[1,64,2048]{2,1,0} %Square_1.1), metadata={op_type="Mean" op_name="Mean_1" source_file="<repo-root>/.venv/lib/python3.12/site-packages/tensorflow/python/framework/ops.py" source_line=1221}
  %Mean_1.11 = f32[] constant(0), metadata={op_type="Mean" op_name="Mean_1" source_file="<repo-root>/.venv/lib/python3.12/site-packages/tensorflow/python/framework/ops.py" source_line=1221}
  %Mean_1.12 = f32[] convert(f32[] %Mean_1.11), metadata={op_type="Mean" op_name="Mean_1" source_file="<repo-root>/.venv/lib/python3.12/site-packages/tensorflow/python/framework/ops.py" source_line=1221}
  %Mean_1.13 = f32[1,64]{1,0} reduce(f32[1,64,2048]{2,1,0} %Mean_1.10, f32[] %Mean_1.12), dimensions={2}, to_apply=%Mean_1-reduction.4, metadata={op_type="Mean" op_name="Mean_1" source_file="<repo-root>/.venv/lib/python3.12/site-packages/tensorflow/python/framework/ops.py" source_line=1221}
  %Mean_1.14 = s32[] constant(2048), metadata={op_type="Mean" op_name="Mean_1" source_file="<repo-root>/.venv/lib/python3.12/site-packages/tensorflow/python/framework/ops.py" source_line=1221}
  %Mean_1.15 = f32[] convert(s32[] %Mean_1.14), metadata={op_type="Mean" op_name="Mean_1" source_file="<repo-root>/.venv/lib/python3.12/site-packages/tensorflow/python/framework/ops.py" source_line=1221}
  %Mean_1.16 = f32[1,64]{1,0} broadcast(f32[] %Mean_1.15), dimensions={}, metadata={op_type="Mean" op_name="Mean_1" source_file="<repo-root>/.venv/lib/python3.12/site-packages/tensorflow/python/framework/ops.py" source_line=1221}
  %Mean_1.17 = f32[1,64]{1,0} divide(f32[1,64]{1,0} %Mean_1.13, f32[1,64]{1,0} %Mean_1.16), metadata={op_type="Mean" op_name="Mean_1" source_file="<repo-root>/.venv/lib/python3.12/site-packages/tensorflow/python/framework/ops.py" source_line=1221}
  %Mean_1.18 = f32[1,64]{1,0} convert(f32[1,64]{1,0} %Mean_1.17), metadata={op_type="Mean" op_name="Mean_1" source_file="<repo-root>/.venv/lib/python3.12/site-packages/tensorflow/python/framework/ops.py" source_line=1221}
  %Mean_1.19 = f32[1,64,1]{2,1,0} reshape(f32[1,64]{1,0} %Mean_1.18), metadata={op_type="Mean" op_name="Mean_1" source_file="<repo-root>/.venv/lib/python3.12/site-packages/tensorflow/python/framework/ops.py" source_line=1221}
  %add_5.3 = f32[] constant(1e-05), metadata={op_type="AddV2" op_name="add_5" source_file="<repo-root>/.venv/lib/python3.12/site-packages/tensorflow/python/framework/ops.py" source_line=1221}
  %add_5.4 = f32[1,64,1]{2,1,0} broadcast(f32[] %add_5.3), dimensions={}, metadata={op_type="AddV2" op_name="add_5" source_file="<repo-root>/.venv/lib/python3.12/site-packages/tensorflow/python/framework/ops.py" source_line=1221}
  %add_5.5 = f32[1,64,1]{2,1,0} add(f32[1,64,1]{2,1,0} %Mean_1.19, f32[1,64,1]{2,1,0} %add_5.4), metadata={op_type="AddV2" op_name="add_5" source_file="<repo-root>/.venv/lib/python3.12/site-packages/tensorflow/python/framework/ops.py" source_line=1221}
  %Rsqrt_2.1 = f32[1,64,1]{2,1,0} rsqrt(f32[1,64,1]{2,1,0} %add_5.5), metadata={op_type="Rsqrt" op_name="Rsqrt_2"}
  %mul_7.3 = f32[1,64]{1,0} reshape(f32[1,64,1]{2,1,0} %Rsqrt_2.1), metadata={op_type="Mul" op_name="mul_7" source_file="<repo-root>/.venv/lib/python3.12/site-packages/tensorflow/python/framework/ops.py" source_line=1221}
  %mul_7.4 = f32[1,64,2048]{2,1,0} broadcast(f32[1,64]{1,0} %mul_7.3), dimensions={0,1}, metadata={op_type="Mul" op_name="mul_7" source_file="<repo-root>/.venv/lib/python3.12/site-packages/tensorflow/python/framework/ops.py" source_line=1221}
  %mul_7.5 = f32[1,64,2048]{2,1,0} multiply(f32[1,64,2048]{2,1,0} %add_4.1, f32[1,64,2048]{2,1,0} %mul_7.4), metadata={op_type="Mul" op_name="mul_7" source_file="<repo-root>/.venv/lib/python3.12/site-packages/tensorflow/python/framework/ops.py" source_line=1221}
  %arg9.1 = f32[2048]{0} parameter(9), parameter_replication={false}, metadata={op_name="XLA_Args"}
  %reshape.213 = f32[2048]{0} reshape(f32[2048]{0} %arg9.1)
  %mul_8.2 = f32[1,64,2048]{2,1,0} broadcast(f32[2048]{0} %reshape.213), dimensions={2}, metadata={op_type="Mul" op_name="mul_8" source_file="<repo-root>/.venv/lib/python3.12/site-packages/tensorflow/python/framework/ops.py" source_line=1221}
  %mul_8.3 = f32[1,64,2048]{2,1,0} multiply(f32[1,64,2048]{2,1,0} %mul_7.5, f32[1,64,2048]{2,1,0} %mul_8.2), metadata={op_type="Mul" op_name="mul_8" source_file="<repo-root>/.venv/lib/python3.12/site-packages/tensorflow/python/framework/ops.py" source_line=1221}
  %arg10.1 = f32[2048,5632]{1,0} parameter(10), parameter_replication={false}, metadata={op_name="XLA_Args"}
  %reshape.214 = f32[2048,5632]{1,0} reshape(f32[2048,5632]{1,0} %arg10.1)
  %MatMul_6.2 = f32[1,64,5632]{2,1,0} dot(f32[1,64,2048]{2,1,0} %mul_8.3, f32[2048,5632]{1,0} %reshape.214), lhs_contracting_dims={2}, rhs_contracting_dims={0}, frontend_attributes={grad_x="false",grad_y="false"}, metadata={op_type="BatchMatMulV2" op_name="MatMul_6" source_file="<repo-root>/.venv/lib/python3.12/site-packages/tensorflow/python/framework/ops.py" source_line=1221}
  %MatMul_6.3 = f32[1,64,5632]{2,1,0} transpose(f32[1,64,5632]{2,1,0} %MatMul_6.2), dimensions={0,1,2}, metadata={op_type="BatchMatMulV2" op_name="MatMul_6" source_file="<repo-root>/.venv/lib/python3.12/site-packages/tensorflow/python/framework/ops.py" source_line=1221}
  %Sigmoid.1 = f32[1,64,5632]{2,1,0} logistic(f32[1,64,5632]{2,1,0} %MatMul_6.3), metadata={op_type="Sigmoid" op_name="Sigmoid"}
  %mul_9.1 = f32[1,64,5632]{2,1,0} multiply(f32[1,64,5632]{2,1,0} %MatMul_6.3, f32[1,64,5632]{2,1,0} %Sigmoid.1), metadata={op_type="Mul" op_name="mul_9" source_file="<repo-root>/.venv/lib/python3.12/site-packages/tensorflow/python/framework/ops.py" source_line=1221}
  %arg11.1 = f32[2048,5632]{1,0} parameter(11), parameter_replication={false}, metadata={op_name="XLA_Args"}
  %reshape.215 = f32[2048,5632]{1,0} reshape(f32[2048,5632]{1,0} %arg11.1)
  %MatMul_7.2 = f32[1,64,5632]{2,1,0} dot(f32[1,64,2048]{2,1,0} %mul_8.3, f32[2048,5632]{1,0} %reshape.215), lhs_contracting_dims={2}, rhs_contracting_dims={0}, frontend_attributes={grad_x="false",grad_y="false"}, metadata={op_type="BatchMatMulV2" op_name="MatMul_7" source_file="<repo-root>/.venv/lib/python3.12/site-packages/tensorflow/python/framework/ops.py" source_line=1221}
  %MatMul_7.3 = f32[1,64,5632]{2,1,0} transpose(f32[1,64,5632]{2,1,0} %MatMul_7.2), dimensions={0,1,2}, metadata={op_type="BatchMatMulV2" op_name="MatMul_7" source_file="<repo-root>/.venv/lib/python3.12/site-packages/tensorflow/python/framework/ops.py" source_line=1221}
  %mul_10.1 = f32[1,64,5632]{2,1,0} multiply(f32[1,64,5632]{2,1,0} %mul_9.1, f32[1,64,5632]{2,1,0} %MatMul_7.3), metadata={op_type="Mul" op_name="mul_10" source_file="<repo-root>/.venv/lib/python3.12/site-packages/tensorflow/python/framework/ops.py" source_line=1221}
  %arg12.1 = f32[5632,2048]{1,0} parameter(12), parameter_replication={false}, metadata={op_name="XLA_Args"}
  %reshape.216 = f32[5632,2048]{1,0} reshape(f32[5632,2048]{1,0} %arg12.1)
  %MatMul_8.2 = f32[1,64,2048]{2,1,0} dot(f32[1,64,5632]{2,1,0} %mul_10.1, f32[5632,2048]{1,0} %reshape.216), lhs_contracting_dims={2}, rhs_contracting_dims={0}, frontend_attributes={grad_x="false",grad_y="false"}, metadata={op_type="BatchMatMulV2" op_name="MatMul_8" source_file="<repo-root>/.venv/lib/python3.12/site-packages/tensorflow/python/framework/ops.py" source_line=1221}
  %MatMul_8.3 = f32[1,64,2048]{2,1,0} transpose(f32[1,64,2048]{2,1,0} %MatMul_8.2), dimensions={0,1,2}, metadata={op_type="BatchMatMulV2" op_name="MatMul_8" source_file="<repo-root>/.venv/lib/python3.12/site-packages/tensorflow/python/framework/ops.py" source_line=1221}
  %add_6.1 = f32[1,64,2048]{2,1,0} add(f32[1,64,2048]{2,1,0} %add_4.1, f32[1,64,2048]{2,1,0} %MatMul_8.3), metadata={op_type="AddV2" op_name="add_6" source_file="<repo-root>/.venv/lib/python3.12/site-packages/tensorflow/python/framework/ops.py" source_line=1221}
  %Square_2.1 = f32[1,64,2048]{2,1,0} multiply(f32[1,64,2048]{2,1,0} %add_6.1, f32[1,64,2048]{2,1,0} %add_6.1), metadata={op_type="Square" op_name="Square_2" source_file="<repo-root>/.venv/lib/python3.12/site-packages/tensorflow/python/framework/ops.py" source_line=1221}
  %Mean_2.10 = f32[1,64,2048]{2,1,0} convert(f32[1,64,2048]{2,1,0} %Square_2.1), metadata={op_type="Mean" op_name="Mean_2" source_file="<repo-root>/.venv/lib/python3.12/site-packages/tensorflow/python/framework/ops.py" source_line=1221}
  %Mean_2.11 = f32[] constant(0), metadata={op_type="Mean" op_name="Mean_2" source_file="<repo-root>/.venv/lib/python3.12/site-packages/tensorflow/python/framework/ops.py" source_line=1221}
  %Mean_2.12 = f32[] convert(f32[] %Mean_2.11), metadata={op_type="Mean" op_name="Mean_2" source_file="<repo-root>/.venv/lib/python3.12/site-packages/tensorflow/python/framework/ops.py" source_line=1221}
  %Mean_2.13 = f32[1,64]{1,0} reduce(f32[1,64,2048]{2,1,0} %Mean_2.10, f32[] %Mean_2.12), dimensions={2}, to_apply=%Mean_2-reduction.5, metadata={op_type="Mean" op_name="Mean_2" source_file="<repo-root>/.venv/lib/python3.12/site-packages/tensorflow/python/framework/ops.py" source_line=1221}
  %Mean_2.14 = s32[] constant(2048), metadata={op_type="Mean" op_name="Mean_2" source_file="<repo-root>/.venv/lib/python3.12/site-packages/tensorflow/python/framework/ops.py" source_line=1221}
  %Mean_2.15 = f32[] convert(s32[] %Mean_2.14), metadata={op_type="Mean" op_name="Mean_2" source_file="<repo-root>/.venv/lib/python3.12/site-packages/tensorflow/python/framework/ops.py" source_line=1221}
  %Mean_2.16 = f32[1,64]{1,0} broadcast(f32[] %Mean_2.15), dimensions={}, metadata={op_type="Mean" op_name="Mean_2" source_file="<repo-root>/.venv/lib/python3.12/site-packages/tensorflow/python/framework/ops.py" source_line=1221}
  %Mean_2.17 = f32[1,64]{1,0} divide(f32[1,64]{1,0} %Mean_2.13, f32[1,64]{1,0} %Mean_2.16), metadata={op_type="Mean" op_name="Mean_2" source_file="<repo-root>/.venv/lib/python3.12/site-packages/tensorflow/python/framework/ops.py" source_line=1221}
  %Mean_2.18 = f32[1,64]{1,0} convert(f32[1,64]{1,0} %Mean_2.17), metadata={op_type="Mean" op_name="Mean_2" source_file="<repo-root>/.venv/lib/python3.12/site-packages/tensorflow/python/framework/ops.py" source_line=1221}
  %Mean_2.19 = f32[1,64,1]{2,1,0} reshape(f32[1,64]{1,0} %Mean_2.18), metadata={op_type="Mean" op_name="Mean_2" source_file="<repo-root>/.venv/lib/python3.12/site-packages/tensorflow/python/framework/ops.py" source_line=1221}
  %add_7.3 = f32[] constant(1e-05), metadata={op_type="AddV2" op_name="add_7" source_file="<repo-root>/.venv/lib/python3.12/site-packages/tensorflow/python/framework/ops.py" source_line=1221}
  %add_7.4 = f32[1,64,1]{2,1,0} broadcast(f32[] %add_7.3), dimensions={}, metadata={op_type="AddV2" op_name="add_7" source_file="<repo-root>/.venv/lib/python3.12/site-packages/tensorflow/python/framework/ops.py" source_line=1221}
  %add_7.5 = f32[1,64,1]{2,1,0} add(f32[1,64,1]{2,1,0} %Mean_2.19, f32[1,64,1]{2,1,0} %add_7.4), metadata={op_type="AddV2" op_name="add_7" source_file="<repo-root>/.venv/lib/python3.12/site-packages/tensorflow/python/framework/ops.py" source_line=1221}
  %Rsqrt_3.1 = f32[1,64,1]{2,1,0} rsqrt(f32[1,64,1]{2,1,0} %add_7.5), metadata={op_type="Rsqrt" op_name="Rsqrt_3"}
  %mul_11.3 = f32[1,64]{1,0} reshape(f32[1,64,1]{2,1,0} %Rsqrt_3.1), metadata={op_type="Mul" op_name="mul_11" source_file="<repo-root>/.venv/lib/python3.12/site-packages/tensorflow/python/framework/ops.py" source_line=1221}
  %mul_11.4 = f32[1,64,2048]{2,1,0} broadcast(f32[1,64]{1,0} %mul_11.3), dimensions={0,1}, metadata={op_type="Mul" op_name="mul_11" source_file="<repo-root>/.venv/lib/python3.12/site-packages/tensorflow/python/framework/ops.py" source_line=1221}
  %mul_11.5 = f32[1,64,2048]{2,1,0} multiply(f32[1,64,2048]{2,1,0} %add_6.1, f32[1,64,2048]{2,1,0} %mul_11.4), metadata={op_type="Mul" op_name="mul_11" source_file="<repo-root>/.venv/lib/python3.12/site-packages/tensorflow/python/framework/ops.py" source_line=1221}
  %arg13.1 = f32[2048]{0} parameter(13), parameter_replication={false}, metadata={op_name="XLA_Args"}
  %reshape.217 = f32[2048]{0} reshape(f32[2048]{0} %arg13.1)
  %mul_12.2 = f32[1,64,2048]{2,1,0} broadcast(f32[2048]{0} %reshape.217), dimensions={2}, metadata={op_type="Mul" op_name="mul_12" source_file="<repo-root>/.venv/lib/python3.12/site-packages/tensorflow/python/framework/ops.py" source_line=1221}
  %mul_12.3 = f32[1,64,2048]{2,1,0} multiply(f32[1,64,2048]{2,1,0} %mul_11.5, f32[1,64,2048]{2,1,0} %mul_12.2), metadata={op_type="Mul" op_name="mul_12" source_file="<repo-root>/.venv/lib/python3.12/site-packages/tensorflow/python/framework/ops.py" source_line=1221}
  %arg14.1 = f32[2048,2048]{1,0} parameter(14), parameter_replication={false}, metadata={op_name="XLA_Args"}
  %reshape.218 = f32[2048,2048]{1,0} reshape(f32[2048,2048]{1,0} %arg14.1)
  %MatMul_9.2 = f32[1,64,2048]{2,1,0} dot(f32[1,64,2048]{2,1,0} %mul_12.3, f32[2048,2048]{1,0} %reshape.218), lhs_contracting_dims={2}, rhs_contracting_dims={0}, frontend_attributes={grad_x="false",grad_y="false"}, metadata={op_type="BatchMatMulV2" op_name="MatMul_9" source_file="<repo-root>/.venv/lib/python3.12/site-packages/tensorflow/python/framework/ops.py" source_line=1221}
  %MatMul_9.3 = f32[1,64,2048]{2,1,0} transpose(f32[1,64,2048]{2,1,0} %MatMul_9.2), dimensions={0,1,2}, metadata={op_type="BatchMatMulV2" op_name="MatMul_9" source_file="<repo-root>/.venv/lib/python3.12/site-packages/tensorflow/python/framework/ops.py" source_line=1221}
  %Reshape_8.1 = f32[1,64,32,64]{3,2,1,0} reshape(f32[1,64,2048]{2,1,0} %MatMul_9.3), metadata={op_type="Reshape" op_name="Reshape_8" source_file="<repo-root>/.venv/lib/python3.12/site-packages/tensorflow/python/framework/ops.py" source_line=1221}
  %transpose_4.1 = f32[1,32,64,64]{3,1,2,0} transpose(f32[1,64,32,64]{3,2,1,0} %Reshape_8.1), dimensions={0,2,1,3}, metadata={op_type="Transpose" op_name="transpose_4" source_file="<repo-root>/.venv/lib/python3.12/site-packages/tensorflow/python/framework/ops.py" source_line=1221}
  %mul_13.3 = f32[1,64,64]{2,1,0} reshape(f32[1,1,64,64]{3,2,1,0} %reshape.205), metadata={op_type="Mul" op_name="mul_13" source_file="<repo-root>/.venv/lib/python3.12/site-packages/tensorflow/python/framework/ops.py" source_line=1221}
  %mul_13.4 = f32[1,32,64,64]{3,2,1,0} broadcast(f32[1,64,64]{2,1,0} %mul_13.3), dimensions={0,2,3}, metadata={op_type="Mul" op_name="mul_13" source_file="<repo-root>/.venv/lib/python3.12/site-packages/tensorflow/python/framework/ops.py" source_line=1221}
  %mul_13.5 = f32[1,32,64,64]{3,2,1,0} multiply(f32[1,32,64,64]{3,1,2,0} %transpose_4.1, f32[1,32,64,64]{3,2,1,0} %mul_13.4), metadata={op_type="Mul" op_name="mul_13" source_file="<repo-root>/.venv/lib/python3.12/site-packages/tensorflow/python/framework/ops.py" source_line=1221}
  %strided_slice_5.2 = f32[1,32,64,32]{3,2,1,0} slice(f32[1,32,64,64]{3,1,2,0} %transpose_4.1), slice={[0:1], [0:32], [0:64], [32:64]}, metadata={op_type="StridedSlice" op_name="strided_slice_5" source_file="<repo-root>/.venv/lib/python3.12/site-packages/tensorflow/python/framework/ops.py" source_line=1221}
  %strided_slice_5.3 = f32[1,32,64,32]{3,2,1,0} reshape(f32[1,32,64,32]{3,2,1,0} %strided_slice_5.2), metadata={op_type="StridedSlice" op_name="strided_slice_5" source_file="<repo-root>/.venv/lib/python3.12/site-packages/tensorflow/python/framework/ops.py" source_line=1221}
  %Neg_2.1 = f32[1,32,64,32]{3,2,1,0} negate(f32[1,32,64,32]{3,2,1,0} %strided_slice_5.3), metadata={op_type="Neg" op_name="Neg_2" source_file="<repo-root>/.venv/lib/python3.12/site-packages/tensorflow/python/framework/ops.py" source_line=1221}
  %strided_slice_4.2 = f32[1,32,64,32]{3,2,1,0} slice(f32[1,32,64,64]{3,1,2,0} %transpose_4.1), slice={[0:1], [0:32], [0:64], [0:32]}, metadata={op_type="StridedSlice" op_name="strided_slice_4" source_file="<repo-root>/.venv/lib/python3.12/site-packages/tensorflow/python/framework/ops.py" source_line=1221}
  %strided_slice_4.3 = f32[1,32,64,32]{3,2,1,0} reshape(f32[1,32,64,32]{3,2,1,0} %strided_slice_4.2), metadata={op_type="StridedSlice" op_name="strided_slice_4" source_file="<repo-root>/.venv/lib/python3.12/site-packages/tensorflow/python/framework/ops.py" source_line=1221}
  %concat_2.1 = f32[1,32,64,64]{3,2,1,0} concatenate(f32[1,32,64,32]{3,2,1,0} %Neg_2.1, f32[1,32,64,32]{3,2,1,0} %strided_slice_4.3), dimensions={3}, metadata={op_type="ConcatV2" op_name="concat_2" source_file="<repo-root>/.venv/lib/python3.12/site-packages/tensorflow/python/framework/ops.py" source_line=1221}
  %mul_14.3 = f32[1,64,64]{2,1,0} reshape(f32[1,1,64,64]{3,2,1,0} %reshape.206), metadata={op_type="Mul" op_name="mul_14" source_file="<repo-root>/.venv/lib/python3.12/site-packages/tensorflow/python/framework/ops.py" source_line=1221}
  %mul_14.4 = f32[1,32,64,64]{3,2,1,0} broadcast(f32[1,64,64]{2,1,0} %mul_14.3), dimensions={0,2,3}, metadata={op_type="Mul" op_name="mul_14" source_file="<repo-root>/.venv/lib/python3.12/site-packages/tensorflow/python/framework/ops.py" source_line=1221}
  %mul_14.5 = f32[1,32,64,64]{3,2,1,0} multiply(f32[1,32,64,64]{3,2,1,0} %concat_2.1, f32[1,32,64,64]{3,2,1,0} %mul_14.4), metadata={op_type="Mul" op_name="mul_14" source_file="<repo-root>/.venv/lib/python3.12/site-packages/tensorflow/python/framework/ops.py" source_line=1221}
  %add_8.1 = f32[1,32,64,64]{3,2,1,0} add(f32[1,32,64,64]{3,2,1,0} %mul_13.5, f32[1,32,64,64]{3,2,1,0} %mul_14.5), metadata={op_type="AddV2" op_name="add_8" source_file="<repo-root>/.venv/lib/python3.12/site-packages/tensorflow/python/framework/ops.py" source_line=1221}
  %arg15.1 = f32[2048,256]{1,0} parameter(15), parameter_replication={false}, metadata={op_name="XLA_Args"}
  %reshape.219 = f32[2048,256]{1,0} reshape(f32[2048,256]{1,0} %arg15.1)
  %MatMul_10.2 = f32[1,64,256]{2,1,0} dot(f32[1,64,2048]{2,1,0} %mul_12.3, f32[2048,256]{1,0} %reshape.219), lhs_contracting_dims={2}, rhs_contracting_dims={0}, frontend_attributes={grad_x="false",grad_y="false"}, metadata={op_type="BatchMatMulV2" op_name="MatMul_10" source_file="<repo-root>/.venv/lib/python3.12/site-packages/tensorflow/python/framework/ops.py" source_line=1221}
  %MatMul_10.3 = f32[1,64,256]{2,1,0} transpose(f32[1,64,256]{2,1,0} %MatMul_10.2), dimensions={0,1,2}, metadata={op_type="BatchMatMulV2" op_name="MatMul_10" source_file="<repo-root>/.venv/lib/python3.12/site-packages/tensorflow/python/framework/ops.py" source_line=1221}
  %Reshape_9.1 = f32[1,64,4,64]{3,2,1,0} reshape(f32[1,64,256]{2,1,0} %MatMul_10.3), metadata={op_type="Reshape" op_name="Reshape_9" source_file="<repo-root>/.venv/lib/python3.12/site-packages/tensorflow/python/framework/ops.py" source_line=1221}
  %transpose_5.1 = f32[1,4,64,64]{3,1,2,0} transpose(f32[1,64,4,64]{3,2,1,0} %Reshape_9.1), dimensions={0,2,1,3}, metadata={op_type="Transpose" op_name="transpose_5" source_file="<repo-root>/.venv/lib/python3.12/site-packages/tensorflow/python/framework/ops.py" source_line=1221}
  %mul_15.3 = f32[1,64,64]{2,1,0} reshape(f32[1,1,64,64]{3,2,1,0} %reshape.205), metadata={op_type="Mul" op_name="mul_15" source_file="<repo-root>/.venv/lib/python3.12/site-packages/tensorflow/python/framework/ops.py" source_line=1221}
  %mul_15.4 = f32[1,4,64,64]{3,2,1,0} broadcast(f32[1,64,64]{2,1,0} %mul_15.3), dimensions={0,2,3}, metadata={op_type="Mul" op_name="mul_15" source_file="<repo-root>/.venv/lib/python3.12/site-packages/tensorflow/python/framework/ops.py" source_line=1221}
  %mul_15.5 = f32[1,4,64,64]{3,2,1,0} multiply(f32[1,4,64,64]{3,1,2,0} %transpose_5.1, f32[1,4,64,64]{3,2,1,0} %mul_15.4), metadata={op_type="Mul" op_name="mul_15" source_file="<repo-root>/.venv/lib/python3.12/site-packages/tensorflow/python/framework/ops.py" source_line=1221}
  %strided_slice_7.2 = f32[1,4,64,32]{3,2,1,0} slice(f32[1,4,64,64]{3,1,2,0} %transpose_5.1), slice={[0:1], [0:4], [0:64], [32:64]}, metadata={op_type="StridedSlice" op_name="strided_slice_7" source_file="<repo-root>/.venv/lib/python3.12/site-packages/tensorflow/python/framework/ops.py" source_line=1221}
  %strided_slice_7.3 = f32[1,4,64,32]{3,2,1,0} reshape(f32[1,4,64,32]{3,2,1,0} %strided_slice_7.2), metadata={op_type="StridedSlice" op_name="strided_slice_7" source_file="<repo-root>/.venv/lib/python3.12/site-packages/tensorflow/python/framework/ops.py" source_line=1221}
  %Neg_3.1 = f32[1,4,64,32]{3,2,1,0} negate(f32[1,4,64,32]{3,2,1,0} %strided_slice_7.3), metadata={op_type="Neg" op_name="Neg_3" source_file="<repo-root>/.venv/lib/python3.12/site-packages/tensorflow/python/framework/ops.py" source_line=1221}
  %strided_slice_6.2 = f32[1,4,64,32]{3,2,1,0} slice(f32[1,4,64,64]{3,1,2,0} %transpose_5.1), slice={[0:1], [0:4], [0:64], [0:32]}, metadata={op_type="StridedSlice" op_name="strided_slice_6" source_file="<repo-root>/.venv/lib/python3.12/site-packages/tensorflow/python/framework/ops.py" source_line=1221}
  %strided_slice_6.3 = f32[1,4,64,32]{3,2,1,0} reshape(f32[1,4,64,32]{3,2,1,0} %strided_slice_6.2), metadata={op_type="StridedSlice" op_name="strided_slice_6" source_file="<repo-root>/.venv/lib/python3.12/site-packages/tensorflow/python/framework/ops.py" source_line=1221}
  %concat_3.1 = f32[1,4,64,64]{3,2,1,0} concatenate(f32[1,4,64,32]{3,2,1,0} %Neg_3.1, f32[1,4,64,32]{3,2,1,0} %strided_slice_6.3), dimensions={3}, metadata={op_type="ConcatV2" op_name="concat_3" source_file="<repo-root>/.venv/lib/python3.12/site-packages/tensorflow/python/framework/ops.py" source_line=1221}
  %mul_16.3 = f32[1,64,64]{2,1,0} reshape(f32[1,1,64,64]{3,2,1,0} %reshape.206), metadata={op_type="Mul" op_name="mul_16" source_file="<repo-root>/.venv/lib/python3.12/site-packages/tensorflow/python/framework/ops.py" source_line=1221}
  %mul_16.4 = f32[1,4,64,64]{3,2,1,0} broadcast(f32[1,64,64]{2,1,0} %mul_16.3), dimensions={0,2,3}, metadata={op_type="Mul" op_name="mul_16" source_file="<repo-root>/.venv/lib/python3.12/site-packages/tensorflow/python/framework/ops.py" source_line=1221}
  %mul_16.5 = f32[1,4,64,64]{3,2,1,0} multiply(f32[1,4,64,64]{3,2,1,0} %concat_3.1, f32[1,4,64,64]{3,2,1,0} %mul_16.4), metadata={op_type="Mul" op_name="mul_16" source_file="<repo-root>/.venv/lib/python3.12/site-packages/tensorflow/python/framework/ops.py" source_line=1221}
  %add_9.1 = f32[1,4,64,64]{3,2,1,0} add(f32[1,4,64,64]{3,2,1,0} %mul_15.5, f32[1,4,64,64]{3,2,1,0} %mul_16.5), metadata={op_type="AddV2" op_name="add_9" source_file="<repo-root>/.venv/lib/python3.12/site-packages/tensorflow/python/framework/ops.py" source_line=1221}
  %Reshape_11.1 = f32[1,4,1,64,64]{4,3,2,1,0} reshape(f32[1,4,64,64]{3,2,1,0} %add_9.1), metadata={op_type="Reshape" op_name="Reshape_11" source_file="<repo-root>/.venv/lib/python3.12/site-packages/tensorflow/python/framework/ops.py" source_line=1221}
  %Tile_2.3 = f32[1,4,1,64,64]{4,3,2,1,0} broadcast(f32[1,4,1,64,64]{4,3,2,1,0} %Reshape_11.1), dimensions={0,1,2,3,4}, metadata={op_type="Tile" op_name="Tile_2" source_file="<repo-root>/.venv/lib/python3.12/site-packages/tensorflow/python/framework/ops.py" source_line=1221}
  %Tile_2.4 = f32[1,4,64,64]{3,2,1,0} reshape(f32[1,4,1,64,64]{4,3,2,1,0} %Tile_2.3), metadata={op_type="Tile" op_name="Tile_2" source_file="<repo-root>/.venv/lib/python3.12/site-packages/tensorflow/python/framework/ops.py" source_line=1221}
  %Tile_2.5 = f32[1,4,8,64,64]{4,3,2,1,0} broadcast(f32[1,4,64,64]{3,2,1,0} %Tile_2.4), dimensions={0,1,3,4}, metadata={op_type="Tile" op_name="Tile_2" source_file="<repo-root>/.venv/lib/python3.12/site-packages/tensorflow/python/framework/ops.py" source_line=1221}
  %Reshape_12.1 = f32[1,32,64,64]{3,2,1,0} reshape(f32[1,4,8,64,64]{4,3,2,1,0} %Tile_2.5), metadata={op_type="Reshape" op_name="Reshape_12" source_file="<repo-root>/.venv/lib/python3.12/site-packages/tensorflow/python/framework/ops.py" source_line=1221}
  %MatMul_12.2 = f32[1,32,64,64]{3,2,1,0} dot(f32[1,32,64,64]{3,2,1,0} %add_8.1, f32[1,32,64,64]{3,2,1,0} %Reshape_12.1), lhs_batch_dims={0,1}, lhs_contracting_dims={3}, rhs_batch_dims={0,1}, rhs_contracting_dims={3}, frontend_attributes={grad_x="false",grad_y="false"}, metadata={op_type="BatchMatMulV2" op_name="MatMul_12" source_file="<repo-root>/.venv/lib/python3.12/site-packages/tensorflow/python/framework/ops.py" source_line=1221}
  %MatMul_12.3 = f32[1,32,64,64]{3,2,1,0} transpose(f32[1,32,64,64]{3,2,1,0} %MatMul_12.2), dimensions={0,1,2,3}, metadata={op_type="BatchMatMulV2" op_name="MatMul_12" source_file="<repo-root>/.venv/lib/python3.12/site-packages/tensorflow/python/framework/ops.py" source_line=1221}
  %mul_17.3 = f32[] constant(0.125), metadata={op_type="Mul" op_name="mul_17" source_file="<repo-root>/.venv/lib/python3.12/site-packages/tensorflow/python/framework/ops.py" source_line=1221}
  %mul_17.4 = f32[1,32,64,64]{3,2,1,0} broadcast(f32[] %mul_17.3), dimensions={}, metadata={op_type="Mul" op_name="mul_17" source_file="<repo-root>/.venv/lib/python3.12/site-packages/tensorflow/python/framework/ops.py" source_line=1221}
  %mul_17.5 = f32[1,32,64,64]{3,2,1,0} multiply(f32[1,32,64,64]{3,2,1,0} %MatMul_12.3, f32[1,32,64,64]{3,2,1,0} %mul_17.4), metadata={op_type="Mul" op_name="mul_17" source_file="<repo-root>/.venv/lib/python3.12/site-packages/tensorflow/python/framework/ops.py" source_line=1221}
  %add_10.3 = f32[1,64,64]{2,1,0} reshape(f32[1,1,64,64]{3,2,1,0} %reshape.207), metadata={op_type="AddV2" op_name="add_10" source_file="<repo-root>/.venv/lib/python3.12/site-packages/tensorflow/python/framework/ops.py" source_line=1221}
  %add_10.4 = f32[1,32,64,64]{3,2,1,0} broadcast(f32[1,64,64]{2,1,0} %add_10.3), dimensions={0,2,3}, metadata={op_type="AddV2" op_name="add_10" source_file="<repo-root>/.venv/lib/python3.12/site-packages/tensorflow/python/framework/ops.py" source_line=1221}
  %add_10.5 = f32[1,32,64,64]{3,2,1,0} add(f32[1,32,64,64]{3,2,1,0} %mul_17.5, f32[1,32,64,64]{3,2,1,0} %add_10.4), metadata={op_type="AddV2" op_name="add_10" source_file="<repo-root>/.venv/lib/python3.12/site-packages/tensorflow/python/framework/ops.py" source_line=1221}
  %Softmax_1.28 = f32[] constant(-inf), metadata={op_type="Softmax" op_name="Softmax_1" source_file="<repo-root>/.venv/lib/python3.12/site-packages/tensorflow/python/framework/ops.py" source_line=1221}
  %Softmax_1.29 = f32[1,32,64]{2,1,0} reduce(f32[1,32,64,64]{3,2,1,0} %add_10.5, f32[] %Softmax_1.28), dimensions={3}, to_apply=%region_0.6, metadata={op_type="Softmax" op_name="Softmax_1"}
  %Softmax_1.30 = f32[1,32,64,1]{3,2,1,0} reshape(f32[1,32,64]{2,1,0} %Softmax_1.29), metadata={op_type="Softmax" op_name="Softmax_1"}
  %Softmax_1.31 = f32[1,32,64,1]{3,2,1,0} broadcast(f32[1,32,64,1]{3,2,1,0} %Softmax_1.30), dimensions={0,1,2,3}, metadata={op_type="Softmax" op_name="Softmax_1"}
  %Softmax_1.32 = f32[1,32,64]{2,1,0} reshape(f32[1,32,64,1]{3,2,1,0} %Softmax_1.31), metadata={op_type="Softmax" op_name="Softmax_1"}
  %Softmax_1.33 = f32[1,32,64,64]{3,2,1,0} broadcast(f32[1,32,64]{2,1,0} %Softmax_1.32), dimensions={0,1,2}, metadata={op_type="Softmax" op_name="Softmax_1"}
  %Softmax_1.34 = f32[1,32,64,64]{3,2,1,0} subtract(f32[1,32,64,64]{3,2,1,0} %add_10.5, f32[1,32,64,64]{3,2,1,0} %Softmax_1.33), metadata={op_type="Softmax" op_name="Softmax_1"}
  %Softmax_1.35 = f32[1,32,64,64]{3,2,1,0} exponential(f32[1,32,64,64]{3,2,1,0} %Softmax_1.34), metadata={op_type="Softmax" op_name="Softmax_1"}
  %Softmax_1.27 = f32[] constant(-0), metadata={op_type="Softmax" op_name="Softmax_1" source_file="<repo-root>/.venv/lib/python3.12/site-packages/tensorflow/python/framework/ops.py" source_line=1221}
  %Softmax_1.36 = f32[1,32,64]{2,1,0} reduce(f32[1,32,64,64]{3,2,1,0} %Softmax_1.35, f32[] %Softmax_1.27), dimensions={3}, to_apply=%region_1.7, metadata={op_type="Softmax" op_name="Softmax_1"}
  %Softmax_1.37 = f32[1,32,64,1]{3,2,1,0} reshape(f32[1,32,64]{2,1,0} %Softmax_1.36), metadata={op_type="Softmax" op_name="Softmax_1"}
  %Softmax_1.38 = f32[1,32,64,1]{3,2,1,0} broadcast(f32[1,32,64,1]{3,2,1,0} %Softmax_1.37), dimensions={0,1,2,3}, metadata={op_type="Softmax" op_name="Softmax_1"}
  %Softmax_1.39 = f32[1,32,64]{2,1,0} reshape(f32[1,32,64,1]{3,2,1,0} %Softmax_1.38), metadata={op_type="Softmax" op_name="Softmax_1"}
  %Softmax_1.40 = f32[1,32,64,64]{3,2,1,0} broadcast(f32[1,32,64]{2,1,0} %Softmax_1.39), dimensions={0,1,2}, metadata={op_type="Softmax" op_name="Softmax_1"}
  %Softmax_1.41 = f32[1,32,64,64]{3,2,1,0} divide(f32[1,32,64,64]{3,2,1,0} %Softmax_1.35, f32[1,32,64,64]{3,2,1,0} %Softmax_1.40), metadata={op_type="Softmax" op_name="Softmax_1"}
  %arg16.1 = f32[2048,256]{1,0} parameter(16), parameter_replication={false}, metadata={op_name="XLA_Args"}
  %reshape.220 = f32[2048,256]{1,0} reshape(f32[2048,256]{1,0} %arg16.1)
  %MatMul_11.2 = f32[1,64,256]{2,1,0} dot(f32[1,64,2048]{2,1,0} %mul_12.3, f32[2048,256]{1,0} %reshape.220), lhs_contracting_dims={2}, rhs_contracting_dims={0}, frontend_attributes={grad_x="false",grad_y="false"}, metadata={op_type="BatchMatMulV2" op_name="MatMul_11" source_file="<repo-root>/.venv/lib/python3.12/site-packages/tensorflow/python/framework/ops.py" source_line=1221}
  %MatMul_11.3 = f32[1,64,256]{2,1,0} transpose(f32[1,64,256]{2,1,0} %MatMul_11.2), dimensions={0,1,2}, metadata={op_type="BatchMatMulV2" op_name="MatMul_11" source_file="<repo-root>/.venv/lib/python3.12/site-packages/tensorflow/python/framework/ops.py" source_line=1221}
  %Reshape_10.1 = f32[1,64,4,64]{3,2,1,0} reshape(f32[1,64,256]{2,1,0} %MatMul_11.3), metadata={op_type="Reshape" op_name="Reshape_10" source_file="<repo-root>/.venv/lib/python3.12/site-packages/tensorflow/python/framework/ops.py" source_line=1221}
  %transpose_6.1 = f32[1,4,64,64]{3,1,2,0} transpose(f32[1,64,4,64]{3,2,1,0} %Reshape_10.1), dimensions={0,2,1,3}, metadata={op_type="Transpose" op_name="transpose_6" source_file="<repo-root>/.venv/lib/python3.12/site-packages/tensorflow/python/framework/ops.py" source_line=1221}
  %Reshape_13.1 = f32[1,4,1,64,64]{4,3,2,1,0} reshape(f32[1,4,64,64]{3,1,2,0} %transpose_6.1), metadata={op_type="Reshape" op_name="Reshape_13" source_file="<repo-root>/.venv/lib/python3.12/site-packages/tensorflow/python/framework/ops.py" source_line=1221}
  %Tile_3.3 = f32[1,4,1,64,64]{4,3,2,1,0} broadcast(f32[1,4,1,64,64]{4,3,2,1,0} %Reshape_13.1), dimensions={0,1,2,3,4}, metadata={op_type="Tile" op_name="Tile_3" source_file="<repo-root>/.venv/lib/python3.12/site-packages/tensorflow/python/framework/ops.py" source_line=1221}
  %Tile_3.4 = f32[1,4,64,64]{3,2,1,0} reshape(f32[1,4,1,64,64]{4,3,2,1,0} %Tile_3.3), metadata={op_type="Tile" op_name="Tile_3" source_file="<repo-root>/.venv/lib/python3.12/site-packages/tensorflow/python/framework/ops.py" source_line=1221}
  %Tile_3.5 = f32[1,4,8,64,64]{4,3,2,1,0} broadcast(f32[1,4,64,64]{3,2,1,0} %Tile_3.4), dimensions={0,1,3,4}, metadata={op_type="Tile" op_name="Tile_3" source_file="<repo-root>/.venv/lib/python3.12/site-packages/tensorflow/python/framework/ops.py" source_line=1221}
  %Reshape_14.1 = f32[1,32,64,64]{3,2,1,0} reshape(f32[1,4,8,64,64]{4,3,2,1,0} %Tile_3.5), metadata={op_type="Reshape" op_name="Reshape_14" source_file="<repo-root>/.venv/lib/python3.12/site-packages/tensorflow/python/framework/ops.py" source_line=1221}
  %MatMul_13.2 = f32[1,32,64,64]{3,2,1,0} dot(f32[1,32,64,64]{3,2,1,0} %Softmax_1.41, f32[1,32,64,64]{3,2,1,0} %Reshape_14.1), lhs_batch_dims={0,1}, lhs_contracting_dims={3}, rhs_batch_dims={0,1}, rhs_contracting_dims={2}, frontend_attributes={grad_x="false",grad_y="false"}, metadata={op_type="BatchMatMulV2" op_name="MatMul_13" source_file="<repo-root>/.venv/lib/python3.12/site-packages/tensorflow/python/framework/ops.py" source_line=1221}
  %MatMul_13.3 = f32[1,32,64,64]{3,2,1,0} transpose(f32[1,32,64,64]{3,2,1,0} %MatMul_13.2), dimensions={0,1,2,3}, metadata={op_type="BatchMatMulV2" op_name="MatMul_13" source_file="<repo-root>/.venv/lib/python3.12/site-packages/tensorflow/python/framework/ops.py" source_line=1221}
  %transpose_7.1 = f32[1,64,32,64]{3,1,2,0} transpose(f32[1,32,64,64]{3,2,1,0} %MatMul_13.3), dimensions={0,2,1,3}, metadata={op_type="Transpose" op_name="transpose_7" source_file="<repo-root>/.venv/lib/python3.12/site-packages/tensorflow/python/framework/ops.py" source_line=1221}
  %Reshape_15.1 = f32[1,64,2048]{2,1,0} reshape(f32[1,64,32,64]{3,1,2,0} %transpose_7.1), metadata={op_type="Reshape" op_name="Reshape_15" source_file="<repo-root>/.venv/lib/python3.12/site-packages/tensorflow/python/framework/ops.py" source_line=1221}
  %arg17.1 = f32[2048,2048]{1,0} parameter(17), parameter_replication={false}, metadata={op_name="XLA_Args"}
  %reshape.221 = f32[2048,2048]{1,0} reshape(f32[2048,2048]{1,0} %arg17.1)
  %MatMul_14.2 = f32[1,64,2048]{2,1,0} dot(f32[1,64,2048]{2,1,0} %Reshape_15.1, f32[2048,2048]{1,0} %reshape.221), lhs_contracting_dims={2}, rhs_contracting_dims={0}, frontend_attributes={grad_x="false",grad_y="false"}, metadata={op_type="BatchMatMulV2" op_name="MatMul_14" source_file="<repo-root>/.venv/lib/python3.12/site-packages/tensorflow/python/framework/ops.py" source_line=1221}
  %MatMul_14.3 = f32[1,64,2048]{2,1,0} transpose(f32[1,64,2048]{2,1,0} %MatMul_14.2), dimensions={0,1,2}, metadata={op_type="BatchMatMulV2" op_name="MatMul_14" source_file="<repo-root>/.venv/lib/python3.12/site-packages/tensorflow/python/framework/ops.py" source_line=1221}
  %add_11.1 = f32[1,64,2048]{2,1,0} add(f32[1,64,2048]{2,1,0} %add_6.1, f32[1,64,2048]{2,1,0} %MatMul_14.3), metadata={op_type="AddV2" op_name="add_11" source_file="<repo-root>/.venv/lib/python3.12/site-packages/tensorflow/python/framework/ops.py" source_line=1221}
  %Square_3.1 = f32[1,64,2048]{2,1,0} multiply(f32[1,64,2048]{2,1,0} %add_11.1, f32[1,64,2048]{2,1,0} %add_11.1), metadata={op_type="Square" op_name="Square_3" source_file="<repo-root>/.venv/lib/python3.12/site-packages/tensorflow/python/framework/ops.py" source_line=1221}
  %Mean_3.10 = f32[1,64,2048]{2,1,0} convert(f32[1,64,2048]{2,1,0} %Square_3.1), metadata={op_type="Mean" op_name="Mean_3" source_file="<repo-root>/.venv/lib/python3.12/site-packages/tensorflow/python/framework/ops.py" source_line=1221}
  %Mean_3.11 = f32[] constant(0), metadata={op_type="Mean" op_name="Mean_3" source_file="<repo-root>/.venv/lib/python3.12/site-packages/tensorflow/python/framework/ops.py" source_line=1221}
  %Mean_3.12 = f32[] convert(f32[] %Mean_3.11), metadata={op_type="Mean" op_name="Mean_3" source_file="<repo-root>/.venv/lib/python3.12/site-packages/tensorflow/python/framework/ops.py" source_line=1221}
  %Mean_3.13 = f32[1,64]{1,0} reduce(f32[1,64,2048]{2,1,0} %Mean_3.10, f32[] %Mean_3.12), dimensions={2}, to_apply=%Mean_3-reduction.8, metadata={op_type="Mean" op_name="Mean_3" source_file="<repo-root>/.venv/lib/python3.12/site-packages/tensorflow/python/framework/ops.py" source_line=1221}
  %Mean_3.14 = s32[] constant(2048), metadata={op_type="Mean" op_name="Mean_3" source_file="<repo-root>/.venv/lib/python3.12/site-packages/tensorflow/python/framework/ops.py" source_line=1221}
  %Mean_3.15 = f32[] convert(s32[] %Mean_3.14), metadata={op_type="Mean" op_name="Mean_3" source_file="<repo-root>/.venv/lib/python3.12/site-packages/tensorflow/python/framework/ops.py" source_line=1221}
  %Mean_3.16 = f32[1,64]{1,0} broadcast(f32[] %Mean_3.15), dimensions={}, metadata={op_type="Mean" op_name="Mean_3" source_file="<repo-root>/.venv/lib/python3.12/site-packages/tensorflow/python/framework/ops.py" source_line=1221}
  %Mean_3.17 = f32[1,64]{1,0} divide(f32[1,64]{1,0} %Mean_3.13, f32[1,64]{1,0} %Mean_3.16), metadata={op_type="Mean" op_name="Mean_3" source_file="<repo-root>/.venv/lib/python3.12/site-packages/tensorflow/python/framework/ops.py" source_line=1221}
  %Mean_3.18 = f32[1,64]{1,0} convert(f32[1,64]{1,0} %Mean_3.17), metadata={op_type="Mean" op_name="Mean_3" source_file="<repo-root>/.venv/lib/python3.12/site-packages/tensorflow/python/framework/ops.py" source_line=1221}
  %Mean_3.19 = f32[1,64,1]{2,1,0} reshape(f32[1,64]{1,0} %Mean_3.18), metadata={op_type="Mean" op_name="Mean_3" source_file="<repo-root>/.venv/lib/python3.12/site-packages/tensorflow/python/framework/ops.py" source_line=1221}
  %add_12.3 = f32[] constant(1e-05), metadata={op_type="AddV2" op_name="add_12" source_file="<repo-root>/.venv/lib/python3.12/site-packages/tensorflow/python/framework/ops.py" source_line=1221}
  %add_12.4 = f32[1,64,1]{2,1,0} broadcast(f32[] %add_12.3), dimensions={}, metadata={op_type="AddV2" op_name="add_12" source_file="<repo-root>/.venv/lib/python3.12/site-packages/tensorflow/python/framework/ops.py" source_line=1221}
  %add_12.5 = f32[1,64,1]{2,1,0} add(f32[1,64,1]{2,1,0} %Mean_3.19, f32[1,64,1]{2,1,0} %add_12.4), metadata={op_type="AddV2" op_name="add_12" source_file="<repo-root>/.venv/lib/python3.12/site-packages/tensorflow/python/framework/ops.py" source_line=1221}
  %Rsqrt_5.1 = f32[1,64,1]{2,1,0} rsqrt(f32[1,64,1]{2,1,0} %add_12.5), metadata={op_type="Rsqrt" op_name="Rsqrt_5"}
  %mul_18.3 = f32[1,64]{1,0} reshape(f32[1,64,1]{2,1,0} %Rsqrt_5.1), metadata={op_type="Mul" op_name="mul_18" source_file="<repo-root>/.venv/lib/python3.12/site-packages/tensorflow/python/framework/ops.py" source_line=1221}
  %mul_18.4 = f32[1,64,2048]{2,1,0} broadcast(f32[1,64]{1,0} %mul_18.3), dimensions={0,1}, metadata={op_type="Mul" op_name="mul_18" source_file="<repo-root>/.venv/lib/python3.12/site-packages/tensorflow/python/framework/ops.py" source_line=1221}
  %mul_18.5 = f32[1,64,2048]{2,1,0} multiply(f32[1,64,2048]{2,1,0} %add_11.1, f32[1,64,2048]{2,1,0} %mul_18.4), metadata={op_type="Mul" op_name="mul_18" source_file="<repo-root>/.venv/lib/python3.12/site-packages/tensorflow/python/framework/ops.py" source_line=1221}
  %arg18.1 = f32[2048]{0} parameter(18), parameter_replication={false}, metadata={op_name="XLA_Args"}
  %reshape.222 = f32[2048]{0} reshape(f32[2048]{0} %arg18.1)
  %mul_19.2 = f32[1,64,2048]{2,1,0} broadcast(f32[2048]{0} %reshape.222), dimensions={2}, metadata={op_type="Mul" op_name="mul_19" source_file="<repo-root>/.venv/lib/python3.12/site-packages/tensorflow/python/framework/ops.py" source_line=1221}
  %mul_19.3 = f32[1,64,2048]{2,1,0} multiply(f32[1,64,2048]{2,1,0} %mul_18.5, f32[1,64,2048]{2,1,0} %mul_19.2), metadata={op_type="Mul" op_name="mul_19" source_file="<repo-root>/.venv/lib/python3.12/site-packages/tensorflow/python/framework/ops.py" source_line=1221}
  %arg19.1 = f32[2048,5632]{1,0} parameter(19), parameter_replication={false}, metadata={op_name="XLA_Args"}
  %reshape.223 = f32[2048,5632]{1,0} reshape(f32[2048,5632]{1,0} %arg19.1)
  %MatMul_15.2 = f32[1,64,5632]{2,1,0} dot(f32[1,64,2048]{2,1,0} %mul_19.3, f32[2048,5632]{1,0} %reshape.223), lhs_contracting_dims={2}, rhs_contracting_dims={0}, frontend_attributes={grad_x="false",grad_y="false"}, metadata={op_type="BatchMatMulV2" op_name="MatMul_15" source_file="<repo-root>/.venv/lib/python3.12/site-packages/tensorflow/python/framework/ops.py" source_line=1221}
  %MatMul_15.3 = f32[1,64,5632]{2,1,0} transpose(f32[1,64,5632]{2,1,0} %MatMul_15.2), dimensions={0,1,2}, metadata={op_type="BatchMatMulV2" op_name="MatMul_15" source_file="<repo-root>/.venv/lib/python3.12/site-packages/tensorflow/python/framework/ops.py" source_line=1221}
  %Sigmoid_1.1 = f32[1,64,5632]{2,1,0} logistic(f32[1,64,5632]{2,1,0} %MatMul_15.3), metadata={op_type="Sigmoid" op_name="Sigmoid_1"}
  %mul_20.1 = f32[1,64,5632]{2,1,0} multiply(f32[1,64,5632]{2,1,0} %MatMul_15.3, f32[1,64,5632]{2,1,0} %Sigmoid_1.1), metadata={op_type="Mul" op_name="mul_20" source_file="<repo-root>/.venv/lib/python3.12/site-packages/tensorflow/python/framework/ops.py" source_line=1221}
  %arg20.1 = f32[2048,5632]{1,0} parameter(20), parameter_replication={false}, metadata={op_name="XLA_Args"}
  %reshape.224 = f32[2048,5632]{1,0} reshape(f32[2048,5632]{1,0} %arg20.1)
  %MatMul_16.2 = f32[1,64,5632]{2,1,0} dot(f32[1,64,2048]{2,1,0} %mul_19.3, f32[2048,5632]{1,0} %reshape.224), lhs_contracting_dims={2}, rhs_contracting_dims={0}, frontend_attributes={grad_x="false",grad_y="false"}, metadata={op_type="BatchMatMulV2" op_name="MatMul_16" source_file="<repo-root>/.venv/lib/python3.12/site-packages/tensorflow/python/framework/ops.py" source_line=1221}
  %MatMul_16.3 = f32[1,64,5632]{2,1,0} transpose(f32[1,64,5632]{2,1,0} %MatMul_16.2), dimensions={0,1,2}, metadata={op_type="BatchMatMulV2" op_name="MatMul_16" source_file="<repo-root>/.venv/lib/python3.12/site-packages/tensorflow/python/framework/ops.py" source_line=1221}
  %mul_21.1 = f32[1,64,5632]{2,1,0} multiply(f32[1,64,5632]{2,1,0} %mul_20.1, f32[1,64,5632]{2,1,0} %MatMul_16.3), metadata={op_type="Mul" op_name="mul_21" source_file="<repo-root>/.venv/lib/python3.12/site-packages/tensorflow/python/framework/ops.py" source_line=1221}
  %arg21.1 = f32[5632,2048]{1,0} parameter(21), parameter_replication={false}, metadata={op_name="XLA_Args"}
  %reshape.225 = f32[5632,2048]{1,0} reshape(f32[5632,2048]{1,0} %arg21.1)
  %MatMul_17.2 = f32[1,64,2048]{2,1,0} dot(f32[1,64,5632]{2,1,0} %mul_21.1, f32[5632,2048]{1,0} %reshape.225), lhs_contracting_dims={2}, rhs_contracting_dims={0}, frontend_attributes={grad_x="false",grad_y="false"}, metadata={op_type="BatchMatMulV2" op_name="MatMul_17" source_file="<repo-root>/.venv/lib/python3.12/site-packages/tensorflow/python/framework/ops.py" source_line=1221}
  %MatMul_17.3 = f32[1,64,2048]{2,1,0} transpose(f32[1,64,2048]{2,1,0} %MatMul_17.2), dimensions={0,1,2}, metadata={op_type="BatchMatMulV2" op_name="MatMul_17" source_file="<repo-root>/.venv/lib/python3.12/site-packages/tensorflow/python/framework/ops.py" source_line=1221}
  %add_13.1 = f32[1,64,2048]{2,1,0} add(f32[1,64,2048]{2,1,0} %add_11.1, f32[1,64,2048]{2,1,0} %MatMul_17.3), metadata={op_type="AddV2" op_name="add_13" source_file="<repo-root>/.venv/lib/python3.12/site-packages/tensorflow/python/framework/ops.py" source_line=1221}
  %Square_4.1 = f32[1,64,2048]{2,1,0} multiply(f32[1,64,2048]{2,1,0} %add_13.1, f32[1,64,2048]{2,1,0} %add_13.1), metadata={op_type="Square" op_name="Square_4" source_file="<repo-root>/.venv/lib/python3.12/site-packages/tensorflow/python/framework/ops.py" source_line=1221}
  %Mean_4.10 = f32[1,64,2048]{2,1,0} convert(f32[1,64,2048]{2,1,0} %Square_4.1), metadata={op_type="Mean" op_name="Mean_4" source_file="<repo-root>/.venv/lib/python3.12/site-packages/tensorflow/python/framework/ops.py" source_line=1221}
  %Mean_4.11 = f32[] constant(0), metadata={op_type="Mean" op_name="Mean_4" source_file="<repo-root>/.venv/lib/python3.12/site-packages/tensorflow/python/framework/ops.py" source_line=1221}
  %Mean_4.12 = f32[] convert(f32[] %Mean_4.11), metadata={op_type="Mean" op_name="Mean_4" source_file="<repo-root>/.venv/lib/python3.12/site-packages/tensorflow/python/framework/ops.py" source_line=1221}
  %Mean_4.13 = f32[1,64]{1,0} reduce(f32[1,64,2048]{2,1,0} %Mean_4.10, f32[] %Mean_4.12), dimensions={2}, to_apply=%Mean_4-reduction.9, metadata={op_type="Mean" op_name="Mean_4" source_file="<repo-root>/.venv/lib/python3.12/site-packages/tensorflow/python/framework/ops.py" source_line=1221}
  %Mean_4.14 = s32[] constant(2048), metadata={op_type="Mean" op_name="Mean_4" source_file="<repo-root>/.venv/lib/python3.12/site-packages/tensorflow/python/framework/ops.py" source_line=1221}
  %Mean_4.15 = f32[] convert(s32[] %Mean_4.14), metadata={op_type="Mean" op_name="Mean_4" source_file="<repo-root>/.venv/lib/python3.12/site-packages/tensorflow/python/framework/ops.py" source_line=1221}
  %Mean_4.16 = f32[1,64]{1,0} broadcast(f32[] %Mean_4.15), dimensions={}, metadata={op_type="Mean" op_name="Mean_4" source_file="<repo-root>/.venv/lib/python3.12/site-packages/tensorflow/python/framework/ops.py" source_line=1221}
  %Mean_4.17 = f32[1,64]{1,0} divide(f32[1,64]{1,0} %Mean_4.13, f32[1,64]{1,0} %Mean_4.16), metadata={op_type="Mean" op_name="Mean_4" source_file="<repo-root>/.venv/lib/python3.12/site-packages/tensorflow/python/framework/ops.py" source_line=1221}
  %Mean_4.18 = f32[1,64]{1,0} convert(f32[1,64]{1,0} %Mean_4.17), metadata={op_type="Mean" op_name="Mean_4" source_file="<repo-root>/.venv/lib/python3.12/site-packages/tensorflow/python/framework/ops.py" source_line=1221}
  %Mean_4.19 = f32[1,64,1]{2,1,0} reshape(f32[1,64]{1,0} %Mean_4.18), metadata={op_type="Mean" op_name="Mean_4" source_file="<repo-root>/.venv/lib/python3.12/site-packages/tensorflow/python/framework/ops.py" source_line=1221}
  %add_14.3 = f32[] constant(1e-05), metadata={op_type="AddV2" op_name="add_14" source_file="<repo-root>/.venv/lib/python3.12/site-packages/tensorflow/python/framework/ops.py" source_line=1221}
  %add_14.4 = f32[1,64,1]{2,1,0} broadcast(f32[] %add_14.3), dimensions={}, metadata={op_type="AddV2" op_name="add_14" source_file="<repo-root>/.venv/lib/python3.12/site-packages/tensorflow/python/framework/ops.py" source_line=1221}
  %add_14.5 = f32[1,64,1]{2,1,0} add(f32[1,64,1]{2,1,0} %Mean_4.19, f32[1,64,1]{2,1,0} %add_14.4), metadata={op_type="AddV2" op_name="add_14" source_file="<repo-root>/.venv/lib/python3.12/site-packages/tensorflow/python/framework/ops.py" source_line=1221}
  %Rsqrt_6.1 = f32[1,64,1]{2,1,0} rsqrt(f32[1,64,1]{2,1,0} %add_14.5), metadata={op_type="Rsqrt" op_name="Rsqrt_6"}
  %mul_22.3 = f32[1,64]{1,0} reshape(f32[1,64,1]{2,1,0} %Rsqrt_6.1), metadata={op_type="Mul" op_name="mul_22" source_file="<repo-root>/.venv/lib/python3.12/site-packages/tensorflow/python/framework/ops.py" source_line=1221}
  %mul_22.4 = f32[1,64,2048]{2,1,0} broadcast(f32[1,64]{1,0} %mul_22.3), dimensions={0,1}, metadata={op_type="Mul" op_name="mul_22" source_file="<repo-root>/.venv/lib/python3.12/site-packages/tensorflow/python/framework/ops.py" source_line=1221}
  %mul_22.5 = f32[1,64,2048]{2,1,0} multiply(f32[1,64,2048]{2,1,0} %add_13.1, f32[1,64,2048]{2,1,0} %mul_22.4), metadata={op_type="Mul" op_name="mul_22" source_file="<repo-root>/.venv/lib/python3.12/site-packages/tensorflow/python/framework/ops.py" source_line=1221}
  %arg22.1 = f32[2048]{0} parameter(22), parameter_replication={false}, metadata={op_name="XLA_Args"}
  %reshape.226 = f32[2048]{0} reshape(f32[2048]{0} %arg22.1)
  %mul_23.2 = f32[1,64,2048]{2,1,0} broadcast(f32[2048]{0} %reshape.226), dimensions={2}, metadata={op_type="Mul" op_name="mul_23" source_file="<repo-root>/.venv/lib/python3.12/site-packages/tensorflow/python/framework/ops.py" source_line=1221}
  %mul_23.3 = f32[1,64,2048]{2,1,0} multiply(f32[1,64,2048]{2,1,0} %mul_22.5, f32[1,64,2048]{2,1,0} %mul_23.2), metadata={op_type="Mul" op_name="mul_23" source_file="<repo-root>/.venv/lib/python3.12/site-packages/tensorflow/python/framework/ops.py" source_line=1221}
  %arg23.1 = f32[2048,2048]{1,0} parameter(23), parameter_replication={false}, metadata={op_name="XLA_Args"}
  %reshape.227 = f32[2048,2048]{1,0} reshape(f32[2048,2048]{1,0} %arg23.1)
  %MatMul_18.2 = f32[1,64,2048]{2,1,0} dot(f32[1,64,2048]{2,1,0} %mul_23.3, f32[2048,2048]{1,0} %reshape.227), lhs_contracting_dims={2}, rhs_contracting_dims={0}, frontend_attributes={grad_x="false",grad_y="false"}, metadata={op_type="BatchMatMulV2" op_name="MatMul_18" source_file="<repo-root>/.venv/lib/python3.12/site-packages/tensorflow/python/framework/ops.py" source_line=1221}
  %MatMul_18.3 = f32[1,64,2048]{2,1,0} transpose(f32[1,64,2048]{2,1,0} %MatMul_18.2), dimensions={0,1,2}, metadata={op_type="BatchMatMulV2" op_name="MatMul_18" source_file="<repo-root>/.venv/lib/python3.12/site-packages/tensorflow/python/framework/ops.py" source_line=1221}
  %Reshape_16.1 = f32[1,64,32,64]{3,2,1,0} reshape(f32[1,64,2048]{2,1,0} %MatMul_18.3), metadata={op_type="Reshape" op_name="Reshape_16" source_file="<repo-root>/.venv/lib/python3.12/site-packages/tensorflow/python/framework/ops.py" source_line=1221}
  %transpose_8.1 = f32[1,32,64,64]{3,1,2,0} transpose(f32[1,64,32,64]{3,2,1,0} %Reshape_16.1), dimensions={0,2,1,3}, metadata={op_type="Transpose" op_name="transpose_8" source_file="<repo-root>/.venv/lib/python3.12/site-packages/tensorflow/python/framework/ops.py" source_line=1221}
  %mul_24.3 = f32[1,64,64]{2,1,0} reshape(f32[1,1,64,64]{3,2,1,0} %reshape.205), metadata={op_type="Mul" op_name="mul_24" source_file="<repo-root>/.venv/lib/python3.12/site-packages/tensorflow/python/framework/ops.py" source_line=1221}
  %mul_24.4 = f32[1,32,64,64]{3,2,1,0} broadcast(f32[1,64,64]{2,1,0} %mul_24.3), dimensions={0,2,3}, metadata={op_type="Mul" op_name="mul_24" source_file="<repo-root>/.venv/lib/python3.12/site-packages/tensorflow/python/framework/ops.py" source_line=1221}
  %mul_24.5 = f32[1,32,64,64]{3,2,1,0} multiply(f32[1,32,64,64]{3,1,2,0} %transpose_8.1, f32[1,32,64,64]{3,2,1,0} %mul_24.4), metadata={op_type="Mul" op_name="mul_24" source_file="<repo-root>/.venv/lib/python3.12/site-packages/tensorflow/python/framework/ops.py" source_line=1221}
  %strided_slice_9.2 = f32[1,32,64,32]{3,2,1,0} slice(f32[1,32,64,64]{3,1,2,0} %transpose_8.1), slice={[0:1], [0:32], [0:64], [32:64]}, metadata={op_type="StridedSlice" op_name="strided_slice_9" source_file="<repo-root>/.venv/lib/python3.12/site-packages/tensorflow/python/framework/ops.py" source_line=1221}
  %strided_slice_9.3 = f32[1,32,64,32]{3,2,1,0} reshape(f32[1,32,64,32]{3,2,1,0} %strided_slice_9.2), metadata={op_type="StridedSlice" op_name="strided_slice_9" source_file="<repo-root>/.venv/lib/python3.12/site-packages/tensorflow/python/framework/ops.py" source_line=1221}
  %Neg_4.1 = f32[1,32,64,32]{3,2,1,0} negate(f32[1,32,64,32]{3,2,1,0} %strided_slice_9.3), metadata={op_type="Neg" op_name="Neg_4" source_file="<repo-root>/.venv/lib/python3.12/site-packages/tensorflow/python/framework/ops.py" source_line=1221}
  %strided_slice_8.2 = f32[1,32,64,32]{3,2,1,0} slice(f32[1,32,64,64]{3,1,2,0} %transpose_8.1), slice={[0:1], [0:32], [0:64], [0:32]}, metadata={op_type="StridedSlice" op_name="strided_slice_8" source_file="<repo-root>/.venv/lib/python3.12/site-packages/tensorflow/python/framework/ops.py" source_line=1221}
  %strided_slice_8.3 = f32[1,32,64,32]{3,2,1,0} reshape(f32[1,32,64,32]{3,2,1,0} %strided_slice_8.2), metadata={op_type="StridedSlice" op_name="strided_slice_8" source_file="<repo-root>/.venv/lib/python3.12/site-packages/tensorflow/python/framework/ops.py" source_line=1221}
  %concat_4.1 = f32[1,32,64,64]{3,2,1,0} concatenate(f32[1,32,64,32]{3,2,1,0} %Neg_4.1, f32[1,32,64,32]{3,2,1,0} %strided_slice_8.3), dimensions={3}, metadata={op_type="ConcatV2" op_name="concat_4" source_file="<repo-root>/.venv/lib/python3.12/site-packages/tensorflow/python/framework/ops.py" source_line=1221}
  %mul_25.3 = f32[1,64,64]{2,1,0} reshape(f32[1,1,64,64]{3,2,1,0} %reshape.206), metadata={op_type="Mul" op_name="mul_25" source_file="<repo-root>/.venv/lib/python3.12/site-packages/tensorflow/python/framework/ops.py" source_line=1221}
  %mul_25.4 = f32[1,32,64,64]{3,2,1,0} broadcast(f32[1,64,64]{2,1,0} %mul_25.3), dimensions={0,2,3}, metadata={op_type="Mul" op_name="mul_25" source_file="<repo-root>/.venv/lib/python3.12/site-packages/tensorflow/python/framework/ops.py" source_line=1221}
  %mul_25.5 = f32[1,32,64,64]{3,2,1,0} multiply(f32[1,32,64,64]{3,2,1,0} %concat_4.1, f32[1,32,64,64]{3,2,1,0} %mul_25.4), metadata={op_type="Mul" op_name="mul_25" source_file="<repo-root>/.venv/lib/python3.12/site-packages/tensorflow/python/framework/ops.py" source_line=1221}
  %add_15.1 = f32[1,32,64,64]{3,2,1,0} add(f32[1,32,64,64]{3,2,1,0} %mul_24.5, f32[1,32,64,64]{3,2,1,0} %mul_25.5), metadata={op_type="AddV2" op_name="add_15" source_file="<repo-root>/.venv/lib/python3.12/site-packages/tensorflow/python/framework/ops.py" source_line=1221}
  %arg24.1 = f32[2048,256]{1,0} parameter(24), parameter_replication={false}, metadata={op_name="XLA_Args"}
  %reshape.228 = f32[2048,256]{1,0} reshape(f32[2048,256]{1,0} %arg24.1)
  %MatMul_19.2 = f32[1,64,256]{2,1,0} dot(f32[1,64,2048]{2,1,0} %mul_23.3, f32[2048,256]{1,0} %reshape.228), lhs_contracting_dims={2}, rhs_contracting_dims={0}, frontend_attributes={grad_x="false",grad_y="false"}, metadata={op_type="BatchMatMulV2" op_name="MatMul_19" source_file="<repo-root>/.venv/lib/python3.12/site-packages/tensorflow/python/framework/ops.py" source_line=1221}
  %MatMul_19.3 = f32[1,64,256]{2,1,0} transpose(f32[1,64,256]{2,1,0} %MatMul_19.2), dimensions={0,1,2}, metadata={op_type="BatchMatMulV2" op_name="MatMul_19" source_file="<repo-root>/.venv/lib/python3.12/site-packages/tensorflow/python/framework/ops.py" source_line=1221}
  %Reshape_17.1 = f32[1,64,4,64]{3,2,1,0} reshape(f32[1,64,256]{2,1,0} %MatMul_19.3), metadata={op_type="Reshape" op_name="Reshape_17" source_file="<repo-root>/.venv/lib/python3.12/site-packages/tensorflow/python/framework/ops.py" source_line=1221}
  %transpose_9.1 = f32[1,4,64,64]{3,1,2,0} transpose(f32[1,64,4,64]{3,2,1,0} %Reshape_17.1), dimensions={0,2,1,3}, metadata={op_type="Transpose" op_name="transpose_9" source_file="<repo-root>/.venv/lib/python3.12/site-packages/tensorflow/python/framework/ops.py" source_line=1221}
  %mul_26.3 = f32[1,64,64]{2,1,0} reshape(f32[1,1,64,64]{3,2,1,0} %reshape.205), metadata={op_type="Mul" op_name="mul_26" source_file="<repo-root>/.venv/lib/python3.12/site-packages/tensorflow/python/framework/ops.py" source_line=1221}
  %mul_26.4 = f32[1,4,64,64]{3,2,1,0} broadcast(f32[1,64,64]{2,1,0} %mul_26.3), dimensions={0,2,3}, metadata={op_type="Mul" op_name="mul_26" source_file="<repo-root>/.venv/lib/python3.12/site-packages/tensorflow/python/framework/ops.py" source_line=1221}
  %mul_26.5 = f32[1,4,64,64]{3,2,1,0} multiply(f32[1,4,64,64]{3,1,2,0} %transpose_9.1, f32[1,4,64,64]{3,2,1,0} %mul_26.4), metadata={op_type="Mul" op_name="mul_26" source_file="<repo-root>/.venv/lib/python3.12/site-packages/tensorflow/python/framework/ops.py" source_line=1221}
  %strided_slice_11.2 = f32[1,4,64,32]{3,2,1,0} slice(f32[1,4,64,64]{3,1,2,0} %transpose_9.1), slice={[0:1], [0:4], [0:64], [32:64]}, metadata={op_type="StridedSlice" op_name="strided_slice_11" source_file="<repo-root>/.venv/lib/python3.12/site-packages/tensorflow/python/framework/ops.py" source_line=1221}
  %strided_slice_11.3 = f32[1,4,64,32]{3,2,1,0} reshape(f32[1,4,64,32]{3,2,1,0} %strided_slice_11.2), metadata={op_type="StridedSlice" op_name="strided_slice_11" source_file="<repo-root>/.venv/lib/python3.12/site-packages/tensorflow/python/framework/ops.py" source_line=1221}
  %Neg_5.1 = f32[1,4,64,32]{3,2,1,0} negate(f32[1,4,64,32]{3,2,1,0} %strided_slice_11.3), metadata={op_type="Neg" op_name="Neg_5" source_file="<repo-root>/.venv/lib/python3.12/site-packages/tensorflow/python/framework/ops.py" source_line=1221}
  %strided_slice_10.2 = f32[1,4,64,32]{3,2,1,0} slice(f32[1,4,64,64]{3,1,2,0} %transpose_9.1), slice={[0:1], [0:4], [0:64], [0:32]}, metadata={op_type="StridedSlice" op_name="strided_slice_10" source_file="<repo-root>/.venv/lib/python3.12/site-packages/tensorflow/python/framework/ops.py" source_line=1221}
  %strided_slice_10.3 = f32[1,4,64,32]{3,2,1,0} reshape(f32[1,4,64,32]{3,2,1,0} %strided_slice_10.2), metadata={op_type="StridedSlice" op_name="strided_slice_10" source_file="<repo-root>/.venv/lib/python3.12/site-packages/tensorflow/python/framework/ops.py" source_line=1221}
  %concat_5.1 = f32[1,4,64,64]{3,2,1,0} concatenate(f32[1,4,64,32]{3,2,1,0} %Neg_5.1, f32[1,4,64,32]{3,2,1,0} %strided_slice_10.3), dimensions={3}, metadata={op_type="ConcatV2" op_name="concat_5" source_file="<repo-root>/.venv/lib/python3.12/site-packages/tensorflow/python/framework/ops.py" source_line=1221}
  %mul_27.3 = f32[1,64,64]{2,1,0} reshape(f32[1,1,64,64]{3,2,1,0} %reshape.206), metadata={op_type="Mul" op_name="mul_27" source_file="<repo-root>/.venv/lib/python3.12/site-packages/tensorflow/python/framework/ops.py" source_line=1221}
  %mul_27.4 = f32[1,4,64,64]{3,2,1,0} broadcast(f32[1,64,64]{2,1,0} %mul_27.3), dimensions={0,2,3}, metadata={op_type="Mul" op_name="mul_27" source_file="<repo-root>/.venv/lib/python3.12/site-packages/tensorflow/python/framework/ops.py" source_line=1221}
  %mul_27.5 = f32[1,4,64,64]{3,2,1,0} multiply(f32[1,4,64,64]{3,2,1,0} %concat_5.1, f32[1,4,64,64]{3,2,1,0} %mul_27.4), metadata={op_type="Mul" op_name="mul_27" source_file="<repo-root>/.venv/lib/python3.12/site-packages/tensorflow/python/framework/ops.py" source_line=1221}
  %add_16.1 = f32[1,4,64,64]{3,2,1,0} add(f32[1,4,64,64]{3,2,1,0} %mul_26.5, f32[1,4,64,64]{3,2,1,0} %mul_27.5), metadata={op_type="AddV2" op_name="add_16" source_file="<repo-root>/.venv/lib/python3.12/site-packages/tensorflow/python/framework/ops.py" source_line=1221}
  %Reshape_19.1 = f32[1,4,1,64,64]{4,3,2,1,0} reshape(f32[1,4,64,64]{3,2,1,0} %add_16.1), metadata={op_type="Reshape" op_name="Reshape_19" source_file="<repo-root>/.venv/lib/python3.12/site-packages/tensorflow/python/framework/ops.py" source_line=1221}
  %Tile_4.3 = f32[1,4,1,64,64]{4,3,2,1,0} broadcast(f32[1,4,1,64,64]{4,3,2,1,0} %Reshape_19.1), dimensions={0,1,2,3,4}, metadata={op_type="Tile" op_name="Tile_4" source_file="<repo-root>/.venv/lib/python3.12/site-packages/tensorflow/python/framework/ops.py" source_line=1221}
  %Tile_4.4 = f32[1,4,64,64]{3,2,1,0} reshape(f32[1,4,1,64,64]{4,3,2,1,0} %Tile_4.3), metadata={op_type="Tile" op_name="Tile_4" source_file="<repo-root>/.venv/lib/python3.12/site-packages/tensorflow/python/framework/ops.py" source_line=1221}
  %Tile_4.5 = f32[1,4,8,64,64]{4,3,2,1,0} broadcast(f32[1,4,64,64]{3,2,1,0} %Tile_4.4), dimensions={0,1,3,4}, metadata={op_type="Tile" op_name="Tile_4" source_file="<repo-root>/.venv/lib/python3.12/site-packages/tensorflow/python/framework/ops.py" source_line=1221}
  %Reshape_20.1 = f32[1,32,64,64]{3,2,1,0} reshape(f32[1,4,8,64,64]{4,3,2,1,0} %Tile_4.5), metadata={op_type="Reshape" op_name="Reshape_20" source_file="<repo-root>/.venv/lib/python3.12/site-packages/tensorflow/python/framework/ops.py" source_line=1221}
  %MatMul_21.2 = f32[1,32,64,64]{3,2,1,0} dot(f32[1,32,64,64]{3,2,1,0} %add_15.1, f32[1,32,64,64]{3,2,1,0} %Reshape_20.1), lhs_batch_dims={0,1}, lhs_contracting_dims={3}, rhs_batch_dims={0,1}, rhs_contracting_dims={3}, frontend_attributes={grad_x="false",grad_y="false"}, metadata={op_type="BatchMatMulV2" op_name="MatMul_21" source_file="<repo-root>/.venv/lib/python3.12/site-packages/tensorflow/python/framework/ops.py" source_line=1221}
  %MatMul_21.3 = f32[1,32,64,64]{3,2,1,0} transpose(f32[1,32,64,64]{3,2,1,0} %MatMul_21.2), dimensions={0,1,2,3}, metadata={op_type="BatchMatMulV2" op_name="MatMul_21" source_file="<repo-root>/.venv/lib/python3.12/site-packages/tensorflow/python/framework/ops.py" source_line=1221}
  %mul_28.3 = f32[] constant(0.125), metadata={op_type="Mul" op_name="mul_28" source_file="<repo-root>/.venv/lib/python3.12/site-packages/tensorflow/python/framework/ops.py" source_line=1221}
  %mul_28.4 = f32[1,32,64,64]{3,2,1,0} broadcast(f32[] %mul_28.3), dimensions={}, metadata={op_type="Mul" op_name="mul_28" source_file="<repo-root>/.venv/lib/python3.12/site-packages/tensorflow/python/framework/ops.py" source_line=1221}
  %mul_28.5 = f32[1,32,64,64]{3,2,1,0} multiply(f32[1,32,64,64]{3,2,1,0} %MatMul_21.3, f32[1,32,64,64]{3,2,1,0} %mul_28.4), metadata={op_type="Mul" op_name="mul_28" source_file="<repo-root>/.venv/lib/python3.12/site-packages/tensorflow/python/framework/ops.py" source_line=1221}
  %add_17.3 = f32[1,64,64]{2,1,0} reshape(f32[1,1,64,64]{3,2,1,0} %reshape.207), metadata={op_type="AddV2" op_name="add_17" source_file="<repo-root>/.venv/lib/python3.12/site-packages/tensorflow/python/framework/ops.py" source_line=1221}
  %add_17.4 = f32[1,32,64,64]{3,2,1,0} broadcast(f32[1,64,64]{2,1,0} %add_17.3), dimensions={0,2,3}, metadata={op_type="AddV2" op_name="add_17" source_file="<repo-root>/.venv/lib/python3.12/site-packages/tensorflow/python/framework/ops.py" source_line=1221}
  %add_17.5 = f32[1,32,64,64]{3,2,1,0} add(f32[1,32,64,64]{3,2,1,0} %mul_28.5, f32[1,32,64,64]{3,2,1,0} %add_17.4), metadata={op_type="AddV2" op_name="add_17" source_file="<repo-root>/.venv/lib/python3.12/site-packages/tensorflow/python/framework/ops.py" source_line=1221}
  %Softmax_2.28 = f32[] constant(-inf), metadata={op_type="Softmax" op_name="Softmax_2" source_file="<repo-root>/.venv/lib/python3.12/site-packages/tensorflow/python/framework/ops.py" source_line=1221}
  %Softmax_2.29 = f32[1,32,64]{2,1,0} reduce(f32[1,32,64,64]{3,2,1,0} %add_17.5, f32[] %Softmax_2.28), dimensions={3}, to_apply=%region_0.10, metadata={op_type="Softmax" op_name="Softmax_2"}
  %Softmax_2.30 = f32[1,32,64,1]{3,2,1,0} reshape(f32[1,32,64]{2,1,0} %Softmax_2.29), metadata={op_type="Softmax" op_name="Softmax_2"}
  %Softmax_2.31 = f32[1,32,64,1]{3,2,1,0} broadcast(f32[1,32,64,1]{3,2,1,0} %Softmax_2.30), dimensions={0,1,2,3}, metadata={op_type="Softmax" op_name="Softmax_2"}
  %Softmax_2.32 = f32[1,32,64]{2,1,0} reshape(f32[1,32,64,1]{3,2,1,0} %Softmax_2.31), metadata={op_type="Softmax" op_name="Softmax_2"}
  %Softmax_2.33 = f32[1,32,64,64]{3,2,1,0} broadcast(f32[1,32,64]{2,1,0} %Softmax_2.32), dimensions={0,1,2}, metadata={op_type="Softmax" op_name="Softmax_2"}
  %Softmax_2.34 = f32[1,32,64,64]{3,2,1,0} subtract(f32[1,32,64,64]{3,2,1,0} %add_17.5, f32[1,32,64,64]{3,2,1,0} %Softmax_2.33), metadata={op_type="Softmax" op_name="Softmax_2"}
  %Softmax_2.35 = f32[1,32,64,64]{3,2,1,0} exponential(f32[1,32,64,64]{3,2,1,0} %Softmax_2.34), metadata={op_type="Softmax" op_name="Softmax_2"}
  %Softmax_2.27 = f32[] constant(-0), metadata={op_type="Softmax" op_name="Softmax_2" source_file="<repo-root>/.venv/lib/python3.12/site-packages/tensorflow/python/framework/ops.py" source_line=1221}
  %Softmax_2.36 = f32[1,32,64]{2,1,0} reduce(f32[1,32,64,64]{3,2,1,0} %Softmax_2.35, f32[] %Softmax_2.27), dimensions={3}, to_apply=%region_1.11, metadata={op_type="Softmax" op_name="Softmax_2"}
  %Softmax_2.37 = f32[1,32,64,1]{3,2,1,0} reshape(f32[1,32,64]{2,1,0} %Softmax_2.36), metadata={op_type="Softmax" op_name="Softmax_2"}
  %Softmax_2.38 = f32[1,32,64,1]{3,2,1,0} broadcast(f32[1,32,64,1]{3,2,1,0} %Softmax_2.37), dimensions={0,1,2,3}, metadata={op_type="Softmax" op_name="Softmax_2"}
  %Softmax_2.39 = f32[1,32,64]{2,1,0} reshape(f32[1,32,64,1]{3,2,1,0} %Softmax_2.38), metadata={op_type="Softmax" op_name="Softmax_2"}
  %Softmax_2.40 = f32[1,32,64,64]{3,2,1,0} broadcast(f32[1,32,64]{2,1,0} %Softmax_2.39), dimensions={0,1,2}, metadata={op_type="Softmax" op_name="Softmax_2"}
  %Softmax_2.41 = f32[1,32,64,64]{3,2,1,0} divide(f32[1,32,64,64]{3,2,1,0} %Softmax_2.35, f32[1,32,64,64]{3,2,1,0} %Softmax_2.40), metadata={op_type="Softmax" op_name="Softmax_2"}
  %arg25.1 = f32[2048,256]{1,0} parameter(25), parameter_replication={false}, metadata={op_name="XLA_Args"}
  %reshape.229 = f32[2048,256]{1,0} reshape(f32[2048,256]{1,0} %arg25.1)
  %MatMul_20.2 = f32[1,64,256]{2,1,0} dot(f32[1,64,2048]{2,1,0} %mul_23.3, f32[2048,256]{1,0} %reshape.229), lhs_contracting_dims={2}, rhs_contracting_dims={0}, frontend_attributes={grad_x="false",grad_y="false"}, metadata={op_type="BatchMatMulV2" op_name="MatMul_20" source_file="<repo-root>/.venv/lib/python3.12/site-packages/tensorflow/python/framework/ops.py" source_line=1221}
  %MatMul_20.3 = f32[1,64,256]{2,1,0} transpose(f32[1,64,256]{2,1,0} %MatMul_20.2), dimensions={0,1,2}, metadata={op_type="BatchMatMulV2" op_name="MatMul_20" source_file="<repo-root>/.venv/lib/python3.12/site-packages/tensorflow/python/framework/ops.py" source_line=1221}
  %Reshape_18.1 = f32[1,64,4,64]{3,2,1,0} reshape(f32[1,64,256]{2,1,0} %MatMul_20.3), metadata={op_type="Reshape" op_name="Reshape_18" source_file="<repo-root>/.venv/lib/python3.12/site-packages/tensorflow/python/framework/ops.py" source_line=1221}
  %transpose_10.1 = f32[1,4,64,64]{3,1,2,0} transpose(f32[1,64,4,64]{3,2,1,0} %Reshape_18.1), dimensions={0,2,1,3}, metadata={op_type="Transpose" op_name="transpose_10" source_file="<repo-root>/.venv/lib/python3.12/site-packages/tensorflow/python/framework/ops.py" source_line=1221}
  %Reshape_21.1 = f32[1,4,1,64,64]{4,3,2,1,0} reshape(f32[1,4,64,64]{3,1,2,0} %transpose_10.1), metadata={op_type="Reshape" op_name="Reshape_21" source_file="<repo-root>/.venv/lib/python3.12/site-packages/tensorflow/python/framework/ops.py" source_line=1221}
  %Tile_5.3 = f32[1,4,1,64,64]{4,3,2,1,0} broadcast(f32[1,4,1,64,64]{4,3,2,1,0} %Reshape_21.1), dimensions={0,1,2,3,4}, metadata={op_type="Tile" op_name="Tile_5" source_file="<repo-root>/.venv/lib/python3.12/site-packages/tensorflow/python/framework/ops.py" source_line=1221}
  %Tile_5.4 = f32[1,4,64,64]{3,2,1,0} reshape(f32[1,4,1,64,64]{4,3,2,1,0} %Tile_5.3), metadata={op_type="Tile" op_name="Tile_5" source_file="<repo-root>/.venv/lib/python3.12/site-packages/tensorflow/python/framework/ops.py" source_line=1221}
  %Tile_5.5 = f32[1,4,8,64,64]{4,3,2,1,0} broadcast(f32[1,4,64,64]{3,2,1,0} %Tile_5.4), dimensions={0,1,3,4}, metadata={op_type="Tile" op_name="Tile_5" source_file="<repo-root>/.venv/lib/python3.12/site-packages/tensorflow/python/framework/ops.py" source_line=1221}
  %Reshape_22.1 = f32[1,32,64,64]{3,2,1,0} reshape(f32[1,4,8,64,64]{4,3,2,1,0} %Tile_5.5), metadata={op_type="Reshape" op_name="Reshape_22" source_file="<repo-root>/.venv/lib/python3.12/site-packages/tensorflow/python/framework/ops.py" source_line=1221}
  %MatMul_22.2 = f32[1,32,64,64]{3,2,1,0} dot(f32[1,32,64,64]{3,2,1,0} %Softmax_2.41, f32[1,32,64,64]{3,2,1,0} %Reshape_22.1), lhs_batch_dims={0,1}, lhs_contracting_dims={3}, rhs_batch_dims={0,1}, rhs_contracting_dims={2}, frontend_attributes={grad_x="false",grad_y="false"}, metadata={op_type="BatchMatMulV2" op_name="MatMul_22" source_file="<repo-root>/.venv/lib/python3.12/site-packages/tensorflow/python/framework/ops.py" source_line=1221}
  %MatMul_22.3 = f32[1,32,64,64]{3,2,1,0} transpose(f32[1,32,64,64]{3,2,1,0} %MatMul_22.2), dimensions={0,1,2,3}, metadata={op_type="BatchMatMulV2" op_name="MatMul_22" source_file="<repo-root>/.venv/lib/python3.12/site-packages/tensorflow/python/framework/ops.py" source_line=1221}
  %transpose_11.1 = f32[1,64,32,64]{3,1,2,0} transpose(f32[1,32,64,64]{3,2,1,0} %MatMul_22.3), dimensions={0,2,1,3}, metadata={op_type="Transpose" op_name="transpose_11" source_file="<repo-root>/.venv/lib/python3.12/site-packages/tensorflow/python/framework/ops.py" source_line=1221}
  %Reshape_23.1 = f32[1,64,2048]{2,1,0} reshape(f32[1,64,32,64]{3,1,2,0} %transpose_11.1), metadata={op_type="Reshape" op_name="Reshape_23" source_file="<repo-root>/.venv/lib/python3.12/site-packages/tensorflow/python/framework/ops.py" source_line=1221}
  %arg26.1 = f32[2048,2048]{1,0} parameter(26), parameter_replication={false}, metadata={op_name="XLA_Args"}
  %reshape.230 = f32[2048,2048]{1,0} reshape(f32[2048,2048]{1,0} %arg26.1)
  %MatMul_23.2 = f32[1,64,2048]{2,1,0} dot(f32[1,64,2048]{2,1,0} %Reshape_23.1, f32[2048,2048]{1,0} %reshape.230), lhs_contracting_dims={2}, rhs_contracting_dims={0}, frontend_attributes={grad_x="false",grad_y="false"}, metadata={op_type="BatchMatMulV2" op_name="MatMul_23" source_file="<repo-root>/.venv/lib/python3.12/site-packages/tensorflow/python/framework/ops.py" source_line=1221}
  %MatMul_23.3 = f32[1,64,2048]{2,1,0} transpose(f32[1,64,2048]{2,1,0} %MatMul_23.2), dimensions={0,1,2}, metadata={op_type="BatchMatMulV2" op_name="MatMul_23" source_file="<repo-root>/.venv/lib/python3.12/site-packages/tensorflow/python/framework/ops.py" source_line=1221}
  %add_18.1 = f32[1,64,2048]{2,1,0} add(f32[1,64,2048]{2,1,0} %add_13.1, f32[1,64,2048]{2,1,0} %MatMul_23.3), metadata={op_type="AddV2" op_name="add_18" source_file="<repo-root>/.venv/lib/python3.12/site-packages/tensorflow/python/framework/ops.py" source_line=1221}
  %Square_5.1 = f32[1,64,2048]{2,1,0} multiply(f32[1,64,2048]{2,1,0} %add_18.1, f32[1,64,2048]{2,1,0} %add_18.1), metadata={op_type="Square" op_name="Square_5" source_file="<repo-root>/.venv/lib/python3.12/site-packages/tensorflow/python/framework/ops.py" source_line=1221}
  %Mean_5.10 = f32[1,64,2048]{2,1,0} convert(f32[1,64,2048]{2,1,0} %Square_5.1), metadata={op_type="Mean" op_name="Mean_5" source_file="<repo-root>/.venv/lib/python3.12/site-packages/tensorflow/python/framework/ops.py" source_line=1221}
  %Mean_5.11 = f32[] constant(0), metadata={op_type="Mean" op_name="Mean_5" source_file="<repo-root>/.venv/lib/python3.12/site-packages/tensorflow/python/framework/ops.py" source_line=1221}
  %Mean_5.12 = f32[] convert(f32[] %Mean_5.11), metadata={op_type="Mean" op_name="Mean_5" source_file="<repo-root>/.venv/lib/python3.12/site-packages/tensorflow/python/framework/ops.py" source_line=1221}
  %Mean_5.13 = f32[1,64]{1,0} reduce(f32[1,64,2048]{2,1,0} %Mean_5.10, f32[] %Mean_5.12), dimensions={2}, to_apply=%Mean_5-reduction.12, metadata={op_type="Mean" op_name="Mean_5" source_file="<repo-root>/.venv/lib/python3.12/site-packages/tensorflow/python/framework/ops.py" source_line=1221}
  %Mean_5.14 = s32[] constant(2048), metadata={op_type="Mean" op_name="Mean_5" source_file="<repo-root>/.venv/lib/python3.12/site-packages/tensorflow/python/framework/ops.py" source_line=1221}
  %Mean_5.15 = f32[] convert(s32[] %Mean_5.14), metadata={op_type="Mean" op_name="Mean_5" source_file="<repo-root>/.venv/lib/python3.12/site-packages/tensorflow/python/framework/ops.py" source_line=1221}
  %Mean_5.16 = f32[1,64]{1,0} broadcast(f32[] %Mean_5.15), dimensions={}, metadata={op_type="Mean" op_name="Mean_5" source_file="<repo-root>/.venv/lib/python3.12/site-packages/tensorflow/python/framework/ops.py" source_line=1221}
  %Mean_5.17 = f32[1,64]{1,0} divide(f32[1,64]{1,0} %Mean_5.13, f32[1,64]{1,0} %Mean_5.16), metadata={op_type="Mean" op_name="Mean_5" source_file="<repo-root>/.venv/lib/python3.12/site-packages/tensorflow/python/framework/ops.py" source_line=1221}
  %Mean_5.18 = f32[1,64]{1,0} convert(f32[1,64]{1,0} %Mean_5.17), metadata={op_type="Mean" op_name="Mean_5" source_file="<repo-root>/.venv/lib/python3.12/site-packages/tensorflow/python/framework/ops.py" source_line=1221}
  %Mean_5.19 = f32[1,64,1]{2,1,0} reshape(f32[1,64]{1,0} %Mean_5.18), metadata={op_type="Mean" op_name="Mean_5" source_file="<repo-root>/.venv/lib/python3.12/site-packages/tensorflow/python/framework/ops.py" source_line=1221}
  %add_19.3 = f32[] constant(1e-05), metadata={op_type="AddV2" op_name="add_19" source_file="<repo-root>/.venv/lib/python3.12/site-packages/tensorflow/python/framework/ops.py" source_line=1221}
  %add_19.4 = f32[1,64,1]{2,1,0} broadcast(f32[] %add_19.3), dimensions={}, metadata={op_type="AddV2" op_name="add_19" source_file="<repo-root>/.venv/lib/python3.12/site-packages/tensorflow/python/framework/ops.py" source_line=1221}
  %add_19.5 = f32[1,64,1]{2,1,0} add(f32[1,64,1]{2,1,0} %Mean_5.19, f32[1,64,1]{2,1,0} %add_19.4), metadata={op_type="AddV2" op_name="add_19" source_file="<repo-root>/.venv/lib/python3.12/site-packages/tensorflow/python/framework/ops.py" source_line=1221}
  %Rsqrt_8.1 = f32[1,64,1]{2,1,0} rsqrt(f32[1,64,1]{2,1,0} %add_19.5), metadata={op_type="Rsqrt" op_name="Rsqrt_8"}
  %mul_29.3 = f32[1,64]{1,0} reshape(f32[1,64,1]{2,1,0} %Rsqrt_8.1), metadata={op_type="Mul" op_name="mul_29" source_file="<repo-root>/.venv/lib/python3.12/site-packages/tensorflow/python/framework/ops.py" source_line=1221}
  %mul_29.4 = f32[1,64,2048]{2,1,0} broadcast(f32[1,64]{1,0} %mul_29.3), dimensions={0,1}, metadata={op_type="Mul" op_name="mul_29" source_file="<repo-root>/.venv/lib/python3.12/site-packages/tensorflow/python/framework/ops.py" source_line=1221}
  %mul_29.5 = f32[1,64,2048]{2,1,0} multiply(f32[1,64,2048]{2,1,0} %add_18.1, f32[1,64,2048]{2,1,0} %mul_29.4), metadata={op_type="Mul" op_name="mul_29" source_file="<repo-root>/.venv/lib/python3.12/site-packages/tensorflow/python/framework/ops.py" source_line=1221}
  %arg27.1 = f32[2048]{0} parameter(27), parameter_replication={false}, metadata={op_name="XLA_Args"}
  %reshape.231 = f32[2048]{0} reshape(f32[2048]{0} %arg27.1)
  %mul_30.2 = f32[1,64,2048]{2,1,0} broadcast(f32[2048]{0} %reshape.231), dimensions={2}, metadata={op_type="Mul" op_name="mul_30" source_file="<repo-root>/.venv/lib/python3.12/site-packages/tensorflow/python/framework/ops.py" source_line=1221}
  %mul_30.3 = f32[1,64,2048]{2,1,0} multiply(f32[1,64,2048]{2,1,0} %mul_29.5, f32[1,64,2048]{2,1,0} %mul_30.2), metadata={op_type="Mul" op_name="mul_30" source_file="<repo-root>/.venv/lib/python3.12/site-packages/tensorflow/python/framework/ops.py" source_line=1221}
  %arg28.1 = f32[2048,5632]{1,0} parameter(28), parameter_replication={false}, metadata={op_name="XLA_Args"}
  %reshape.232 = f32[2048,5632]{1,0} reshape(f32[2048,5632]{1,0} %arg28.1)
  %MatMul_24.2 = f32[1,64,5632]{2,1,0} dot(f32[1,64,2048]{2,1,0} %mul_30.3, f32[2048,5632]{1,0} %reshape.232), lhs_contracting_dims={2}, rhs_contracting_dims={0}, frontend_attributes={grad_x="false",grad_y="false"}, metadata={op_type="BatchMatMulV2" op_name="MatMul_24" source_file="<repo-root>/.venv/lib/python3.12/site-packages/tensorflow/python/framework/ops.py" source_line=1221}
  %MatMul_24.3 = f32[1,64,5632]{2,1,0} transpose(f32[1,64,5632]{2,1,0} %MatMul_24.2), dimensions={0,1,2}, metadata={op_type="BatchMatMulV2" op_name="MatMul_24" source_file="<repo-root>/.venv/lib/python3.12/site-packages/tensorflow/python/framework/ops.py" source_line=1221}
  %Sigmoid_2.1 = f32[1,64,5632]{2,1,0} logistic(f32[1,64,5632]{2,1,0} %MatMul_24.3), metadata={op_type="Sigmoid" op_name="Sigmoid_2"}
  %mul_31.1 = f32[1,64,5632]{2,1,0} multiply(f32[1,64,5632]{2,1,0} %MatMul_24.3, f32[1,64,5632]{2,1,0} %Sigmoid_2.1), metadata={op_type="Mul" op_name="mul_31" source_file="<repo-root>/.venv/lib/python3.12/site-packages/tensorflow/python/framework/ops.py" source_line=1221}
  %arg29.1 = f32[2048,5632]{1,0} parameter(29), parameter_replication={false}, metadata={op_name="XLA_Args"}
  %reshape.233 = f32[2048,5632]{1,0} reshape(f32[2048,5632]{1,0} %arg29.1)
  %MatMul_25.2 = f32[1,64,5632]{2,1,0} dot(f32[1,64,2048]{2,1,0} %mul_30.3, f32[2048,5632]{1,0} %reshape.233), lhs_contracting_dims={2}, rhs_contracting_dims={0}, frontend_attributes={grad_x="false",grad_y="false"}, metadata={op_type="BatchMatMulV2" op_name="MatMul_25" source_file="<repo-root>/.venv/lib/python3.12/site-packages/tensorflow/python/framework/ops.py" source_line=1221}
  %MatMul_25.3 = f32[1,64,5632]{2,1,0} transpose(f32[1,64,5632]{2,1,0} %MatMul_25.2), dimensions={0,1,2}, metadata={op_type="BatchMatMulV2" op_name="MatMul_25" source_file="<repo-root>/.venv/lib/python3.12/site-packages/tensorflow/python/framework/ops.py" source_line=1221}
  %mul_32.1 = f32[1,64,5632]{2,1,0} multiply(f32[1,64,5632]{2,1,0} %mul_31.1, f32[1,64,5632]{2,1,0} %MatMul_25.3), metadata={op_type="Mul" op_name="mul_32" source_file="<repo-root>/.venv/lib/python3.12/site-packages/tensorflow/python/framework/ops.py" source_line=1221}
  %arg30.1 = f32[5632,2048]{1,0} parameter(30), parameter_replication={false}, metadata={op_name="XLA_Args"}
  %reshape.234 = f32[5632,2048]{1,0} reshape(f32[5632,2048]{1,0} %arg30.1)
  %MatMul_26.2 = f32[1,64,2048]{2,1,0} dot(f32[1,64,5632]{2,1,0} %mul_32.1, f32[5632,2048]{1,0} %reshape.234), lhs_contracting_dims={2}, rhs_contracting_dims={0}, frontend_attributes={grad_x="false",grad_y="false"}, metadata={op_type="BatchMatMulV2" op_name="MatMul_26" source_file="<repo-root>/.venv/lib/python3.12/site-packages/tensorflow/python/framework/ops.py" source_line=1221}
  %MatMul_26.3 = f32[1,64,2048]{2,1,0} transpose(f32[1,64,2048]{2,1,0} %MatMul_26.2), dimensions={0,1,2}, metadata={op_type="BatchMatMulV2" op_name="MatMul_26" source_file="<repo-root>/.venv/lib/python3.12/site-packages/tensorflow/python/framework/ops.py" source_line=1221}
  %add_20.1 = f32[1,64,2048]{2,1,0} add(f32[1,64,2048]{2,1,0} %add_18.1, f32[1,64,2048]{2,1,0} %MatMul_26.3), metadata={op_type="AddV2" op_name="add_20" source_file="<repo-root>/.venv/lib/python3.12/site-packages/tensorflow/python/framework/ops.py" source_line=1221}
  %Square_6.1 = f32[1,64,2048]{2,1,0} multiply(f32[1,64,2048]{2,1,0} %add_20.1, f32[1,64,2048]{2,1,0} %add_20.1), metadata={op_type="Square" op_name="Square_6" source_file="<repo-root>/.venv/lib/python3.12/site-packages/tensorflow/python/framework/ops.py" source_line=1221}
  %Mean_6.10 = f32[1,64,2048]{2,1,0} convert(f32[1,64,2048]{2,1,0} %Square_6.1), metadata={op_type="Mean" op_name="Mean_6" source_file="<repo-root>/.venv/lib/python3.12/site-packages/tensorflow/python/framework/ops.py" source_line=1221}
  %Mean_6.11 = f32[] constant(0), metadata={op_type="Mean" op_name="Mean_6" source_file="<repo-root>/.venv/lib/python3.12/site-packages/tensorflow/python/framework/ops.py" source_line=1221}
  %Mean_6.12 = f32[] convert(f32[] %Mean_6.11), metadata={op_type="Mean" op_name="Mean_6" source_file="<repo-root>/.venv/lib/python3.12/site-packages/tensorflow/python/framework/ops.py" source_line=1221}
  %Mean_6.13 = f32[1,64]{1,0} reduce(f32[1,64,2048]{2,1,0} %Mean_6.10, f32[] %Mean_6.12), dimensions={2}, to_apply=%Mean_6-reduction.13, metadata={op_type="Mean" op_name="Mean_6" source_file="<repo-root>/.venv/lib/python3.12/site-packages/tensorflow/python/framework/ops.py" source_line=1221}
  %Mean_6.14 = s32[] constant(2048), metadata={op_type="Mean" op_name="Mean_6" source_file="<repo-root>/.venv/lib/python3.12/site-packages/tensorflow/python/framework/ops.py" source_line=1221}
  %Mean_6.15 = f32[] convert(s32[] %Mean_6.14), metadata={op_type="Mean" op_name="Mean_6" source_file="<repo-root>/.venv/lib/python3.12/site-packages/tensorflow/python/framework/ops.py" source_line=1221}
  %Mean_6.16 = f32[1,64]{1,0} broadcast(f32[] %Mean_6.15), dimensions={}, metadata={op_type="Mean" op_name="Mean_6" source_file="<repo-root>/.venv/lib/python3.12/site-packages/tensorflow/python/framework/ops.py" source_line=1221}
  %Mean_6.17 = f32[1,64]{1,0} divide(f32[1,64]{1,0} %Mean_6.13, f32[1,64]{1,0} %Mean_6.16), metadata={op_type="Mean" op_name="Mean_6" source_file="<repo-root>/.venv/lib/python3.12/site-packages/tensorflow/python/framework/ops.py" source_line=1221}
  %Mean_6.18 = f32[1,64]{1,0} convert(f32[1,64]{1,0} %Mean_6.17), metadata={op_type="Mean" op_name="Mean_6" source_file="<repo-root>/.venv/lib/python3.12/site-packages/tensorflow/python/framework/ops.py" source_line=1221}
  %Mean_6.19 = f32[1,64,1]{2,1,0} reshape(f32[1,64]{1,0} %Mean_6.18), metadata={op_type="Mean" op_name="Mean_6" source_file="<repo-root>/.venv/lib/python3.12/site-packages/tensorflow/python/framework/ops.py" source_line=1221}
  %add_21.3 = f32[] constant(1e-05), metadata={op_type="AddV2" op_name="add_21" source_file="<repo-root>/.venv/lib/python3.12/site-packages/tensorflow/python/framework/ops.py" source_line=1221}
  %add_21.4 = f32[1,64,1]{2,1,0} broadcast(f32[] %add_21.3), dimensions={}, metadata={op_type="AddV2" op_name="add_21" source_file="<repo-root>/.venv/lib/python3.12/site-packages/tensorflow/python/framework/ops.py" source_line=1221}
  %add_21.5 = f32[1,64,1]{2,1,0} add(f32[1,64,1]{2,1,0} %Mean_6.19, f32[1,64,1]{2,1,0} %add_21.4), metadata={op_type="AddV2" op_name="add_21" source_file="<repo-root>/.venv/lib/python3.12/site-packages/tensorflow/python/framework/ops.py" source_line=1221}
  %Rsqrt_9.1 = f32[1,64,1]{2,1,0} rsqrt(f32[1,64,1]{2,1,0} %add_21.5), metadata={op_type="Rsqrt" op_name="Rsqrt_9"}
  %mul_33.3 = f32[1,64]{1,0} reshape(f32[1,64,1]{2,1,0} %Rsqrt_9.1), metadata={op_type="Mul" op_name="mul_33" source_file="<repo-root>/.venv/lib/python3.12/site-packages/tensorflow/python/framework/ops.py" source_line=1221}
  %mul_33.4 = f32[1,64,2048]{2,1,0} broadcast(f32[1,64]{1,0} %mul_33.3), dimensions={0,1}, metadata={op_type="Mul" op_name="mul_33" source_file="<repo-root>/.venv/lib/python3.12/site-packages/tensorflow/python/framework/ops.py" source_line=1221}
  %mul_33.5 = f32[1,64,2048]{2,1,0} multiply(f32[1,64,2048]{2,1,0} %add_20.1, f32[1,64,2048]{2,1,0} %mul_33.4), metadata={op_type="Mul" op_name="mul_33" source_file="<repo-root>/.venv/lib/python3.12/site-packages/tensorflow/python/framework/ops.py" source_line=1221}
  %arg31.1 = f32[2048]{0} parameter(31), parameter_replication={false}, metadata={op_name="XLA_Args"}
  %reshape.235 = f32[2048]{0} reshape(f32[2048]{0} %arg31.1)
  %mul_34.2 = f32[1,64,2048]{2,1,0} broadcast(f32[2048]{0} %reshape.235), dimensions={2}, metadata={op_type="Mul" op_name="mul_34" source_file="<repo-root>/.venv/lib/python3.12/site-packages/tensorflow/python/framework/ops.py" source_line=1221}
  %mul_34.3 = f32[1,64,2048]{2,1,0} multiply(f32[1,64,2048]{2,1,0} %mul_33.5, f32[1,64,2048]{2,1,0} %mul_34.2), metadata={op_type="Mul" op_name="mul_34" source_file="<repo-root>/.venv/lib/python3.12/site-packages/tensorflow/python/framework/ops.py" source_line=1221}
  %arg32.1 = f32[2048,2048]{1,0} parameter(32), parameter_replication={false}, metadata={op_name="XLA_Args"}
  %reshape.236 = f32[2048,2048]{1,0} reshape(f32[2048,2048]{1,0} %arg32.1)
  %MatMul_27.2 = f32[1,64,2048]{2,1,0} dot(f32[1,64,2048]{2,1,0} %mul_34.3, f32[2048,2048]{1,0} %reshape.236), lhs_contracting_dims={2}, rhs_contracting_dims={0}, frontend_attributes={grad_x="false",grad_y="false"}, metadata={op_type="BatchMatMulV2" op_name="MatMul_27" source_file="<repo-root>/.venv/lib/python3.12/site-packages/tensorflow/python/framework/ops.py" source_line=1221}
  %MatMul_27.3 = f32[1,64,2048]{2,1,0} transpose(f32[1,64,2048]{2,1,0} %MatMul_27.2), dimensions={0,1,2}, metadata={op_type="BatchMatMulV2" op_name="MatMul_27" source_file="<repo-root>/.venv/lib/python3.12/site-packages/tensorflow/python/framework/ops.py" source_line=1221}
  %Reshape_24.1 = f32[1,64,32,64]{3,2,1,0} reshape(f32[1,64,2048]{2,1,0} %MatMul_27.3), metadata={op_type="Reshape" op_name="Reshape_24" source_file="<repo-root>/.venv/lib/python3.12/site-packages/tensorflow/python/framework/ops.py" source_line=1221}
  %transpose_12.1 = f32[1,32,64,64]{3,1,2,0} transpose(f32[1,64,32,64]{3,2,1,0} %Reshape_24.1), dimensions={0,2,1,3}, metadata={op_type="Transpose" op_name="transpose_12" source_file="<repo-root>/.venv/lib/python3.12/site-packages/tensorflow/python/framework/ops.py" source_line=1221}
  %mul_35.3 = f32[1,64,64]{2,1,0} reshape(f32[1,1,64,64]{3,2,1,0} %reshape.205), metadata={op_type="Mul" op_name="mul_35" source_file="<repo-root>/.venv/lib/python3.12/site-packages/tensorflow/python/framework/ops.py" source_line=1221}
  %mul_35.4 = f32[1,32,64,64]{3,2,1,0} broadcast(f32[1,64,64]{2,1,0} %mul_35.3), dimensions={0,2,3}, metadata={op_type="Mul" op_name="mul_35" source_file="<repo-root>/.venv/lib/python3.12/site-packages/tensorflow/python/framework/ops.py" source_line=1221}
  %mul_35.5 = f32[1,32,64,64]{3,2,1,0} multiply(f32[1,32,64,64]{3,1,2,0} %transpose_12.1, f32[1,32,64,64]{3,2,1,0} %mul_35.4), metadata={op_type="Mul" op_name="mul_35" source_file="<repo-root>/.venv/lib/python3.12/site-packages/tensorflow/python/framework/ops.py" source_line=1221}
  %strided_slice_13.2 = f32[1,32,64,32]{3,2,1,0} slice(f32[1,32,64,64]{3,1,2,0} %transpose_12.1), slice={[0:1], [0:32], [0:64], [32:64]}, metadata={op_type="StridedSlice" op_name="strided_slice_13" source_file="<repo-root>/.venv/lib/python3.12/site-packages/tensorflow/python/framework/ops.py" source_line=1221}
  %strided_slice_13.3 = f32[1,32,64,32]{3,2,1,0} reshape(f32[1,32,64,32]{3,2,1,0} %strided_slice_13.2), metadata={op_type="StridedSlice" op_name="strided_slice_13" source_file="<repo-root>/.venv/lib/python3.12/site-packages/tensorflow/python/framework/ops.py" source_line=1221}
  %Neg_6.1 = f32[1,32,64,32]{3,2,1,0} negate(f32[1,32,64,32]{3,2,1,0} %strided_slice_13.3), metadata={op_type="Neg" op_name="Neg_6" source_file="<repo-root>/.venv/lib/python3.12/site-packages/tensorflow/python/framework/ops.py" source_line=1221}
  %strided_slice_12.2 = f32[1,32,64,32]{3,2,1,0} slice(f32[1,32,64,64]{3,1,2,0} %transpose_12.1), slice={[0:1], [0:32], [0:64], [0:32]}, metadata={op_type="StridedSlice" op_name="strided_slice_12" source_file="<repo-root>/.venv/lib/python3.12/site-packages/tensorflow/python/framework/ops.py" source_line=1221}
  %strided_slice_12.3 = f32[1,32,64,32]{3,2,1,0} reshape(f32[1,32,64,32]{3,2,1,0} %strided_slice_12.2), metadata={op_type="StridedSlice" op_name="strided_slice_12" source_file="<repo-root>/.venv/lib/python3.12/site-packages/tensorflow/python/framework/ops.py" source_line=1221}
  %concat_6.1 = f32[1,32,64,64]{3,2,1,0} concatenate(f32[1,32,64,32]{3,2,1,0} %Neg_6.1, f32[1,32,64,32]{3,2,1,0} %strided_slice_12.3), dimensions={3}, metadata={op_type="ConcatV2" op_name="concat_6" source_file="<repo-root>/.venv/lib/python3.12/site-packages/tensorflow/python/framework/ops.py" source_line=1221}
  %mul_36.3 = f32[1,64,64]{2,1,0} reshape(f32[1,1,64,64]{3,2,1,0} %reshape.206), metadata={op_type="Mul" op_name="mul_36" source_file="<repo-root>/.venv/lib/python3.12/site-packages/tensorflow/python/framework/ops.py" source_line=1221}
  %mul_36.4 = f32[1,32,64,64]{3,2,1,0} broadcast(f32[1,64,64]{2,1,0} %mul_36.3), dimensions={0,2,3}, metadata={op_type="Mul" op_name="mul_36" source_file="<repo-root>/.venv/lib/python3.12/site-packages/tensorflow/python/framework/ops.py" source_line=1221}
  %mul_36.5 = f32[1,32,64,64]{3,2,1,0} multiply(f32[1,32,64,64]{3,2,1,0} %concat_6.1, f32[1,32,64,64]{3,2,1,0} %mul_36.4), metadata={op_type="Mul" op_name="mul_36" source_file="<repo-root>/.venv/lib/python3.12/site-packages/tensorflow/python/framework/ops.py" source_line=1221}
  %add_22.1 = f32[1,32,64,64]{3,2,1,0} add(f32[1,32,64,64]{3,2,1,0} %mul_35.5, f32[1,32,64,64]{3,2,1,0} %mul_36.5), metadata={op_type="AddV2" op_name="add_22" source_file="<repo-root>/.venv/lib/python3.12/site-packages/tensorflow/python/framework/ops.py" source_line=1221}
  %arg33.1 = f32[2048,256]{1,0} parameter(33), parameter_replication={false}, metadata={op_name="XLA_Args"}
  %reshape.237 = f32[2048,256]{1,0} reshape(f32[2048,256]{1,0} %arg33.1)
  %MatMul_28.2 = f32[1,64,256]{2,1,0} dot(f32[1,64,2048]{2,1,0} %mul_34.3, f32[2048,256]{1,0} %reshape.237), lhs_contracting_dims={2}, rhs_contracting_dims={0}, frontend_attributes={grad_x="false",grad_y="false"}, metadata={op_type="BatchMatMulV2" op_name="MatMul_28" source_file="<repo-root>/.venv/lib/python3.12/site-packages/tensorflow/python/framework/ops.py" source_line=1221}
  %MatMul_28.3 = f32[1,64,256]{2,1,0} transpose(f32[1,64,256]{2,1,0} %MatMul_28.2), dimensions={0,1,2}, metadata={op_type="BatchMatMulV2" op_name="MatMul_28" source_file="<repo-root>/.venv/lib/python3.12/site-packages/tensorflow/python/framework/ops.py" source_line=1221}
  %Reshape_25.1 = f32[1,64,4,64]{3,2,1,0} reshape(f32[1,64,256]{2,1,0} %MatMul_28.3), metadata={op_type="Reshape" op_name="Reshape_25" source_file="<repo-root>/.venv/lib/python3.12/site-packages/tensorflow/python/framework/ops.py" source_line=1221}
  %transpose_13.1 = f32[1,4,64,64]{3,1,2,0} transpose(f32[1,64,4,64]{3,2,1,0} %Reshape_25.1), dimensions={0,2,1,3}, metadata={op_type="Transpose" op_name="transpose_13" source_file="<repo-root>/.venv/lib/python3.12/site-packages/tensorflow/python/framework/ops.py" source_line=1221}
  %mul_37.3 = f32[1,64,64]{2,1,0} reshape(f32[1,1,64,64]{3,2,1,0} %reshape.205), metadata={op_type="Mul" op_name="mul_37" source_file="<repo-root>/.venv/lib/python3.12/site-packages/tensorflow/python/framework/ops.py" source_line=1221}
  %mul_37.4 = f32[1,4,64,64]{3,2,1,0} broadcast(f32[1,64,64]{2,1,0} %mul_37.3), dimensions={0,2,3}, metadata={op_type="Mul" op_name="mul_37" source_file="<repo-root>/.venv/lib/python3.12/site-packages/tensorflow/python/framework/ops.py" source_line=1221}
  %mul_37.5 = f32[1,4,64,64]{3,2,1,0} multiply(f32[1,4,64,64]{3,1,2,0} %transpose_13.1, f32[1,4,64,64]{3,2,1,0} %mul_37.4), metadata={op_type="Mul" op_name="mul_37" source_file="<repo-root>/.venv/lib/python3.12/site-packages/tensorflow/python/framework/ops.py" source_line=1221}
  %strided_slice_15.2 = f32[1,4,64,32]{3,2,1,0} slice(f32[1,4,64,64]{3,1,2,0} %transpose_13.1), slice={[0:1], [0:4], [0:64], [32:64]}, metadata={op_type="StridedSlice" op_name="strided_slice_15" source_file="<repo-root>/.venv/lib/python3.12/site-packages/tensorflow/python/framework/ops.py" source_line=1221}
  %strided_slice_15.3 = f32[1,4,64,32]{3,2,1,0} reshape(f32[1,4,64,32]{3,2,1,0} %strided_slice_15.2), metadata={op_type="StridedSlice" op_name="strided_slice_15" source_file="<repo-root>/.venv/lib/python3.12/site-packages/tensorflow/python/framework/ops.py" source_line=1221}
  %Neg_7.1 = f32[1,4,64,32]{3,2,1,0} negate(f32[1,4,64,32]{3,2,1,0} %strided_slice_15.3), metadata={op_type="Neg" op_name="Neg_7" source_file="<repo-root>/.venv/lib/python3.12/site-packages/tensorflow/python/framework/ops.py" source_line=1221}
  %strided_slice_14.2 = f32[1,4,64,32]{3,2,1,0} slice(f32[1,4,64,64]{3,1,2,0} %transpose_13.1), slice={[0:1], [0:4], [0:64], [0:32]}, metadata={op_type="StridedSlice" op_name="strided_slice_14" source_file="<repo-root>/.venv/lib/python3.12/site-packages/tensorflow/python/framework/ops.py" source_line=1221}
  %strided_slice_14.3 = f32[1,4,64,32]{3,2,1,0} reshape(f32[1,4,64,32]{3,2,1,0} %strided_slice_14.2), metadata={op_type="StridedSlice" op_name="strided_slice_14" source_file="<repo-root>/.venv/lib/python3.12/site-packages/tensorflow/python/framework/ops.py" source_line=1221}
  %concat_7.1 = f32[1,4,64,64]{3,2,1,0} concatenate(f32[1,4,64,32]{3,2,1,0} %Neg_7.1, f32[1,4,64,32]{3,2,1,0} %strided_slice_14.3), dimensions={3}, metadata={op_type="ConcatV2" op_name="concat_7" source_file="<repo-root>/.venv/lib/python3.12/site-packages/tensorflow/python/framework/ops.py" source_line=1221}
  %mul_38.3 = f32[1,64,64]{2,1,0} reshape(f32[1,1,64,64]{3,2,1,0} %reshape.206), metadata={op_type="Mul" op_name="mul_38" source_file="<repo-root>/.venv/lib/python3.12/site-packages/tensorflow/python/framework/ops.py" source_line=1221}
  %mul_38.4 = f32[1,4,64,64]{3,2,1,0} broadcast(f32[1,64,64]{2,1,0} %mul_38.3), dimensions={0,2,3}, metadata={op_type="Mul" op_name="mul_38" source_file="<repo-root>/.venv/lib/python3.12/site-packages/tensorflow/python/framework/ops.py" source_line=1221}
  %mul_38.5 = f32[1,4,64,64]{3,2,1,0} multiply(f32[1,4,64,64]{3,2,1,0} %concat_7.1, f32[1,4,64,64]{3,2,1,0} %mul_38.4), metadata={op_type="Mul" op_name="mul_38" source_file="<repo-root>/.venv/lib/python3.12/site-packages/tensorflow/python/framework/ops.py" source_line=1221}
  %add_23.1 = f32[1,4,64,64]{3,2,1,0} add(f32[1,4,64,64]{3,2,1,0} %mul_37.5, f32[1,4,64,64]{3,2,1,0} %mul_38.5), metadata={op_type="AddV2" op_name="add_23" source_file="<repo-root>/.venv/lib/python3.12/site-packages/tensorflow/python/framework/ops.py" source_line=1221}
  %Reshape_27.1 = f32[1,4,1,64,64]{4,3,2,1,0} reshape(f32[1,4,64,64]{3,2,1,0} %add_23.1), metadata={op_type="Reshape" op_name="Reshape_27" source_file="<repo-root>/.venv/lib/python3.12/site-packages/tensorflow/python/framework/ops.py" source_line=1221}
  %Tile_6.3 = f32[1,4,1,64,64]{4,3,2,1,0} broadcast(f32[1,4,1,64,64]{4,3,2,1,0} %Reshape_27.1), dimensions={0,1,2,3,4}, metadata={op_type="Tile" op_name="Tile_6" source_file="<repo-root>/.venv/lib/python3.12/site-packages/tensorflow/python/framework/ops.py" source_line=1221}
  %Tile_6.4 = f32[1,4,64,64]{3,2,1,0} reshape(f32[1,4,1,64,64]{4,3,2,1,0} %Tile_6.3), metadata={op_type="Tile" op_name="Tile_6" source_file="<repo-root>/.venv/lib/python3.12/site-packages/tensorflow/python/framework/ops.py" source_line=1221}
  %Tile_6.5 = f32[1,4,8,64,64]{4,3,2,1,0} broadcast(f32[1,4,64,64]{3,2,1,0} %Tile_6.4), dimensions={0,1,3,4}, metadata={op_type="Tile" op_name="Tile_6" source_file="<repo-root>/.venv/lib/python3.12/site-packages/tensorflow/python/framework/ops.py" source_line=1221}
  %Reshape_28.1 = f32[1,32,64,64]{3,2,1,0} reshape(f32[1,4,8,64,64]{4,3,2,1,0} %Tile_6.5), metadata={op_type="Reshape" op_name="Reshape_28" source_file="<repo-root>/.venv/lib/python3.12/site-packages/tensorflow/python/framework/ops.py" source_line=1221}
  %MatMul_30.2 = f32[1,32,64,64]{3,2,1,0} dot(f32[1,32,64,64]{3,2,1,0} %add_22.1, f32[1,32,64,64]{3,2,1,0} %Reshape_28.1), lhs_batch_dims={0,1}, lhs_contracting_dims={3}, rhs_batch_dims={0,1}, rhs_contracting_dims={3}, frontend_attributes={grad_x="false",grad_y="false"}, metadata={op_type="BatchMatMulV2" op_name="MatMul_30" source_file="<repo-root>/.venv/lib/python3.12/site-packages/tensorflow/python/framework/ops.py" source_line=1221}
…
  %transpose_83.1 = f32[1,64,32,64]{3,1,2,0} transpose(f32[1,32,64,64]{3,2,1,0} %MatMul_184.3), dimensions={0,2,1,3}, metadata={op_type="Transpose" op_name="transpose_83" source_file="<repo-root>/.venv/lib/python3.12/site-packages/tensorflow/python/framework/ops.py" source_line=1221}
  %Reshape_167.1 = f32[1,64,2048]{2,1,0} reshape(f32[1,64,32,64]{3,1,2,0} %transpose_83.1), metadata={op_type="Reshape" op_name="Reshape_167" source_file="<repo-root>/.venv/lib/python3.12/site-packages/tensorflow/python/framework/ops.py" source_line=1221}
  %arg188.1 = f32[2048,2048]{1,0} parameter(188), parameter_replication={false}, metadata={op_name="XLA_Args"}
  %reshape.392 = f32[2048,2048]{1,0} reshape(f32[2048,2048]{1,0} %arg188.1)
  %MatMul_185.2 = f32[1,64,2048]{2,1,0} dot(f32[1,64,2048]{2,1,0} %Reshape_167.1, f32[2048,2048]{1,0} %reshape.392), lhs_contracting_dims={2}, rhs_contracting_dims={0}, frontend_attributes={grad_x="false",grad_y="false"}, metadata={op_type="BatchMatMulV2" op_name="MatMul_185" source_file="<repo-root>/.venv/lib/python3.12/site-packages/tensorflow/python/framework/ops.py" source_line=1221}
  %MatMul_185.3 = f32[1,64,2048]{2,1,0} transpose(f32[1,64,2048]{2,1,0} %MatMul_185.2), dimensions={0,1,2}, metadata={op_type="BatchMatMulV2" op_name="MatMul_185" source_file="<repo-root>/.venv/lib/python3.12/site-packages/tensorflow/python/framework/ops.py" source_line=1221}
  %add_144.1 = f32[1,64,2048]{2,1,0} add(f32[1,64,2048]{2,1,0} %add_139.1, f32[1,64,2048]{2,1,0} %MatMul_185.3), metadata={op_type="AddV2" op_name="add_144" source_file="<repo-root>/.venv/lib/python3.12/site-packages/tensorflow/python/framework/ops.py" source_line=1221}
  %Square_41.1 = f32[1,64,2048]{2,1,0} multiply(f32[1,64,2048]{2,1,0} %add_144.1, f32[1,64,2048]{2,1,0} %add_144.1), metadata={op_type="Square" op_name="Square_41" source_file="<repo-root>/.venv/lib/python3.12/site-packages/tensorflow/python/framework/ops.py" source_line=1221}
  %Mean_41.10 = f32[1,64,2048]{2,1,0} convert(f32[1,64,2048]{2,1,0} %Square_41.1), metadata={op_type="Mean" op_name="Mean_41" source_file="<repo-root>/.venv/lib/python3.12/site-packages/tensorflow/python/framework/ops.py" source_line=1221}
  %Mean_41.11 = f32[] constant(0), metadata={op_type="Mean" op_name="Mean_41" source_file="<repo-root>/.venv/lib/python3.12/site-packages/tensorflow/python/framework/ops.py" source_line=1221}
  %Mean_41.12 = f32[] convert(f32[] %Mean_41.11), metadata={op_type="Mean" op_name="Mean_41" source_file="<repo-root>/.venv/lib/python3.12/site-packages/tensorflow/python/framework/ops.py" source_line=1221}
  %Mean_41.13 = f32[1,64]{1,0} reduce(f32[1,64,2048]{2,1,0} %Mean_41.10, f32[] %Mean_41.12), dimensions={2}, to_apply=%Mean_41-reduction.84, metadata={op_type="Mean" op_name="Mean_41" source_file="<repo-root>/.venv/lib/python3.12/site-packages/tensorflow/python/framework/ops.py" source_line=1221}
  %Mean_41.14 = s32[] constant(2048), metadata={op_type="Mean" op_name="Mean_41" source_file="<repo-root>/.venv/lib/python3.12/site-packages/tensorflow/python/framework/ops.py" source_line=1221}
  %Mean_41.15 = f32[] convert(s32[] %Mean_41.14), metadata={op_type="Mean" op_name="Mean_41" source_file="<repo-root>/.venv/lib/python3.12/site-packages/tensorflow/python/framework/ops.py" source_line=1221}
  %Mean_41.16 = f32[1,64]{1,0} broadcast(f32[] %Mean_41.15), dimensions={}, metadata={op_type="Mean" op_name="Mean_41" source_file="<repo-root>/.venv/lib/python3.12/site-packages/tensorflow/python/framework/ops.py" source_line=1221}
  %Mean_41.17 = f32[1,64]{1,0} divide(f32[1,64]{1,0} %Mean_41.13, f32[1,64]{1,0} %Mean_41.16), metadata={op_type="Mean" op_name="Mean_41" source_file="<repo-root>/.venv/lib/python3.12/site-packages/tensorflow/python/framework/ops.py" source_line=1221}
  %Mean_41.18 = f32[1,64]{1,0} convert(f32[1,64]{1,0} %Mean_41.17), metadata={op_type="Mean" op_name="Mean_41" source_file="<repo-root>/.venv/lib/python3.12/site-packages/tensorflow/python/framework/ops.py" source_line=1221}
  %Mean_41.19 = f32[1,64,1]{2,1,0} reshape(f32[1,64]{1,0} %Mean_41.18), metadata={op_type="Mean" op_name="Mean_41" source_file="<repo-root>/.venv/lib/python3.12/site-packages/tensorflow/python/framework/ops.py" source_line=1221}
  %add_145.3 = f32[] constant(1e-05), metadata={op_type="AddV2" op_name="add_145" source_file="<repo-root>/.venv/lib/python3.12/site-packages/tensorflow/python/framework/ops.py" source_line=1221}
  %add_145.4 = f32[1,64,1]{2,1,0} broadcast(f32[] %add_145.3), dimensions={}, metadata={op_type="AddV2" op_name="add_145" source_file="<repo-root>/.venv/lib/python3.12/site-packages/tensorflow/python/framework/ops.py" source_line=1221}
  %add_145.5 = f32[1,64,1]{2,1,0} add(f32[1,64,1]{2,1,0} %Mean_41.19, f32[1,64,1]{2,1,0} %add_145.4), metadata={op_type="AddV2" op_name="add_145" source_file="<repo-root>/.venv/lib/python3.12/site-packages/tensorflow/python/framework/ops.py" source_line=1221}
  %Rsqrt_62.1 = f32[1,64,1]{2,1,0} rsqrt(f32[1,64,1]{2,1,0} %add_145.5), metadata={op_type="Rsqrt" op_name="Rsqrt_62"}
  %mul_227.3 = f32[1,64]{1,0} reshape(f32[1,64,1]{2,1,0} %Rsqrt_62.1), metadata={op_type="Mul" op_name="mul_227" source_file="<repo-root>/.venv/lib/python3.12/site-packages/tensorflow/python/framework/ops.py" source_line=1221}
  %mul_227.4 = f32[1,64,2048]{2,1,0} broadcast(f32[1,64]{1,0} %mul_227.3), dimensions={0,1}, metadata={op_type="Mul" op_name="mul_227" source_file="<repo-root>/.venv/lib/python3.12/site-packages/tensorflow/python/framework/ops.py" source_line=1221}
  %mul_227.5 = f32[1,64,2048]{2,1,0} multiply(f32[1,64,2048]{2,1,0} %add_144.1, f32[1,64,2048]{2,1,0} %mul_227.4), metadata={op_type="Mul" op_name="mul_227" source_file="<repo-root>/.venv/lib/python3.12/site-packages/tensorflow/python/framework/ops.py" source_line=1221}
  %arg189.1 = f32[2048]{0} parameter(189), parameter_replication={false}, metadata={op_name="XLA_Args"}
  %reshape.393 = f32[2048]{0} reshape(f32[2048]{0} %arg189.1)
  %mul_228.2 = f32[1,64,2048]{2,1,0} broadcast(f32[2048]{0} %reshape.393), dimensions={2}, metadata={op_type="Mul" op_name="mul_228" source_file="<repo-root>/.venv/lib/python3.12/site-packages/tensorflow/python/framework/ops.py" source_line=1221}
  %mul_228.3 = f32[1,64,2048]{2,1,0} multiply(f32[1,64,2048]{2,1,0} %mul_227.5, f32[1,64,2048]{2,1,0} %mul_228.2), metadata={op_type="Mul" op_name="mul_228" source_file="<repo-root>/.venv/lib/python3.12/site-packages/tensorflow/python/framework/ops.py" source_line=1221}
  %arg190.1 = f32[2048,5632]{1,0} parameter(190), parameter_replication={false}, metadata={op_name="XLA_Args"}
  %reshape.394 = f32[2048,5632]{1,0} reshape(f32[2048,5632]{1,0} %arg190.1)
  %MatMul_186.2 = f32[1,64,5632]{2,1,0} dot(f32[1,64,2048]{2,1,0} %mul_228.3, f32[2048,5632]{1,0} %reshape.394), lhs_contracting_dims={2}, rhs_contracting_dims={0}, frontend_attributes={grad_x="false",grad_y="false"}, metadata={op_type="BatchMatMulV2" op_name="MatMul_186" source_file="<repo-root>/.venv/lib/python3.12/site-packages/tensorflow/python/framework/ops.py" source_line=1221}
  %MatMul_186.3 = f32[1,64,5632]{2,1,0} transpose(f32[1,64,5632]{2,1,0} %MatMul_186.2), dimensions={0,1,2}, metadata={op_type="BatchMatMulV2" op_name="MatMul_186" source_file="<repo-root>/.venv/lib/python3.12/site-packages/tensorflow/python/framework/ops.py" source_line=1221}
  %Sigmoid_20.1 = f32[1,64,5632]{2,1,0} logistic(f32[1,64,5632]{2,1,0} %MatMul_186.3), metadata={op_type="Sigmoid" op_name="Sigmoid_20"}
  %mul_229.1 = f32[1,64,5632]{2,1,0} multiply(f32[1,64,5632]{2,1,0} %MatMul_186.3, f32[1,64,5632]{2,1,0} %Sigmoid_20.1), metadata={op_type="Mul" op_name="mul_229" source_file="<repo-root>/.venv/lib/python3.12/site-packages/tensorflow/python/framework/ops.py" source_line=1221}
  %arg191.1 = f32[2048,5632]{1,0} parameter(191), parameter_replication={false}, metadata={op_name="XLA_Args"}
  %reshape.395 = f32[2048,5632]{1,0} reshape(f32[2048,5632]{1,0} %arg191.1)
  %MatMul_187.2 = f32[1,64,5632]{2,1,0} dot(f32[1,64,2048]{2,1,0} %mul_228.3, f32[2048,5632]{1,0} %reshape.395), lhs_contracting_dims={2}, rhs_contracting_dims={0}, frontend_attributes={grad_x="false",grad_y="false"}, metadata={op_type="BatchMatMulV2" op_name="MatMul_187" source_file="<repo-root>/.venv/lib/python3.12/site-packages/tensorflow/python/framework/ops.py" source_line=1221}
  %MatMul_187.3 = f32[1,64,5632]{2,1,0} transpose(f32[1,64,5632]{2,1,0} %MatMul_187.2), dimensions={0,1,2}, metadata={op_type="BatchMatMulV2" op_name="MatMul_187" source_file="<repo-root>/.venv/lib/python3.12/site-packages/tensorflow/python/framework/ops.py" source_line=1221}
  %mul_230.1 = f32[1,64,5632]{2,1,0} multiply(f32[1,64,5632]{2,1,0} %mul_229.1, f32[1,64,5632]{2,1,0} %MatMul_187.3), metadata={op_type="Mul" op_name="mul_230" source_file="<repo-root>/.venv/lib/python3.12/site-packages/tensorflow/python/framework/ops.py" source_line=1221}
  %arg192.1 = f32[5632,2048]{1,0} parameter(192), parameter_replication={false}, metadata={op_name="XLA_Args"}
  %reshape.396 = f32[5632,2048]{1,0} reshape(f32[5632,2048]{1,0} %arg192.1)
  %MatMul_188.2 = f32[1,64,2048]{2,1,0} dot(f32[1,64,5632]{2,1,0} %mul_230.1, f32[5632,2048]{1,0} %reshape.396), lhs_contracting_dims={2}, rhs_contracting_dims={0}, frontend_attributes={grad_x="false",grad_y="false"}, metadata={op_type="BatchMatMulV2" op_name="MatMul_188" source_file="<repo-root>/.venv/lib/python3.12/site-packages/tensorflow/python/framework/ops.py" source_line=1221}
  %MatMul_188.3 = f32[1,64,2048]{2,1,0} transpose(f32[1,64,2048]{2,1,0} %MatMul_188.2), dimensions={0,1,2}, metadata={op_type="BatchMatMulV2" op_name="MatMul_188" source_file="<repo-root>/.venv/lib/python3.12/site-packages/tensorflow/python/framework/ops.py" source_line=1221}
  %add_146.1 = f32[1,64,2048]{2,1,0} add(f32[1,64,2048]{2,1,0} %add_144.1, f32[1,64,2048]{2,1,0} %MatMul_188.3), metadata={op_type="AddV2" op_name="add_146" source_file="<repo-root>/.venv/lib/python3.12/site-packages/tensorflow/python/framework/ops.py" source_line=1221}
  %Square_42.1 = f32[1,64,2048]{2,1,0} multiply(f32[1,64,2048]{2,1,0} %add_146.1, f32[1,64,2048]{2,1,0} %add_146.1), metadata={op_type="Square" op_name="Square_42" source_file="<repo-root>/.venv/lib/python3.12/site-packages/tensorflow/python/framework/ops.py" source_line=1221}
  %Mean_42.10 = f32[1,64,2048]{2,1,0} convert(f32[1,64,2048]{2,1,0} %Square_42.1), metadata={op_type="Mean" op_name="Mean_42" source_file="<repo-root>/.venv/lib/python3.12/site-packages/tensorflow/python/framework/ops.py" source_line=1221}
  %Mean_42.11 = f32[] constant(0), metadata={op_type="Mean" op_name="Mean_42" source_file="<repo-root>/.venv/lib/python3.12/site-packages/tensorflow/python/framework/ops.py" source_line=1221}
  %Mean_42.12 = f32[] convert(f32[] %Mean_42.11), metadata={op_type="Mean" op_name="Mean_42" source_file="<repo-root>/.venv/lib/python3.12/site-packages/tensorflow/python/framework/ops.py" source_line=1221}
  %Mean_42.13 = f32[1,64]{1,0} reduce(f32[1,64,2048]{2,1,0} %Mean_42.10, f32[] %Mean_42.12), dimensions={2}, to_apply=%Mean_42-reduction.85, metadata={op_type="Mean" op_name="Mean_42" source_file="<repo-root>/.venv/lib/python3.12/site-packages/tensorflow/python/framework/ops.py" source_line=1221}
  %Mean_42.14 = s32[] constant(2048), metadata={op_type="Mean" op_name="Mean_42" source_file="<repo-root>/.venv/lib/python3.12/site-packages/tensorflow/python/framework/ops.py" source_line=1221}
  %Mean_42.15 = f32[] convert(s32[] %Mean_42.14), metadata={op_type="Mean" op_name="Mean_42" source_file="<repo-root>/.venv/lib/python3.12/site-packages/tensorflow/python/framework/ops.py" source_line=1221}
  %Mean_42.16 = f32[1,64]{1,0} broadcast(f32[] %Mean_42.15), dimensions={}, metadata={op_type="Mean" op_name="Mean_42" source_file="<repo-root>/.venv/lib/python3.12/site-packages/tensorflow/python/framework/ops.py" source_line=1221}
  %Mean_42.17 = f32[1,64]{1,0} divide(f32[1,64]{1,0} %Mean_42.13, f32[1,64]{1,0} %Mean_42.16), metadata={op_type="Mean" op_name="Mean_42" source_file="<repo-root>/.venv/lib/python3.12/site-packages/tensorflow/python/framework/ops.py" source_line=1221}
  %Mean_42.18 = f32[1,64]{1,0} convert(f32[1,64]{1,0} %Mean_42.17), metadata={op_type="Mean" op_name="Mean_42" source_file="<repo-root>/.venv/lib/python3.12/site-packages/tensorflow/python/framework/ops.py" source_line=1221}
  %Mean_42.19 = f32[1,64,1]{2,1,0} reshape(f32[1,64]{1,0} %Mean_42.18), metadata={op_type="Mean" op_name="Mean_42" source_file="<repo-root>/.venv/lib/python3.12/site-packages/tensorflow/python/framework/ops.py" source_line=1221}
  %add_147.3 = f32[] constant(1e-05), metadata={op_type="AddV2" op_name="add_147" source_file="<repo-root>/.venv/lib/python3.12/site-packages/tensorflow/python/framework/ops.py" source_line=1221}
  %add_147.4 = f32[1,64,1]{2,1,0} broadcast(f32[] %add_147.3), dimensions={}, metadata={op_type="AddV2" op_name="add_147" source_file="<repo-root>/.venv/lib/python3.12/site-packages/tensorflow/python/framework/ops.py" source_line=1221}
  %add_147.5 = f32[1,64,1]{2,1,0} add(f32[1,64,1]{2,1,0} %Mean_42.19, f32[1,64,1]{2,1,0} %add_147.4), metadata={op_type="AddV2" op_name="add_147" source_file="<repo-root>/.venv/lib/python3.12/site-packages/tensorflow/python/framework/ops.py" source_line=1221}
  %Rsqrt_63.1 = f32[1,64,1]{2,1,0} rsqrt(f32[1,64,1]{2,1,0} %add_147.5), metadata={op_type="Rsqrt" op_name="Rsqrt_63"}
  %mul_231.3 = f32[1,64]{1,0} reshape(f32[1,64,1]{2,1,0} %Rsqrt_63.1), metadata={op_type="Mul" op_name="mul_231" source_file="<repo-root>/.venv/lib/python3.12/site-packages/tensorflow/python/framework/ops.py" source_line=1221}
  %mul_231.4 = f32[1,64,2048]{2,1,0} broadcast(f32[1,64]{1,0} %mul_231.3), dimensions={0,1}, metadata={op_type="Mul" op_name="mul_231" source_file="<repo-root>/.venv/lib/python3.12/site-packages/tensorflow/python/framework/ops.py" source_line=1221}
  %mul_231.5 = f32[1,64,2048]{2,1,0} multiply(f32[1,64,2048]{2,1,0} %add_146.1, f32[1,64,2048]{2,1,0} %mul_231.4), metadata={op_type="Mul" op_name="mul_231" source_file="<repo-root>/.venv/lib/python3.12/site-packages/tensorflow/python/framework/ops.py" source_line=1221}
  %arg193.1 = f32[2048]{0} parameter(193), parameter_replication={false}, metadata={op_name="XLA_Args"}
  %reshape.397 = f32[2048]{0} reshape(f32[2048]{0} %arg193.1)
  %mul_232.2 = f32[1,64,2048]{2,1,0} broadcast(f32[2048]{0} %reshape.397), dimensions={2}, metadata={op_type="Mul" op_name="mul_232" source_file="<repo-root>/.venv/lib/python3.12/site-packages/tensorflow/python/framework/ops.py" source_line=1221}
  %mul_232.3 = f32[1,64,2048]{2,1,0} multiply(f32[1,64,2048]{2,1,0} %mul_231.5, f32[1,64,2048]{2,1,0} %mul_232.2), metadata={op_type="Mul" op_name="mul_232" source_file="<repo-root>/.venv/lib/python3.12/site-packages/tensorflow/python/framework/ops.py" source_line=1221}
  %arg194.1 = f32[2048,2048]{1,0} parameter(194), parameter_replication={false}, metadata={op_name="XLA_Args"}
  %reshape.398 = f32[2048,2048]{1,0} reshape(f32[2048,2048]{1,0} %arg194.1)
  %MatMul_189.2 = f32[1,64,2048]{2,1,0} dot(f32[1,64,2048]{2,1,0} %mul_232.3, f32[2048,2048]{1,0} %reshape.398), lhs_contracting_dims={2}, rhs_contracting_dims={0}, frontend_attributes={grad_x="false",grad_y="false"}, metadata={op_type="BatchMatMulV2" op_name="MatMul_189" source_file="<repo-root>/.venv/lib/python3.12/site-packages/tensorflow/python/framework/ops.py" source_line=1221}
  %MatMul_189.3 = f32[1,64,2048]{2,1,0} transpose(f32[1,64,2048]{2,1,0} %MatMul_189.2), dimensions={0,1,2}, metadata={op_type="BatchMatMulV2" op_name="MatMul_189" source_file="<repo-root>/.venv/lib/python3.12/site-packages/tensorflow/python/framework/ops.py" source_line=1221}
  %Reshape_168.1 = f32[1,64,32,64]{3,2,1,0} reshape(f32[1,64,2048]{2,1,0} %MatMul_189.3), metadata={op_type="Reshape" op_name="Reshape_168" source_file="<repo-root>/.venv/lib/python3.12/site-packages/tensorflow/python/framework/ops.py" source_line=1221}
  %transpose_84.1 = f32[1,32,64,64]{3,1,2,0} transpose(f32[1,64,32,64]{3,2,1,0} %Reshape_168.1), dimensions={0,2,1,3}, metadata={op_type="Transpose" op_name="transpose_84" source_file="<repo-root>/.venv/lib/python3.12/site-packages/tensorflow/python/framework/ops.py" source_line=1221}
  %mul_233.3 = f32[1,64,64]{2,1,0} reshape(f32[1,1,64,64]{3,2,1,0} %reshape.205), metadata={op_type="Mul" op_name="mul_233" source_file="<repo-root>/.venv/lib/python3.12/site-packages/tensorflow/python/framework/ops.py" source_line=1221}
  %mul_233.4 = f32[1,32,64,64]{3,2,1,0} broadcast(f32[1,64,64]{2,1,0} %mul_233.3), dimensions={0,2,3}, metadata={op_type="Mul" op_name="mul_233" source_file="<repo-root>/.venv/lib/python3.12/site-packages/tensorflow/python/framework/ops.py" source_line=1221}
  %mul_233.5 = f32[1,32,64,64]{3,2,1,0} multiply(f32[1,32,64,64]{3,1,2,0} %transpose_84.1, f32[1,32,64,64]{3,2,1,0} %mul_233.4), metadata={op_type="Mul" op_name="mul_233" source_file="<repo-root>/.venv/lib/python3.12/site-packages/tensorflow/python/framework/ops.py" source_line=1221}
  %strided_slice_85.2 = f32[1,32,64,32]{3,2,1,0} slice(f32[1,32,64,64]{3,1,2,0} %transpose_84.1), slice={[0:1], [0:32], [0:64], [32:64]}, metadata={op_type="StridedSlice" op_name="strided_slice_85" source_file="<repo-root>/.venv/lib/python3.12/site-packages/tensorflow/python/framework/ops.py" source_line=1221}
  %strided_slice_85.3 = f32[1,32,64,32]{3,2,1,0} reshape(f32[1,32,64,32]{3,2,1,0} %strided_slice_85.2), metadata={op_type="StridedSlice" op_name="strided_slice_85" source_file="<repo-root>/.venv/lib/python3.12/site-packages/tensorflow/python/framework/ops.py" source_line=1221}
  %Neg_42.1 = f32[1,32,64,32]{3,2,1,0} negate(f32[1,32,64,32]{3,2,1,0} %strided_slice_85.3), metadata={op_type="Neg" op_name="Neg_42" source_file="<repo-root>/.venv/lib/python3.12/site-packages/tensorflow/python/framework/ops.py" source_line=1221}
  %strided_slice_84.2 = f32[1,32,64,32]{3,2,1,0} slice(f32[1,32,64,64]{3,1,2,0} %transpose_84.1), slice={[0:1], [0:32], [0:64], [0:32]}, metadata={op_type="StridedSlice" op_name="strided_slice_84" source_file="<repo-root>/.venv/lib/python3.12/site-packages/tensorflow/python/framework/ops.py" source_line=1221}
  %strided_slice_84.3 = f32[1,32,64,32]{3,2,1,0} reshape(f32[1,32,64,32]{3,2,1,0} %strided_slice_84.2), metadata={op_type="StridedSlice" op_name="strided_slice_84" source_file="<repo-root>/.venv/lib/python3.12/site-packages/tensorflow/python/framework/ops.py" source_line=1221}
  %concat_42.1 = f32[1,32,64,64]{3,2,1,0} concatenate(f32[1,32,64,32]{3,2,1,0} %Neg_42.1, f32[1,32,64,32]{3,2,1,0} %strided_slice_84.3), dimensions={3}, metadata={op_type="ConcatV2" op_name="concat_42" source_file="<repo-root>/.venv/lib/python3.12/site-packages/tensorflow/python/framework/ops.py" source_line=1221}
  %mul_234.3 = f32[1,64,64]{2,1,0} reshape(f32[1,1,64,64]{3,2,1,0} %reshape.206), metadata={op_type="Mul" op_name="mul_234" source_file="<repo-root>/.venv/lib/python3.12/site-packages/tensorflow/python/framework/ops.py" source_line=1221}
  %mul_234.4 = f32[1,32,64,64]{3,2,1,0} broadcast(f32[1,64,64]{2,1,0} %mul_234.3), dimensions={0,2,3}, metadata={op_type="Mul" op_name="mul_234" source_file="<repo-root>/.venv/lib/python3.12/site-packages/tensorflow/python/framework/ops.py" source_line=1221}
  %mul_234.5 = f32[1,32,64,64]{3,2,1,0} multiply(f32[1,32,64,64]{3,2,1,0} %concat_42.1, f32[1,32,64,64]{3,2,1,0} %mul_234.4), metadata={op_type="Mul" op_name="mul_234" source_file="<repo-root>/.venv/lib/python3.12/site-packages/tensorflow/python/framework/ops.py" source_line=1221}
  %add_148.1 = f32[1,32,64,64]{3,2,1,0} add(f32[1,32,64,64]{3,2,1,0} %mul_233.5, f32[1,32,64,64]{3,2,1,0} %mul_234.5), metadata={op_type="AddV2" op_name="add_148" source_file="<repo-root>/.venv/lib/python3.12/site-packages/tensorflow/python/framework/ops.py" source_line=1221}
  %arg195.1 = f32[2048,256]{1,0} parameter(195), parameter_replication={false}, metadata={op_name="XLA_Args"}
  %reshape.399 = f32[2048,256]{1,0} reshape(f32[2048,256]{1,0} %arg195.1)
  %MatMul_190.2 = f32[1,64,256]{2,1,0} dot(f32[1,64,2048]{2,1,0} %mul_232.3, f32[2048,256]{1,0} %reshape.399), lhs_contracting_dims={2}, rhs_contracting_dims={0}, frontend_attributes={grad_x="false",grad_y="false"}, metadata={op_type="BatchMatMulV2" op_name="MatMul_190" source_file="<repo-root>/.venv/lib/python3.12/site-packages/tensorflow/python/framework/ops.py" source_line=1221}
  %MatMul_190.3 = f32[1,64,256]{2,1,0} transpose(f32[1,64,256]{2,1,0} %MatMul_190.2), dimensions={0,1,2}, metadata={op_type="BatchMatMulV2" op_name="MatMul_190" source_file="<repo-root>/.venv/lib/python3.12/site-packages/tensorflow/python/framework/ops.py" source_line=1221}
  %Reshape_169.1 = f32[1,64,4,64]{3,2,1,0} reshape(f32[1,64,256]{2,1,0} %MatMul_190.3), metadata={op_type="Reshape" op_name="Reshape_169" source_file="<repo-root>/.venv/lib/python3.12/site-packages/tensorflow/python/framework/ops.py" source_line=1221}
  %transpose_85.1 = f32[1,4,64,64]{3,1,2,0} transpose(f32[1,64,4,64]{3,2,1,0} %Reshape_169.1), dimensions={0,2,1,3}, metadata={op_type="Transpose" op_name="transpose_85" source_file="<repo-root>/.venv/lib/python3.12/site-packages/tensorflow/python/framework/ops.py" source_line=1221}
  %mul_235.3 = f32[1,64,64]{2,1,0} reshape(f32[1,1,64,64]{3,2,1,0} %reshape.205), metadata={op_type="Mul" op_name="mul_235" source_file="<repo-root>/.venv/lib/python3.12/site-packages/tensorflow/python/framework/ops.py" source_line=1221}
  %mul_235.4 = f32[1,4,64,64]{3,2,1,0} broadcast(f32[1,64,64]{2,1,0} %mul_235.3), dimensions={0,2,3}, metadata={op_type="Mul" op_name="mul_235" source_file="<repo-root>/.venv/lib/python3.12/site-packages/tensorflow/python/framework/ops.py" source_line=1221}
  %mul_235.5 = f32[1,4,64,64]{3,2,1,0} multiply(f32[1,4,64,64]{3,1,2,0} %transpose_85.1, f32[1,4,64,64]{3,2,1,0} %mul_235.4), metadata={op_type="Mul" op_name="mul_235" source_file="<repo-root>/.venv/lib/python3.12/site-packages/tensorflow/python/framework/ops.py" source_line=1221}
  %strided_slice_87.2 = f32[1,4,64,32]{3,2,1,0} slice(f32[1,4,64,64]{3,1,2,0} %transpose_85.1), slice={[0:1], [0:4], [0:64], [32:64]}, metadata={op_type="StridedSlice" op_name="strided_slice_87" source_file="<repo-root>/.venv/lib/python3.12/site-packages/tensorflow/python/framework/ops.py" source_line=1221}
  %strided_slice_87.3 = f32[1,4,64,32]{3,2,1,0} reshape(f32[1,4,64,32]{3,2,1,0} %strided_slice_87.2), metadata={op_type="StridedSlice" op_name="strided_slice_87" source_file="<repo-root>/.venv/lib/python3.12/site-packages/tensorflow/python/framework/ops.py" source_line=1221}
  %Neg_43.1 = f32[1,4,64,32]{3,2,1,0} negate(f32[1,4,64,32]{3,2,1,0} %strided_slice_87.3), metadata={op_type="Neg" op_name="Neg_43" source_file="<repo-root>/.venv/lib/python3.12/site-packages/tensorflow/python/framework/ops.py" source_line=1221}
  %strided_slice_86.2 = f32[1,4,64,32]{3,2,1,0} slice(f32[1,4,64,64]{3,1,2,0} %transpose_85.1), slice={[0:1], [0:4], [0:64], [0:32]}, metadata={op_type="StridedSlice" op_name="strided_slice_86" source_file="<repo-root>/.venv/lib/python3.12/site-packages/tensorflow/python/framework/ops.py" source_line=1221}
  %strided_slice_86.3 = f32[1,4,64,32]{3,2,1,0} reshape(f32[1,4,64,32]{3,2,1,0} %strided_slice_86.2), metadata={op_type="StridedSlice" op_name="strided_slice_86" source_file="<repo-root>/.venv/lib/python3.12/site-packages/tensorflow/python/framework/ops.py" source_line=1221}
  %concat_43.1 = f32[1,4,64,64]{3,2,1,0} concatenate(f32[1,4,64,32]{3,2,1,0} %Neg_43.1, f32[1,4,64,32]{3,2,1,0} %strided_slice_86.3), dimensions={3}, metadata={op_type="ConcatV2" op_name="concat_43" source_file="<repo-root>/.venv/lib/python3.12/site-packages/tensorflow/python/framework/ops.py" source_line=1221}
  %mul_236.3 = f32[1,64,64]{2,1,0} reshape(f32[1,1,64,64]{3,2,1,0} %reshape.206), metadata={op_type="Mul" op_name="mul_236" source_file="<repo-root>/.venv/lib/python3.12/site-packages/tensorflow/python/framework/ops.py" source_line=1221}
  %mul_236.4 = f32[1,4,64,64]{3,2,1,0} broadcast(f32[1,64,64]{2,1,0} %mul_236.3), dimensions={0,2,3}, metadata={op_type="Mul" op_name="mul_236" source_file="<repo-root>/.venv/lib/python3.12/site-packages/tensorflow/python/framework/ops.py" source_line=1221}
  %mul_236.5 = f32[1,4,64,64]{3,2,1,0} multiply(f32[1,4,64,64]{3,2,1,0} %concat_43.1, f32[1,4,64,64]{3,2,1,0} %mul_236.4), metadata={op_type="Mul" op_name="mul_236" source_file="<repo-root>/.venv/lib/python3.12/site-packages/tensorflow/python/framework/ops.py" source_line=1221}
  %add_149.1 = f32[1,4,64,64]{3,2,1,0} add(f32[1,4,64,64]{3,2,1,0} %mul_235.5, f32[1,4,64,64]{3,2,1,0} %mul_236.5), metadata={op_type="AddV2" op_name="add_149" source_file="<repo-root>/.venv/lib/python3.12/site-packages/tensorflow/python/framework/ops.py" source_line=1221}
  %Reshape_171.1 = f32[1,4,1,64,64]{4,3,2,1,0} reshape(f32[1,4,64,64]{3,2,1,0} %add_149.1), metadata={op_type="Reshape" op_name="Reshape_171" source_file="<repo-root>/.venv/lib/python3.12/site-packages/tensorflow/python/framework/ops.py" source_line=1221}
  %Tile_42.3 = f32[1,4,1,64,64]{4,3,2,1,0} broadcast(f32[1,4,1,64,64]{4,3,2,1,0} %Reshape_171.1), dimensions={0,1,2,3,4}, metadata={op_type="Tile" op_name="Tile_42" source_file="<repo-root>/.venv/lib/python3.12/site-packages/tensorflow/python/framework/ops.py" source_line=1221}
  %Tile_42.4 = f32[1,4,64,64]{3,2,1,0} reshape(f32[1,4,1,64,64]{4,3,2,1,0} %Tile_42.3), metadata={op_type="Tile" op_name="Tile_42" source_file="<repo-root>/.venv/lib/python3.12/site-packages/tensorflow/python/framework/ops.py" source_line=1221}
  %Tile_42.5 = f32[1,4,8,64,64]{4,3,2,1,0} broadcast(f32[1,4,64,64]{3,2,1,0} %Tile_42.4), dimensions={0,1,3,4}, metadata={op_type="Tile" op_name="Tile_42" source_file="<repo-root>/.venv/lib/python3.12/site-packages/tensorflow/python/framework/ops.py" source_line=1221}
  %Reshape_172.1 = f32[1,32,64,64]{3,2,1,0} reshape(f32[1,4,8,64,64]{4,3,2,1,0} %Tile_42.5), metadata={op_type="Reshape" op_name="Reshape_172" source_file="<repo-root>/.venv/lib/python3.12/site-packages/tensorflow/python/framework/ops.py" source_line=1221}
  %MatMul_192.2 = f32[1,32,64,64]{3,2,1,0} dot(f32[1,32,64,64]{3,2,1,0} %add_148.1, f32[1,32,64,64]{3,2,1,0} %Reshape_172.1), lhs_batch_dims={0,1}, lhs_contracting_dims={3}, rhs_batch_dims={0,1}, rhs_contracting_dims={3}, frontend_attributes={grad_x="false",grad_y="false"}, metadata={op_type="BatchMatMulV2" op_name="MatMul_192" source_file="<repo-root>/.venv/lib/python3.12/site-packages/tensorflow/python/framework/ops.py" source_line=1221}
  %MatMul_192.3 = f32[1,32,64,64]{3,2,1,0} transpose(f32[1,32,64,64]{3,2,1,0} %MatMul_192.2), dimensions={0,1,2,3}, metadata={op_type="BatchMatMulV2" op_name="MatMul_192" source_file="<repo-root>/.venv/lib/python3.12/site-packages/tensorflow/python/framework/ops.py" source_line=1221}
  %mul_237.3 = f32[] constant(0.125), metadata={op_type="Mul" op_name="mul_237" source_file="<repo-root>/.venv/lib/python3.12/site-packages/tensorflow/python/framework/ops.py" source_line=1221}
  %mul_237.4 = f32[1,32,64,64]{3,2,1,0} broadcast(f32[] %mul_237.3), dimensions={}, metadata={op_type="Mul" op_name="mul_237" source_file="<repo-root>/.venv/lib/python3.12/site-packages/tensorflow/python/framework/ops.py" source_line=1221}
  %mul_237.5 = f32[1,32,64,64]{3,2,1,0} multiply(f32[1,32,64,64]{3,2,1,0} %MatMul_192.3, f32[1,32,64,64]{3,2,1,0} %mul_237.4), metadata={op_type="Mul" op_name="mul_237" source_file="<repo-root>/.venv/lib/python3.12/site-packages/tensorflow/python/framework/ops.py" source_line=1221}
  %add_150.3 = f32[1,64,64]{2,1,0} reshape(f32[1,1,64,64]{3,2,1,0} %reshape.207), metadata={op_type="AddV2" op_name="add_150" source_file="<repo-root>/.venv/lib/python3.12/site-packages/tensorflow/python/framework/ops.py" source_line=1221}
  %add_150.4 = f32[1,32,64,64]{3,2,1,0} broadcast(f32[1,64,64]{2,1,0} %add_150.3), dimensions={0,2,3}, metadata={op_type="AddV2" op_name="add_150" source_file="<repo-root>/.venv/lib/python3.12/site-packages/tensorflow/python/framework/ops.py" source_line=1221}
  %add_150.5 = f32[1,32,64,64]{3,2,1,0} add(f32[1,32,64,64]{3,2,1,0} %mul_237.5, f32[1,32,64,64]{3,2,1,0} %add_150.4), metadata={op_type="AddV2" op_name="add_150" source_file="<repo-root>/.venv/lib/python3.12/site-packages/tensorflow/python/framework/ops.py" source_line=1221}
  %Softmax_21.28 = f32[] constant(-inf), metadata={op_type="Softmax" op_name="Softmax_21" source_file="<repo-root>/.venv/lib/python3.12/site-packages/tensorflow/python/framework/ops.py" source_line=1221}
  %Softmax_21.29 = f32[1,32,64]{2,1,0} reduce(f32[1,32,64,64]{3,2,1,0} %add_150.5, f32[] %Softmax_21.28), dimensions={3}, to_apply=%region_0.86, metadata={op_type="Softmax" op_name="Softmax_21"}
  %Softmax_21.30 = f32[1,32,64,1]{3,2,1,0} reshape(f32[1,32,64]{2,1,0} %Softmax_21.29), metadata={op_type="Softmax" op_name="Softmax_21"}
  %Softmax_21.31 = f32[1,32,64,1]{3,2,1,0} broadcast(f32[1,32,64,1]{3,2,1,0} %Softmax_21.30), dimensions={0,1,2,3}, metadata={op_type="Softmax" op_name="Softmax_21"}
  %Softmax_21.32 = f32[1,32,64]{2,1,0} reshape(f32[1,32,64,1]{3,2,1,0} %Softmax_21.31), metadata={op_type="Softmax" op_name="Softmax_21"}
  %Softmax_21.33 = f32[1,32,64,64]{3,2,1,0} broadcast(f32[1,32,64]{2,1,0} %Softmax_21.32), dimensions={0,1,2}, metadata={op_type="Softmax" op_name="Softmax_21"}
  %Softmax_21.34 = f32[1,32,64,64]{3,2,1,0} subtract(f32[1,32,64,64]{3,2,1,0} %add_150.5, f32[1,32,64,64]{3,2,1,0} %Softmax_21.33), metadata={op_type="Softmax" op_name="Softmax_21"}
  %Softmax_21.35 = f32[1,32,64,64]{3,2,1,0} exponential(f32[1,32,64,64]{3,2,1,0} %Softmax_21.34), metadata={op_type="Softmax" op_name="Softmax_21"}
  %Softmax_21.27 = f32[] constant(-0), metadata={op_type="Softmax" op_name="Softmax_21" source_file="<repo-root>/.venv/lib/python3.12/site-packages/tensorflow/python/framework/ops.py" source_line=1221}
  %Softmax_21.36 = f32[1,32,64]{2,1,0} reduce(f32[1,32,64,64]{3,2,1,0} %Softmax_21.35, f32[] %Softmax_21.27), dimensions={3}, to_apply=%region_1.87, metadata={op_type="Softmax" op_name="Softmax_21"}
  %Softmax_21.37 = f32[1,32,64,1]{3,2,1,0} reshape(f32[1,32,64]{2,1,0} %Softmax_21.36), metadata={op_type="Softmax" op_name="Softmax_21"}
  %Softmax_21.38 = f32[1,32,64,1]{3,2,1,0} broadcast(f32[1,32,64,1]{3,2,1,0} %Softmax_21.37), dimensions={0,1,2,3}, metadata={op_type="Softmax" op_name="Softmax_21"}
  %Softmax_21.39 = f32[1,32,64]{2,1,0} reshape(f32[1,32,64,1]{3,2,1,0} %Softmax_21.38), metadata={op_type="Softmax" op_name="Softmax_21"}
  %Softmax_21.40 = f32[1,32,64,64]{3,2,1,0} broadcast(f32[1,32,64]{2,1,0} %Softmax_21.39), dimensions={0,1,2}, metadata={op_type="Softmax" op_name="Softmax_21"}
  %Softmax_21.41 = f32[1,32,64,64]{3,2,1,0} divide(f32[1,32,64,64]{3,2,1,0} %Softmax_21.35, f32[1,32,64,64]{3,2,1,0} %Softmax_21.40), metadata={op_type="Softmax" op_name="Softmax_21"}
  %arg196.1 = f32[2048,256]{1,0} parameter(196), parameter_replication={false}, metadata={op_name="XLA_Args"}
  %reshape.400 = f32[2048,256]{1,0} reshape(f32[2048,256]{1,0} %arg196.1)
  %MatMul_191.2 = f32[1,64,256]{2,1,0} dot(f32[1,64,2048]{2,1,0} %mul_232.3, f32[2048,256]{1,0} %reshape.400), lhs_contracting_dims={2}, rhs_contracting_dims={0}, frontend_attributes={grad_x="false",grad_y="false"}, metadata={op_type="BatchMatMulV2" op_name="MatMul_191" source_file="<repo-root>/.venv/lib/python3.12/site-packages/tensorflow/python/framework/ops.py" source_line=1221}
  %MatMul_191.3 = f32[1,64,256]{2,1,0} transpose(f32[1,64,256]{2,1,0} %MatMul_191.2), dimensions={0,1,2}, metadata={op_type="BatchMatMulV2" op_name="MatMul_191" source_file="<repo-root>/.venv/lib/python3.12/site-packages/tensorflow/python/framework/ops.py" source_line=1221}
  %Reshape_170.1 = f32[1,64,4,64]{3,2,1,0} reshape(f32[1,64,256]{2,1,0} %MatMul_191.3), metadata={op_type="Reshape" op_name="Reshape_170" source_file="<repo-root>/.venv/lib/python3.12/site-packages/tensorflow/python/framework/ops.py" source_line=1221}
  %transpose_86.1 = f32[1,4,64,64]{3,1,2,0} transpose(f32[1,64,4,64]{3,2,1,0} %Reshape_170.1), dimensions={0,2,1,3}, metadata={op_type="Transpose" op_name="transpose_86" source_file="<repo-root>/.venv/lib/python3.12/site-packages/tensorflow/python/framework/ops.py" source_line=1221}
  %Reshape_173.1 = f32[1,4,1,64,64]{4,3,2,1,0} reshape(f32[1,4,64,64]{3,1,2,0} %transpose_86.1), metadata={op_type="Reshape" op_name="Reshape_173" source_file="<repo-root>/.venv/lib/python3.12/site-packages/tensorflow/python/framework/ops.py" source_line=1221}
  %Tile_43.3 = f32[1,4,1,64,64]{4,3,2,1,0} broadcast(f32[1,4,1,64,64]{4,3,2,1,0} %Reshape_173.1), dimensions={0,1,2,3,4}, metadata={op_type="Tile" op_name="Tile_43" source_file="<repo-root>/.venv/lib/python3.12/site-packages/tensorflow/python/framework/ops.py" source_line=1221}
  %Tile_43.4 = f32[1,4,64,64]{3,2,1,0} reshape(f32[1,4,1,64,64]{4,3,2,1,0} %Tile_43.3), metadata={op_type="Tile" op_name="Tile_43" source_file="<repo-root>/.venv/lib/python3.12/site-packages/tensorflow/python/framework/ops.py" source_line=1221}
  %Tile_43.5 = f32[1,4,8,64,64]{4,3,2,1,0} broadcast(f32[1,4,64,64]{3,2,1,0} %Tile_43.4), dimensions={0,1,3,4}, metadata={op_type="Tile" op_name="Tile_43" source_file="<repo-root>/.venv/lib/python3.12/site-packages/tensorflow/python/framework/ops.py" source_line=1221}
  %Reshape_174.1 = f32[1,32,64,64]{3,2,1,0} reshape(f32[1,4,8,64,64]{4,3,2,1,0} %Tile_43.5), metadata={op_type="Reshape" op_name="Reshape_174" source_file="<repo-root>/.venv/lib/python3.12/site-packages/tensorflow/python/framework/ops.py" source_line=1221}
  %MatMul_193.2 = f32[1,32,64,64]{3,2,1,0} dot(f32[1,32,64,64]{3,2,1,0} %Softmax_21.41, f32[1,32,64,64]{3,2,1,0} %Reshape_174.1), lhs_batch_dims={0,1}, lhs_contracting_dims={3}, rhs_batch_dims={0,1}, rhs_contracting_dims={2}, frontend_attributes={grad_x="false",grad_y="false"}, metadata={op_type="BatchMatMulV2" op_name="MatMul_193" source_file="<repo-root>/.venv/lib/python3.12/site-packages/tensorflow/python/framework/ops.py" source_line=1221}
  %MatMul_193.3 = f32[1,32,64,64]{3,2,1,0} transpose(f32[1,32,64,64]{3,2,1,0} %MatMul_193.2), dimensions={0,1,2,3}, metadata={op_type="BatchMatMulV2" op_name="MatMul_193" source_file="<repo-root>/.venv/lib/python3.12/site-packages/tensorflow/python/framework/ops.py" source_line=1221}
  %transpose_87.1 = f32[1,64,32,64]{3,1,2,0} transpose(f32[1,32,64,64]{3,2,1,0} %MatMul_193.3), dimensions={0,2,1,3}, metadata={op_type="Transpose" op_name="transpose_87" source_file="<repo-root>/.venv/lib/python3.12/site-packages/tensorflow/python/framework/ops.py" source_line=1221}
  %Reshape_175.1 = f32[1,64,2048]{2,1,0} reshape(f32[1,64,32,64]{3,1,2,0} %transpose_87.1), metadata={op_type="Reshape" op_name="Reshape_175" source_file="<repo-root>/.venv/lib/python3.12/site-packages/tensorflow/python/framework/ops.py" source_line=1221}
  %arg197.1 = f32[2048,2048]{1,0} parameter(197), parameter_replication={false}, metadata={op_name="XLA_Args"}
  %reshape.401 = f32[2048,2048]{1,0} reshape(f32[2048,2048]{1,0} %arg197.1)
  %MatMul_194.2 = f32[1,64,2048]{2,1,0} dot(f32[1,64,2048]{2,1,0} %Reshape_175.1, f32[2048,2048]{1,0} %reshape.401), lhs_contracting_dims={2}, rhs_contracting_dims={0}, frontend_attributes={grad_x="false",grad_y="false"}, metadata={op_type="BatchMatMulV2" op_name="MatMul_194" source_file="<repo-root>/.venv/lib/python3.12/site-packages/tensorflow/python/framework/ops.py" source_line=1221}
  %MatMul_194.3 = f32[1,64,2048]{2,1,0} transpose(f32[1,64,2048]{2,1,0} %MatMul_194.2), dimensions={0,1,2}, metadata={op_type="BatchMatMulV2" op_name="MatMul_194" source_file="<repo-root>/.venv/lib/python3.12/site-packages/tensorflow/python/framework/ops.py" source_line=1221}
  %add_151.1 = f32[1,64,2048]{2,1,0} add(f32[1,64,2048]{2,1,0} %add_146.1, f32[1,64,2048]{2,1,0} %MatMul_194.3), metadata={op_type="AddV2" op_name="add_151" source_file="<repo-root>/.venv/lib/python3.12/site-packages/tensorflow/python/framework/ops.py" source_line=1221}
  %Square_43.1 = f32[1,64,2048]{2,1,0} multiply(f32[1,64,2048]{2,1,0} %add_151.1, f32[1,64,2048]{2,1,0} %add_151.1), metadata={op_type="Square" op_name="Square_43" source_file="<repo-root>/.venv/lib/python3.12/site-packages/tensorflow/python/framework/ops.py" source_line=1221}
  %Mean_43.10 = f32[1,64,2048]{2,1,0} convert(f32[1,64,2048]{2,1,0} %Square_43.1), metadata={op_type="Mean" op_name="Mean_43" source_file="<repo-root>/.venv/lib/python3.12/site-packages/tensorflow/python/framework/ops.py" source_line=1221}
  %Mean_43.11 = f32[] constant(0), metadata={op_type="Mean" op_name="Mean_43" source_file="<repo-root>/.venv/lib/python3.12/site-packages/tensorflow/python/framework/ops.py" source_line=1221}
  %Mean_43.12 = f32[] convert(f32[] %Mean_43.11), metadata={op_type="Mean" op_name="Mean_43" source_file="<repo-root>/.venv/lib/python3.12/site-packages/tensorflow/python/framework/ops.py" source_line=1221}
  %Mean_43.13 = f32[1,64]{1,0} reduce(f32[1,64,2048]{2,1,0} %Mean_43.10, f32[] %Mean_43.12), dimensions={2}, to_apply=%Mean_43-reduction.88, metadata={op_type="Mean" op_name="Mean_43" source_file="<repo-root>/.venv/lib/python3.12/site-packages/tensorflow/python/framework/ops.py" source_line=1221}
  %Mean_43.14 = s32[] constant(2048), metadata={op_type="Mean" op_name="Mean_43" source_file="<repo-root>/.venv/lib/python3.12/site-packages/tensorflow/python/framework/ops.py" source_line=1221}
  %Mean_43.15 = f32[] convert(s32[] %Mean_43.14), metadata={op_type="Mean" op_name="Mean_43" source_file="<repo-root>/.venv/lib/python3.12/site-packages/tensorflow/python/framework/ops.py" source_line=1221}
  %Mean_43.16 = f32[1,64]{1,0} broadcast(f32[] %Mean_43.15), dimensions={}, metadata={op_type="Mean" op_name="Mean_43" source_file="<repo-root>/.venv/lib/python3.12/site-packages/tensorflow/python/framework/ops.py" source_line=1221}
  %Mean_43.17 = f32[1,64]{1,0} divide(f32[1,64]{1,0} %Mean_43.13, f32[1,64]{1,0} %Mean_43.16), metadata={op_type="Mean" op_name="Mean_43" source_file="<repo-root>/.venv/lib/python3.12/site-packages/tensorflow/python/framework/ops.py" source_line=1221}
  %Mean_43.18 = f32[1,64]{1,0} convert(f32[1,64]{1,0} %Mean_43.17), metadata={op_type="Mean" op_name="Mean_43" source_file="<repo-root>/.venv/lib/python3.12/site-packages/tensorflow/python/framework/ops.py" source_line=1221}
  %Mean_43.19 = f32[1,64,1]{2,1,0} reshape(f32[1,64]{1,0} %Mean_43.18), metadata={op_type="Mean" op_name="Mean_43" source_file="<repo-root>/.venv/lib/python3.12/site-packages/tensorflow/python/framework/ops.py" source_line=1221}
  %add_152.3 = f32[] constant(1e-05), metadata={op_type="AddV2" op_name="add_152" source_file="<repo-root>/.venv/lib/python3.12/site-packages/tensorflow/python/framework/ops.py" source_line=1221}
  %add_152.4 = f32[1,64,1]{2,1,0} broadcast(f32[] %add_152.3), dimensions={}, metadata={op_type="AddV2" op_name="add_152" source_file="<repo-root>/.venv/lib/python3.12/site-packages/tensorflow/python/framework/ops.py" source_line=1221}
  %add_152.5 = f32[1,64,1]{2,1,0} add(f32[1,64,1]{2,1,0} %Mean_43.19, f32[1,64,1]{2,1,0} %add_152.4), metadata={op_type="AddV2" op_name="add_152" source_file="<repo-root>/.venv/lib/python3.12/site-packages/tensorflow/python/framework/ops.py" source_line=1221}
  %Rsqrt_65.1 = f32[1,64,1]{2,1,0} rsqrt(f32[1,64,1]{2,1,0} %add_152.5), metadata={op_type="Rsqrt" op_name="Rsqrt_65"}
  %mul_238.3 = f32[1,64]{1,0} reshape(f32[1,64,1]{2,1,0} %Rsqrt_65.1), metadata={op_type="Mul" op_name="mul_238" source_file="<repo-root>/.venv/lib/python3.12/site-packages/tensorflow/python/framework/ops.py" source_line=1221}
  %mul_238.4 = f32[1,64,2048]{2,1,0} broadcast(f32[1,64]{1,0} %mul_238.3), dimensions={0,1}, metadata={op_type="Mul" op_name="mul_238" source_file="<repo-root>/.venv/lib/python3.12/site-packages/tensorflow/python/framework/ops.py" source_line=1221}
  %mul_238.5 = f32[1,64,2048]{2,1,0} multiply(f32[1,64,2048]{2,1,0} %add_151.1, f32[1,64,2048]{2,1,0} %mul_238.4), metadata={op_type="Mul" op_name="mul_238" source_file="<repo-root>/.venv/lib/python3.12/site-packages/tensorflow/python/framework/ops.py" source_line=1221}
  %arg198.1 = f32[2048]{0} parameter(198), parameter_replication={false}, metadata={op_name="XLA_Args"}
  %reshape.402 = f32[2048]{0} reshape(f32[2048]{0} %arg198.1)
  %mul_239.2 = f32[1,64,2048]{2,1,0} broadcast(f32[2048]{0} %reshape.402), dimensions={2}, metadata={op_type="Mul" op_name="mul_239" source_file="<repo-root>/.venv/lib/python3.12/site-packages/tensorflow/python/framework/ops.py" source_line=1221}
  %mul_239.3 = f32[1,64,2048]{2,1,0} multiply(f32[1,64,2048]{2,1,0} %mul_238.5, f32[1,64,2048]{2,1,0} %mul_239.2), metadata={op_type="Mul" op_name="mul_239" source_file="<repo-root>/.venv/lib/python3.12/site-packages/tensorflow/python/framework/ops.py" source_line=1221}
  %arg199.1 = f32[2048,5632]{1,0} parameter(199), parameter_replication={false}, metadata={op_name="XLA_Args"}
  %reshape.403 = f32[2048,5632]{1,0} reshape(f32[2048,5632]{1,0} %arg199.1)
  %MatMul_195.2 = f32[1,64,5632]{2,1,0} dot(f32[1,64,2048]{2,1,0} %mul_239.3, f32[2048,5632]{1,0} %reshape.403), lhs_contracting_dims={2}, rhs_contracting_dims={0}, frontend_attributes={grad_x="false",grad_y="false"}, metadata={op_type="BatchMatMulV2" op_name="MatMul_195" source_file="<repo-root>/.venv/lib/python3.12/site-packages/tensorflow/python/framework/ops.py" source_line=1221}
  %MatMul_195.3 = f32[1,64,5632]{2,1,0} transpose(f32[1,64,5632]{2,1,0} %MatMul_195.2), dimensions={0,1,2}, metadata={op_type="BatchMatMulV2" op_name="MatMul_195" source_file="<repo-root>/.venv/lib/python3.12/site-packages/tensorflow/python/framework/ops.py" source_line=1221}
  %Sigmoid_21.1 = f32[1,64,5632]{2,1,0} logistic(f32[1,64,5632]{2,1,0} %MatMul_195.3), metadata={op_type="Sigmoid" op_name="Sigmoid_21"}
  %mul_240.1 = f32[1,64,5632]{2,1,0} multiply(f32[1,64,5632]{2,1,0} %MatMul_195.3, f32[1,64,5632]{2,1,0} %Sigmoid_21.1), metadata={op_type="Mul" op_name="mul_240" source_file="<repo-root>/.venv/lib/python3.12/site-packages/tensorflow/python/framework/ops.py" source_line=1221}
  %arg200.1 = f32[2048,5632]{1,0} parameter(200), parameter_replication={false}, metadata={op_name="XLA_Args"}
  %reshape.404 = f32[2048,5632]{1,0} reshape(f32[2048,5632]{1,0} %arg200.1)
  %MatMul_196.2 = f32[1,64,5632]{2,1,0} dot(f32[1,64,2048]{2,1,0} %mul_239.3, f32[2048,5632]{1,0} %reshape.404), lhs_contracting_dims={2}, rhs_contracting_dims={0}, frontend_attributes={grad_x="false",grad_y="false"}, metadata={op_type="BatchMatMulV2" op_name="MatMul_196" source_file="<repo-root>/.venv/lib/python3.12/site-packages/tensorflow/python/framework/ops.py" source_line=1221}
  %MatMul_196.3 = f32[1,64,5632]{2,1,0} transpose(f32[1,64,5632]{2,1,0} %MatMul_196.2), dimensions={0,1,2}, metadata={op_type="BatchMatMulV2" op_name="MatMul_196" source_file="<repo-root>/.venv/lib/python3.12/site-packages/tensorflow/python/framework/ops.py" source_line=1221}
  %mul_241.1 = f32[1,64,5632]{2,1,0} multiply(f32[1,64,5632]{2,1,0} %mul_240.1, f32[1,64,5632]{2,1,0} %MatMul_196.3), metadata={op_type="Mul" op_name="mul_241" source_file="<repo-root>/.venv/lib/python3.12/site-packages/tensorflow/python/framework/ops.py" source_line=1221}
  %arg201.1 = f32[5632,2048]{1,0} parameter(201), parameter_replication={false}, metadata={op_name="XLA_Args"}
  %reshape.405 = f32[5632,2048]{1,0} reshape(f32[5632,2048]{1,0} %arg201.1)
  %MatMul_197.2 = f32[1,64,2048]{2,1,0} dot(f32[1,64,5632]{2,1,0} %mul_241.1, f32[5632,2048]{1,0} %reshape.405), lhs_contracting_dims={2}, rhs_contracting_dims={0}, frontend_attributes={grad_x="false",grad_y="false"}, metadata={op_type="BatchMatMulV2" op_name="MatMul_197" source_file="<repo-root>/.venv/lib/python3.12/site-packages/tensorflow/python/framework/ops.py" source_line=1221}
  %MatMul_197.3 = f32[1,64,2048]{2,1,0} transpose(f32[1,64,2048]{2,1,0} %MatMul_197.2), dimensions={0,1,2}, metadata={op_type="BatchMatMulV2" op_name="MatMul_197" source_file="<repo-root>/.venv/lib/python3.12/site-packages/tensorflow/python/framework/ops.py" source_line=1221}
  %add_153.1 = f32[1,64,2048]{2,1,0} add(f32[1,64,2048]{2,1,0} %add_151.1, f32[1,64,2048]{2,1,0} %MatMul_197.3), metadata={op_type="AddV2" op_name="add_153" source_file="<repo-root>/.venv/lib/python3.12/site-packages/tensorflow/python/framework/ops.py" source_line=1221}
  %Square_44.1 = f32[1,64,2048]{2,1,0} multiply(f32[1,64,2048]{2,1,0} %add_153.1, f32[1,64,2048]{2,1,0} %add_153.1), metadata={op_type="Square" op_name="Square_44" source_file="<repo-root>/.venv/lib/python3.12/site-packages/tensorflow/python/framework/ops.py" source_line=1221}
  %Mean_44.10 = f32[1,64,2048]{2,1,0} convert(f32[1,64,2048]{2,1,0} %Square_44.1), metadata={op_type="Mean" op_name="Mean_44" source_file="<repo-root>/.venv/lib/python3.12/site-packages/tensorflow/python/framework/ops.py" source_line=1221}
  %Mean_44.11 = f32[] constant(0), metadata={op_type="Mean" op_name="Mean_44" source_file="<repo-root>/.venv/lib/python3.12/site-packages/tensorflow/python/framework/ops.py" source_line=1221}
  %Mean_44.12 = f32[] convert(f32[] %Mean_44.11), metadata={op_type="Mean" op_name="Mean_44" source_file="<repo-root>/.venv/lib/python3.12/site-packages/tensorflow/python/framework/ops.py" source_line=1221}
  %Mean_44.13 = f32[1,64]{1,0} reduce(f32[1,64,2048]{2,1,0} %Mean_44.10, f32[] %Mean_44.12), dimensions={2}, to_apply=%Mean_44-reduction.89, metadata={op_type="Mean" op_name="Mean_44" source_file="<repo-root>/.venv/lib/python3.12/site-packages/tensorflow/python/framework/ops.py" source_line=1221}
  %Mean_44.14 = s32[] constant(2048), metadata={op_type="Mean" op_name="Mean_44" source_file="<repo-root>/.venv/lib/python3.12/site-packages/tensorflow/python/framework/ops.py" source_line=1221}
  %Mean_44.15 = f32[] convert(s32[] %Mean_44.14), metadata={op_type="Mean" op_name="Mean_44" source_file="<repo-root>/.venv/lib/python3.12/site-packages/tensorflow/python/framework/ops.py" source_line=1221}
  %Mean_44.16 = f32[1,64]{1,0} broadcast(f32[] %Mean_44.15), dimensions={}, metadata={op_type="Mean" op_name="Mean_44" source_file="<repo-root>/.venv/lib/python3.12/site-packages/tensorflow/python/framework/ops.py" source_line=1221}
  %Mean_44.17 = f32[1,64]{1,0} divide(f32[1,64]{1,0} %Mean_44.13, f32[1,64]{1,0} %Mean_44.16), metadata={op_type="Mean" op_name="Mean_44" source_file="<repo-root>/.venv/lib/python3.12/site-packages/tensorflow/python/framework/ops.py" source_line=1221}
  %Mean_44.18 = f32[1,64]{1,0} convert(f32[1,64]{1,0} %Mean_44.17), metadata={op_type="Mean" op_name="Mean_44" source_file="<repo-root>/.venv/lib/python3.12/site-packages/tensorflow/python/framework/ops.py" source_line=1221}
  %Mean_44.19 = f32[1,64,1]{2,1,0} reshape(f32[1,64]{1,0} %Mean_44.18), metadata={op_type="Mean" op_name="Mean_44" source_file="<repo-root>/.venv/lib/python3.12/site-packages/tensorflow/python/framework/ops.py" source_line=1221}
  %add_154.3 = f32[] constant(1e-05), metadata={op_type="AddV2" op_name="add_154" source_file="<repo-root>/.venv/lib/python3.12/site-packages/tensorflow/python/framework/ops.py" source_line=1221}
  %add_154.4 = f32[1,64,1]{2,1,0} broadcast(f32[] %add_154.3), dimensions={}, metadata={op_type="AddV2" op_name="add_154" source_file="<repo-root>/.venv/lib/python3.12/site-packages/tensorflow/python/framework/ops.py" source_line=1221}
  %add_154.5 = f32[1,64,1]{2,1,0} add(f32[1,64,1]{2,1,0} %Mean_44.19, f32[1,64,1]{2,1,0} %add_154.4), metadata={op_type="AddV2" op_name="add_154" source_file="<repo-root>/.venv/lib/python3.12/site-packages/tensorflow/python/framework/ops.py" source_line=1221}
  %Rsqrt_66.1 = f32[1,64,1]{2,1,0} rsqrt(f32[1,64,1]{2,1,0} %add_154.5), metadata={op_type="Rsqrt" op_name="Rsqrt_66"}
  %mul_242.3 = f32[1,64]{1,0} reshape(f32[1,64,1]{2,1,0} %Rsqrt_66.1), metadata={op_type="Mul" op_name="mul_242" source_file="<repo-root>/.venv/lib/python3.12/site-packages/tensorflow/python/framework/ops.py" source_line=1221}
  %mul_242.4 = f32[1,64,2048]{2,1,0} broadcast(f32[1,64]{1,0} %mul_242.3), dimensions={0,1}, metadata={op_type="Mul" op_name="mul_242" source_file="<repo-root>/.venv/lib/python3.12/site-packages/tensorflow/python/framework/ops.py" source_line=1221}
  %mul_242.5 = f32[1,64,2048]{2,1,0} multiply(f32[1,64,2048]{2,1,0} %add_153.1, f32[1,64,2048]{2,1,0} %mul_242.4), metadata={op_type="Mul" op_name="mul_242" source_file="<repo-root>/.venv/lib/python3.12/site-packages/tensorflow/python/framework/ops.py" source_line=1221}
  %arg202.1 = f32[2048]{0} parameter(202), parameter_replication={false}, metadata={op_name="XLA_Args"}
  %reshape.406 = f32[2048]{0} reshape(f32[2048]{0} %arg202.1)
  %mul_243.2 = f32[1,64,2048]{2,1,0} broadcast(f32[2048]{0} %reshape.406), dimensions={2}, metadata={op_type="Mul" op_name="mul_243" source_file="<repo-root>/.venv/lib/python3.12/site-packages/tensorflow/python/framework/ops.py" source_line=1221}
  %mul_243.3 = f32[1,64,2048]{2,1,0} multiply(f32[1,64,2048]{2,1,0} %mul_242.5, f32[1,64,2048]{2,1,0} %mul_243.2), metadata={op_type="Mul" op_name="mul_243" source_file="<repo-root>/.venv/lib/python3.12/site-packages/tensorflow/python/framework/ops.py" source_line=1221}
  %arg203.1 = f32[2048,32000]{1,0} parameter(203), parameter_replication={false}, metadata={op_name="XLA_Args"}
  %reshape.407 = f32[2048,32000]{1,0} reshape(f32[2048,32000]{1,0} %arg203.1)
  %MatMul_198.2 = f32[1,64,32000]{2,1,0} dot(f32[1,64,2048]{2,1,0} %mul_243.3, f32[2048,32000]{1,0} %reshape.407), lhs_contracting_dims={2}, rhs_contracting_dims={0}, frontend_attributes={grad_x="false",grad_y="false"}, metadata={op_type="BatchMatMulV2" op_name="MatMul_198" source_file="<repo-root>/.venv/lib/python3.12/site-packages/tensorflow/python/framework/ops.py" source_line=1221}
  %MatMul_198.3 = f32[1,64,32000]{2,1,0} transpose(f32[1,64,32000]{2,1,0} %MatMul_198.2), dimensions={0,1,2}, metadata={op_type="BatchMatMulV2" op_name="MatMul_198" source_file="<repo-root>/.venv/lib/python3.12/site-packages/tensorflow/python/framework/ops.py" source_line=1221}
  %XLA_Retvals.3 = f32[1,64,32000]{2,1,0} reshape(f32[1,64,32000]{2,1,0} %MatMul_198.3), metadata={op_name="XLA_Retvals"}
  %XLA_Retvals.4 = (f32[1,64,32000]{2,1,0}) tuple(f32[1,64,32000]{2,1,0} %XLA_Retvals.3), metadata={op_name="XLA_Retvals"}
  ROOT %XLA_Retvals.5 = f32[1,64,32000]{2,1,0} get-tuple-element((f32[1,64,32000]{2,1,0}) %XLA_Retvals.4), index=0, metadata={op_name="XLA_Retvals"}
}

