HloModule a_inference_whisper_decoder_609__.43, entry_computation_layout={(f32[1,1500,384]{2,1,0}, f32[1,64,384]{2,1,0}, f32[1,64,384]{2,1,0}, f32[1,1,64,64]{3,2,1,0}, f32[384]{0}, /*index=5*/f32[384]{0}, f32[384,384]{1,0}, f32[384]{0}, f32[384,384]{1,0}, f32[384]{0}, /*index=10*/f32[384,384]{1,0}, f32[384]{0}, f32[384,384]{1,0}, f32[384]{0}, f32[384]{0}, /*index=15*/f32[384]{0}, f32[384,384]{1,0}, f32[384]{0}, f32[384,384]{1,0}, f32[384]{0}, /*index=20*/f32[384,384]{1,0}, f32[384]{0}, f32[384,384]{1,0}, f32[384]{0}, f32[384]{0}, /*index=25*/f32[384]{0}, f32[384,1536]{1,0}, f32[1536]{0}, f32[1536,384]{1,0}, f32[384]{0}, /*index=30*/f32[384]{0}, f32[384]{0}, f32[384,384]{1,0}, f32[384]{0}, f32[384,384]{1,0}, /*index=35*/f32[384]{0}, f32[384,384]{1,0}, f32[384]{0}, f32[384,384]{1,0}, f32[384]{0}, /*index=40*/f32[384]{0}, f32[384]{0}, f32[384,384]{1,0}, f32[384]{0}, f32[384,384]{1,0}, /*index=45*/f32[384]{0}, f32[384,384]{1,0}, f32[384]{0}, f32[384,384]{1,0}, f32[384]{0}, /*index=50*/f32[384]{0}, f32[384]{0}, f32[384,1536]{1,0}, f32[1536]{0}, f32[1536,384]{1,0}, /*index=55*/f32[384]{0}, f32[384]{0}, f32[384]{0}, f32[384,384]{1,0}, f32[384]{0}, /*index=60*/f32[384,384]{1,0}, f32[384]{0}, f32[384,384]{1,0}, f32[384]{0}, f32[384,384]{1,0}, /*index=65*/f32[384]{0}, f32[384]{0}, f32[384]{0}, f32[384,384]{1,0}, f32[384]{0}, /*index=70*/f32[384,384]{1,0}, f32[384]{0}, f32[384,384]{1,0}, f32[384]{0}, f32[384,384]{1,0}, /*index=75*/f32[384]{0}, f32[384]{0}, f32[384]{0}, f32[384,1536]{1,0}, f32[1536]{0}, /*index=80*/f32[1536,384]{1,0}, f32[384]{0}, f32[384]{0}, f32[384]{0}, f32[384,384]{1,0}, /*index=85*/f32[384]{0}, f32[384,384]{1,0}, f32[384]{0}, f32[384,384]{1,0}, f32[384]{0}, /*index=90*/f32[384,384]{1,0}, f32[384]{0}, f32[384]{0}, f32[384]{0}, f32[384,384]{1,0}, /*index=95*/f32[384]{0}, f32[384,384]{1,0}, f32[384]{0}, f32[384,384]{1,0}, f32[384]{0}, /*index=100*/f32[384,384]{1,0}, f32[384]{0}, f32[384]{0}, f32[384]{0}, f32[384,1536]{1,0}, /*index=105*/f32[1536]{0}, f32[1536,384]{1,0}, f32[384]{0}, f32[384]{0}, f32[384]{0}, /*index=110*/f32[384,51865]{1,0})->f32[1,64,51865]{2,1,0}}

%Mean-reduction.1 (x.1: f32[], y.1: f32[]) -> f32[] {
  %x.1 = f32[] parameter(0)
  %y.1 = f32[] parameter(1)
  ROOT %add.1 = f32[] add(f32[] %x.1, f32[] %y.1)
}

%Mean_1-reduction.2 (x.0: f32[], y.0: f32[]) -> f32[] {
  %x.0 = f32[] parameter(0)
  %y.0 = f32[] parameter(1)
  ROOT %add.2 = f32[] add(f32[] %x.0, f32[] %y.0)
}

%region_0.3 (Softmax.5: f32[], Softmax.6: f32[]) -> f32[] {
  %Softmax.5 = f32[] parameter(0), metadata={op_name="Softmax"}
  %Softmax.6 = f32[] parameter(1), metadata={op_name="Softmax"}
  ROOT %Softmax.7 = f32[] maximum(f32[] %Softmax.5, f32[] %Softmax.6), metadata={op_type="Softmax" op_name="Softmax"}
}

%region_1.4 (Softmax.18: f32[], Softmax.19: f32[]) -> f32[] {
  %Softmax.18 = f32[] parameter(0), metadata={op_name="Softmax"}
  %Softmax.19 = f32[] parameter(1), metadata={op_name="Softmax"}
  ROOT %Softmax.20 = f32[] add(f32[] %Softmax.18, f32[] %Softmax.19), metadata={op_type="Softmax" op_name="Softmax"}
}

%Mean_2-reduction.5 (x.2: f32[], y.2: f32[]) -> f32[] {
  %x.2 = f32[] parameter(0)
  %y.2 = f32[] parameter(1)
  ROOT %add.3 = f32[] add(f32[] %x.2, f32[] %y.2)
}

%Mean_3-reduction.6 (x.3: f32[], y.3: f32[]) -> f32[] {
  %x.3 = f32[] parameter(0)
  %y.3 = f32[] parameter(1)
  ROOT %add.4 = f32[] add(f32[] %x.3, f32[] %y.3)
}

%region_0.7 (Softmax_1.5: f32[], Softmax_1.6: f32[]) -> f32[] {
  %Softmax_1.5 = f32[] parameter(0), metadata={op_name="Softmax_1"}
  %Softmax_1.6 = f32[] parameter(1), metadata={op_name="Softmax_1"}
  ROOT %Softmax_1.7 = f32[] maximum(f32[] %Softmax_1.5, f32[] %Softmax_1.6), metadata={op_type="Softmax" op_name="Softmax_1"}
}

%region_1.8 (Softmax_1.18: f32[], Softmax_1.19: f32[]) -> f32[] {
  %Softmax_1.18 = f32[] parameter(0), metadata={op_name="Softmax_1"}
  %Softmax_1.19 = f32[] parameter(1), metadata={op_name="Softmax_1"}
  ROOT %Softmax_1.20 = f32[] add(f32[] %Softmax_1.18, f32[] %Softmax_1.19), metadata={op_type="Softmax" op_name="Softmax_1"}
}

%Mean_4-reduction.9 (x.4: f32[], y.4: f32[]) -> f32[] {
  %x.4 = f32[] parameter(0)
  %y.4 = f32[] parameter(1)
  ROOT %add.5 = f32[] add(f32[] %x.4, f32[] %y.4)
}

%Mean_5-reduction.10 (x.5: f32[], y.5: f32[]) -> f32[] {
  %x.5 = f32[] parameter(0)
  %y.5 = f32[] parameter(1)
  ROOT %add.6 = f32[] add(f32[] %x.5, f32[] %y.5)
}

%Mean_6-reduction.11 (x.6: f32[], y.6: f32[]) -> f32[] {
  %x.6 = f32[] parameter(0)
  %y.6 = f32[] parameter(1)
  ROOT %add.7 = f32[] add(f32[] %x.6, f32[] %y.6)
}

%Mean_7-reduction.12 (x.7: f32[], y.7: f32[]) -> f32[] {
  %x.7 = f32[] parameter(0)
  %y.7 = f32[] parameter(1)
  ROOT %add.8 = f32[] add(f32[] %x.7, f32[] %y.7)
}

%region_0.13 (Softmax_2.5: f32[], Softmax_2.6: f32[]) -> f32[] {
  %Softmax_2.5 = f32[] parameter(0), metadata={op_name="Softmax_2"}
  %Softmax_2.6 = f32[] parameter(1), metadata={op_name="Softmax_2"}
  ROOT %Softmax_2.7 = f32[] maximum(f32[] %Softmax_2.5, f32[] %Softmax_2.6), metadata={op_type="Softmax" op_name="Softmax_2"}
}

%region_1.14 (Softmax_2.18: f32[], Softmax_2.19: f32[]) -> f32[] {
  %Softmax_2.18 = f32[] parameter(0), metadata={op_name="Softmax_2"}
  %Softmax_2.19 = f32[] parameter(1), metadata={op_name="Softmax_2"}
  ROOT %Softmax_2.20 = f32[] add(f32[] %Softmax_2.18, f32[] %Softmax_2.19), metadata={op_type="Softmax" op_name="Softmax_2"}
}

%Mean_8-reduction.15 (x.8: f32[], y.8: f32[]) -> f32[] {
  %x.8 = f32[] parameter(0)
  %y.8 = f32[] parameter(1)
  ROOT %add.9 = f32[] add(f32[] %x.8, f32[] %y.8)
}

%Mean_9-reduction.16 (x.9: f32[], y.9: f32[]) -> f32[] {
  %x.9 = f32[] parameter(0)
  %y.9 = f32[] parameter(1)
  ROOT %add.10 = f32[] add(f32[] %x.9, f32[] %y.9)
}

%region_0.17 (Softmax_3.5: f32[], Softmax_3.6: f32[]) -> f32[] {
  %Softmax_3.5 = f32[] parameter(0), metadata={op_name="Softmax_3"}
  %Softmax_3.6 = f32[] parameter(1), metadata={op_name="Softmax_3"}
  ROOT %Softmax_3.7 = f32[] maximum(f32[] %Softmax_3.5, f32[] %Softmax_3.6), metadata={op_type="Softmax" op_name="Softmax_3"}
}

%region_1.18 (Softmax_3.18: f32[], Softmax_3.19: f32[]) -> f32[] {
  %Softmax_3.18 = f32[] parameter(0), metadata={op_name="Softmax_3"}
  %Softmax_3.19 = f32[] parameter(1), metadata={op_name="Softmax_3"}
  ROOT %Softmax_3.20 = f32[] add(f32[] %Softmax_3.18, f32[] %Softmax_3.19), metadata={op_type="Softmax" op_name="Softmax_3"}
}

%Mean_10-reduction.19 (x.10: f32[], y.10: f32[]) -> f32[] {
  %x.10 = f32[] parameter(0)
  %y.10 = f32[] parameter(1)
  ROOT %add.11 = f32[] add(f32[] %x.10, f32[] %y.10)
}

%Mean_11-reduction.20 (x.11: f32[], y.11: f32[]) -> f32[] {
  %x.11 = f32[] parameter(0)
  %y.11 = f32[] parameter(1)
  ROOT %add.12 = f32[] add(f32[] %x.11, f32[] %y.11)
}

%Mean_12-reduction.21 (x.12: f32[], y.12: f32[]) -> f32[] {
  %x.12 = f32[] parameter(0)
  %y.12 = f32[] parameter(1)
  ROOT %add.13 = f32[] add(f32[] %x.12, f32[] %y.12)
}

%Mean_13-reduction.22 (x.13: f32[], y.13: f32[]) -> f32[] {
  %x.13 = f32[] parameter(0)
  %y.13 = f32[] parameter(1)
  ROOT %add.14 = f32[] add(f32[] %x.13, f32[] %y.13)
}

%region_0.23 (Softmax_4.5: f32[], Softmax_4.6: f32[]) -> f32[] {
  %Softmax_4.5 = f32[] parameter(0), metadata={op_name="Softmax_4"}
  %Softmax_4.6 = f32[] parameter(1), metadata={op_name="Softmax_4"}
  ROOT %Softmax_4.7 = f32[] maximum(f32[] %Softmax_4.5, f32[] %Softmax_4.6), metadata={op_type="Softmax" op_name="Softmax_4"}
}

%region_1.24 (Softmax_4.18: f32[], Softmax_4.19: f32[]) -> f32[] {
  %Softmax_4.18 = f32[] parameter(0), metadata={op_name="Softmax_4"}
  %Softmax_4.19 = f32[] parameter(1), metadata={op_name="Softmax_4"}
  ROOT %Softmax_4.20 = f32[] add(f32[] %Softmax_4.18, f32[] %Softmax_4.19), metadata={op_type="Softmax" op_name="Softmax_4"}
}

%Mean_14-reduction.25 (x.14: f32[], y.14: f32[]) -> f32[] {
  %x.14 = f32[] parameter(0)
  %y.14 = f32[] parameter(1)
  ROOT %add.15 = f32[] add(f32[] %x.14, f32[] %y.14)
}

%Mean_15-reduction.26 (x.15: f32[], y.15: f32[]) -> f32[] {
  %x.15 = f32[] parameter(0)
  %y.15 = f32[] parameter(1)
  ROOT %add.16 = f32[] add(f32[] %x.15, f32[] %y.15)
}

%region_0.27 (Softmax_5.5: f32[], Softmax_5.6: f32[]) -> f32[] {
  %Softmax_5.5 = f32[] parameter(0), metadata={op_name="Softmax_5"}
  %Softmax_5.6 = f32[] parameter(1), metadata={op_name="Softmax_5"}
  ROOT %Softmax_5.7 = f32[] maximum(f32[] %Softmax_5.5, f32[] %Softmax_5.6), metadata={op_type="Softmax" op_name="Softmax_5"}
}

%region_1.28 (Softmax_5.18: f32[], Softmax_5.19: f32[]) -> f32[] {
  %Softmax_5.18 = f32[] parameter(0), metadata={op_name="Softmax_5"}
  %Softmax_5.19 = f32[] parameter(1), metadata={op_name="Softmax_5"}
  ROOT %Softmax_5.20 = f32[] add(f32[] %Softmax_5.18, f32[] %Softmax_5.19), metadata={op_type="Softmax" op_name="Softmax_5"}
}

%Mean_16-reduction.29 (x.16: f32[], y.16: f32[]) -> f32[] {
  %x.16 = f32[] parameter(0)
  %y.16 = f32[] parameter(1)
  ROOT %add.17 = f32[] add(f32[] %x.16, f32[] %y.16)
}

%Mean_17-reduction.30 (x.17: f32[], y.17: f32[]) -> f32[] {
  %x.17 = f32[] parameter(0)
  %y.17 = f32[] parameter(1)
  ROOT %add.18 = f32[] add(f32[] %x.17, f32[] %y.17)
}

%Mean_18-reduction.31 (x.18: f32[], y.18: f32[]) -> f32[] {
  %x.18 = f32[] parameter(0)
  %y.18 = f32[] parameter(1)
  ROOT %add.19 = f32[] add(f32[] %x.18, f32[] %y.18)
}

%Mean_19-reduction.32 (x.19: f32[], y.19: f32[]) -> f32[] {
  %x.19 = f32[] parameter(0)
  %y.19 = f32[] parameter(1)
  ROOT %add.20 = f32[] add(f32[] %x.19, f32[] %y.19)
}

%region_0.33 (Softmax_6.5: f32[], Softmax_6.6: f32[]) -> f32[] {
  %Softmax_6.5 = f32[] parameter(0), metadata={op_name="Softmax_6"}
  %Softmax_6.6 = f32[] parameter(1), metadata={op_name="Softmax_6"}
  ROOT %Softmax_6.7 = f32[] maximum(f32[] %Softmax_6.5, f32[] %Softmax_6.6), metadata={op_type="Softmax" op_name="Softmax_6"}
}

%region_1.34 (Softmax_6.18: f32[], Softmax_6.19: f32[]) -> f32[] {
  %Softmax_6.18 = f32[] parameter(0), metadata={op_name="Softmax_6"}
  %Softmax_6.19 = f32[] parameter(1), metadata={op_name="Softmax_6"}
  ROOT %Softmax_6.20 = f32[] add(f32[] %Softmax_6.18, f32[] %Softmax_6.19), metadata={op_type="Softmax" op_name="Softmax_6"}
}

%Mean_20-reduction.35 (x.20: f32[], y.20: f32[]) -> f32[] {
  %x.20 = f32[] parameter(0)
  %y.20 = f32[] parameter(1)
  ROOT %add.21 = f32[] add(f32[] %x.20, f32[] %y.20)
}

%Mean_21-reduction.36 (x.21: f32[], y.21: f32[]) -> f32[] {
  %x.21 = f32[] parameter(0)
  %y.21 = f32[] parameter(1)
  ROOT %add.22 = f32[] add(f32[] %x.21, f32[] %y.21)
}

%region_0.37 (Softmax_7.5: f32[], Softmax_7.6: f32[]) -> f32[] {
  %Softmax_7.5 = f32[] parameter(0), metadata={op_name="Softmax_7"}
  %Softmax_7.6 = f32[] parameter(1), metadata={op_name="Softmax_7"}
  ROOT %Softmax_7.7 = f32[] maximum(f32[] %Softmax_7.5, f32[] %Softmax_7.6), metadata={op_type="Softmax" op_name="Softmax_7"}
}

%region_1.38 (Softmax_7.18: f32[], Softmax_7.19: f32[]) -> f32[] {
  %Softmax_7.18 = f32[] parameter(0), metadata={op_name="Softmax_7"}
  %Softmax_7.19 = f32[] parameter(1), metadata={op_name="Softmax_7"}
  ROOT %Softmax_7.20 = f32[] add(f32[] %Softmax_7.18, f32[] %Softmax_7.19), metadata={op_type="Softmax" op_name="Softmax_7"}
}

%Mean_22-reduction.39 (x.22: f32[], y.22: f32[]) -> f32[] {
  %x.22 = f32[] parameter(0)
  %y.22 = f32[] parameter(1)
  ROOT %add.23 = f32[] add(f32[] %x.22, f32[] %y.22)
}

%Mean_23-reduction.40 (x.23: f32[], y.23: f32[]) -> f32[] {
  %x.23 = f32[] parameter(0)
  %y.23 = f32[] parameter(1)
  ROOT %add.24 = f32[] add(f32[] %x.23, f32[] %y.23)
}

%Mean_24-reduction.41 (x.24: f32[], y.24: f32[]) -> f32[] {
  %x.24 = f32[] parameter(0)
  %y.24 = f32[] parameter(1)
  ROOT %add.25 = f32[] add(f32[] %x.24, f32[] %y.24)
}

%Mean_25-reduction.42 (x.25: f32[], y.25: f32[]) -> f32[] {
  %x.25 = f32[] parameter(0)
  %y.25 = f32[] parameter(1)
  ROOT %add.26 = f32[] add(f32[] %x.25, f32[] %y.25)
}

ENTRY %a_inference_whisper_decoder_609__.43 (arg0.1: f32[1,1500,384], arg1.1: f32[1,64,384], arg2.1: f32[1,64,384], arg3.1: f32[1,1,64,64], arg4.1: f32[384], arg5.1: f32[384], arg6.1: f32[384,384], arg7.1: f32[384], arg8.1: f32[384,384], arg9.1: f32[384], arg10.1: f32[384,384], arg11.1: f32[384], arg12.1: f32[384,384], arg13.1: f32[384], arg14.1: f32[384], arg15.1: f32[384], arg16.1: f32[384,384], arg17.1: f32[384], arg18.1: f32[384,384], arg19.1: f32[384], arg20.1: f32[384,384], arg21.1: f32[384], arg22.1: f32[384,384], arg23.1: f32[384], arg24.1: f32[384], arg25.1: f32[384], arg26.1: f32[384,1536], arg27.1: f32[1536], arg28.1: f32[1536,384], arg29.1: f32[384], arg30.1: f32[384], arg31.1: f32[384], arg32.1: f32[384,384], arg33.1: f32[384], arg34.1: f32[384,384], arg35.1: f32[384], arg36.1: f32[384,384], arg37.1: f32[384], arg38.1: f32[384,384], arg39.1: f32[384], arg40.1: f32[384], arg41.1: f32[384], arg42.1: f32[384,384], arg43.1: f32[384], arg44.1: f32[384,384], arg45.1: f32[384], arg46.1: f32[384,384], arg47.1: f32[384], arg48.1: f32[384,384], arg49.1: f32[384], arg50.1: f32[384], arg51.1: f32[384], arg52.1: f32[384,1536], arg53.1: f32[1536], arg54.1: f32[1536,384], arg55.1: f32[384], arg56.1: f32[384], arg57.1: f32[384], arg58.1: f32[384,384], arg59.1: f32[384], arg60.1: f32[384,384], arg61.1: f32[384], arg62.1: f32[384,384], arg63.1: f32[384], arg64.1: f32[384,384], arg65.1: f32[384], arg66.1: f32[384], arg67.1: f32[384], arg68.1: f32[384,384], arg69.1: f32[384], arg70.1: f32[384,384], arg71.1: f32[384], arg72.1: f32[384,384], arg73.1: f32[384], arg74.1: f32[384,384], arg75.1: f32[384], arg76.1: f32[384], arg77.1: f32[384], arg78.1: f32[384,1536], arg79.1: f32[1536], arg80.1: f32[1536,384], arg81.1: f32[384], arg82.1: f32[384], arg83.1: f32[384], arg84.1: f32[384,384], arg85.1: f32[384], arg86.1: f32[384,384], arg87.1: f32[384], arg88.1: f32[384,384], arg89.1: f32[384], arg90.1: f32[384,384], arg91.1: f32[384], arg92.1: f32[384], arg93.1: f32[384], arg94.1: f32[384,384], arg95.1: f32[384], arg96.1: f32[384,384], arg97.1: f32[384], arg98.1: f32[384,384], arg99.1: f32[384], arg100.1: f32[384,384], arg101.1: f32[384], arg102.1: f32[384], arg103.1: f32[384], arg104.1: f32[384,1536], arg105.1: f32[1536], arg106.1: f32[1536,384], arg107.1: f32[384], arg108.1: f32[384], arg109.1: f32[384], arg110.1: f32[384,51865]) -> f32[1,64,51865] {
  %arg1.1 = f32[1,64,384]{2,1,0} parameter(1), parameter_replication={false}, metadata={op_name="XLA_Args"}
  %reshape.112 = f32[1,64,384]{2,1,0} reshape(f32[1,64,384]{2,1,0} %arg1.1)
  %arg2.1 = f32[1,64,384]{2,1,0} parameter(2), parameter_replication={false}, metadata={op_name="XLA_Args"}
  %reshape.113 = f32[1,64,384]{2,1,0} reshape(f32[1,64,384]{2,1,0} %arg2.1)
  %add.27 = f32[1,64,384]{2,1,0} add(f32[1,64,384]{2,1,0} %reshape.112, f32[1,64,384]{2,1,0} %reshape.113), metadata={op_type="AddV2" op_name="add" source_file="<repo-root>/src/cuda-spirv/xla_hlo/.venv-tf/lib/python3.12/site-packages/tensorflow/python/framework/ops.py" source_line=1221}
  %Mean.10 = f32[1,64,384]{2,1,0} convert(f32[1,64,384]{2,1,0} %add.27), metadata={op_type="Mean" op_name="Mean" source_file="<repo-root>/src/cuda-spirv/xla_hlo/.venv-tf/lib/python3.12/site-packages/tensorflow/python/framework/ops.py" source_line=1221}
  %Mean.11 = f32[] constant(0), metadata={op_type="Mean" op_name="Mean" source_file="<repo-root>/src/cuda-spirv/xla_hlo/.venv-tf/lib/python3.12/site-packages/tensorflow/python/framework/ops.py" source_line=1221}
  %Mean.12 = f32[] convert(f32[] %Mean.11), metadata={op_type="Mean" op_name="Mean" source_file="<repo-root>/src/cuda-spirv/xla_hlo/.venv-tf/lib/python3.12/site-packages/tensorflow/python/framework/ops.py" source_line=1221}
  %Mean.13 = f32[1,64]{1,0} reduce(f32[1,64,384]{2,1,0} %Mean.10, f32[] %Mean.12), dimensions={2}, to_apply=%Mean-reduction.1, metadata={op_type="Mean" op_name="Mean" source_file="<repo-root>/src/cuda-spirv/xla_hlo/.venv-tf/lib/python3.12/site-packages/tensorflow/python/framework/ops.py" source_line=1221}
  %Mean.14 = s32[] constant(384), metadata={op_type="Mean" op_name="Mean" source_file="<repo-root>/src/cuda-spirv/xla_hlo/.venv-tf/lib/python3.12/site-packages/tensorflow/python/framework/ops.py" source_line=1221}
  %Mean.15 = f32[] convert(s32[] %Mean.14), metadata={op_type="Mean" op_name="Mean" source_file="<repo-root>/src/cuda-spirv/xla_hlo/.venv-tf/lib/python3.12/site-packages/tensorflow/python/framework/ops.py" source_line=1221}
  %Mean.16 = f32[1,64]{1,0} broadcast(f32[] %Mean.15), dimensions={}, metadata={op_type="Mean" op_name="Mean" source_file="<repo-root>/src/cuda-spirv/xla_hlo/.venv-tf/lib/python3.12/site-packages/tensorflow/python/framework/ops.py" source_line=1221}
  %Mean.17 = f32[1,64]{1,0} divide(f32[1,64]{1,0} %Mean.13, f32[1,64]{1,0} %Mean.16), metadata={op_type="Mean" op_name="Mean" source_file="<repo-root>/src/cuda-spirv/xla_hlo/.venv-tf/lib/python3.12/site-packages/tensorflow/python/framework/ops.py" source_line=1221}
  %Mean.18 = f32[1,64]{1,0} convert(f32[1,64]{1,0} %Mean.17), metadata={op_type="Mean" op_name="Mean" source_file="<repo-root>/src/cuda-spirv/xla_hlo/.venv-tf/lib/python3.12/site-packages/tensorflow/python/framework/ops.py" source_line=1221}
  %Mean.19 = f32[1,64,1]{2,1,0} reshape(f32[1,64]{1,0} %Mean.18), metadata={op_type="Mean" op_name="Mean" source_file="<repo-root>/src/cuda-spirv/xla_hlo/.venv-tf/lib/python3.12/site-packages/tensorflow/python/framework/ops.py" source_line=1221}
  %sub_1.3 = f32[1,64]{1,0} reshape(f32[1,64,1]{2,1,0} %Mean.19), metadata={op_type="Sub" op_name="sub_1" source_file="<repo-root>/src/cuda-spirv/xla_hlo/.venv-tf/lib/python3.12/site-packages/tensorflow/python/framework/ops.py" source_line=1221}
  %sub_1.4 = f32[1,64,384]{2,1,0} broadcast(f32[1,64]{1,0} %sub_1.3), dimensions={0,1}, metadata={op_type="Sub" op_name="sub_1" source_file="<repo-root>/src/cuda-spirv/xla_hlo/.venv-tf/lib/python3.12/site-packages/tensorflow/python/framework/ops.py" source_line=1221}
  %sub_1.5 = f32[1,64,384]{2,1,0} subtract(f32[1,64,384]{2,1,0} %add.27, f32[1,64,384]{2,1,0} %sub_1.4), metadata={op_type="Sub" op_name="sub_1" source_file="<repo-root>/src/cuda-spirv/xla_hlo/.venv-tf/lib/python3.12/site-packages/tensorflow/python/framework/ops.py" source_line=1221}
  %sub.3 = f32[1,64]{1,0} reshape(f32[1,64,1]{2,1,0} %Mean.19), metadata={op_type="Sub" op_name="sub" source_file="<repo-root>/src/cuda-spirv/xla_hlo/.venv-tf/lib/python3.12/site-packages/tensorflow/python/framework/ops.py" source_line=1221}
  %sub.4 = f32[1,64,384]{2,1,0} broadcast(f32[1,64]{1,0} %sub.3), dimensions={0,1}, metadata={op_type="Sub" op_name="sub" source_file="<repo-root>/src/cuda-spirv/xla_hlo/.venv-tf/lib/python3.12/site-packages/tensorflow/python/framework/ops.py" source_line=1221}
  %sub.5 = f32[1,64,384]{2,1,0} subtract(f32[1,64,384]{2,1,0} %add.27, f32[1,64,384]{2,1,0} %sub.4), metadata={op_type="Sub" op_name="sub" source_file="<repo-root>/src/cuda-spirv/xla_hlo/.venv-tf/lib/python3.12/site-packages/tensorflow/python/framework/ops.py" source_line=1221}
  %Square.1 = f32[1,64,384]{2,1,0} multiply(f32[1,64,384]{2,1,0} %sub.5, f32[1,64,384]{2,1,0} %sub.5), metadata={op_type="Square" op_name="Square" source_file="<repo-root>/src/cuda-spirv/xla_hlo/.venv-tf/lib/python3.12/site-packages/tensorflow/python/framework/ops.py" source_line=1221}
  %Mean_1.10 = f32[1,64,384]{2,1,0} convert(f32[1,64,384]{2,1,0} %Square.1), metadata={op_type="Mean" op_name="Mean_1" source_file="<repo-root>/src/cuda-spirv/xla_hlo/.venv-tf/lib/python3.12/site-packages/tensorflow/python/framework/ops.py" source_line=1221}
  %Mean_1.11 = f32[] constant(0), metadata={op_type="Mean" op_name="Mean_1" source_file="<repo-root>/src/cuda-spirv/xla_hlo/.venv-tf/lib/python3.12/site-packages/tensorflow/python/framework/ops.py" source_line=1221}
  %Mean_1.12 = f32[] convert(f32[] %Mean_1.11), metadata={op_type="Mean" op_name="Mean_1" source_file="<repo-root>/src/cuda-spirv/xla_hlo/.venv-tf/lib/python3.12/site-packages/tensorflow/python/framework/ops.py" source_line=1221}
  %Mean_1.13 = f32[1,64]{1,0} reduce(f32[1,64,384]{2,1,0} %Mean_1.10, f32[] %Mean_1.12), dimensions={2}, to_apply=%Mean_1-reduction.2, metadata={op_type="Mean" op_name="Mean_1" source_file="<repo-root>/src/cuda-spirv/xla_hlo/.venv-tf/lib/python3.12/site-packages/tensorflow/python/framework/ops.py" source_line=1221}
  %Mean_1.14 = s32[] constant(384), metadata={op_type="Mean" op_name="Mean_1" source_file="<repo-root>/src/cuda-spirv/xla_hlo/.venv-tf/lib/python3.12/site-packages/tensorflow/python/framework/ops.py" source_line=1221}
  %Mean_1.15 = f32[] convert(s32[] %Mean_1.14), metadata={op_type="Mean" op_name="Mean_1" source_file="<repo-root>/src/cuda-spirv/xla_hlo/.venv-tf/lib/python3.12/site-packages/tensorflow/python/framework/ops.py" source_line=1221}
  %Mean_1.16 = f32[1,64]{1,0} broadcast(f32[] %Mean_1.15), dimensions={}, metadata={op_type="Mean" op_name="Mean_1" source_file="<repo-root>/src/cuda-spirv/xla_hlo/.venv-tf/lib/python3.12/site-packages/tensorflow/python/framework/ops.py" source_line=1221}
  %Mean_1.17 = f32[1,64]{1,0} divide(f32[1,64]{1,0} %Mean_1.13, f32[1,64]{1,0} %Mean_1.16), metadata={op_type="Mean" op_name="Mean_1" source_file="<repo-root>/src/cuda-spirv/xla_hlo/.venv-tf/lib/python3.12/site-packages/tensorflow/python/framework/ops.py" source_line=1221}
  %Mean_1.18 = f32[1,64]{1,0} convert(f32[1,64]{1,0} %Mean_1.17), metadata={op_type="Mean" op_name="Mean_1" source_file="<repo-root>/src/cuda-spirv/xla_hlo/.venv-tf/lib/python3.12/site-packages/tensorflow/python/framework/ops.py" source_line=1221}
  %Mean_1.19 = f32[1,64,1]{2,1,0} reshape(f32[1,64]{1,0} %Mean_1.18), metadata={op_type="Mean" op_name="Mean_1" source_file="<repo-root>/src/cuda-spirv/xla_hlo/.venv-tf/lib/python3.12/site-packages/tensorflow/python/framework/ops.py" source_line=1221}
  %add_1.3 = f32[] constant(1e-05), metadata={op_type="AddV2" op_name="add_1" source_file="<repo-root>/src/cuda-spirv/xla_hlo/.venv-tf/lib/python3.12/site-packages/tensorflow/python/framework/ops.py" source_line=1221}
  %add_1.4 = f32[1,64,1]{2,1,0} broadcast(f32[] %add_1.3), dimensions={}, metadata={op_type="AddV2" op_name="add_1" source_file="<repo-root>/src/cuda-spirv/xla_hlo/.venv-tf/lib/python3.12/site-packages/tensorflow/python/framework/ops.py" source_line=1221}
  %add_1.5 = f32[1,64,1]{2,1,0} add(f32[1,64,1]{2,1,0} %Mean_1.19, f32[1,64,1]{2,1,0} %add_1.4), metadata={op_type="AddV2" op_name="add_1" source_file="<repo-root>/src/cuda-spirv/xla_hlo/.venv-tf/lib/python3.12/site-packages/tensorflow/python/framework/ops.py" source_line=1221}
  %Rsqrt.1 = f32[1,64,1]{2,1,0} rsqrt(f32[1,64,1]{2,1,0} %add_1.5), metadata={op_type="Rsqrt" op_name="Rsqrt"}
  %mul.3 = f32[1,64]{1,0} reshape(f32[1,64,1]{2,1,0} %Rsqrt.1), metadata={op_type="Mul" op_name="mul" source_file="<repo-root>/src/cuda-spirv/xla_hlo/.venv-tf/lib/python3.12/site-packages/tensorflow/python/framework/ops.py" source_line=1221}
  %mul.4 = f32[1,64,384]{2,1,0} broadcast(f32[1,64]{1,0} %mul.3), dimensions={0,1}, metadata={op_type="Mul" op_name="mul" source_file="<repo-root>/src/cuda-spirv/xla_hlo/.venv-tf/lib/python3.12/site-packages/tensorflow/python/framework/ops.py" source_line=1221}
  %mul.5 = f32[1,64,384]{2,1,0} multiply(f32[1,64,384]{2,1,0} %sub_1.5, f32[1,64,384]{2,1,0} %mul.4), metadata={op_type="Mul" op_name="mul" source_file="<repo-root>/src/cuda-spirv/xla_hlo/.venv-tf/lib/python3.12/site-packages/tensorflow/python/framework/ops.py" source_line=1221}
  %arg4.1 = f32[384]{0} parameter(4), parameter_replication={false}, metadata={op_name="XLA_Args"}
  %reshape.115 = f32[384]{0} reshape(f32[384]{0} %arg4.1)
  %mul_1.2 = f32[1,64,384]{2,1,0} broadcast(f32[384]{0} %reshape.115), dimensions={2}, metadata={op_type="Mul" op_name="mul_1" source_file="<repo-root>/src/cuda-spirv/xla_hlo/.venv-tf/lib/python3.12/site-packages/tensorflow/python/framework/ops.py" source_line=1221}
  %mul_1.3 = f32[1,64,384]{2,1,0} multiply(f32[1,64,384]{2,1,0} %mul.5, f32[1,64,384]{2,1,0} %mul_1.2), metadata={op_type="Mul" op_name="mul_1" source_file="<repo-root>/src/cuda-spirv/xla_hlo/.venv-tf/lib/python3.12/site-packages/tensorflow/python/framework/ops.py" source_line=1221}
  %arg5.1 = f32[384]{0} parameter(5), parameter_replication={false}, metadata={op_name="XLA_Args"}
  %reshape.116 = f32[384]{0} reshape(f32[384]{0} %arg5.1)
  %add_2.2 = f32[1,64,384]{2,1,0} broadcast(f32[384]{0} %reshape.116), dimensions={2}, metadata={op_type="AddV2" op_name="add_2" source_file="<repo-root>/src/cuda-spirv/xla_hlo/.venv-tf/lib/python3.12/site-packages/tensorflow/python/framework/ops.py" source_line=1221}
  %add_2.3 = f32[1,64,384]{2,1,0} add(f32[1,64,384]{2,1,0} %mul_1.3, f32[1,64,384]{2,1,0} %add_2.2), metadata={op_type="AddV2" op_name="add_2" source_file="<repo-root>/src/cuda-spirv/xla_hlo/.venv-tf/lib/python3.12/site-packages/tensorflow/python/framework/ops.py" source_line=1221}
  %arg6.1 = f32[384,384]{1,0} parameter(6), parameter_replication={false}, metadata={op_name="XLA_Args"}
  %reshape.117 = f32[384,384]{1,0} reshape(f32[384,384]{1,0} %arg6.1)
  %MatMul.2 = f32[1,64,384]{2,1,0} dot(f32[1,64,384]{2,1,0} %add_2.3, f32[384,384]{1,0} %reshape.117), lhs_contracting_dims={2}, rhs_contracting_dims={0}, frontend_attributes={grad_x="false",grad_y="false"}, metadata={op_type="BatchMatMulV2" op_name="MatMul" source_file="<repo-root>/src/cuda-spirv/xla_hlo/.venv-tf/lib/python3.12/site-packages/tensorflow/python/framework/ops.py" source_line=1221}
  %MatMul.3 = f32[1,64,384]{2,1,0} transpose(f32[1,64,384]{2,1,0} %MatMul.2), dimensions={0,1,2}, metadata={op_type="BatchMatMulV2" op_name="MatMul" source_file="<repo-root>/src/cuda-spirv/xla_hlo/.venv-tf/lib/python3.12/site-packages/tensorflow/python/framework/ops.py" source_line=1221}
  %arg7.1 = f32[384]{0} parameter(7), parameter_replication={false}, metadata={op_name="XLA_Args"}
  %reshape.118 = f32[384]{0} reshape(f32[384]{0} %arg7.1)
  %add_3.2 = f32[1,64,384]{2,1,0} broadcast(f32[384]{0} %reshape.118), dimensions={2}, metadata={op_type="AddV2" op_name="add_3" source_file="<repo-root>/src/cuda-spirv/xla_hlo/.venv-tf/lib/python3.12/site-packages/tensorflow/python/framework/ops.py" source_line=1221}
  %add_3.3 = f32[1,64,384]{2,1,0} add(f32[1,64,384]{2,1,0} %MatMul.3, f32[1,64,384]{2,1,0} %add_3.2), metadata={op_type="AddV2" op_name="add_3" source_file="<repo-root>/src/cuda-spirv/xla_hlo/.venv-tf/lib/python3.12/site-packages/tensorflow/python/framework/ops.py" source_line=1221}
  %Reshape.1 = f32[1,64,6,64]{3,2,1,0} reshape(f32[1,64,384]{2,1,0} %add_3.3), metadata={op_type="Reshape" op_name="Reshape" source_file="<repo-root>/src/cuda-spirv/xla_hlo/.venv-tf/lib/python3.12/site-packages/tensorflow/python/framework/ops.py" source_line=1221}
  %transpose.1 = f32[1,6,64,64]{3,1,2,0} transpose(f32[1,64,6,64]{3,2,1,0} %Reshape.1), dimensions={0,2,1,3}, metadata={op_type="Transpose" op_name="transpose" source_file="<repo-root>/src/cuda-spirv/xla_hlo/.venv-tf/lib/python3.12/site-packages/tensorflow/python/framework/ops.py" source_line=1221}
  %arg8.1 = f32[384,384]{1,0} parameter(8), parameter_replication={false}, metadata={op_name="XLA_Args"}
  %reshape.119 = f32[384,384]{1,0} reshape(f32[384,384]{1,0} %arg8.1)
  %MatMul_1.2 = f32[1,64,384]{2,1,0} dot(f32[1,64,384]{2,1,0} %add_2.3, f32[384,384]{1,0} %reshape.119), lhs_contracting_dims={2}, rhs_contracting_dims={0}, frontend_attributes={grad_x="false",grad_y="false"}, metadata={op_type="BatchMatMulV2" op_name="MatMul_1" source_file="<repo-root>/src/cuda-spirv/xla_hlo/.venv-tf/lib/python3.12/site-packages/tensorflow/python/framework/ops.py" source_line=1221}
  %MatMul_1.3 = f32[1,64,384]{2,1,0} transpose(f32[1,64,384]{2,1,0} %MatMul_1.2), dimensions={0,1,2}, metadata={op_type="BatchMatMulV2" op_name="MatMul_1" source_file="<repo-root>/src/cuda-spirv/xla_hlo/.venv-tf/lib/python3.12/site-packages/tensorflow/python/framework/ops.py" source_line=1221}
  %arg9.1 = f32[384]{0} parameter(9), parameter_replication={false}, metadata={op_name="XLA_Args"}
  %reshape.120 = f32[384]{0} reshape(f32[384]{0} %arg9.1)
  %add_4.2 = f32[1,64,384]{2,1,0} broadcast(f32[384]{0} %reshape.120), dimensions={2}, metadata={op_type="AddV2" op_name="add_4" source_file="<repo-root>/src/cuda-spirv/xla_hlo/.venv-tf/lib/python3.12/site-packages/tensorflow/python/framework/ops.py" source_line=1221}
  %add_4.3 = f32[1,64,384]{2,1,0} add(f32[1,64,384]{2,1,0} %MatMul_1.3, f32[1,64,384]{2,1,0} %add_4.2), metadata={op_type="AddV2" op_name="add_4" source_file="<repo-root>/src/cuda-spirv/xla_hlo/.venv-tf/lib/python3.12/site-packages/tensorflow/python/framework/ops.py" source_line=1221}
  %Reshape_1.1 = f32[1,64,6,64]{3,2,1,0} reshape(f32[1,64,384]{2,1,0} %add_4.3), metadata={op_type="Reshape" op_name="Reshape_1" source_file="<repo-root>/src/cuda-spirv/xla_hlo/.venv-tf/lib/python3.12/site-packages/tensorflow/python/framework/ops.py" source_line=1221}
  %transpose_1.1 = f32[1,6,64,64]{3,1,2,0} transpose(f32[1,64,6,64]{3,2,1,0} %Reshape_1.1), dimensions={0,2,1,3}, metadata={op_type="Transpose" op_name="transpose_1" source_file="<repo-root>/src/cuda-spirv/xla_hlo/.venv-tf/lib/python3.12/site-packages/tensorflow/python/framework/ops.py" source_line=1221}
  %MatMul_3.2 = f32[1,6,64,64]{3,2,1,0} dot(f32[1,6,64,64]{3,1,2,0} %transpose.1, f32[1,6,64,64]{3,1,2,0} %transpose_1.1), lhs_batch_dims={0,1}, lhs_contracting_dims={3}, rhs_batch_dims={0,1}, rhs_contracting_dims={3}, frontend_attributes={grad_x="false",grad_y="false"}, metadata={op_type="BatchMatMulV2" op_name="MatMul_3" source_file="<repo-root>/src/cuda-spirv/xla_hlo/.venv-tf/lib/python3.12/site-packages/tensorflow/python/framework/ops.py" source_line=1221}
  %MatMul_3.3 = f32[1,6,64,64]{3,2,1,0} transpose(f32[1,6,64,64]{3,2,1,0} %MatMul_3.2), dimensions={0,1,2,3}, metadata={op_type="BatchMatMulV2" op_name="MatMul_3" source_file="<repo-root>/src/cuda-spirv/xla_hlo/.venv-tf/lib/python3.12/site-packages/tensorflow/python/framework/ops.py" source_line=1221}
  %mul_2.3 = f32[] constant(0.125), metadata={op_type="Mul" op_name="mul_2" source_file="<repo-root>/src/cuda-spirv/xla_hlo/.venv-tf/lib/python3.12/site-packages/tensorflow/python/framework/ops.py" source_line=1221}
  %mul_2.4 = f32[1,6,64,64]{3,2,1,0} broadcast(f32[] %mul_2.3), dimensions={}, metadata={op_type="Mul" op_name="mul_2" source_file="<repo-root>/src/cuda-spirv/xla_hlo/.venv-tf/lib/python3.12/site-packages/tensorflow/python/framework/ops.py" source_line=1221}
  %mul_2.5 = f32[1,6,64,64]{3,2,1,0} multiply(f32[1,6,64,64]{3,2,1,0} %MatMul_3.3, f32[1,6,64,64]{3,2,1,0} %mul_2.4), metadata={op_type="Mul" op_name="mul_2" source_file="<repo-root>/src/cuda-spirv/xla_hlo/.venv-tf/lib/python3.12/site-packages/tensorflow/python/framework/ops.py" source_line=1221}
  %arg3.1 = f32[1,1,64,64]{3,2,1,0} parameter(3), parameter_replication={false}, metadata={op_name="XLA_Args"}
  %reshape.114 = f32[1,1,64,64]{3,2,1,0} reshape(f32[1,1,64,64]{3,2,1,0} %arg3.1)
  %add_6.3 = f32[1,64,64]{2,1,0} reshape(f32[1,1,64,64]{3,2,1,0} %reshape.114), metadata={op_type="AddV2" op_name="add_6" source_file="<repo-root>/src/cuda-spirv/xla_hlo/.venv-tf/lib/python3.12/site-packages/tensorflow/python/framework/ops.py" source_line=1221}
  %add_6.4 = f32[1,6,64,64]{3,2,1,0} broadcast(f32[1,64,64]{2,1,0} %add_6.3), dimensions={0,2,3}, metadata={op_type="AddV2" op_name="add_6" source_file="<repo-root>/src/cuda-spirv/xla_hlo/.venv-tf/lib/python3.12/site-packages/tensorflow/python/framework/ops.py" source_line=1221}
  %add_6.5 = f32[1,6,64,64]{3,2,1,0} add(f32[1,6,64,64]{3,2,1,0} %mul_2.5, f32[1,6,64,64]{3,2,1,0} %add_6.4), metadata={op_type="AddV2" op_name="add_6" source_file="<repo-root>/src/cuda-spirv/xla_hlo/.venv-tf/lib/python3.12/site-packages/tensorflow/python/framework/ops.py" source_line=1221}
  %Softmax.28 = f32[] constant(-inf), metadata={op_type="Softmax" op_name="Softmax" source_file="<repo-root>/src/cuda-spirv/xla_hlo/.venv-tf/lib/python3.12/site-packages/tensorflow/python/framework/ops.py" source_line=1221}
  %Softmax.29 = f32[1,6,64]{2,1,0} reduce(f32[1,6,64,64]{3,2,1,0} %add_6.5, f32[] %Softmax.28), dimensions={3}, to_apply=%region_0.3, metadata={op_type="Softmax" op_name="Softmax"}
  %Softmax.30 = f32[1,6,64,1]{3,2,1,0} reshape(f32[1,6,64]{2,1,0} %Softmax.29), metadata={op_type="Softmax" op_name="Softmax"}
  %Softmax.31 = f32[1,6,64,1]{3,2,1,0} broadcast(f32[1,6,64,1]{3,2,1,0} %Softmax.30), dimensions={0,1,2,3}, metadata={op_type="Softmax" op_name="Softmax"}
  %Softmax.32 = f32[1,6,64]{2,1,0} reshape(f32[1,6,64,1]{3,2,1,0} %Softmax.31), metadata={op_type="Softmax" op_name="Softmax"}
  %Softmax.33 = f32[1,6,64,64]{3,2,1,0} broadcast(f32[1,6,64]{2,1,0} %Softmax.32), dimensions={0,1,2}, metadata={op_type="Softmax" op_name="Softmax"}
  %Softmax.34 = f32[1,6,64,64]{3,2,1,0} subtract(f32[1,6,64,64]{3,2,1,0} %add_6.5, f32[1,6,64,64]{3,2,1,0} %Softmax.33), metadata={op_type="Softmax" op_name="Softmax"}
  %Softmax.35 = f32[1,6,64,64]{3,2,1,0} exponential(f32[1,6,64,64]{3,2,1,0} %Softmax.34), metadata={op_type="Softmax" op_name="Softmax"}
  %Softmax.27 = f32[] constant(-0), metadata={op_type="Softmax" op_name="Softmax" source_file="<repo-root>/src/cuda-spirv/xla_hlo/.venv-tf/lib/python3.12/site-packages/tensorflow/python/framework/ops.py" source_line=1221}
  %Softmax.36 = f32[1,6,64]{2,1,0} reduce(f32[1,6,64,64]{3,2,1,0} %Softmax.35, f32[] %Softmax.27), dimensions={3}, to_apply=%region_1.4, metadata={op_type="Softmax" op_name="Softmax"}
  %Softmax.37 = f32[1,6,64,1]{3,2,1,0} reshape(f32[1,6,64]{2,1,0} %Softmax.36), metadata={op_type="Softmax" op_name="Softmax"}
  %Softmax.38 = f32[1,6,64,1]{3,2,1,0} broadcast(f32[1,6,64,1]{3,2,1,0} %Softmax.37), dimensions={0,1,2,3}, metadata={op_type="Softmax" op_name="Softmax"}
  %Softmax.39 = f32[1,6,64]{2,1,0} reshape(f32[1,6,64,1]{3,2,1,0} %Softmax.38), metadata={op_type="Softmax" op_name="Softmax"}
  %Softmax.40 = f32[1,6,64,64]{3,2,1,0} broadcast(f32[1,6,64]{2,1,0} %Softmax.39), dimensions={0,1,2}, metadata={op_type="Softmax" op_name="Softmax"}
  %Softmax.41 = f32[1,6,64,64]{3,2,1,0} divide(f32[1,6,64,64]{3,2,1,0} %Softmax.35, f32[1,6,64,64]{3,2,1,0} %Softmax.40), metadata={op_type="Softmax" op_name="Softmax"}
  %arg10.1 = f32[384,384]{1,0} parameter(10), parameter_replication={false}, metadata={op_name="XLA_Args"}
  %reshape.121 = f32[384,384]{1,0} reshape(f32[384,384]{1,0} %arg10.1)
  %MatMul_2.2 = f32[1,64,384]{2,1,0} dot(f32[1,64,384]{2,1,0} %add_2.3, f32[384,384]{1,0} %reshape.121), lhs_contracting_dims={2}, rhs_contracting_dims={0}, frontend_attributes={grad_x="false",grad_y="false"}, metadata={op_type="BatchMatMulV2" op_name="MatMul_2" source_file="<repo-root>/src/cuda-spirv/xla_hlo/.venv-tf/lib/python3.12/site-packages/tensorflow/python/framework/ops.py" source_line=1221}
  %MatMul_2.3 = f32[1,64,384]{2,1,0} transpose(f32[1,64,384]{2,1,0} %MatMul_2.2), dimensions={0,1,2}, metadata={op_type="BatchMatMulV2" op_name="MatMul_2" source_file="<repo-root>/src/cuda-spirv/xla_hlo/.venv-tf/lib/python3.12/site-packages/tensorflow/python/framework/ops.py" source_line=1221}
  %arg11.1 = f32[384]{0} parameter(11), parameter_replication={false}, metadata={op_name="XLA_Args"}
  %reshape.122 = f32[384]{0} reshape(f32[384]{0} %arg11.1)
  %add_5.2 = f32[1,64,384]{2,1,0} broadcast(f32[384]{0} %reshape.122), dimensions={2}, metadata={op_type="AddV2" op_name="add_5" source_file="<repo-root>/src/cuda-spirv/xla_hlo/.venv-tf/lib/python3.12/site-packages/tensorflow/python/framework/ops.py" source_line=1221}
  %add_5.3 = f32[1,64,384]{2,1,0} add(f32[1,64,384]{2,1,0} %MatMul_2.3, f32[1,64,384]{2,1,0} %add_5.2), metadata={op_type="AddV2" op_name="add_5" source_file="<repo-root>/src/cuda-spirv/xla_hlo/.venv-tf/lib/python3.12/site-packages/tensorflow/python/framework/ops.py" source_line=1221}
  %Reshape_2.1 = f32[1,64,6,64]{3,2,1,0} reshape(f32[1,64,384]{2,1,0} %add_5.3), metadata={op_type="Reshape" op_name="Reshape_2" source_file="<repo-root>/src/cuda-spirv/xla_hlo/.venv-tf/lib/python3.12/site-packages/tensorflow/python/framework/ops.py" source_line=1221}
  %transpose_2.1 = f32[1,6,64,64]{3,1,2,0} transpose(f32[1,64,6,64]{3,2,1,0} %Reshape_2.1), dimensions={0,2,1,3}, metadata={op_type="Transpose" op_name="transpose_2" source_file="<repo-root>/src/cuda-spirv/xla_hlo/.venv-tf/lib/python3.12/site-packages/tensorflow/python/framework/ops.py" source_line=1221}
  %MatMul_4.2 = f32[1,6,64,64]{3,2,1,0} dot(f32[1,6,64,64]{3,2,1,0} %Softmax.41, f32[1,6,64,64]{3,1,2,0} %transpose_2.1), lhs_batch_dims={0,1}, lhs_contracting_dims={3}, rhs_batch_dims={0,1}, rhs_contracting_dims={2}, frontend_attributes={grad_x="false",grad_y="false"}, metadata={op_type="BatchMatMulV2" op_name="MatMul_4" source_file="<repo-root>/src/cuda-spirv/xla_hlo/.venv-tf/lib/python3.12/site-packages/tensorflow/python/framework/ops.py" source_line=1221}
  %MatMul_4.3 = f32[1,6,64,64]{3,2,1,0} transpose(f32[1,6,64,64]{3,2,1,0} %MatMul_4.2), dimensions={0,1,2,3}, metadata={op_type="BatchMatMulV2" op_name="MatMul_4" source_file="<repo-root>/src/cuda-spirv/xla_hlo/.venv-tf/lib/python3.12/site-packages/tensorflow/python/framework/ops.py" source_line=1221}
  %transpose_3.1 = f32[1,64,6,64]{3,1,2,0} transpose(f32[1,6,64,64]{3,2,1,0} %MatMul_4.3), dimensions={0,2,1,3}, metadata={op_type="Transpose" op_name="transpose_3" source_file="<repo-root>/src/cuda-spirv/xla_hlo/.venv-tf/lib/python3.12/site-packages/tensorflow/python/framework/ops.py" source_line=1221}
  %Reshape_3.1 = f32[1,64,384]{2,1,0} reshape(f32[1,64,6,64]{3,1,2,0} %transpose_3.1), metadata={op_type="Reshape" op_name="Reshape_3" source_file="<repo-root>/src/cuda-spirv/xla_hlo/.venv-tf/lib/python3.12/site-packages/tensorflow/python/framework/ops.py" source_line=1221}
  %arg12.1 = f32[384,384]{1,0} parameter(12), parameter_replication={false}, metadata={op_name="XLA_Args"}
  %reshape.123 = f32[384,384]{1,0} reshape(f32[384,384]{1,0} %arg12.1)
  %MatMul_5.2 = f32[1,64,384]{2,1,0} dot(f32[1,64,384]{2,1,0} %Reshape_3.1, f32[384,384]{1,0} %reshape.123), lhs_contracting_dims={2}, rhs_contracting_dims={0}, frontend_attributes={grad_x="false",grad_y="false"}, metadata={op_type="BatchMatMulV2" op_name="MatMul_5" source_file="<repo-root>/src/cuda-spirv/xla_hlo/.venv-tf/lib/python3.12/site-packages/tensorflow/python/framework/ops.py" source_line=1221}
  %MatMul_5.3 = f32[1,64,384]{2,1,0} transpose(f32[1,64,384]{2,1,0} %MatMul_5.2), dimensions={0,1,2}, metadata={op_type="BatchMatMulV2" op_name="MatMul_5" source_file="<repo-root>/src/cuda-spirv/xla_hlo/.venv-tf/lib/python3.12/site-packages/tensorflow/python/framework/ops.py" source_line=1221}
  %arg13.1 = f32[384]{0} parameter(13), parameter_replication={false}, metadata={op_name="XLA_Args"}
  %reshape.124 = f32[384]{0} reshape(f32[384]{0} %arg13.1)
  %add_7.2 = f32[1,64,384]{2,1,0} broadcast(f32[384]{0} %reshape.124), dimensions={2}, metadata={op_type="AddV2" op_name="add_7" source_file="<repo-root>/src/cuda-spirv/xla_hlo/.venv-tf/lib/python3.12/site-packages/tensorflow/python/framework/ops.py" source_line=1221}
  %add_7.3 = f32[1,64,384]{2,1,0} add(f32[1,64,384]{2,1,0} %MatMul_5.3, f32[1,64,384]{2,1,0} %add_7.2), metadata={op_type="AddV2" op_name="add_7" source_file="<repo-root>/src/cuda-spirv/xla_hlo/.venv-tf/lib/python3.12/site-packages/tensorflow/python/framework/ops.py" source_line=1221}
  %add_8.1 = f32[1,64,384]{2,1,0} add(f32[1,64,384]{2,1,0} %add.27, f32[1,64,384]{2,1,0} %add_7.3), metadata={op_type="AddV2" op_name="add_8" source_file="<repo-root>/src/cuda-spirv/xla_hlo/.venv-tf/lib/python3.12/site-packages/tensorflow/python/framework/ops.py" source_line=1221}
  %Mean_2.10 = f32[1,64,384]{2,1,0} convert(f32[1,64,384]{2,1,0} %add_8.1), metadata={op_type="Mean" op_name="Mean_2" source_file="<repo-root>/src/cuda-spirv/xla_hlo/.venv-tf/lib/python3.12/site-packages/tensorflow/python/framework/ops.py" source_line=1221}
  %Mean_2.11 = f32[] constant(0), metadata={op_type="Mean" op_name="Mean_2" source_file="<repo-root>/src/cuda-spirv/xla_hlo/.venv-tf/lib/python3.12/site-packages/tensorflow/python/framework/ops.py" source_line=1221}
  %Mean_2.12 = f32[] convert(f32[] %Mean_2.11), metadata={op_type="Mean" op_name="Mean_2" source_file="<repo-root>/src/cuda-spirv/xla_hlo/.venv-tf/lib/python3.12/site-packages/tensorflow/python/framework/ops.py" source_line=1221}
  %Mean_2.13 = f32[1,64]{1,0} reduce(f32[1,64,384]{2,1,0} %Mean_2.10, f32[] %Mean_2.12), dimensions={2}, to_apply=%Mean_2-reduction.5, metadata={op_type="Mean" op_name="Mean_2" source_file="<repo-root>/src/cuda-spirv/xla_hlo/.venv-tf/lib/python3.12/site-packages/tensorflow/python/framework/ops.py" source_line=1221}
  %Mean_2.14 = s32[] constant(384), metadata={op_type="Mean" op_name="Mean_2" source_file="<repo-root>/src/cuda-spirv/xla_hlo/.venv-tf/lib/python3.12/site-packages/tensorflow/python/framework/ops.py" source_line=1221}
  %Mean_2.15 = f32[] convert(s32[] %Mean_2.14), metadata={op_type="Mean" op_name="Mean_2" source_file="<repo-root>/src/cuda-spirv/xla_hlo/.venv-tf/lib/python3.12/site-packages/tensorflow/python/framework/ops.py" source_line=1221}
  %Mean_2.16 = f32[1,64]{1,0} broadcast(f32[] %Mean_2.15), dimensions={}, metadata={op_type="Mean" op_name="Mean_2" source_file="<repo-root>/src/cuda-spirv/xla_hlo/.venv-tf/lib/python3.12/site-packages/tensorflow/python/framework/ops.py" source_line=1221}
  %Mean_2.17 = f32[1,64]{1,0} divide(f32[1,64]{1,0} %Mean_2.13, f32[1,64]{1,0} %Mean_2.16), metadata={op_type="Mean" op_name="Mean_2" source_file="<repo-root>/src/cuda-spirv/xla_hlo/.venv-tf/lib/python3.12/site-packages/tensorflow/python/framework/ops.py" source_line=1221}
  %Mean_2.18 = f32[1,64]{1,0} convert(f32[1,64]{1,0} %Mean_2.17), metadata={op_type="Mean" op_name="Mean_2" source_file="<repo-root>/src/cuda-spirv/xla_hlo/.venv-tf/lib/python3.12/site-packages/tensorflow/python/framework/ops.py" source_line=1221}
  %Mean_2.19 = f32[1,64,1]{2,1,0} reshape(f32[1,64]{1,0} %Mean_2.18), metadata={op_type="Mean" op_name="Mean_2" source_file="<repo-root>/src/cuda-spirv/xla_hlo/.venv-tf/lib/python3.12/site-packages/tensorflow/python/framework/ops.py" source_line=1221}
  %sub_3.3 = f32[1,64]{1,0} reshape(f32[1,64,1]{2,1,0} %Mean_2.19), metadata={op_type="Sub" op_name="sub_3" source_file="<repo-root>/src/cuda-spirv/xla_hlo/.venv-tf/lib/python3.12/site-packages/tensorflow/python/framework/ops.py" source_line=1221}
  %sub_3.4 = f32[1,64,384]{2,1,0} broadcast(f32[1,64]{1,0} %sub_3.3), dimensions={0,1}, metadata={op_type="Sub" op_name="sub_3" source_file="<repo-root>/src/cuda-spirv/xla_hlo/.venv-tf/lib/python3.12/site-packages/tensorflow/python/framework/ops.py" source_line=1221}
  %sub_3.5 = f32[1,64,384]{2,1,0} subtract(f32[1,64,384]{2,1,0} %add_8.1, f32[1,64,384]{2,1,0} %sub_3.4), metadata={op_type="Sub" op_name="sub_3" source_file="<repo-root>/src/cuda-spirv/xla_hlo/.venv-tf/lib/python3.12/site-packages/tensorflow/python/framework/ops.py" source_line=1221}
  %sub_2.3 = f32[1,64]{1,0} reshape(f32[1,64,1]{2,1,0} %Mean_2.19), metadata={op_type="Sub" op_name="sub_2" source_file="<repo-root>/src/cuda-spirv/xla_hlo/.venv-tf/lib/python3.12/site-packages/tensorflow/python/framework/ops.py" source_line=1221}
  %sub_2.4 = f32[1,64,384]{2,1,0} broadcast(f32[1,64]{1,0} %sub_2.3), dimensions={0,1}, metadata={op_type="Sub" op_name="sub_2" source_file="<repo-root>/src/cuda-spirv/xla_hlo/.venv-tf/lib/python3.12/site-packages/tensorflow/python/framework/ops.py" source_line=1221}
  %sub_2.5 = f32[1,64,384]{2,1,0} subtract(f32[1,64,384]{2,1,0} %add_8.1, f32[1,64,384]{2,1,0} %sub_2.4), metadata={op_type="Sub" op_name="sub_2" source_file="<repo-root>/src/cuda-spirv/xla_hlo/.venv-tf/lib/python3.12/site-packages/tensorflow/python/framework/ops.py" source_line=1221}
  %Square_1.1 = f32[1,64,384]{2,1,0} multiply(f32[1,64,384]{2,1,0} %sub_2.5, f32[1,64,384]{2,1,0} %sub_2.5), metadata={op_type="Square" op_name="Square_1" source_file="<repo-root>/src/cuda-spirv/xla_hlo/.venv-tf/lib/python3.12/site-packages/tensorflow/python/framework/ops.py" source_line=1221}
  %Mean_3.10 = f32[1,64,384]{2,1,0} convert(f32[1,64,384]{2,1,0} %Square_1.1), metadata={op_type="Mean" op_name="Mean_3" source_file="<repo-root>/src/cuda-spirv/xla_hlo/.venv-tf/lib/python3.12/site-packages/tensorflow/python/framework/ops.py" source_line=1221}
  %Mean_3.11 = f32[] constant(0), metadata={op_type="Mean" op_name="Mean_3" source_file="<repo-root>/src/cuda-spirv/xla_hlo/.venv-tf/lib/python3.12/site-packages/tensorflow/python/framework/ops.py" source_line=1221}
  %Mean_3.12 = f32[] convert(f32[] %Mean_3.11), metadata={op_type="Mean" op_name="Mean_3" source_file="<repo-root>/src/cuda-spirv/xla_hlo/.venv-tf/lib/python3.12/site-packages/tensorflow/python/framework/ops.py" source_line=1221}
  %Mean_3.13 = f32[1,64]{1,0} reduce(f32[1,64,384]{2,1,0} %Mean_3.10, f32[] %Mean_3.12), dimensions={2}, to_apply=%Mean_3-reduction.6, metadata={op_type="Mean" op_name="Mean_3" source_file="<repo-root>/src/cuda-spirv/xla_hlo/.venv-tf/lib/python3.12/site-packages/tensorflow/python/framework/ops.py" source_line=1221}
  %Mean_3.14 = s32[] constant(384), metadata={op_type="Mean" op_name="Mean_3" source_file="<repo-root>/src/cuda-spirv/xla_hlo/.venv-tf/lib/python3.12/site-packages/tensorflow/python/framework/ops.py" source_line=1221}
  %Mean_3.15 = f32[] convert(s32[] %Mean_3.14), metadata={op_type="Mean" op_name="Mean_3" source_file="<repo-root>/src/cuda-spirv/xla_hlo/.venv-tf/lib/python3.12/site-packages/tensorflow/python/framework/ops.py" source_line=1221}
  %Mean_3.16 = f32[1,64]{1,0} broadcast(f32[] %Mean_3.15), dimensions={}, metadata={op_type="Mean" op_name="Mean_3" source_file="<repo-root>/src/cuda-spirv/xla_hlo/.venv-tf/lib/python3.12/site-packages/tensorflow/python/framework/ops.py" source_line=1221}
  %Mean_3.17 = f32[1,64]{1,0} divide(f32[1,64]{1,0} %Mean_3.13, f32[1,64]{1,0} %Mean_3.16), metadata={op_type="Mean" op_name="Mean_3" source_file="<repo-root>/src/cuda-spirv/xla_hlo/.venv-tf/lib/python3.12/site-packages/tensorflow/python/framework/ops.py" source_line=1221}
  %Mean_3.18 = f32[1,64]{1,0} convert(f32[1,64]{1,0} %Mean_3.17), metadata={op_type="Mean" op_name="Mean_3" source_file="<repo-root>/src/cuda-spirv/xla_hlo/.venv-tf/lib/python3.12/site-packages/tensorflow/python/framework/ops.py" source_line=1221}
  %Mean_3.19 = f32[1,64,1]{2,1,0} reshape(f32[1,64]{1,0} %Mean_3.18), metadata={op_type="Mean" op_name="Mean_3" source_file="<repo-root>/src/cuda-spirv/xla_hlo/.venv-tf/lib/python3.12/site-packages/tensorflow/python/framework/ops.py" source_line=1221}
  %add_9.3 = f32[] constant(1e-05), metadata={op_type="AddV2" op_name="add_9" source_file="<repo-root>/src/cuda-spirv/xla_hlo/.venv-tf/lib/python3.12/site-packages/tensorflow/python/framework/ops.py" source_line=1221}
  %add_9.4 = f32[1,64,1]{2,1,0} broadcast(f32[] %add_9.3), dimensions={}, metadata={op_type="AddV2" op_name="add_9" source_file="<repo-root>/src/cuda-spirv/xla_hlo/.venv-tf/lib/python3.12/site-packages/tensorflow/python/framework/ops.py" source_line=1221}
  %add_9.5 = f32[1,64,1]{2,1,0} add(f32[1,64,1]{2,1,0} %Mean_3.19, f32[1,64,1]{2,1,0} %add_9.4), metadata={op_type="AddV2" op_name="add_9" source_file="<repo-root>/src/cuda-spirv/xla_hlo/.venv-tf/lib/python3.12/site-packages/tensorflow/python/framework/ops.py" source_line=1221}
  %Rsqrt_2.1 = f32[1,64,1]{2,1,0} rsqrt(f32[1,64,1]{2,1,0} %add_9.5), metadata={op_type="Rsqrt" op_name="Rsqrt_2"}
  %mul_3.3 = f32[1,64]{1,0} reshape(f32[1,64,1]{2,1,0} %Rsqrt_2.1), metadata={op_type="Mul" op_name="mul_3" source_file="<repo-root>/src/cuda-spirv/xla_hlo/.venv-tf/lib/python3.12/site-packages/tensorflow/python/framework/ops.py" source_line=1221}
  %mul_3.4 = f32[1,64,384]{2,1,0} broadcast(f32[1,64]{1,0} %mul_3.3), dimensions={0,1}, metadata={op_type="Mul" op_name="mul_3" source_file="<repo-root>/src/cuda-spirv/xla_hlo/.venv-tf/lib/python3.12/site-packages/tensorflow/python/framework/ops.py" source_line=1221}
  %mul_3.5 = f32[1,64,384]{2,1,0} multiply(f32[1,64,384]{2,1,0} %sub_3.5, f32[1,64,384]{2,1,0} %mul_3.4), metadata={op_type="Mul" op_name="mul_3" source_file="<repo-root>/src/cuda-spirv/xla_hlo/.venv-tf/lib/python3.12/site-packages/tensorflow/python/framework/ops.py" source_line=1221}
  %arg14.1 = f32[384]{0} parameter(14), parameter_replication={false}, metadata={op_name="XLA_Args"}
  %reshape.125 = f32[384]{0} reshape(f32[384]{0} %arg14.1)
  %mul_4.2 = f32[1,64,384]{2,1,0} broadcast(f32[384]{0} %reshape.125), dimensions={2}, metadata={op_type="Mul" op_name="mul_4" source_file="<repo-root>/src/cuda-spirv/xla_hlo/.venv-tf/lib/python3.12/site-packages/tensorflow/python/framework/ops.py" source_line=1221}
  %mul_4.3 = f32[1,64,384]{2,1,0} multiply(f32[1,64,384]{2,1,0} %mul_3.5, f32[1,64,384]{2,1,0} %mul_4.2), metadata={op_type="Mul" op_name="mul_4" source_file="<repo-root>/src/cuda-spirv/xla_hlo/.venv-tf/lib/python3.12/site-packages/tensorflow/python/framework/ops.py" source_line=1221}
  %arg15.1 = f32[384]{0} parameter(15), parameter_replication={false}, metadata={op_name="XLA_Args"}
  %reshape.126 = f32[384]{0} reshape(f32[384]{0} %arg15.1)
  %add_10.2 = f32[1,64,384]{2,1,0} broadcast(f32[384]{0} %reshape.126), dimensions={2}, metadata={op_type="AddV2" op_name="add_10" source_file="<repo-root>/src/cuda-spirv/xla_hlo/.venv-tf/lib/python3.12/site-packages/tensorflow/python/framework/ops.py" source_line=1221}
  %add_10.3 = f32[1,64,384]{2,1,0} add(f32[1,64,384]{2,1,0} %mul_4.3, f32[1,64,384]{2,1,0} %add_10.2), metadata={op_type="AddV2" op_name="add_10" source_file="<repo-root>/src/cuda-spirv/xla_hlo/.venv-tf/lib/python3.12/site-packages/tensorflow/python/framework/ops.py" source_line=1221}
  %arg16.1 = f32[384,384]{1,0} parameter(16), parameter_replication={false}, metadata={op_name="XLA_Args"}
  %reshape.127 = f32[384,384]{1,0} reshape(f32[384,384]{1,0} %arg16.1)
  %MatMul_6.2 = f32[1,64,384]{2,1,0} dot(f32[1,64,384]{2,1,0} %add_10.3, f32[384,384]{1,0} %reshape.127), lhs_contracting_dims={2}, rhs_contracting_dims={0}, frontend_attributes={grad_x="false",grad_y="false"}, metadata={op_type="BatchMatMulV2" op_name="MatMul_6" source_file="<repo-root>/src/cuda-spirv/xla_hlo/.venv-tf/lib/python3.12/site-packages/tensorflow/python/framework/ops.py" source_line=1221}
  %MatMul_6.3 = f32[1,64,384]{2,1,0} transpose(f32[1,64,384]{2,1,0} %MatMul_6.2), dimensions={0,1,2}, metadata={op_type="BatchMatMulV2" op_name="MatMul_6" source_file="<repo-root>/src/cuda-spirv/xla_hlo/.venv-tf/lib/python3.12/site-packages/tensorflow/python/framework/ops.py" source_line=1221}
  %arg17.1 = f32[384]{0} parameter(17), parameter_replication={false}, metadata={op_name="XLA_Args"}
  %reshape.128 = f32[384]{0} reshape(f32[384]{0} %arg17.1)
  %add_11.2 = f32[1,64,384]{2,1,0} broadcast(f32[384]{0} %reshape.128), dimensions={2}, metadata={op_type="AddV2" op_name="add_11" source_file="<repo-root>/src/cuda-spirv/xla_hlo/.venv-tf/lib/python3.12/site-packages/tensorflow/python/framework/ops.py" source_line=1221}
  %add_11.3 = f32[1,64,384]{2,1,0} add(f32[1,64,384]{2,1,0} %MatMul_6.3, f32[1,64,384]{2,1,0} %add_11.2), metadata={op_type="AddV2" op_name="add_11" source_file="<repo-root>/src/cuda-spirv/xla_hlo/.venv-tf/lib/python3.12/site-packages/tensorflow/python/framework/ops.py" source_line=1221}
  %Reshape_4.1 = f32[1,64,6,64]{3,2,1,0} reshape(f32[1,64,384]{2,1,0} %add_11.3), metadata={op_type="Reshape" op_name="Reshape_4" source_file="<repo-root>/src/cuda-spirv/xla_hlo/.venv-tf/lib/python3.12/site-packages/tensorflow/python/framework/ops.py" source_line=1221}
  %transpose_4.1 = f32[1,6,64,64]{3,1,2,0} transpose(f32[1,64,6,64]{3,2,1,0} %Reshape_4.1), dimensions={0,2,1,3}, metadata={op_type="Transpose" op_name="transpose_4" source_file="<repo-root>/src/cuda-spirv/xla_hlo/.venv-tf/lib/python3.12/site-packages/tensorflow/python/framework/ops.py" source_line=1221}
  %arg0.1 = f32[1,1500,384]{2,1,0} parameter(0), parameter_replication={false}, metadata={op_name="XLA_Args"}
  %reshape.111 = f32[1,1500,384]{2,1,0} reshape(f32[1,1500,384]{2,1,0} %arg0.1)
  %arg18.1 = f32[384,384]{1,0} parameter(18), parameter_replication={false}, metadata={op_name="XLA_Args"}
  %reshape.129 = f32[384,384]{1,0} reshape(f32[384,384]{1,0} %arg18.1)
  %MatMul_7.2 = f32[1,1500,384]{2,1,0} dot(f32[1,1500,384]{2,1,0} %reshape.111, f32[384,384]{1,0} %reshape.129), lhs_contracting_dims={2}, rhs_contracting_dims={0}, frontend_attributes={grad_x="false",grad_y="false"}, metadata={op_type="BatchMatMulV2" op_name="MatMul_7" source_file="<repo-root>/src/cuda-spirv/xla_hlo/.venv-tf/lib/python3.12/site-packages/tensorflow/python/framework/ops.py" source_line=1221}
  %MatMul_7.3 = f32[1,1500,384]{2,1,0} transpose(f32[1,1500,384]{2,1,0} %MatMul_7.2), dimensions={0,1,2}, metadata={op_type="BatchMatMulV2" op_name="MatMul_7" source_file="<repo-root>/src/cuda-spirv/xla_hlo/.venv-tf/lib/python3.12/site-packages/tensorflow/python/framework/ops.py" source_line=1221}
  %arg19.1 = f32[384]{0} parameter(19), parameter_replication={false}, metadata={op_name="XLA_Args"}
  %reshape.130 = f32[384]{0} reshape(f32[384]{0} %arg19.1)
  %add_12.2 = f32[1,1500,384]{2,1,0} broadcast(f32[384]{0} %reshape.130), dimensions={2}, metadata={op_type="AddV2" op_name="add_12" source_file="<repo-root>/src/cuda-spirv/xla_hlo/.venv-tf/lib/python3.12/site-packages/tensorflow/python/framework/ops.py" source_line=1221}
  %add_12.3 = f32[1,1500,384]{2,1,0} add(f32[1,1500,384]{2,1,0} %MatMul_7.3, f32[1,1500,384]{2,1,0} %add_12.2), metadata={op_type="AddV2" op_name="add_12" source_file="<repo-root>/src/cuda-spirv/xla_hlo/.venv-tf/lib/python3.12/site-packages/tensorflow/python/framework/ops.py" source_line=1221}
  %Reshape_5.1 = f32[1,1500,6,64]{3,2,1,0} reshape(f32[1,1500,384]{2,1,0} %add_12.3), metadata={op_type="Reshape" op_name="Reshape_5" source_file="<repo-root>/src/cuda-spirv/xla_hlo/.venv-tf/lib/python3.12/site-packages/tensorflow/python/framework/ops.py" source_line=1221}
  %transpose_5.1 = f32[1,6,1500,64]{3,1,2,0} transpose(f32[1,1500,6,64]{3,2,1,0} %Reshape_5.1), dimensions={0,2,1,3}, metadata={op_type="Transpose" op_name="transpose_5" source_file="<repo-root>/src/cuda-spirv/xla_hlo/.venv-tf/lib/python3.12/site-packages/tensorflow/python/framework/ops.py" source_line=1221}
  %MatMul_9.2 = f32[1,6,64,1500]{3,2,1,0} dot(f32[1,6,64,64]{3,1,2,0} %transpose_4.1, f32[1,6,1500,64]{3,1,2,0} %transpose_5.1), lhs_batch_dims={0,1}, lhs_contracting_dims={3}, rhs_batch_dims={0,1}, rhs_contracting_dims={3}, frontend_attributes={grad_x="false",grad_y="false"}, metadata={op_type="BatchMatMulV2" op_name="MatMul_9" source_file="<repo-root>/src/cuda-spirv/xla_hlo/.venv-tf/lib/python3.12/site-packages/tensorflow/python/framework/ops.py" source_line=1221}
  %MatMul_9.3 = f32[1,6,64,1500]{3,2,1,0} transpose(f32[1,6,64,1500]{3,2,1,0} %MatMul_9.2), dimensions={0,1,2,3}, metadata={op_type="BatchMatMulV2" op_name="MatMul_9" source_file="<repo-root>/src/cuda-spirv/xla_hlo/.venv-tf/lib/python3.12/site-packages/tensorflow/python/framework/ops.py" source_line=1221}
  %mul_5.3 = f32[] constant(0.125), metadata={op_type="Mul" op_name="mul_5" source_file="<repo-root>/src/cuda-spirv/xla_hlo/.venv-tf/lib/python3.12/site-packages/tensorflow/python/framework/ops.py" source_line=1221}
  %mul_5.4 = f32[1,6,64,1500]{3,2,1,0} broadcast(f32[] %mul_5.3), dimensions={}, metadata={op_type="Mul" op_name="mul_5" source_file="<repo-root>/src/cuda-spirv/xla_hlo/.venv-tf/lib/python3.12/site-packages/tensorflow/python/framework/ops.py" source_line=1221}
  %mul_5.5 = f32[1,6,64,1500]{3,2,1,0} multiply(f32[1,6,64,1500]{3,2,1,0} %MatMul_9.3, f32[1,6,64,1500]{3,2,1,0} %mul_5.4), metadata={op_type="Mul" op_name="mul_5" source_file="<repo-root>/src/cuda-spirv/xla_hlo/.venv-tf/lib/python3.12/site-packages/tensorflow/python/framework/ops.py" source_line=1221}
  %Softmax_1.28 = f32[] constant(-inf), metadata={op_type="Softmax" op_name="Softmax_1" source_file="<repo-root>/src/cuda-spirv/xla_hlo/.venv-tf/lib/python3.12/site-packages/tensorflow/python/framework/ops.py" source_line=1221}
  %Softmax_1.29 = f32[1,6,64]{2,1,0} reduce(f32[1,6,64,1500]{3,2,1,0} %mul_5.5, f32[] %Softmax_1.28), dimensions={3}, to_apply=%region_0.7, metadata={op_type="Softmax" op_name="Softmax_1"}
  %Softmax_1.30 = f32[1,6,64,1]{3,2,1,0} reshape(f32[1,6,64]{2,1,0} %Softmax_1.29), metadata={op_type="Softmax" op_name="Softmax_1"}
  %Softmax_1.31 = f32[1,6,64,1]{3,2,1,0} broadcast(f32[1,6,64,1]{3,2,1,0} %Softmax_1.30), dimensions={0,1,2,3}, metadata={op_type="Softmax" op_name="Softmax_1"}
  %Softmax_1.32 = f32[1,6,64]{2,1,0} reshape(f32[1,6,64,1]{3,2,1,0} %Softmax_1.31), metadata={op_type="Softmax" op_name="Softmax_1"}
  %Softmax_1.33 = f32[1,6,64,1500]{3,2,1,0} broadcast(f32[1,6,64]{2,1,0} %Softmax_1.32), dimensions={0,1,2}, metadata={op_type="Softmax" op_name="Softmax_1"}
  %Softmax_1.34 = f32[1,6,64,1500]{3,2,1,0} subtract(f32[1,6,64,1500]{3,2,1,0} %mul_5.5, f32[1,6,64,1500]{3,2,1,0} %Softmax_1.33), metadata={op_type="Softmax" op_name="Softmax_1"}
  %Softmax_1.35 = f32[1,6,64,1500]{3,2,1,0} exponential(f32[1,6,64,1500]{3,2,1,0} %Softmax_1.34), metadata={op_type="Softmax" op_name="Softmax_1"}
  %Softmax_1.27 = f32[] constant(-0), metadata={op_type="Softmax" op_name="Softmax_1" source_file="<repo-root>/src/cuda-spirv/xla_hlo/.venv-tf/lib/python3.12/site-packages/tensorflow/python/framework/ops.py" source_line=1221}
  %Softmax_1.36 = f32[1,6,64]{2,1,0} reduce(f32[1,6,64,1500]{3,2,1,0} %Softmax_1.35, f32[] %Softmax_1.27), dimensions={3}, to_apply=%region_1.8, metadata={op_type="Softmax" op_name="Softmax_1"}
  %Softmax_1.37 = f32[1,6,64,1]{3,2,1,0} reshape(f32[1,6,64]{2,1,0} %Softmax_1.36), metadata={op_type="Softmax" op_name="Softmax_1"}
  %Softmax_1.38 = f32[1,6,64,1]{3,2,1,0} broadcast(f32[1,6,64,1]{3,2,1,0} %Softmax_1.37), dimensions={0,1,2,3}, metadata={op_type="Softmax" op_name="Softmax_1"}
  %Softmax_1.39 = f32[1,6,64]{2,1,0} reshape(f32[1,6,64,1]{3,2,1,0} %Softmax_1.38), metadata={op_type="Softmax" op_name="Softmax_1"}
  %Softmax_1.40 = f32[1,6,64,1500]{3,2,1,0} broadcast(f32[1,6,64]{2,1,0} %Softmax_1.39), dimensions={0,1,2}, metadata={op_type="Softmax" op_name="Softmax_1"}
  %Softmax_1.41 = f32[1,6,64,1500]{3,2,1,0} divide(f32[1,6,64,1500]{3,2,1,0} %Softmax_1.35, f32[1,6,64,1500]{3,2,1,0} %Softmax_1.40), metadata={op_type="Softmax" op_name="Softmax_1"}
  %arg20.1 = f32[384,384]{1,0} parameter(20), parameter_replication={false}, metadata={op_name="XLA_Args"}
  %reshape.131 = f32[384,384]{1,0} reshape(f32[384,384]{1,0} %arg20.1)
  %MatMul_8.2 = f32[1,1500,384]{2,1,0} dot(f32[1,1500,384]{2,1,0} %reshape.111, f32[384,384]{1,0} %reshape.131), lhs_contracting_dims={2}, rhs_contracting_dims={0}, frontend_attributes={grad_x="false",grad_y="false"}, metadata={op_type="BatchMatMulV2" op_name="MatMul_8" source_file="<repo-root>/src/cuda-spirv/xla_hlo/.venv-tf/lib/python3.12/site-packages/tensorflow/python/framework/ops.py" source_line=1221}
  %MatMul_8.3 = f32[1,1500,384]{2,1,0} transpose(f32[1,1500,384]{2,1,0} %MatMul_8.2), dimensions={0,1,2}, metadata={op_type="BatchMatMulV2" op_name="MatMul_8" source_file="<repo-root>/src/cuda-spirv/xla_hlo/.venv-tf/lib/python3.12/site-packages/tensorflow/python/framework/ops.py" source_line=1221}
  %arg21.1 = f32[384]{0} parameter(21), parameter_replication={false}, metadata={op_name="XLA_Args"}
  %reshape.132 = f32[384]{0} reshape(f32[384]{0} %arg21.1)
  %add_13.2 = f32[1,1500,384]{2,1,0} broadcast(f32[384]{0} %reshape.132), dimensions={2}, metadata={op_type="AddV2" op_name="add_13" source_file="<repo-root>/src/cuda-spirv/xla_hlo/.venv-tf/lib/python3.12/site-packages/tensorflow/python/framework/ops.py" source_line=1221}
  %add_13.3 = f32[1,1500,384]{2,1,0} add(f32[1,1500,384]{2,1,0} %MatMul_8.3, f32[1,1500,384]{2,1,0} %add_13.2), metadata={op_type="AddV2" op_name="add_13" source_file="<repo-root>/src/cuda-spirv/xla_hlo/.venv-tf/lib/python3.12/site-packages/tensorflow/python/framework/ops.py" source_line=1221}
  %Reshape_6.1 = f32[1,1500,6,64]{3,2,1,0} reshape(f32[1,1500,384]{2,1,0} %add_13.3), metadata={op_type="Reshape" op_name="Reshape_6" source_file="<repo-root>/src/cuda-spirv/xla_hlo/.venv-tf/lib/python3.12/site-packages/tensorflow/python/framework/ops.py" source_line=1221}
  %transpose_6.1 = f32[1,6,1500,64]{3,1,2,0} transpose(f32[1,1500,6,64]{3,2,1,0} %Reshape_6.1), dimensions={0,2,1,3}, metadata={op_type="Transpose" op_name="transpose_6" source_file="<repo-root>/src/cuda-spirv/xla_hlo/.venv-tf/lib/python3.12/site-packages/tensorflow/python/framework/ops.py" source_line=1221}
  %MatMul_10.2 = f32[1,6,64,64]{3,2,1,0} dot(f32[1,6,64,1500]{3,2,1,0} %Softmax_1.41, f32[1,6,1500,64]{3,1,2,0} %transpose_6.1), lhs_batch_dims={0,1}, lhs_contracting_dims={3}, rhs_batch_dims={0,1}, rhs_contracting_dims={2}, frontend_attributes={grad_x="false",grad_y="false"}, metadata={op_type="BatchMatMulV2" op_name="MatMul_10" source_file="<repo-root>/src/cuda-spirv/xla_hlo/.venv-tf/lib/python3.12/site-packages/tensorflow/python/framework/ops.py" source_line=1221}
  %MatMul_10.3 = f32[1,6,64,64]{3,2,1,0} transpose(f32[1,6,64,64]{3,2,1,0} %MatMul_10.2), dimensions={0,1,2,3}, metadata={op_type="BatchMatMulV2" op_name="MatMul_10" source_file="<repo-root>/src/cuda-spirv/xla_hlo/.venv-tf/lib/python3.12/site-packages/tensorflow/python/framework/ops.py" source_line=1221}
  %transpose_7.1 = f32[1,64,6,64]{3,1,2,0} transpose(f32[1,6,64,64]{3,2,1,0} %MatMul_10.3), dimensions={0,2,1,3}, metadata={op_type="Transpose" op_name="transpose_7" source_file="<repo-root>/src/cuda-spirv/xla_hlo/.venv-tf/lib/python3.12/site-packages/tensorflow/python/framework/ops.py" source_line=1221}
  %Reshape_7.1 = f32[1,64,384]{2,1,0} reshape(f32[1,64,6,64]{3,1,2,0} %transpose_7.1), metadata={op_type="Reshape" op_name="Reshape_7" source_file="<repo-root>/src/cuda-spirv/xla_hlo/.venv-tf/lib/python3.12/site-packages/tensorflow/python/framework/ops.py" source_line=1221}
  %arg22.1 = f32[384,384]{1,0} parameter(22), parameter_replication={false}, metadata={op_name="XLA_Args"}
  %reshape.133 = f32[384,384]{1,0} reshape(f32[384,384]{1,0} %arg22.1)
  %MatMul_11.2 = f32[1,64,384]{2,1,0} dot(f32[1,64,384]{2,1,0} %Reshape_7.1, f32[384,384]{1,0} %reshape.133), lhs_contracting_dims={2}, rhs_contracting_dims={0}, frontend_attributes={grad_x="false",grad_y="false"}, metadata={op_type="BatchMatMulV2" op_name="MatMul_11" source_file="<repo-root>/src/cuda-spirv/xla_hlo/.venv-tf/lib/python3.12/site-packages/tensorflow/python/framework/ops.py" source_line=1221}
  %MatMul_11.3 = f32[1,64,384]{2,1,0} transpose(f32[1,64,384]{2,1,0} %MatMul_11.2), dimensions={0,1,2}, metadata={op_type="BatchMatMulV2" op_name="MatMul_11" source_file="<repo-root>/src/cuda-spirv/xla_hlo/.venv-tf/lib/python3.12/site-packages/tensorflow/python/framework/ops.py" source_line=1221}
  %arg23.1 = f32[384]{0} parameter(23), parameter_replication={false}, metadata={op_name="XLA_Args"}
  %reshape.134 = f32[384]{0} reshape(f32[384]{0} %arg23.1)
  %add_14.2 = f32[1,64,384]{2,1,0} broadcast(f32[384]{0} %reshape.134), dimensions={2}, metadata={op_type="AddV2" op_name="add_14" source_file="<repo-root>/src/cuda-spirv/xla_hlo/.venv-tf/lib/python3.12/site-packages/tensorflow/python/framework/ops.py" source_line=1221}
  %add_14.3 = f32[1,64,384]{2,1,0} add(f32[1,64,384]{2,1,0} %MatMul_11.3, f32[1,64,384]{2,1,0} %add_14.2), metadata={op_type="AddV2" op_name="add_14" source_file="<repo-root>/src/cuda-spirv/xla_hlo/.venv-tf/lib/python3.12/site-packages/tensorflow/python/framework/ops.py" source_line=1221}
  %add_15.1 = f32[1,64,384]{2,1,0} add(f32[1,64,384]{2,1,0} %add_8.1, f32[1,64,384]{2,1,0} %add_14.3), metadata={op_type="AddV2" op_name="add_15" source_file="<repo-root>/src/cuda-spirv/xla_hlo/.venv-tf/lib/python3.12/site-packages/tensorflow/python/framework/ops.py" source_line=1221}
  %mul_8.3 = f32[] constant(0.5), metadata={op_type="Mul" op_name="mul_8" source_file="<repo-root>/src/cuda-spirv/xla_hlo/.venv-tf/lib/python3.12/site-packages/tensorflow/python/framework/ops.py" source_line=1221}
  %mul_8.4 = f32[1,64,1536]{2,1,0} broadcast(f32[] %mul_8.3), dimensions={}, metadata={op_type="Mul" op_name="mul_8" source_file="<repo-root>/src/cuda-spirv/xla_hlo/.venv-tf/lib/python3.12/site-packages/tensorflow/python/framework/ops.py" source_line=1221}
  %Mean_4.10 = f32[1,64,384]{2,1,0} convert(f32[1,64,384]{2,1,0} %add_15.1), metadata={op_type="Mean" op_name="Mean_4" source_file="<repo-root>/src/cuda-spirv/xla_hlo/.venv-tf/lib/python3.12/site-packages/tensorflow/python/framework/ops.py" source_line=1221}
  %Mean_4.11 = f32[] constant(0), metadata={op_type="Mean" op_name="Mean_4" source_file="<repo-root>/src/cuda-spirv/xla_hlo/.venv-tf/lib/python3.12/site-packages/tensorflow/python/framework/ops.py" source_line=1221}
  %Mean_4.12 = f32[] convert(f32[] %Mean_4.11), metadata={op_type="Mean" op_name="Mean_4" source_file="<repo-root>/src/cuda-spirv/xla_hlo/.venv-tf/lib/python3.12/site-packages/tensorflow/python/framework/ops.py" source_line=1221}
  %Mean_4.13 = f32[1,64]{1,0} reduce(f32[1,64,384]{2,1,0} %Mean_4.10, f32[] %Mean_4.12), dimensions={2}, to_apply=%Mean_4-reduction.9, metadata={op_type="Mean" op_name="Mean_4" source_file="<repo-root>/src/cuda-spirv/xla_hlo/.venv-tf/lib/python3.12/site-packages/tensorflow/python/framework/ops.py" source_line=1221}
  %Mean_4.14 = s32[] constant(384), metadata={op_type="Mean" op_name="Mean_4" source_file="<repo-root>/src/cuda-spirv/xla_hlo/.venv-tf/lib/python3.12/site-packages/tensorflow/python/framework/ops.py" source_line=1221}
  %Mean_4.15 = f32[] convert(s32[] %Mean_4.14), metadata={op_type="Mean" op_name="Mean_4" source_file="<repo-root>/src/cuda-spirv/xla_hlo/.venv-tf/lib/python3.12/site-packages/tensorflow/python/framework/ops.py" source_line=1221}
  %Mean_4.16 = f32[1,64]{1,0} broadcast(f32[] %Mean_4.15), dimensions={}, metadata={op_type="Mean" op_name="Mean_4" source_file="<repo-root>/src/cuda-spirv/xla_hlo/.venv-tf/lib/python3.12/site-packages/tensorflow/python/framework/ops.py" source_line=1221}
  %Mean_4.17 = f32[1,64]{1,0} divide(f32[1,64]{1,0} %Mean_4.13, f32[1,64]{1,0} %Mean_4.16), metadata={op_type="Mean" op_name="Mean_4" source_file="<repo-root>/src/cuda-spirv/xla_hlo/.venv-tf/lib/python3.12/site-packages/tensorflow/python/framework/ops.py" source_line=1221}
  %Mean_4.18 = f32[1,64]{1,0} convert(f32[1,64]{1,0} %Mean_4.17), metadata={op_type="Mean" op_name="Mean_4" source_file="<repo-root>/src/cuda-spirv/xla_hlo/.venv-tf/lib/python3.12/site-packages/tensorflow/python/framework/ops.py" source_line=1221}
  %Mean_4.19 = f32[1,64,1]{2,1,0} reshape(f32[1,64]{1,0} %Mean_4.18), metadata={op_type="Mean" op_name="Mean_4" source_file="<repo-root>/src/cuda-spirv/xla_hlo/.venv-tf/lib/python3.12/site-packages/tensorflow/python/framework/ops.py" source_line=1221}
  %sub_5.3 = f32[1,64]{1,0} reshape(f32[1,64,1]{2,1,0} %Mean_4.19), metadata={op_type="Sub" op_name="sub_5" source_file="<repo-root>/src/cuda-spirv/xla_hlo/.venv-tf/lib/python3.12/site-packages/tensorflow/python/framework/ops.py" source_line=1221}
  %sub_5.4 = f32[1,64,384]{2,1,0} broadcast(f32[1,64]{1,0} %sub_5.3), dimensions={0,1}, metadata={op_type="Sub" op_name="sub_5" source_file="<repo-root>/src/cuda-spirv/xla_hlo/.venv-tf/lib/python3.12/site-packages/tensorflow/python/framework/ops.py" source_line=1221}
  %sub_5.5 = f32[1,64,384]{2,1,0} subtract(f32[1,64,384]{2,1,0} %add_15.1, f32[1,64,384]{2,1,0} %sub_5.4), metadata={op_type="Sub" op_name="sub_5" source_file="<repo-root>/src/cuda-spirv/xla_hlo/.venv-tf/lib/python3.12/site-packages/tensorflow/python/framework/ops.py" source_line=1221}
  %sub_4.3 = f32[1,64]{1,0} reshape(f32[1,64,1]{2,1,0} %Mean_4.19), metadata={op_type="Sub" op_name="sub_4" source_file="<repo-root>/src/cuda-spirv/xla_hlo/.venv-tf/lib/python3.12/site-packages/tensorflow/python/framework/ops.py" source_line=1221}
  %sub_4.4 = f32[1,64,384]{2,1,0} broadcast(f32[1,64]{1,0} %sub_4.3), dimensions={0,1}, metadata={op_type="Sub" op_name="sub_4" source_file="<repo-root>/src/cuda-spirv/xla_hlo/.venv-tf/lib/python3.12/site-packages/tensorflow/python/framework/ops.py" source_line=1221}
  %sub_4.5 = f32[1,64,384]{2,1,0} subtract(f32[1,64,384]{2,1,0} %add_15.1, f32[1,64,384]{2,1,0} %sub_4.4), metadata={op_type="Sub" op_name="sub_4" source_file="<repo-root>/src/cuda-spirv/xla_hlo/.venv-tf/lib/python3.12/site-packages/tensorflow/python/framework/ops.py" source_line=1221}
  %Square_2.1 = f32[1,64,384]{2,1,0} multiply(f32[1,64,384]{2,1,0} %sub_4.5, f32[1,64,384]{2,1,0} %sub_4.5), metadata={op_type="Square" op_name="Square_2" source_file="<repo-root>/src/cuda-spirv/xla_hlo/.venv-tf/lib/python3.12/site-packages/tensorflow/python/framework/ops.py" source_line=1221}
  %Mean_5.10 = f32[1,64,384]{2,1,0} convert(f32[1,64,384]{2,1,0} %Square_2.1), metadata={op_type="Mean" op_name="Mean_5" source_file="<repo-root>/src/cuda-spirv/xla_hlo/.venv-tf/lib/python3.12/site-packages/tensorflow/python/framework/ops.py" source_line=1221}
  %Mean_5.11 = f32[] constant(0), metadata={op_type="Mean" op_name="Mean_5" source_file="<repo-root>/src/cuda-spirv/xla_hlo/.venv-tf/lib/python3.12/site-packages/tensorflow/python/framework/ops.py" source_line=1221}
  %Mean_5.12 = f32[] convert(f32[] %Mean_5.11), metadata={op_type="Mean" op_name="Mean_5" source_file="<repo-root>/src/cuda-spirv/xla_hlo/.venv-tf/lib/python3.12/site-packages/tensorflow/python/framework/ops.py" source_line=1221}
  %Mean_5.13 = f32[1,64]{1,0} reduce(f32[1,64,384]{2,1,0} %Mean_5.10, f32[] %Mean_5.12), dimensions={2}, to_apply=%Mean_5-reduction.10, metadata={op_type="Mean" op_name="Mean_5" source_file="<repo-root>/src/cuda-spirv/xla_hlo/.venv-tf/lib/python3.12/site-packages/tensorflow/python/framework/ops.py" source_line=1221}
  %Mean_5.14 = s32[] constant(384), metadata={op_type="Mean" op_name="Mean_5" source_file="<repo-root>/src/cuda-spirv/xla_hlo/.venv-tf/lib/python3.12/site-packages/tensorflow/python/framework/ops.py" source_line=1221}
  %Mean_5.15 = f32[] convert(s32[] %Mean_5.14), metadata={op_type="Mean" op_name="Mean_5" source_file="<repo-root>/src/cuda-spirv/xla_hlo/.venv-tf/lib/python3.12/site-packages/tensorflow/python/framework/ops.py" source_line=1221}
  %Mean_5.16 = f32[1,64]{1,0} broadcast(f32[] %Mean_5.15), dimensions={}, metadata={op_type="Mean" op_name="Mean_5" source_file="<repo-root>/src/cuda-spirv/xla_hlo/.venv-tf/lib/python3.12/site-packages/tensorflow/python/framework/ops.py" source_line=1221}
  %Mean_5.17 = f32[1,64]{1,0} divide(f32[1,64]{1,0} %Mean_5.13, f32[1,64]{1,0} %Mean_5.16), metadata={op_type="Mean" op_name="Mean_5" source_file="<repo-root>/src/cuda-spirv/xla_hlo/.venv-tf/lib/python3.12/site-packages/tensorflow/python/framework/ops.py" source_line=1221}
  %Mean_5.18 = f32[1,64]{1,0} convert(f32[1,64]{1,0} %Mean_5.17), metadata={op_type="Mean" op_name="Mean_5" source_file="<repo-root>/src/cuda-spirv/xla_hlo/.venv-tf/lib/python3.12/site-packages/tensorflow/python/framework/ops.py" source_line=1221}
  %Mean_5.19 = f32[1,64,1]{2,1,0} reshape(f32[1,64]{1,0} %Mean_5.18), metadata={op_type="Mean" op_name="Mean_5" source_file="<repo-root>/src/cuda-spirv/xla_hlo/.venv-tf/lib/python3.12/site-packages/tensorflow/python/framework/ops.py" source_line=1221}
  %add_16.3 = f32[] constant(1e-05), metadata={op_type="AddV2" op_name="add_16" source_file="<repo-root>/src/cuda-spirv/xla_hlo/.venv-tf/lib/python3.12/site-packages/tensorflow/python/framework/ops.py" source_line=1221}
  %add_16.4 = f32[1,64,1]{2,1,0} broadcast(f32[] %add_16.3), dimensions={}, metadata={op_type="AddV2" op_name="add_16" source_file="<repo-root>/src/cuda-spirv/xla_hlo/.venv-tf/lib/python3.12/site-packages/tensorflow/python/framework/ops.py" source_line=1221}
  %add_16.5 = f32[1,64,1]{2,1,0} add(f32[1,64,1]{2,1,0} %Mean_5.19, f32[1,64,1]{2,1,0} %add_16.4), metadata={op_type="AddV2" op_name="add_16" source_file="<repo-root>/src/cuda-spirv/xla_hlo/.venv-tf/lib/python3.12/site-packages/tensorflow/python/framework/ops.py" source_line=1221}
  %Rsqrt_4.1 = f32[1,64,1]{2,1,0} rsqrt(f32[1,64,1]{2,1,0} %add_16.5), metadata={op_type="Rsqrt" op_name="Rsqrt_4"}
  %mul_6.3 = f32[1,64]{1,0} reshape(f32[1,64,1]{2,1,0} %Rsqrt_4.1), metadata={op_type="Mul" op_name="mul_6" source_file="<repo-root>/src/cuda-spirv/xla_hlo/.venv-tf/lib/python3.12/site-packages/tensorflow/python/framework/ops.py" source_line=1221}
  %mul_6.4 = f32[1,64,384]{2,1,0} broadcast(f32[1,64]{1,0} %mul_6.3), dimensions={0,1}, metadata={op_type="Mul" op_name="mul_6" source_file="<repo-root>/src/cuda-spirv/xla_hlo/.venv-tf/lib/python3.12/site-packages/tensorflow/python/framework/ops.py" source_line=1221}
  %mul_6.5 = f32[1,64,384]{2,1,0} multiply(f32[1,64,384]{2,1,0} %sub_5.5, f32[1,64,384]{2,1,0} %mul_6.4), metadata={op_type="Mul" op_name="mul_6" source_file="<repo-root>/src/cuda-spirv/xla_hlo/.venv-tf/lib/python3.12/site-packages/tensorflow/python/framework/ops.py" source_line=1221}
  %arg24.1 = f32[384]{0} parameter(24), parameter_replication={false}, metadata={op_name="XLA_Args"}
  %reshape.135 = f32[384]{0} reshape(f32[384]{0} %arg24.1)
  %mul_7.2 = f32[1,64,384]{2,1,0} broadcast(f32[384]{0} %reshape.135), dimensions={2}, metadata={op_type="Mul" op_name="mul_7" source_file="<repo-root>/src/cuda-spirv/xla_hlo/.venv-tf/lib/python3.12/site-packages/tensorflow/python/framework/ops.py" source_line=1221}
  %mul_7.3 = f32[1,64,384]{2,1,0} multiply(f32[1,64,384]{2,1,0} %mul_6.5, f32[1,64,384]{2,1,0} %mul_7.2), metadata={op_type="Mul" op_name="mul_7" source_file="<repo-root>/src/cuda-spirv/xla_hlo/.venv-tf/lib/python3.12/site-packages/tensorflow/python/framework/ops.py" source_line=1221}
  %arg25.1 = f32[384]{0} parameter(25), parameter_replication={false}, metadata={op_name="XLA_Args"}
  %reshape.136 = f32[384]{0} reshape(f32[384]{0} %arg25.1)
  %add_17.2 = f32[1,64,384]{2,1,0} broadcast(f32[384]{0} %reshape.136), dimensions={2}, metadata={op_type="AddV2" op_name="add_17" source_file="<repo-root>/src/cuda-spirv/xla_hlo/.venv-tf/lib/python3.12/site-packages/tensorflow/python/framework/ops.py" source_line=1221}
  %add_17.3 = f32[1,64,384]{2,1,0} add(f32[1,64,384]{2,1,0} %mul_7.3, f32[1,64,384]{2,1,0} %add_17.2), metadata={op_type="AddV2" op_name="add_17" source_file="<repo-root>/src/cuda-spirv/xla_hlo/.venv-tf/lib/python3.12/site-packages/tensorflow/python/framework/ops.py" source_line=1221}
  %arg26.1 = f32[384,1536]{1,0} parameter(26), parameter_replication={false}, metadata={op_name="XLA_Args"}
  %reshape.137 = f32[384,1536]{1,0} reshape(f32[384,1536]{1,0} %arg26.1)
  %MatMul_12.2 = f32[1,64,1536]{2,1,0} dot(f32[1,64,384]{2,1,0} %add_17.3, f32[384,1536]{1,0} %reshape.137), lhs_contracting_dims={2}, rhs_contracting_dims={0}, frontend_attributes={grad_x="false",grad_y="false"}, metadata={op_type="BatchMatMulV2" op_name="MatMul_12" source_file="<repo-root>/src/cuda-spirv/xla_hlo/.venv-tf/lib/python3.12/site-packages/tensorflow/python/framework/ops.py" source_line=1221}
  %MatMul_12.3 = f32[1,64,1536]{2,1,0} transpose(f32[1,64,1536]{2,1,0} %MatMul_12.2), dimensions={0,1,2}, metadata={op_type="BatchMatMulV2" op_name="MatMul_12" source_file="<repo-root>/src/cuda-spirv/xla_hlo/.venv-tf/lib/python3.12/site-packages/tensorflow/python/framework/ops.py" source_line=1221}
  %arg27.1 = f32[1536]{0} parameter(27), parameter_replication={false}, metadata={op_name="XLA_Args"}
  %reshape.138 = f32[1536]{0} reshape(f32[1536]{0} %arg27.1)
  %add_18.2 = f32[1,64,1536]{2,1,0} broadcast(f32[1536]{0} %reshape.138), dimensions={2}, metadata={op_type="AddV2" op_name="add_18" source_file="<repo-root>/src/cuda-spirv/xla_hlo/.venv-tf/lib/python3.12/site-packages/tensorflow/python/framework/ops.py" source_line=1221}
  %add_18.3 = f32[1,64,1536]{2,1,0} add(f32[1,64,1536]{2,1,0} %MatMul_12.3, f32[1,64,1536]{2,1,0} %add_18.2), metadata={op_type="AddV2" op_name="add_18" source_file="<repo-root>/src/cuda-spirv/xla_hlo/.venv-tf/lib/python3.12/site-packages/tensorflow/python/framework/ops.py" source_line=1221}
  %mul_8.5 = f32[1,64,1536]{2,1,0} multiply(f32[1,64,1536]{2,1,0} %mul_8.4, f32[1,64,1536]{2,1,0} %add_18.3), metadata={op_type="Mul" op_name="mul_8" source_file="<repo-root>/src/cuda-spirv/xla_hlo/.venv-tf/lib/python3.12/site-packages/tensorflow/python/framework/ops.py" source_line=1221}
  %add_20.3 = f32[] constant(1), metadata={op_type="AddV2" op_name="add_20" source_file="<repo-root>/src/cuda-spirv/xla_hlo/.venv-tf/lib/python3.12/site-packages/tensorflow/python/framework/ops.py" source_line=1221}
  %add_20.4 = f32[1,64,1536]{2,1,0} broadcast(f32[] %add_20.3), dimensions={}, metadata={op_type="AddV2" op_name="add_20" source_file="<repo-root>/src/cuda-spirv/xla_hlo/.venv-tf/lib/python3.12/site-packages/tensorflow/python/framework/ops.py" source_line=1221}
  %mul_12.3 = f32[] constant(0.797884583), metadata={op_type="Mul" op_name="mul_12" source_file="<repo-root>/src/cuda-spirv/xla_hlo/.venv-tf/lib/python3.12/site-packages/tensorflow/python/framework/ops.py" source_line=1221}
  %mul_12.4 = f32[1,64,1536]{2,1,0} broadcast(f32[] %mul_12.3), dimensions={}, metadata={op_type="Mul" op_name="mul_12" source_file="<repo-root>/src/cuda-spirv/xla_hlo/.venv-tf/lib/python3.12/site-packages/tensorflow/python/framework/ops.py" source_line=1221}
  %mul_9.3 = f32[] constant(0.044715), metadata={op_type="Mul" op_name="mul_9" source_file="<repo-root>/src/cuda-spirv/xla_hlo/.venv-tf/lib/python3.12/site-packages/tensorflow/python/framework/ops.py" source_line=1221}
  %mul_9.4 = f32[1,64,1536]{2,1,0} broadcast(f32[] %mul_9.3), dimensions={}, metadata={op_type="Mul" op_name="mul_9" source_file="<repo-root>/src/cuda-spirv/xla_hlo/.venv-tf/lib/python3.12/site-packages/tensorflow/python/framework/ops.py" source_line=1221}
  %mul_9.5 = f32[1,64,1536]{2,1,0} multiply(f32[1,64,1536]{2,1,0} %mul_9.4, f32[1,64,1536]{2,1,0} %add_18.3), metadata={op_type="Mul" op_name="mul_9" source_file="<repo-root>/src/cuda-spirv/xla_hlo/.venv-tf/lib/python3.12/site-packages/tensorflow/python/framework/ops.py" source_line=1221}
  %mul_10.1 = f32[1,64,1536]{2,1,0} multiply(f32[1,64,1536]{2,1,0} %mul_9.5, f32[1,64,1536]{2,1,0} %add_18.3), metadata={op_type="Mul" op_name="mul_10" source_file="<repo-root>/src/cuda-spirv/xla_hlo/.venv-tf/lib/python3.12/site-packages/tensorflow/python/framework/ops.py" source_line=1221}
  %mul_11.1 = f32[1,64,1536]{2,1,0} multiply(f32[1,64,1536]{2,1,0} %mul_10.1, f32[1,64,1536]{2,1,0} %add_18.3), metadata={op_type="Mul" op_name="mul_11" source_file="<repo-root>/src/cuda-spirv/xla_hlo/.venv-tf/lib/python3.12/site-packages/tensorflow/python/framework/ops.py" source_line=1221}
  %add_19.1 = f32[1,64,1536]{2,1,0} add(f32[1,64,1536]{2,1,0} %add_18.3, f32[1,64,1536]{2,1,0} %mul_11.1), metadata={op_type="AddV2" op_name="add_19" source_file="<repo-root>/src/cuda-spirv/xla_hlo/.venv-tf/lib/python3.12/site-packages/tensorflow/python/framework/ops.py" source_line=1221}
  %mul_12.5 = f32[1,64,1536]{2,1,0} multiply(f32[1,64,1536]{2,1,0} %mul_12.4, f32[1,64,1536]{2,1,0} %add_19.1), metadata={op_type="Mul" op_name="mul_12" source_file="<repo-root>/src/cuda-spirv/xla_hlo/.venv-tf/lib/python3.12/site-packages/tensorflow/python/framework/ops.py" source_line=1221}
  %Tanh.1 = f32[1,64,1536]{2,1,0} tanh(f32[1,64,1536]{2,1,0} %mul_12.5), metadata={op_type="Tanh" op_name="Tanh"}
  %add_20.5 = f32[1,64,1536]{2,1,0} add(f32[1,64,1536]{2,1,0} %add_20.4, f32[1,64,1536]{2,1,0} %Tanh.1), metadata={op_type="AddV2" op_name="add_20" source_file="<repo-root>/src/cuda-spirv/xla_hlo/.venv-tf/lib/python3.12/site-packages/tensorflow/python/framework/ops.py" source_line=1221}
  %mul_13.1 = f32[1,64,1536]{2,1,0} multiply(f32[1,64,1536]{2,1,0} %mul_8.5, f32[1,64,1536]{2,1,0} %add_20.5), metadata={op_type="Mul" op_name="mul_13" source_file="<repo-root>/src/cuda-spirv/xla_hlo/.venv-tf/lib/python3.12/site-packages/tensorflow/python/framework/ops.py" source_line=1221}
  %arg28.1 = f32[1536,384]{1,0} parameter(28), parameter_replication={false}, metadata={op_name="XLA_Args"}
  %reshape.139 = f32[1536,384]{1,0} reshape(f32[1536,384]{1,0} %arg28.1)
  %MatMul_13.2 = f32[1,64,384]{2,1,0} dot(f32[1,64,1536]{2,1,0} %mul_13.1, f32[1536,384]{1,0} %reshape.139), lhs_contracting_dims={2}, rhs_contracting_dims={0}, frontend_attributes={grad_x="false",grad_y="false"}, metadata={op_type="BatchMatMulV2" op_name="MatMul_13" source_file="<repo-root>/src/cuda-spirv/xla_hlo/.venv-tf/lib/python3.12/site-packages/tensorflow/python/framework/ops.py" source_line=1221}
  %MatMul_13.3 = f32[1,64,384]{2,1,0} transpose(f32[1,64,384]{2,1,0} %MatMul_13.2), dimensions={0,1,2}, metadata={op_type="BatchMatMulV2" op_name="MatMul_13" source_file="<repo-root>/src/cuda-spirv/xla_hlo/.venv-tf/lib/python3.12/site-packages/tensorflow/python/framework/ops.py" source_line=1221}
  %arg29.1 = f32[384]{0} parameter(29), parameter_replication={false}, metadata={op_name="XLA_Args"}
  %reshape.140 = f32[384]{0} reshape(f32[384]{0} %arg29.1)
  %add_21.2 = f32[1,64,384]{2,1,0} broadcast(f32[384]{0} %reshape.140), dimensions={2}, metadata={op_type="AddV2" op_name="add_21" source_file="<repo-root>/src/cuda-spirv/xla_hlo/.venv-tf/lib/python3.12/site-packages/tensorflow/python/framework/ops.py" source_line=1221}
  %add_21.3 = f32[1,64,384]{2,1,0} add(f32[1,64,384]{2,1,0} %MatMul_13.3, f32[1,64,384]{2,1,0} %add_21.2), metadata={op_type="AddV2" op_name="add_21" source_file="<repo-root>/src/cuda-spirv/xla_hlo/.venv-tf/lib/python3.12/site-packages/tensorflow/python/framework/ops.py" source_line=1221}
  %add_22.1 = f32[1,64,384]{2,1,0} add(f32[1,64,384]{2,1,0} %add_15.1, f32[1,64,384]{2,1,0} %add_21.3), metadata={op_type="AddV2" op_name="add_22" source_file="<repo-root>/src/cuda-spirv/xla_hlo/.venv-tf/lib/python3.12/site-packages/tensorflow/python/framework/ops.py" source_line=1221}
  %Mean_6.10 = f32[1,64,384]{2,1,0} convert(f32[1,64,384]{2,1,0} %add_22.1), metadata={op_type="Mean" op_name="Mean_6" source_file="<repo-root>/src/cuda-spirv/xla_hlo/.venv-tf/lib/python3.12/site-packages/tensorflow/python/framework/ops.py" source_line=1221}
  %Mean_6.11 = f32[] constant(0), metadata={op_type="Mean" op_name="Mean_6" source_file="<repo-root>/src/cuda-spirv/xla_hlo/.venv-tf/lib/python3.12/site-packages/tensorflow/python/framework/ops.py" source_line=1221}
  %Mean_6.12 = f32[] convert(f32[] %Mean_6.11), metadata={op_type="Mean" op_name="Mean_6" source_file="<repo-root>/src/cuda-spirv/xla_hlo/.venv-tf/lib/python3.12/site-packages/tensorflow/python/framework/ops.py" source_line=1221}
  %Mean_6.13 = f32[1,64]{1,0} reduce(f32[1,64,384]{2,1,0} %Mean_6.10, f32[] %Mean_6.12), dimensions={2}, to_apply=%Mean_6-reduction.11, metadata={op_type="Mean" op_name="Mean_6" source_file="<repo-root>/src/cuda-spirv/xla_hlo/.venv-tf/lib/python3.12/site-packages/tensorflow/python/framework/ops.py" source_line=1221}
  %Mean_6.14 = s32[] constant(384), metadata={op_type="Mean" op_name="Mean_6" source_file="<repo-root>/src/cuda-spirv/xla_hlo/.venv-tf/lib/python3.12/site-packages/tensorflow/python/framework/ops.py" source_line=1221}
  %Mean_6.15 = f32[] convert(s32[] %Mean_6.14), metadata={op_type="Mean" op_name="Mean_6" source_file="<repo-root>/src/cuda-spirv/xla_hlo/.venv-tf/lib/python3.12/site-packages/tensorflow/python/framework/ops.py" source_line=1221}
  %Mean_6.16 = f32[1,64]{1,0} broadcast(f32[] %Mean_6.15), dimensions={}, metadata={op_type="Mean" op_name="Mean_6" source_file="<repo-root>/src/cuda-spirv/xla_hlo/.venv-tf/lib/python3.12/site-packages/tensorflow/python/framework/ops.py" source_line=1221}
  %Mean_6.17 = f32[1,64]{1,0} divide(f32[1,64]{1,0} %Mean_6.13, f32[1,64]{1,0} %Mean_6.16), metadata={op_type="Mean" op_name="Mean_6" source_file="<repo-root>/src/cuda-spirv/xla_hlo/.venv-tf/lib/python3.12/site-packages/tensorflow/python/framework/ops.py" source_line=1221}
  %Mean_6.18 = f32[1,64]{1,0} convert(f32[1,64]{1,0} %Mean_6.17), metadata={op_type="Mean" op_name="Mean_6" source_file="<repo-root>/src/cuda-spirv/xla_hlo/.venv-tf/lib/python3.12/site-packages/tensorflow/python/framework/ops.py" source_line=1221}
  %Mean_6.19 = f32[1,64,1]{2,1,0} reshape(f32[1,64]{1,0} %Mean_6.18), metadata={op_type="Mean" op_name="Mean_6" source_file="<repo-root>/src/cuda-spirv/xla_hlo/.venv-tf/lib/python3.12/site-packages/tensorflow/python/framework/ops.py" source_line=1221}
  %sub_7.3 = f32[1,64]{1,0} reshape(f32[1,64,1]{2,1,0} %Mean_6.19), metadata={op_type="Sub" op_name="sub_7" source_file="<repo-root>/src/cuda-spirv/xla_hlo/.venv-tf/lib/python3.12/site-packages/tensorflow/python/framework/ops.py" source_line=1221}
  %sub_7.4 = f32[1,64,384]{2,1,0} broadcast(f32[1,64]{1,0} %sub_7.3), dimensions={0,1}, metadata={op_type="Sub" op_name="sub_7" source_file="<repo-root>/src/cuda-spirv/xla_hlo/.venv-tf/lib/python3.12/site-packages/tensorflow/python/framework/ops.py" source_line=1221}
  %sub_7.5 = f32[1,64,384]{2,1,0} subtract(f32[1,64,384]{2,1,0} %add_22.1, f32[1,64,384]{2,1,0} %sub_7.4), metadata={op_type="Sub" op_name="sub_7" source_file="<repo-root>/src/cuda-spirv/xla_hlo/.venv-tf/lib/python3.12/site-packages/tensorflow/python/framework/ops.py" source_line=1221}
  %sub_6.3 = f32[1,64]{1,0} reshape(f32[1,64,1]{2,1,0} %Mean_6.19), metadata={op_type="Sub" op_name="sub_6" source_file="<repo-root>/src/cuda-spirv/xla_hlo/.venv-tf/lib/python3.12/site-packages/tensorflow/python/framework/ops.py" source_line=1221}
  %sub_6.4 = f32[1,64,384]{2,1,0} broadcast(f32[1,64]{1,0} %sub_6.3), dimensions={0,1}, metadata={op_type="Sub" op_name="sub_6" source_file="<repo-root>/src/cuda-spirv/xla_hlo/.venv-tf/lib/python3.12/site-packages/tensorflow/python/framework/ops.py" source_line=1221}
  %sub_6.5 = f32[1,64,384]{2,1,0} subtract(f32[1,64,384]{2,1,0} %add_22.1, f32[1,64,384]{2,1,0} %sub_6.4), metadata={op_type="Sub" op_name="sub_6" source_file="<repo-root>/src/cuda-spirv/xla_hlo/.venv-tf/lib/python3.12/site-packages/tensorflow/python/framework/ops.py" source_line=1221}
  %Square_3.1 = f32[1,64,384]{2,1,0} multiply(f32[1,64,384]{2,1,0} %sub_6.5, f32[1,64,384]{2,1,0} %sub_6.5), metadata={op_type="Square" op_name="Square_3" source_file="<repo-root>/src/cuda-spirv/xla_hlo/.venv-tf/lib/python3.12/site-packages/tensorflow/python/framework/ops.py" source_line=1221}
  %Mean_7.10 = f32[1,64,384]{2,1,0} convert(f32[1,64,384]{2,1,0} %Square_3.1), metadata={op_type="Mean" op_name="Mean_7" source_file="<repo-root>/src/cuda-spirv/xla_hlo/.venv-tf/lib/python3.12/site-packages/tensorflow/python/framework/ops.py" source_line=1221}
  %Mean_7.11 = f32[] constant(0), metadata={op_type="Mean" op_name="Mean_7" source_file="<repo-root>/src/cuda-spirv/xla_hlo/.venv-tf/lib/python3.12/site-packages/tensorflow/python/framework/ops.py" source_line=1221}
  %Mean_7.12 = f32[] convert(f32[] %Mean_7.11), metadata={op_type="Mean" op_name="Mean_7" source_file="<repo-root>/src/cuda-spirv/xla_hlo/.venv-tf/lib/python3.12/site-packages/tensorflow/python/framework/ops.py" source_line=1221}
  %Mean_7.13 = f32[1,64]{1,0} reduce(f32[1,64,384]{2,1,0} %Mean_7.10, f32[] %Mean_7.12), dimensions={2}, to_apply=%Mean_7-reduction.12, metadata={op_type="Mean" op_name="Mean_7" source_file="<repo-root>/src/cuda-spirv/xla_hlo/.venv-tf/lib/python3.12/site-packages/tensorflow/python/framework/ops.py" source_line=1221}
  %Mean_7.14 = s32[] constant(384), metadata={op_type="Mean" op_name="Mean_7" source_file="<repo-root>/src/cuda-spirv/xla_hlo/.venv-tf/lib/python3.12/site-packages/tensorflow/python/framework/ops.py" source_line=1221}
  %Mean_7.15 = f32[] convert(s32[] %Mean_7.14), metadata={op_type="Mean" op_name="Mean_7" source_file="<repo-root>/src/cuda-spirv/xla_hlo/.venv-tf/lib/python3.12/site-packages/tensorflow/python/framework/ops.py" source_line=1221}
  %Mean_7.16 = f32[1,64]{1,0} broadcast(f32[] %Mean_7.15), dimensions={}, metadata={op_type="Mean" op_name="Mean_7" source_file="<repo-root>/src/cuda-spirv/xla_hlo/.venv-tf/lib/python3.12/site-packages/tensorflow/python/framework/ops.py" source_line=1221}
  %Mean_7.17 = f32[1,64]{1,0} divide(f32[1,64]{1,0} %Mean_7.13, f32[1,64]{1,0} %Mean_7.16), metadata={op_type="Mean" op_name="Mean_7" source_file="<repo-root>/src/cuda-spirv/xla_hlo/.venv-tf/lib/python3.12/site-packages/tensorflow/python/framework/ops.py" source_line=1221}
  %Mean_7.18 = f32[1,64]{1,0} convert(f32[1,64]{1,0} %Mean_7.17), metadata={op_type="Mean" op_name="Mean_7" source_file="<repo-root>/src/cuda-spirv/xla_hlo/.venv-tf/lib/python3.12/site-packages/tensorflow/python/framework/ops.py" source_line=1221}
  %Mean_7.19 = f32[1,64,1]{2,1,0} reshape(f32[1,64]{1,0} %Mean_7.18), metadata={op_type="Mean" op_name="Mean_7" source_file="<repo-root>/src/cuda-spirv/xla_hlo/.venv-tf/lib/python3.12/site-packages/tensorflow/python/framework/ops.py" source_line=1221}
  %add_23.3 = f32[] constant(1e-05), metadata={op_type="AddV2" op_name="add_23" source_file="<repo-root>/src/cuda-spirv/xla_hlo/.venv-tf/lib/python3.12/site-packages/tensorflow/python/framework/ops.py" source_line=1221}
  %add_23.4 = f32[1,64,1]{2,1,0} broadcast(f32[] %add_23.3), dimensions={}, metadata={op_type="AddV2" op_name="add_23" source_file="<repo-root>/src/cuda-spirv/xla_hlo/.venv-tf/lib/python3.12/site-packages/tensorflow/python/framework/ops.py" source_line=1221}
  %add_23.5 = f32[1,64,1]{2,1,0} add(f32[1,64,1]{2,1,0} %Mean_7.19, f32[1,64,1]{2,1,0} %add_23.4), metadata={op_type="AddV2" op_name="add_23" source_file="<repo-root>/src/cuda-spirv/xla_hlo/.venv-tf/lib/python3.12/site-packages/tensorflow/python/framework/ops.py" source_line=1221}
  %Rsqrt_5.1 = f32[1,64,1]{2,1,0} rsqrt(f32[1,64,1]{2,1,0} %add_23.5), metadata={op_type="Rsqrt" op_name="Rsqrt_5"}
  %mul_14.3 = f32[1,64]{1,0} reshape(f32[1,64,1]{2,1,0} %Rsqrt_5.1), metadata={op_type="Mul" op_name="mul_14" source_file="<repo-root>/src/cuda-spirv/xla_hlo/.venv-tf/lib/python3.12/site-packages/tensorflow/python/framework/ops.py" source_line=1221}
  %mul_14.4 = f32[1,64,384]{2,1,0} broadcast(f32[1,64]{1,0} %mul_14.3), dimensions={0,1}, metadata={op_type="Mul" op_name="mul_14" source_file="<repo-root>/src/cuda-spirv/xla_hlo/.venv-tf/lib/python3.12/site-packages/tensorflow/python/framework/ops.py" source_line=1221}
  %mul_14.5 = f32[1,64,384]{2,1,0} multiply(f32[1,64,384]{2,1,0} %sub_7.5, f32[1,64,384]{2,1,0} %mul_14.4), metadata={op_type="Mul" op_name="mul_14" source_file="<repo-root>/src/cuda-spirv/xla_hlo/.venv-tf/lib/python3.12/site-packages/tensorflow/python/framework/ops.py" source_line=1221}
  %arg30.1 = f32[384]{0} parameter(30), parameter_replication={false}, metadata={op_name="XLA_Args"}
  %reshape.141 = f32[384]{0} reshape(f32[384]{0} %arg30.1)
  %mul_15.2 = f32[1,64,384]{2,1,0} broadcast(f32[384]{0} %reshape.141), dimensions={2}, metadata={op_type="Mul" op_name="mul_15" source_file="<repo-root>/src/cuda-spirv/xla_hlo/.venv-tf/lib/python3.12/site-packages/tensorflow/python/framework/ops.py" source_line=1221}
  %mul_15.3 = f32[1,64,384]{2,1,0} multiply(f32[1,64,384]{2,1,0} %mul_14.5, f32[1,64,384]{2,1,0} %mul_15.2), metadata={op_type="Mul" op_name="mul_15" source_file="<repo-root>/src/cuda-spirv/xla_hlo/.venv-tf/lib/python3.12/site-packages/tensorflow/python/framework/ops.py" source_line=1221}
  %arg31.1 = f32[384]{0} parameter(31), parameter_replication={false}, metadata={op_name="XLA_Args"}
  %reshape.142 = f32[384]{0} reshape(f32[384]{0} %arg31.1)
  %add_24.2 = f32[1,64,384]{2,1,0} broadcast(f32[384]{0} %reshape.142), dimensions={2}, metadata={op_type="AddV2" op_name="add_24" source_file="<repo-root>/src/cuda-spirv/xla_hlo/.venv-tf/lib/python3.12/site-packages/tensorflow/python/framework/ops.py" source_line=1221}
  %add_24.3 = f32[1,64,384]{2,1,0} add(f32[1,64,384]{2,1,0} %mul_15.3, f32[1,64,384]{2,1,0} %add_24.2), metadata={op_type="AddV2" op_name="add_24" source_file="<repo-root>/src/cuda-spirv/xla_hlo/.venv-tf/lib/python3.12/site-packages/tensorflow/python/framework/ops.py" source_line=1221}
  %arg32.1 = f32[384,384]{1,0} parameter(32), parameter_replication={false}, metadata={op_name="XLA_Args"}
  %reshape.143 = f32[384,384]{1,0} reshape(f32[384,384]{1,0} %arg32.1)
  %MatMul_14.2 = f32[1,64,384]{2,1,0} dot(f32[1,64,384]{2,1,0} %add_24.3, f32[384,384]{1,0} %reshape.143), lhs_contracting_dims={2}, rhs_contracting_dims={0}, frontend_attributes={grad_x="false",grad_y="false"}, metadata={op_type="BatchMatMulV2" op_name="MatMul_14" source_file="<repo-root>/src/cuda-spirv/xla_hlo/.venv-tf/lib/python3.12/site-packages/tensorflow/python/framework/ops.py" source_line=1221}
  %MatMul_14.3 = f32[1,64,384]{2,1,0} transpose(f32[1,64,384]{2,1,0} %MatMul_14.2), dimensions={0,1,2}, metadata={op_type="BatchMatMulV2" op_name="MatMul_14" source_file="<repo-root>/src/cuda-spirv/xla_hlo/.venv-tf/lib/python3.12/site-packages/tensorflow/python/framework/ops.py" source_line=1221}
  %arg33.1 = f32[384]{0} parameter(33), parameter_replication={false}, metadata={op_name="XLA_Args"}
  %reshape.144 = f32[384]{0} reshape(f32[384]{0} %arg33.1)
  %add_25.2 = f32[1,64,384]{2,1,0} broadcast(f32[384]{0} %reshape.144), dimensions={2}, metadata={op_type="AddV2" op_name="add_25" source_file="<repo-root>/src/cuda-spirv/xla_hlo/.venv-tf/lib/python3.12/site-packages/tensorflow/python/framework/ops.py" source_line=1221}
  %add_25.3 = f32[1,64,384]{2,1,0} add(f32[1,64,384]{2,1,0} %MatMul_14.3, f32[1,64,384]{2,1,0} %add_25.2), metadata={op_type="AddV2" op_name="add_25" source_file="<repo-root>/src/cuda-spirv/xla_hlo/.venv-tf/lib/python3.12/site-packages/tensorflow/python/framework/ops.py" source_line=1221}
  %Reshape_8.1 = f32[1,64,6,64]{3,2,1,0} reshape(f32[1,64,384]{2,1,0} %add_25.3), metadata={op_type="Reshape" op_name="Reshape_8" source_file="<repo-root>/src/cuda-spirv/xla_hlo/.venv-tf/lib/python3.12/site-packages/tensorflow/python/framework/ops.py" source_line=1221}
  %transpose_8.1 = f32[1,6,64,64]{3,1,2,0} transpose(f32[1,64,6,64]{3,2,1,0} %Reshape_8.1), dimensions={0,2,1,3}, metadata={op_type="Transpose" op_name="transpose_8" source_file="<repo-root>/src/cuda-spirv/xla_hlo/.venv-tf/lib/python3.12/site-packages/tensorflow/python/framework/ops.py" source_line=1221}
  %arg34.1 = f32[384,384]{1,0} parameter(34), parameter_replication={false}, metadata={op_name="XLA_Args"}
  %reshape.145 = f32[384,384]{1,0} reshape(f32[384,384]{1,0} %arg34.1)
  %MatMul_15.2 = f32[1,64,384]{2,1,0} dot(f32[1,64,384]{2,1,0} %add_24.3, f32[384,384]{1,0} %reshape.145), lhs_contracting_dims={2}, rhs_contracting_dims={0}, frontend_attributes={grad_x="false",grad_y="false"}, metadata={op_type="BatchMatMulV2" op_name="MatMul_15" source_file="<repo-root>/src/cuda-spirv/xla_hlo/.venv-tf/lib/python3.12/site-packages/tensorflow/python/framework/ops.py" source_line=1221}
  %MatMul_15.3 = f32[1,64,384]{2,1,0} transpose(f32[1,64,384]{2,1,0} %MatMul_15.2), dimensions={0,1,2}, metadata={op_type="BatchMatMulV2" op_name="MatMul_15" source_file="<repo-root>/src/cuda-spirv/xla_hlo/.venv-tf/lib/python3.12/site-packages/tensorflow/python/framework/ops.py" source_line=1221}
  %arg35.1 = f32[384]{0} parameter(35), parameter_replication={false}, metadata={op_name="XLA_Args"}
  %reshape.146 = f32[384]{0} reshape(f32[384]{0} %arg35.1)
  %add_26.2 = f32[1,64,384]{2,1,0} broadcast(f32[384]{0} %reshape.146), dimensions={2}, metadata={op_type="AddV2" op_name="add_26" source_file="<repo-root>/src/cuda-spirv/xla_hlo/.venv-tf/lib/python3.12/site-packages/tensorflow/python/framework/ops.py" source_line=1221}
  %add_26.3 = f32[1,64,384]{2,1,0} add(f32[1,64,384]{2,1,0} %MatMul_15.3, f32[1,64,384]{2,1,0} %add_26.2), metadata={op_type="AddV2" op_name="add_26" source_file="<repo-root>/src/cuda-spirv/xla_hlo/.venv-tf/lib/python3.12/site-packages/tensorflow/python/framework/ops.py" source_line=1221}
  %Reshape_9.1 = f32[1,64,6,64]{3,2,1,0} reshape(f32[1,64,384]{2,1,0} %add_26.3), metadata={op_type="Reshape" op_name="Reshape_9" source_file="<repo-root>/src/cuda-spirv/xla_hlo/.venv-tf/lib/python3.12/site-packages/tensorflow/python/framework/ops.py" source_line=1221}
  %transpose_9.1 = f32[1,6,64,64]{3,1,2,0} transpose(f32[1,64,6,64]{3,2,1,0} %Reshape_9.1), dimensions={0,2,1,3}, metadata={op_type="Transpose" op_name="transpose_9" source_file="<repo-root>/src/cuda-spirv/xla_hlo/.venv-tf/lib/python3.12/site-packages/tensorflow/python/framework/ops.py" source_line=1221}
  %MatMul_17.2 = f32[1,6,64,64]{3,2,1,0} dot(f32[1,6,64,64]{3,1,2,0} %transpose_8.1, f32[1,6,64,64]{3,1,2,0} %transpose_9.1), lhs_batch_dims={0,1}, lhs_contracting_dims={3}, rhs_batch_dims={0,1}, rhs_contracting_dims={3}, frontend_attributes={grad_x="false",grad_y="false"}, metadata={op_type="BatchMatMulV2" op_name="MatMul_17" source_file="<repo-root>/src/cuda-spirv/xla_hlo/.venv-tf/lib/python3.12/site-packages/tensorflow/python/framework/ops.py" source_line=1221}
  %MatMul_17.3 = f32[1,6,64,64]{3,2,1,0} transpose(f32[1,6,64,64]{3,2,1,0} %MatMul_17.2), dimensions={0,1,2,3}, metadata={op_type="BatchMatMulV2" op_name="MatMul_17" source_file="<repo-root>/src/cuda-spirv/xla_hlo/.venv-tf/lib/python3.12/site-packages/tensorflow/python/framework/ops.py" source_line=1221}
  %mul_16.3 = f32[] constant(0.125), metadata={op_type="Mul" op_name="mul_16" source_file="<repo-root>/src/cuda-spirv/xla_hlo/.venv-tf/lib/python3.12/site-packages/tensorflow/python/framework/ops.py" source_line=1221}
  %mul_16.4 = f32[1,6,64,64]{3,2,1,0} broadcast(f32[] %mul_16.3), dimensions={}, metadata={op_type="Mul" op_name="mul_16" source_file="<repo-root>/src/cuda-spirv/xla_hlo/.venv-tf/lib/python3.12/site-packages/tensorflow/python/framework/ops.py" source_line=1221}
  %mul_16.5 = f32[1,6,64,64]{3,2,1,0} multiply(f32[1,6,64,64]{3,2,1,0} %MatMul_17.3, f32[1,6,64,64]{3,2,1,0} %mul_16.4), metadata={op_type="Mul" op_name="mul_16" source_file="<repo-root>/src/cuda-spirv/xla_hlo/.venv-tf/lib/python3.12/site-packages/tensorflow/python/framework/ops.py" source_line=1221}
  %add_28.3 = f32[1,64,64]{2,1,0} reshape(f32[1,1,64,64]{3,2,1,0} %reshape.114), metadata={op_type="AddV2" op_name="add_28" source_file="<repo-root>/src/cuda-spirv/xla_hlo/.venv-tf/lib/python3.12/site-packages/tensorflow/python/framework/ops.py" source_line=1221}
  %add_28.4 = f32[1,6,64,64]{3,2,1,0} broadcast(f32[1,64,64]{2,1,0} %add_28.3), dimensions={0,2,3}, metadata={op_type="AddV2" op_name="add_28" source_file="<repo-root>/src/cuda-spirv/xla_hlo/.venv-tf/lib/python3.12/site-packages/tensorflow/python/framework/ops.py" source_line=1221}
  %add_28.5 = f32[1,6,64,64]{3,2,1,0} add(f32[1,6,64,64]{3,2,1,0} %mul_16.5, f32[1,6,64,64]{3,2,1,0} %add_28.4), metadata={op_type="AddV2" op_name="add_28" source_file="<repo-root>/src/cuda-spirv/xla_hlo/.venv-tf/lib/python3.12/site-packages/tensorflow/python/framework/ops.py" source_line=1221}
  %Softmax_2.28 = f32[] constant(-inf), metadata={op_type="Softmax" op_name="Softmax_2" source_file="<repo-root>/src/cuda-spirv/xla_hlo/.venv-tf/lib/python3.12/site-packages/tensorflow/python/framework/ops.py" source_line=1221}
  %Softmax_2.29 = f32[1,6,64]{2,1,0} reduce(f32[1,6,64,64]{3,2,1,0} %add_28.5, f32[] %Softmax_2.28), dimensions={3}, to_apply=%region_0.13, metadata={op_type="Softmax" op_name="Softmax_2"}
  %Softmax_2.30 = f32[1,6,64,1]{3,2,1,0} reshape(f32[1,6,64]{2,1,0} %Softmax_2.29), metadata={op_type="Softmax" op_name="Softmax_2"}
  %Softmax_2.31 = f32[1,6,64,1]{3,2,1,0} broadcast(f32[1,6,64,1]{3,2,1,0} %Softmax_2.30), dimensions={0,1,2,3}, metadata={op_type="Softmax" op_name="Softmax_2"}
  %Softmax_2.32 = f32[1,6,64]{2,1,0} reshape(f32[1,6,64,1]{3,2,1,0} %Softmax_2.31), metadata={op_type="Softmax" op_name="Softmax_2"}
  %Softmax_2.33 = f32[1,6,64,64]{3,2,1,0} broadcast(f32[1,6,64]{2,1,0} %Softmax_2.32), dimensions={0,1,2}, metadata={op_type="Softmax" op_name="Softmax_2"}
  %Softmax_2.34 = f32[1,6,64,64]{3,2,1,0} subtract(f32[1,6,64,64]{3,2,1,0} %add_28.5, f32[1,6,64,64]{3,2,1,0} %Softmax_2.33), metadata={op_type="Softmax" op_name="Softmax_2"}
  %Softmax_2.35 = f32[1,6,64,64]{3,2,1,0} exponential(f32[1,6,64,64]{3,2,1,0} %Softmax_2.34), metadata={op_type="Softmax" op_name="Softmax_2"}
  %Softmax_2.27 = f32[] constant(-0), metadata={op_type="Softmax" op_name="Softmax_2" source_file="<repo-root>/src/cuda-spirv/xla_hlo/.venv-tf/lib/python3.12/site-packages/tensorflow/python/framework/ops.py" source_line=1221}
  %Softmax_2.36 = f32[1,6,64]{2,1,0} reduce(f32[1,6,64,64]{3,2,1,0} %Softmax_2.35, f32[] %Softmax_2.27), dimensions={3}, to_apply=%region_1.14, metadata={op_type="Softmax" op_name="Softmax_2"}
  %Softmax_2.37 = f32[1,6,64,1]{3,2,1,0} reshape(f32[1,6,64]{2,1,0} %Softmax_2.36), metadata={op_type="Softmax" op_name="Softmax_2"}
  %Softmax_2.38 = f32[1,6,64,1]{3,2,1,0} broadcast(f32[1,6,64,1]{3,2,1,0} %Softmax_2.37), dimensions={0,1,2,3}, metadata={op_type="Softmax" op_name="Softmax_2"}
  %Softmax_2.39 = f32[1,6,64]{2,1,0} reshape(f32[1,6,64,1]{3,2,1,0} %Softmax_2.38), metadata={op_type="Softmax" op_name="Softmax_2"}
  %Softmax_2.40 = f32[1,6,64,64]{3,2,1,0} broadcast(f32[1,6,64]{2,1,0} %Softmax_2.39), dimensions={0,1,2}, metadata={op_type="Softmax" op_name="Softmax_2"}
  %Softmax_2.41 = f32[1,6,64,64]{3,2,1,0} divide(f32[1,6,64,64]{3,2,1,0} %Softmax_2.35, f32[1,6,64,64]{3,2,1,0} %Softmax_2.40), metadata={op_type="Softmax" op_name="Softmax_2"}
  %arg36.1 = f32[384,384]{1,0} parameter(36), parameter_replication={false}, metadata={op_name="XLA_Args"}
  %reshape.147 = f32[384,384]{1,0} reshape(f32[384,384]{1,0} %arg36.1)
  %MatMul_16.2 = f32[1,64,384]{2,1,0} dot(f32[1,64,384]{2,1,0} %add_24.3, f32[384,384]{1,0} %reshape.147), lhs_contracting_dims={2}, rhs_contracting_dims={0}, frontend_attributes={grad_x="false",grad_y="false"}, metadata={op_type="BatchMatMulV2" op_name="MatMul_16" source_file="<repo-root>/src/cuda-spirv/xla_hlo/.venv-tf/lib/python3.12/site-packages/tensorflow/python/framework/ops.py" source_line=1221}
  %MatMul_16.3 = f32[1,64,384]{2,1,0} transpose(f32[1,64,384]{2,1,0} %MatMul_16.2), dimensions={0,1,2}, metadata={op_type="BatchMatMulV2" op_name="MatMul_16" source_file="<repo-root>/src/cuda-spirv/xla_hlo/.venv-tf/lib/python3.12/site-packages/tensorflow/python/framework/ops.py" source_line=1221}
  %arg37.1 = f32[384]{0} parameter(37), parameter_replication={false}, metadata={op_name="XLA_Args"}
  %reshape.148 = f32[384]{0} reshape(f32[384]{0} %arg37.1)
  %add_27.2 = f32[1,64,384]{2,1,0} broadcast(f32[384]{0} %reshape.148), dimensions={2}, metadata={op_type="AddV2" op_name="add_27" source_file="<repo-root>/src/cuda-spirv/xla_hlo/.venv-tf/lib/python3.12/site-packages/tensorflow/python/framework/ops.py" source_line=1221}
  %add_27.3 = f32[1,64,384]{2,1,0} add(f32[1,64,384]{2,1,0} %MatMul_16.3, f32[1,64,384]{2,1,0} %add_27.2), metadata={op_type="AddV2" op_name="add_27" source_file="<repo-root>/src/cuda-spirv/xla_hlo/.venv-tf/lib/python3.12/site-packages/tensorflow/python/framework/ops.py" source_line=1221}
  %Reshape_10.1 = f32[1,64,6,64]{3,2,1,0} reshape(f32[1,64,384]{2,1,0} %add_27.3), metadata={op_type="Reshape" op_name="Reshape_10" source_file="<repo-root>/src/cuda-spirv/xla_hlo/.venv-tf/lib/python3.12/site-packages/tensorflow/python/framework/ops.py" source_line=1221}
  %transpose_10.1 = f32[1,6,64,64]{3,1,2,0} transpose(f32[1,64,6,64]{3,2,1,0} %Reshape_10.1), dimensions={0,2,1,3}, metadata={op_type="Transpose" op_name="transpose_10" source_file="<repo-root>/src/cuda-spirv/xla_hlo/.venv-tf/lib/python3.12/site-packages/tensorflow/python/framework/ops.py" source_line=1221}
  %MatMul_18.2 = f32[1,6,64,64]{3,2,1,0} dot(f32[1,6,64,64]{3,2,1,0} %Softmax_2.41, f32[1,6,64,64]{3,1,2,0} %transpose_10.1), lhs_batch_dims={0,1}, lhs_contracting_dims={3}, rhs_batch_dims={0,1}, rhs_contracting_dims={2}, frontend_attributes={grad_x="false",grad_y="false"}, metadata={op_type="BatchMatMulV2" op_name="MatMul_18" source_file="<repo-root>/src/cuda-spirv/xla_hlo/.venv-tf/lib/python3.12/site-packages/tensorflow/python/framework/ops.py" source_line=1221}
  %MatMul_18.3 = f32[1,6,64,64]{3,2,1,0} transpose(f32[1,6,64,64]{3,2,1,0} %MatMul_18.2), dimensions={0,1,2,3}, metadata={op_type="BatchMatMulV2" op_name="MatMul_18" source_file="<repo-root>/src/cuda-spirv/xla_hlo/.venv-tf/lib/python3.12/site-packages/tensorflow/python/framework/ops.py" source_line=1221}
  %transpose_11.1 = f32[1,64,6,64]{3,1,2,0} transpose(f32[1,6,64,64]{3,2,1,0} %MatMul_18.3), dimensions={0,2,1,3}, metadata={op_type="Transpose" op_name="transpose_11" source_file="<repo-root>/src/cuda-spirv/xla_hlo/.venv-tf/lib/python3.12/site-packages/tensorflow/python/framework/ops.py" source_line=1221}
  %Reshape_11.1 = f32[1,64,384]{2,1,0} reshape(f32[1,64,6,64]{3,1,2,0} %transpose_11.1), metadata={op_type="Reshape" op_name="Reshape_11" source_file="<repo-root>/src/cuda-spirv/xla_hlo/.venv-tf/lib/python3.12/site-packages/tensorflow/python/framework/ops.py" source_line=1221}
  %arg38.1 = f32[384,384]{1,0} parameter(38), parameter_replication={false}, metadata={op_name="XLA_Args"}
  %reshape.149 = f32[384,384]{1,0} reshape(f32[384,384]{1,0} %arg38.1)
  %MatMul_19.2 = f32[1,64,384]{2,1,0} dot(f32[1,64,384]{2,1,0} %Reshape_11.1, f32[384,384]{1,0} %reshape.149), lhs_contracting_dims={2}, rhs_contracting_dims={0}, frontend_attributes={grad_x="false",grad_y="false"}, metadata={op_type="BatchMatMulV2" op_name="MatMul_19" source_file="<repo-root>/src/cuda-spirv/xla_hlo/.venv-tf/lib/python3.12/site-packages/tensorflow/python/framework/ops.py" source_line=1221}
  %MatMul_19.3 = f32[1,64,384]{2,1,0} transpose(f32[1,64,384]{2,1,0} %MatMul_19.2), dimensions={0,1,2}, metadata={op_type="BatchMatMulV2" op_name="MatMul_19" source_file="<repo-root>/src/cuda-spirv/xla_hlo/.venv-tf/lib/python3.12/site-packages/tensorflow/python/framework/ops.py" source_line=1221}
  %arg39.1 = f32[384]{0} parameter(39), parameter_replication={false}, metadata={op_name="XLA_Args"}
  %reshape.150 = f32[384]{0} reshape(f32[384]{0} %arg39.1)
  %add_29.2 = f32[1,64,384]{2,1,0} broadcast(f32[384]{0} %reshape.150), dimensions={2}, metadata={op_type="AddV2" op_name="add_29" source_file="<repo-root>/src/cuda-spirv/xla_hlo/.venv-tf/lib/python3.12/site-packages/tensorflow/python/framework/ops.py" source_line=1221}
  %add_29.3 = f32[1,64,384]{2,1,0} add(f32[1,64,384]{2,1,0} %MatMul_19.3, f32[1,64,384]{2,1,0} %add_29.2), metadata={op_type="AddV2" op_name="add_29" source_file="<repo-root>/src/cuda-spirv/xla_hlo/.venv-tf/lib/python3.12/site-packages/tensorflow/python/framework/ops.py" source_line=1221}
  %add_30.1 = f32[1,64,384]{2,1,0} add(f32[1,64,384]{2,1,0} %add_22.1, f32[1,64,384]{2,1,0} %add_29.3), metadata={op_type="AddV2" op_name="add_30" source_file="<repo-root>/src/cuda-spirv/xla_hlo/.venv-tf/lib/python3.12/site-packages/tensorflow/python/framework/ops.py" source_line=1221}
  %Mean_8.10 = f32[1,64,384]{2,1,0} convert(f32[1,64,384]{2,1,0} %add_30.1), metadata={op_type="Mean" op_name="Mean_8" source_file="<repo-root>/src/cuda-spirv/xla_hlo/.venv-tf/lib/python3.12/site-packages/tensorflow/python/framework/ops.py" source_line=1221}
  %Mean_8.11 = f32[] constant(0), metadata={op_type="Mean" op_name="Mean_8" source_file="<repo-root>/src/cuda-spirv/xla_hlo/.venv-tf/lib/python3.12/site-packages/tensorflow/python/framework/ops.py" source_line=1221}
  %Mean_8.12 = f32[] convert(f32[] %Mean_8.11), metadata={op_type="Mean" op_name="Mean_8" source_file="<repo-root>/src/cuda-spirv/xla_hlo/.venv-tf/lib/python3.12/site-packages/tensorflow/python/framework/ops.py" source_line=1221}
  %Mean_8.13 = f32[1,64]{1,0} reduce(f32[1,64,384]{2,1,0} %Mean_8.10, f32[] %Mean_8.12), dimensions={2}, to_apply=%Mean_8-reduction.15, metadata={op_type="Mean" op_name="Mean_8" source_file="<repo-root>/src/cuda-spirv/xla_hlo/.venv-tf/lib/python3.12/site-packages/tensorflow/python/framework/ops.py" source_line=1221}
  %Mean_8.14 = s32[] constant(384), metadata={op_type="Mean" op_name="Mean_8" source_file="<repo-root>/src/cuda-spirv/xla_hlo/.venv-tf/lib/python3.12/site-packages/tensorflow/python/framework/ops.py" source_line=1221}
  %Mean_8.15 = f32[] convert(s32[] %Mean_8.14), metadata={op_type="Mean" op_name="Mean_8" source_file="<repo-root>/src/cuda-spirv/xla_hlo/.venv-tf/lib/python3.12/site-packages/tensorflow/python/framework/ops.py" source_line=1221}
  %Mean_8.16 = f32[1,64]{1,0} broadcast(f32[] %Mean_8.15), dimensions={}, metadata={op_type="Mean" op_name="Mean_8" source_file="<repo-root>/src/cuda-spirv/xla_hlo/.venv-tf/lib/python3.12/site-packages/tensorflow/python/framework/ops.py" source_line=1221}
  %Mean_8.17 = f32[1,64]{1,0} divide(f32[1,64]{1,0} %Mean_8.13, f32[1,64]{1,0} %Mean_8.16), metadata={op_type="Mean" op_name="Mean_8" source_file="<repo-root>/src/cuda-spirv/xla_hlo/.venv-tf/lib/python3.12/site-packages/tensorflow/python/framework/ops.py" source_line=1221}
  %Mean_8.18 = f32[1,64]{1,0} convert(f32[1,64]{1,0} %Mean_8.17), metadata={op_type="Mean" op_name="Mean_8" source_file="<repo-root>/src/cuda-spirv/xla_hlo/.venv-tf/lib/python3.12/site-packages/tensorflow/python/framework/ops.py" source_line=1221}
  %Mean_8.19 = f32[1,64,1]{2,1,0} reshape(f32[1,64]{1,0} %Mean_8.18), metadata={op_type="Mean" op_name="Mean_8" source_file="<repo-root>/src/cuda-spirv/xla_hlo/.venv-tf/lib/python3.12/site-packages/tensorflow/python/framework/ops.py" source_line=1221}
  %sub_9.3 = f32[1,64]{1,0} reshape(f32[1,64,1]{2,1,0} %Mean_8.19), metadata={op_type="Sub" op_name="sub_9" source_file="<repo-root>/src/cuda-spirv/xla_hlo/.venv-tf/lib/python3.12/site-packages/tensorflow/python/framework/ops.py" source_line=1221}
  %sub_9.4 = f32[1,64,384]{2,1,0} broadcast(f32[1,64]{1,0} %sub_9.3), dimensions={0,1}, metadata={op_type="Sub" op_name="sub_9" source_file="<repo-root>/src/cuda-spirv/xla_hlo/.venv-tf/lib/python3.12/site-packages/tensorflow/python/framework/ops.py" source_line=1221}
  %sub_9.5 = f32[1,64,384]{2,1,0} subtract(f32[1,64,384]{2,1,0} %add_30.1, f32[1,64,384]{2,1,0} %sub_9.4), metadata={op_type="Sub" op_name="sub_9" source_file="<repo-root>/src/cuda-spirv/xla_hlo/.venv-tf/lib/python3.12/site-packages/tensorflow/python/framework/ops.py" source_line=1221}
  %sub_8.3 = f32[1,64]{1,0} reshape(f32[1,64,1]{2,1,0} %Mean_8.19), metadata={op_type="Sub" op_name="sub_8" source_file="<repo-root>/src/cuda-spirv/xla_hlo/.venv-tf/lib/python3.12/site-packages/tensorflow/python/framework/ops.py" source_line=1221}
  %sub_8.4 = f32[1,64,384]{2,1,0} broadcast(f32[1,64]{1,0} %sub_8.3), dimensions={0,1}, metadata={op_type="Sub" op_name="sub_8" source_file="<repo-root>/src/cuda-spirv/xla_hlo/.venv-tf/lib/python3.12/site-packages/tensorflow/python/framework/ops.py" source_line=1221}
  %sub_8.5 = f32[1,64,384]{2,1,0} subtract(f32[1,64,384]{2,1,0} %add_30.1, f32[1,64,384]{2,1,0} %sub_8.4), metadata={op_type="Sub" op_name="sub_8" source_file="<repo-root>/src/cuda-spirv/xla_hlo/.venv-tf/lib/python3.12/site-packages/tensorflow/python/framework/ops.py" source_line=1221}
  %Square_4.1 = f32[1,64,384]{2,1,0} multiply(f32[1,64,384]{2,1,0} %sub_8.5, f32[1,64,384]{2,1,0} %sub_8.5), metadata={op_type="Square" op_name="Square_4" source_file="<repo-root>/src/cuda-spirv/xla_hlo/.venv-tf/lib/python3.12/site-packages/tensorflow/python/framework/ops.py" source_line=1221}
  %Mean_9.10 = f32[1,64,384]{2,1,0} convert(f32[1,64,384]{2,1,0} %Square_4.1), metadata={op_type="Mean" op_name="Mean_9" source_file="<repo-root>/src/cuda-spirv/xla_hlo/.venv-tf/lib/python3.12/site-packages/tensorflow/python/framework/ops.py" source_line=1221}
  %Mean_9.11 = f32[] constant(0), metadata={op_type="Mean" op_name="Mean_9" source_file="<repo-root>/src/cuda-spirv/xla_hlo/.venv-tf/lib/python3.12/site-packages/tensorflow/python/framework/ops.py" source_line=1221}
  %Mean_9.12 = f32[] convert(f32[] %Mean_9.11), metadata={op_type="Mean" op_name="Mean_9" source_file="<repo-root>/src/cuda-spirv/xla_hlo/.venv-tf/lib/python3.12/site-packages/tensorflow/python/framework/ops.py" source_line=1221}
  %Mean_9.13 = f32[1,64]{1,0} reduce(f32[1,64,384]{2,1,0} %Mean_9.10, f32[] %Mean_9.12), dimensions={2}, to_apply=%Mean_9-reduction.16, metadata={op_type="Mean" op_name="Mean_9" source_file="<repo-root>/src/cuda-spirv/xla_hlo/.venv-tf/lib/python3.12/site-packages/tensorflow/python/framework/ops.py" source_line=1221}
  %Mean_9.14 = s32[] constant(384), metadata={op_type="Mean" op_name="Mean_9" source_file="<repo-root>/src/cuda-spirv/xla_hlo/.venv-tf/lib/python3.12/site-packages/tensorflow/python/framework/ops.py" source_line=1221}
  %Mean_9.15 = f32[] convert(s32[] %Mean_9.14), metadata={op_type="Mean" op_name="Mean_9" source_file="<repo-root>/src/cuda-spirv/xla_hlo/.venv-tf/lib/python3.12/site-packages/tensorflow/python/framework/ops.py" source_line=1221}
  %Mean_9.16 = f32[1,64]{1,0} broadcast(f32[] %Mean_9.15), dimensions={}, metadata={op_type="Mean" op_name="Mean_9" source_file="<repo-root>/src/cuda-spirv/xla_hlo/.venv-tf/lib/python3.12/site-packages/tensorflow/python/framework/ops.py" source_line=1221}
  %Mean_9.17 = f32[1,64]{1,0} divide(f32[1,64]{1,0} %Mean_9.13, f32[1,64]{1,0} %Mean_9.16), metadata={op_type="Mean" op_name="Mean_9" source_file="<repo-root>/src/cuda-spirv/xla_hlo/.venv-tf/lib/python3.12/site-packages/tensorflow/python/framework/ops.py" source_line=1221}
  %Mean_9.18 = f32[1,64]{1,0} convert(f32[1,64]{1,0} %Mean_9.17), metadata={op_type="Mean" op_name="Mean_9" source_file="<repo-root>/src/cuda-spirv/xla_hlo/.venv-tf/lib/python3.12/site-packages/tensorflow/python/framework/ops.py" source_line=1221}
  %Mean_9.19 = f32[1,64,1]{2,1,0} reshape(f32[1,64]{1,0} %Mean_9.18), metadata={op_type="Mean" op_name="Mean_9" source_file="<repo-root>/src/cuda-spirv/xla_hlo/.venv-tf/lib/python3.12/site-packages/tensorflow/python/framework/ops.py" source_line=1221}
  %add_31.3 = f32[] constant(1e-05), metadata={op_type="AddV2" op_name="add_31" source_file="<repo-root>/src/cuda-spirv/xla_hlo/.venv-tf/lib/python3.12/site-packages/tensorflow/python/framework/ops.py" source_line=1221}
  %add_31.4 = f32[1,64,1]{2,1,0} broadcast(f32[] %add_31.3), dimensions={}, metadata={op_type="AddV2" op_name="add_31" source_file="<repo-root>/src/cuda-spirv/xla_hlo/.venv-tf/lib/python3.12/site-packages/tensorflow/python/framework/ops.py" source_line=1221}
  %add_31.5 = f32[1,64,1]{2,1,0} add(f32[1,64,1]{2,1,0} %Mean_9.19, f32[1,64,1]{2,1,0} %add_31.4), metadata={op_type="AddV2" op_name="add_31" source_file="<repo-root>/src/cuda-spirv/xla_hlo/.venv-tf/lib/python3.12/site-packages/tensorflow/python/framework/ops.py" source_line=1221}
  %Rsqrt_7.1 = f32[1,64,1]{2,1,0} rsqrt(f32[1,64,1]{2,1,0} %add_31.5), metadata={op_type="Rsqrt" op_name="Rsqrt_7"}
  %mul_17.3 = f32[1,64]{1,0} reshape(f32[1,64,1]{2,1,0} %Rsqrt_7.1), metadata={op_type="Mul" op_name="mul_17" source_file="<repo-root>/src/cuda-spirv/xla_hlo/.venv-tf/lib/python3.12/site-packages/tensorflow/python/framework/ops.py" source_line=1221}
  %mul_17.4 = f32[1,64,384]{2,1,0} broadcast(f32[1,64]{1,0} %mul_17.3), dimensions={0,1}, metadata={op_type="Mul" op_name="mul_17" source_file="<repo-root>/src/cuda-spirv/xla_hlo/.venv-tf/lib/python3.12/site-packages/tensorflow/python/framework/ops.py" source_line=1221}
  %mul_17.5 = f32[1,64,384]{2,1,0} multiply(f32[1,64,384]{2,1,0} %sub_9.5, f32[1,64,384]{2,1,0} %mul_17.4), metadata={op_type="Mul" op_name="mul_17" source_file="<repo-root>/src/cuda-spirv/xla_hlo/.venv-tf/lib/python3.12/site-packages/tensorflow/python/framework/ops.py" source_line=1221}
  %arg40.1 = f32[384]{0} parameter(40), parameter_replication={false}, metadata={op_name="XLA_Args"}
  %reshape.151 = f32[384]{0} reshape(f32[384]{0} %arg40.1)
  %mul_18.2 = f32[1,64,384]{2,1,0} broadcast(f32[384]{0} %reshape.151), dimensions={2}, metadata={op_type="Mul" op_name="mul_18" source_file="<repo-root>/src/cuda-spirv/xla_hlo/.venv-tf/lib/python3.12/site-packages/tensorflow/python/framework/ops.py" source_line=1221}
  %mul_18.3 = f32[1,64,384]{2,1,0} multiply(f32[1,64,384]{2,1,0} %mul_17.5, f32[1,64,384]{2,1,0} %mul_18.2), metadata={op_type="Mul" op_name="mul_18" source_file="<repo-root>/src/cuda-spirv/xla_hlo/.venv-tf/lib/python3.12/site-packages/tensorflow/python/framework/ops.py" source_line=1221}
  %arg41.1 = f32[384]{0} parameter(41), parameter_replication={false}, metadata={op_name="XLA_Args"}
  %reshape.152 = f32[384]{0} reshape(f32[384]{0} %arg41.1)
  %add_32.2 = f32[1,64,384]{2,1,0} broadcast(f32[384]{0} %reshape.152), dimensions={2}, metadata={op_type="AddV2" op_name="add_32" source_file="<repo-root>/src/cuda-spirv/xla_hlo/.venv-tf/lib/python3.12/site-packages/tensorflow/python/framework/ops.py" source_line=1221}
  %add_32.3 = f32[1,64,384]{2,1,0} add(f32[1,64,384]{2,1,0} %mul_18.3, f32[1,64,384]{2,1,0} %add_32.2), metadata={op_type="AddV2" op_name="add_32" source_file="<repo-root>/src/cuda-spirv/xla_hlo/.venv-tf/lib/python3.12/site-packages/tensorflow/python/framework/ops.py" source_line=1221}
  %arg42.1 = f32[384,384]{1,0} parameter(42), parameter_replication={false}, metadata={op_name="XLA_Args"}
  %reshape.153 = f32[384,384]{1,0} reshape(f32[384,384]{1,0} %arg42.1)
  %MatMul_20.2 = f32[1,64,384]{2,1,0} dot(f32[1,64,384]{2,1,0} %add_32.3, f32[384,384]{1,0} %reshape.153), lhs_contracting_dims={2}, rhs_contracting_dims={0}, frontend_attributes={grad_x="false",grad_y="false"}, metadata={op_type="BatchMatMulV2" op_name="MatMul_20" source_file="<repo-root>/src/cuda-spirv/xla_hlo/.venv-tf/lib/python3.12/site-packages/tensorflow/python/framework/ops.py" source_line=1221}
  %MatMul_20.3 = f32[1,64,384]{2,1,0} transpose(f32[1,64,384]{2,1,0} %MatMul_20.2), dimensions={0,1,2}, metadata={op_type="BatchMatMulV2" op_name="MatMul_20" source_file="<repo-root>/src/cuda-spirv/xla_hlo/.venv-tf/lib/python3.12/site-packages/tensorflow/python/framework/ops.py" source_line=1221}
  %arg43.1 = f32[384]{0} parameter(43), parameter_replication={false}, metadata={op_name="XLA_Args"}
  %reshape.154 = f32[384]{0} reshape(f32[384]{0} %arg43.1)
  %add_33.2 = f32[1,64,384]{2,1,0} broadcast(f32[384]{0} %reshape.154), dimensions={2}, metadata={op_type="AddV2" op_name="add_33" source_file="<repo-root>/src/cuda-spirv/xla_hlo/.venv-tf/lib/python3.12/site-packages/tensorflow/python/framework/ops.py" source_line=1221}
  %add_33.3 = f32[1,64,384]{2,1,0} add(f32[1,64,384]{2,1,0} %MatMul_20.3, f32[1,64,384]{2,1,0} %add_33.2), metadata={op_type="AddV2" op_name="add_33" source_file="<repo-root>/src/cuda-spirv/xla_hlo/.venv-tf/lib/python3.12/site-packages/tensorflow/python/framework/ops.py" source_line=1221}
  %Reshape_12.1 = f32[1,64,6,64]{3,2,1,0} reshape(f32[1,64,384]{2,1,0} %add_33.3), metadata={op_type="Reshape" op_name="Reshape_12" source_file="<repo-root>/src/cuda-spirv/xla_hlo/.venv-tf/lib/python3.12/site-packages/tensorflow/python/framework/ops.py" source_line=1221}
  %transpose_12.1 = f32[1,6,64,64]{3,1,2,0} transpose(f32[1,64,6,64]{3,2,1,0} %Reshape_12.1), dimensions={0,2,1,3}, metadata={op_type="Transpose" op_name="transpose_12" source_file="<repo-root>/src/cuda-spirv/xla_hlo/.venv-tf/lib/python3.12/site-packages/tensorflow/python/framework/ops.py" source_line=1221}
  %arg44.1 = f32[384,384]{1,0} parameter(44), parameter_replication={false}, metadata={op_name="XLA_Args"}
  %reshape.155 = f32[384,384]{1,0} reshape(f32[384,384]{1,0} %arg44.1)
  %MatMul_21.2 = f32[1,1500,384]{2,1,0} dot(f32[1,1500,384]{2,1,0} %reshape.111, f32[384,384]{1,0} %reshape.155), lhs_contracting_dims={2}, rhs_contracting_dims={0}, frontend_attributes={grad_x="false",grad_y="false"}, metadata={op_type="BatchMatMulV2" op_name="MatMul_21" source_file="<repo-root>/src/cuda-spirv/xla_hlo/.venv-tf/lib/python3.12/site-packages/tensorflow/python/framework/ops.py" source_line=1221}
  %MatMul_21.3 = f32[1,1500,384]{2,1,0} transpose(f32[1,1500,384]{2,1,0} %MatMul_21.2), dimensions={0,1,2}, metadata={op_type="BatchMatMulV2" op_name="MatMul_21" source_file="<repo-root>/src/cuda-spirv/xla_hlo/.venv-tf/lib/python3.12/site-packages/tensorflow/python/framework/ops.py" source_line=1221}
  %arg45.1 = f32[384]{0} parameter(45), parameter_replication={false}, metadata={op_name="XLA_Args"}
  %reshape.156 = f32[384]{0} reshape(f32[384]{0} %arg45.1)
  %add_34.2 = f32[1,1500,384]{2,1,0} broadcast(f32[384]{0} %reshape.156), dimensions={2}, metadata={op_type="AddV2" op_name="add_34" source_file="<repo-root>/src/cuda-spirv/xla_hlo/.venv-tf/lib/python3.12/site-packages/tensorflow/python/framework/ops.py" source_line=1221}
  %add_34.3 = f32[1,1500,384]{2,1,0} add(f32[1,1500,384]{2,1,0} %MatMul_21.3, f32[1,1500,384]{2,1,0} %add_34.2), metadata={op_type="AddV2" op_name="add_34" source_file="<repo-root>/src/cuda-spirv/xla_hlo/.venv-tf/lib/python3.12/site-packages/tensorflow/python/framework/ops.py" source_line=1221}
  %Reshape_13.1 = f32[1,1500,6,64]{3,2,1,0} reshape(f32[1,1500,384]{2,1,0} %add_34.3), metadata={op_type="Reshape" op_name="Reshape_13" source_file="<repo-root>/src/cuda-spirv/xla_hlo/.venv-tf/lib/python3.12/site-packages/tensorflow/python/framework/ops.py" source_line=1221}
  %transpose_13.1 = f32[1,6,1500,64]{3,1,2,0} transpose(f32[1,1500,6,64]{3,2,1,0} %Reshape_13.1), dimensions={0,2,1,3}, metadata={op_type="Transpose" op_name="transpose_13" source_file="<repo-root>/src/cuda-spirv/xla_hlo/.venv-tf/lib/python3.12/site-packages/tensorflow/python/framework/ops.py" source_line=1221}
  %MatMul_23.2 = f32[1,6,64,1500]{3,2,1,0} dot(f32[1,6,64,64]{3,1,2,0} %transpose_12.1, f32[1,6,1500,64]{3,1,2,0} %transpose_13.1), lhs_batch_dims={0,1}, lhs_contracting_dims={3}, rhs_batch_dims={0,1}, rhs_contracting_dims={3}, frontend_attributes={grad_x="false",grad_y="false"}, metadata={op_type="BatchMatMulV2" op_name="MatMul_23" source_file="<repo-root>/src/cuda-spirv/xla_hlo/.venv-tf/lib/python3.12/site-packages/tensorflow/python/framework/ops.py" source_line=1221}
  %MatMul_23.3 = f32[1,6,64,1500]{3,2,1,0} transpose(f32[1,6,64,1500]{3,2,1,0} %MatMul_23.2), dimensions={0,1,2,3}, metadata={op_type="BatchMatMulV2" op_name="MatMul_23" source_file="<repo-root>/src/cuda-spirv/xla_hlo/.venv-tf/lib/python3.12/site-packages/tensorflow/python/framework/ops.py" source_line=1221}
  %mul_19.3 = f32[] constant(0.125), metadata={op_type="Mul" op_name="mul_19" source_file="<repo-root>/src/cuda-spirv/xla_hlo/.venv-tf/lib/python3.12/site-packages/tensorflow/python/framework/ops.py" source_line=1221}
  %mul_19.4 = f32[1,6,64,1500]{3,2,1,0} broadcast(f32[] %mul_19.3), dimensions={}, metadata={op_type="Mul" op_name="mul_19" source_file="<repo-root>/src/cuda-spirv/xla_hlo/.venv-tf/lib/python3.12/site-packages/tensorflow/python/framework/ops.py" source_line=1221}
  %mul_19.5 = f32[1,6,64,1500]{3,2,1,0} multiply(f32[1,6,64,1500]{3,2,1,0} %MatMul_23.3, f32[1,6,64,1500]{3,2,1,0} %mul_19.4), metadata={op_type="Mul" op_name="mul_19" source_file="<repo-root>/src/cuda-spirv/xla_hlo/.venv-tf/lib/python3.12/site-packages/tensorflow/python/framework/ops.py" source_line=1221}
  %Softmax_3.28 = f32[] constant(-inf), metadata={op_type="Softmax" op_name="Softmax_3" source_file="<repo-root>/src/cuda-spirv/xla_hlo/.venv-tf/lib/python3.12/site-packages/tensorflow/python/framework/ops.py" source_line=1221}
  %Softmax_3.29 = f32[1,6,64]{2,1,0} reduce(f32[1,6,64,1500]{3,2,1,0} %mul_19.5, f32[] %Softmax_3.28), dimensions={3}, to_apply=%region_0.17, metadata={op_type="Softmax" op_name="Softmax_3"}
  %Softmax_3.30 = f32[1,6,64,1]{3,2,1,0} reshape(f32[1,6,64]{2,1,0} %Softmax_3.29), metadata={op_type="Softmax" op_name="Softmax_3"}
  %Softmax_3.31 = f32[1,6,64,1]{3,2,1,0} broadcast(f32[1,6,64,1]{3,2,1,0} %Softmax_3.30), dimensions={0,1,2,3}, metadata={op_type="Softmax" op_name="Softmax_3"}
  %Softmax_3.32 = f32[1,6,64]{2,1,0} reshape(f32[1,6,64,1]{3,2,1,0} %Softmax_3.31), metadata={op_type="Softmax" op_name="Softmax_3"}
  %Softmax_3.33 = f32[1,6,64,1500]{3,2,1,0} broadcast(f32[1,6,64]{2,1,0} %Softmax_3.32), dimensions={0,1,2}, metadata={op_type="Softmax" op_name="Softmax_3"}
  %Softmax_3.34 = f32[1,6,64,1500]{3,2,1,0} subtract(f32[1,6,64,1500]{3,2,1,0} %mul_19.5, f32[1,6,64,1500]{3,2,1,0} %Softmax_3.33), metadata={op_type="Softmax" op_name="Softmax_3"}
  %Softmax_3.35 = f32[1,6,64,1500]{3,2,1,0} exponential(f32[1,6,64,1500]{3,2,1,0} %Softmax_3.34), metadata={op_type="Softmax" op_name="Softmax_3"}
  %Softmax_3.27 = f32[] constant(-0), metadata={op_type="Softmax" op_name="Softmax_3" source_file="<repo-root>/src/cuda-spirv/xla_hlo/.venv-tf/lib/python3.12/site-packages/tensorflow/python/framework/ops.py" source_line=1221}
  %Softmax_3.36 = f32[1,6,64]{2,1,0} reduce(f32[1,6,64,1500]{3,2,1,0} %Softmax_3.35, f32[] %Softmax_3.27), dimensions={3}, to_apply=%region_1.18, metadata={op_type="Softmax" op_name="Softmax_3"}
  %Softmax_3.37 = f32[1,6,64,1]{3,2,1,0} reshape(f32[1,6,64]{2,1,0} %Softmax_3.36), metadata={op_type="Softmax" op_name="Softmax_3"}
  %Softmax_3.38 = f32[1,6,64,1]{3,2,1,0} broadcast(f32[1,6,64,1]{3,2,1,0} %Softmax_3.37), dimensions={0,1,2,3}, metadata={op_type="Softmax" op_name="Softmax_3"}
  %Softmax_3.39 = f32[1,6,64]{2,1,0} reshape(f32[1,6,64,1]{3,2,1,0} %Softmax_3.38), metadata={op_type="Softmax" op_name="Softmax_3"}
  %Softmax_3.40 = f32[1,6,64,1500]{3,2,1,0} broadcast(f32[1,6,64]{2,1,0} %Softmax_3.39), dimensions={0,1,2}, metadata={op_type="Softmax" op_name="Softmax_3"}
  %Softmax_3.41 = f32[1,6,64,1500]{3,2,1,0} divide(f32[1,6,64,1500]{3,2,1,0} %Softmax_3.35, f32[1,6,64,1500]{3,2,1,0} %Softmax_3.40), metadata={op_type="Softmax" op_name="Softmax_3"}
  %arg46.1 = f32[384,384]{1,0} parameter(46), parameter_replication={false}, metadata={op_name="XLA_Args"}
  %reshape.157 = f32[384,384]{1,0} reshape(f32[384,384]{1,0} %arg46.1)
  %MatMul_22.2 = f32[1,1500,384]{2,1,0} dot(f32[1,1500,384]{2,1,0} %reshape.111, f32[384,384]{1,0} %reshape.157), lhs_contracting_dims={2}, rhs_contracting_dims={0}, frontend_attributes={grad_x="false",grad_y="false"}, metadata={op_type="BatchMatMulV2" op_name="MatMul_22" source_file="<repo-root>/src/cuda-spirv/xla_hlo/.venv-tf/lib/python3.12/site-packages/tensorflow/python/framework/ops.py" source_line=1221}
  %MatMul_22.3 = f32[1,1500,384]{2,1,0} transpose(f32[1,1500,384]{2,1,0} %MatMul_22.2), dimensions={0,1,2}, metadata={op_type="BatchMatMulV2" op_name="MatMul_22" source_file="<repo-root>/src/cuda-spirv/xla_hlo/.venv-tf/lib/python3.12/site-packages/tensorflow/python/framework/ops.py" source_line=1221}
  %arg47.1 = f32[384]{0} parameter(47), parameter_replication={false}, metadata={op_name="XLA_Args"}
  %reshape.158 = f32[384]{0} reshape(f32[384]{0} %arg47.1)
  %add_35.2 = f32[1,1500,384]{2,1,0} broadcast(f32[384]{0} %reshape.158), dimensions={2}, metadata={op_type="AddV2" op_name="add_35" source_file="<repo-root>/src/cuda-spirv/xla_hlo/.venv-tf/lib/python3.12/site-packages/tensorflow/python/framework/ops.py" source_line=1221}
  %add_35.3 = f32[1,1500,384]{2,1,0} add(f32[1,1500,384]{2,1,0} %MatMul_22.3, f32[1,1500,384]{2,1,0} %add_35.2), metadata={op_type="AddV2" op_name="add_35" source_file="<repo-root>/src/cuda-spirv/xla_hlo/.venv-tf/lib/python3.12/site-packages/tensorflow/python/framework/ops.py" source_line=1221}
  %Reshape_14.1 = f32[1,1500,6,64]{3,2,1,0} reshape(f32[1,1500,384]{2,1,0} %add_35.3), metadata={op_type="Reshape" op_name="Reshape_14" source_file="<repo-root>/src/cuda-spirv/xla_hlo/.venv-tf/lib/python3.12/site-packages/tensorflow/python/framework/ops.py" source_line=1221}
  %transpose_14.1 = f32[1,6,1500,64]{3,1,2,0} transpose(f32[1,1500,6,64]{3,2,1,0} %Reshape_14.1), dimensions={0,2,1,3}, metadata={op_type="Transpose" op_name="transpose_14" source_file="<repo-root>/src/cuda-spirv/xla_hlo/.venv-tf/lib/python3.12/site-packages/tensorflow/python/framework/ops.py" source_line=1221}
  %MatMul_24.2 = f32[1,6,64,64]{3,2,1,0} dot(f32[1,6,64,1500]{3,2,1,0} %Softmax_3.41, f32[1,6,1500,64]{3,1,2,0} %transpose_14.1), lhs_batch_dims={0,1}, lhs_contracting_dims={3}, rhs_batch_dims={0,1}, rhs_contracting_dims={2}, frontend_attributes={grad_x="false",grad_y="false"}, metadata={op_type="BatchMatMulV2" op_name="MatMul_24" source_file="<repo-root>/src/cuda-spirv/xla_hlo/.venv-tf/lib/python3.12/site-packages/tensorflow/python/framework/ops.py" source_line=1221}
  %MatMul_24.3 = f32[1,6,64,64]{3,2,1,0} transpose(f32[1,6,64,64]{3,2,1,0} %MatMul_24.2), dimensions={0,1,2,3}, metadata={op_type="BatchMatMulV2" op_name="MatMul_24" source_file="<repo-root>/src/cuda-spirv/xla_hlo/.venv-tf/lib/python3.12/site-packages/tensorflow/python/framework/ops.py" source_line=1221}
  %transpose_15.1 = f32[1,64,6,64]{3,1,2,0} transpose(f32[1,6,64,64]{3,2,1,0} %MatMul_24.3), dimensions={0,2,1,3}, metadata={op_type="Transpose" op_name="transpose_15" source_file="<repo-root>/src/cuda-spirv/xla_hlo/.venv-tf/lib/python3.12/site-packages/tensorflow/python/framework/ops.py" source_line=1221}
  %Reshape_15.1 = f32[1,64,384]{2,1,0} reshape(f32[1,64,6,64]{3,1,2,0} %transpose_15.1), metadata={op_type="Reshape" op_name="Reshape_15" source_file="<repo-root>/src/cuda-spirv/xla_hlo/.venv-tf/lib/python3.12/site-packages/tensorflow/python/framework/ops.py" source_line=1221}
  %arg48.1 = f32[384,384]{1,0} parameter(48), parameter_replication={false}, metadata={op_name="XLA_Args"}
  %reshape.159 = f32[384,384]{1,0} reshape(f32[384,384]{1,0} %arg48.1)
  %MatMul_25.2 = f32[1,64,384]{2,1,0} dot(f32[1,64,384]{2,1,0} %Reshape_15.1, f32[384,384]{1,0} %reshape.159), lhs_contracting_dims={2}, rhs_contracting_dims={0}, frontend_attributes={grad_x="false",grad_y="false"}, metadata={op_type="BatchMatMulV2" op_name="MatMul_25" source_file="<repo-root>/src/cuda-spirv/xla_hlo/.venv-tf/lib/python3.12/site-packages/tensorflow/python/framework/ops.py" source_line=1221}
  %MatMul_25.3 = f32[1,64,384]{2,1,0} transpose(f32[1,64,384]{2,1,0} %MatMul_25.2), dimensions={0,1,2}, metadata={op_type="BatchMatMulV2" op_name="MatMul_25" source_file="<repo-root>/src/cuda-spirv/xla_hlo/.venv-tf/lib/python3.12/site-packages/tensorflow/python/framework/ops.py" source_line=1221}
  %arg49.1 = f32[384]{0} parameter(49), parameter_replication={false}, metadata={op_name="XLA_Args"}
  %reshape.160 = f32[384]{0} reshape(f32[384]{0} %arg49.1)
  %add_36.2 = f32[1,64,384]{2,1,0} broadcast(f32[384]{0} %reshape.160), dimensions={2}, metadata={op_type="AddV2" op_name="add_36" source_file="<repo-root>/src/cuda-spirv/xla_hlo/.venv-tf/lib/python3.12/site-packages/tensorflow/python/framework/ops.py" source_line=1221}
  %add_36.3 = f32[1,64,384]{2,1,0} add(f32[1,64,384]{2,1,0} %MatMul_25.3, f32[1,64,384]{2,1,0} %add_36.2), metadata={op_type="AddV2" op_name="add_36" source_file="<repo-root>/src/cuda-spirv/xla_hlo/.venv-tf/lib/python3.12/site-packages/tensorflow/python/framework/ops.py" source_line=1221}
  %add_37.1 = f32[1,64,384]{2,1,0} add(f32[1,64,384]{2,1,0} %add_30.1, f32[1,64,384]{2,1,0} %add_36.3), metadata={op_type="AddV2" op_name="add_37" source_file="<repo-root>/src/cuda-spirv/xla_hlo/.venv-tf/lib/python3.12/site-packages/tensorflow/python/framework/ops.py" source_line=1221}
  %mul_22.3 = f32[] constant(0.5), metadata={op_type="Mul" op_name="mul_22" source_file="<repo-root>/src/cuda-spirv/xla_hlo/.venv-tf/lib/python3.12/site-packages/tensorflow/python/framework/ops.py" source_line=1221}
  %mul_22.4 = f32[1,64,1536]{2,1,0} broadcast(f32[] %mul_22.3), dimensions={}, metadata={op_type="Mul" op_name="mul_22" source_file="<repo-root>/src/cuda-spirv/xla_hlo/.venv-tf/lib/python3.12/site-packages/tensorflow/python/framework/ops.py" source_line=1221}
  %Mean_10.10 = f32[1,64,384]{2,1,0} convert(f32[1,64,384]{2,1,0} %add_37.1), metadata={op_type="Mean" op_name="Mean_10" source_file="<repo-root>/src/cuda-spirv/xla_hlo/.venv-tf/lib/python3.12/site-packages/tensorflow/python/framework/ops.py" source_line=1221}
  %Mean_10.11 = f32[] constant(0), metadata={op_type="Mean" op_name="Mean_10" source_file="<repo-root>/src/cuda-spirv/xla_hlo/.venv-tf/lib/python3.12/site-packages/tensorflow/python/framework/ops.py" source_line=1221}
  %Mean_10.12 = f32[] convert(f32[] %Mean_10.11), metadata={op_type="Mean" op_name="Mean_10" source_file="<repo-root>/src/cuda-spirv/xla_hlo/.venv-tf/lib/python3.12/site-packages/tensorflow/python/framework/ops.py" source_line=1221}
  %Mean_10.13 = f32[1,64]{1,0} reduce(f32[1,64,384]{2,1,0} %Mean_10.10, f32[] %Mean_10.12), dimensions={2}, to_apply=%Mean_10-reduction.19, metadata={op_type="Mean" op_name="Mean_10" source_file="<repo-root>/src/cuda-spirv/xla_hlo/.venv-tf/lib/python3.12/site-packages/tensorflow/python/framework/ops.py" source_line=1221}
  %Mean_10.14 = s32[] constant(384), metadata={op_type="Mean" op_name="Mean_10" source_file="<repo-root>/src/cuda-spirv/xla_hlo/.venv-tf/lib/python3.12/site-packages/tensorflow/python/framework/ops.py" source_line=1221}
  %Mean_10.15 = f32[] convert(s32[] %Mean_10.14), metadata={op_type="Mean" op_name="Mean_10" source_file="<repo-root>/src/cuda-spirv/xla_hlo/.venv-tf/lib/python3.12/site-packages/tensorflow/python/framework/ops.py" source_line=1221}
  %Mean_10.16 = f32[1,64]{1,0} broadcast(f32[] %Mean_10.15), dimensions={}, metadata={op_type="Mean" op_name="Mean_10" source_file="<repo-root>/src/cuda-spirv/xla_hlo/.venv-tf/lib/python3.12/site-packages/tensorflow/python/framework/ops.py" source_line=1221}
  %Mean_10.17 = f32[1,64]{1,0} divide(f32[1,64]{1,0} %Mean_10.13, f32[1,64]{1,0} %Mean_10.16), metadata={op_type="Mean" op_name="Mean_10" source_file="<repo-root>/src/cuda-spirv/xla_hlo/.venv-tf/lib/python3.12/site-packages/tensorflow/python/framework/ops.py" source_line=1221}
  %Mean_10.18 = f32[1,64]{1,0} convert(f32[1,64]{1,0} %Mean_10.17), metadata={op_type="Mean" op_name="Mean_10" source_file="<repo-root>/src/cuda-spirv/xla_hlo/.venv-tf/lib/python3.12/site-packages/tensorflow/python/framework/ops.py" source_line=1221}
  %Mean_10.19 = f32[1,64,1]{2,1,0} reshape(f32[1,64]{1,0} %Mean_10.18), metadata={op_type="Mean" op_name="Mean_10" source_file="<repo-root>/src/cuda-spirv/xla_hlo/.venv-tf/lib/python3.12/site-packages/tensorflow/python/framework/ops.py" source_line=1221}
  %sub_11.3 = f32[1,64]{1,0} reshape(f32[1,64,1]{2,1,0} %Mean_10.19), metadata={op_type="Sub" op_name="sub_11" source_file="<repo-root>/src/cuda-spirv/xla_hlo/.venv-tf/lib/python3.12/site-packages/tensorflow/python/framework/ops.py" source_line=1221}
  %sub_11.4 = f32[1,64,384]{2,1,0} broadcast(f32[1,64]{1,0} %sub_11.3), dimensions={0,1}, metadata={op_type="Sub" op_name="sub_11" source_file="<repo-root>/src/cuda-spirv/xla_hlo/.venv-tf/lib/python3.12/site-packages/tensorflow/python/framework/ops.py" source_line=1221}
  %sub_11.5 = f32[1,64,384]{2,1,0} subtract(f32[1,64,384]{2,1,0} %add_37.1, f32[1,64,384]{2,1,0} %sub_11.4), metadata={op_type="Sub" op_name="sub_11" source_file="<repo-root>/src/cuda-spirv/xla_hlo/.venv-tf/lib/python3.12/site-packages/tensorflow/python/framework/ops.py" source_line=1221}
  %sub_10.3 = f32[1,64]{1,0} reshape(f32[1,64,1]{2,1,0} %Mean_10.19), metadata={op_type="Sub" op_name="sub_10" source_file="<repo-root>/src/cuda-spirv/xla_hlo/.venv-tf/lib/python3.12/site-packages/tensorflow/python/framework/ops.py" source_line=1221}
  %sub_10.4 = f32[1,64,384]{2,1,0} broadcast(f32[1,64]{1,0} %sub_10.3), dimensions={0,1}, metadata={op_type="Sub" op_name="sub_10" source_file="<repo-root>/src/cuda-spirv/xla_hlo/.venv-tf/lib/python3.12/site-packages/tensorflow/python/framework/ops.py" source_line=1221}
  %sub_10.5 = f32[1,64,384]{2,1,0} subtract(f32[1,64,384]{2,1,0} %add_37.1, f32[1,64,384]{2,1,0} %sub_10.4), metadata={op_type="Sub" op_name="sub_10" source_file="<repo-root>/src/cuda-spirv/xla_hlo/.venv-tf/lib/python3.12/site-packages/tensorflow/python/framework/ops.py" source_line=1221}
  %Square_5.1 = f32[1,64,384]{2,1,0} multiply(f32[1,64,384]{2,1,0} %sub_10.5, f32[1,64,384]{2,1,0} %sub_10.5), metadata={op_type="Square" op_name="Square_5" source_file="<repo-root>/src/cuda-spirv/xla_hlo/.venv-tf/lib/python3.12/site-packages/tensorflow/python/framework/ops.py" source_line=1221}
  %Mean_11.10 = f32[1,64,384]{2,1,0} convert(f32[1,64,384]{2,1,0} %Square_5.1), metadata={op_type="Mean" op_name="Mean_11" source_file="<repo-root>/src/cuda-spirv/xla_hlo/.venv-tf/lib/python3.12/site-packages/tensorflow/python/framework/ops.py" source_line=1221}
  %Mean_11.11 = f32[] constant(0), metadata={op_type="Mean" op_name="Mean_11" source_file="<repo-root>/src/cuda-spirv/xla_hlo/.venv-tf/lib/python3.12/site-packages/tensorflow/python/framework/ops.py" source_line=1221}
  %Mean_11.12 = f32[] convert(f32[] %Mean_11.11), metadata={op_type="Mean" op_name="Mean_11" source_file="<repo-root>/src/cuda-spirv/xla_hlo/.venv-tf/lib/python3.12/site-packages/tensorflow/python/framework/ops.py" source_line=1221}
  %Mean_11.13 = f32[1,64]{1,0} reduce(f32[1,64,384]{2,1,0} %Mean_11.10, f32[] %Mean_11.12), dimensions={2}, to_apply=%Mean_11-reduction.20, metadata={op_type="Mean" op_name="Mean_11" source_file="<repo-root>/src/cuda-spirv/xla_hlo/.venv-tf/lib/python3.12/site-packages/tensorflow/python/framework/ops.py" source_line=1221}
  %Mean_11.14 = s32[] constant(384), metadata={op_type="Mean" op_name="Mean_11" source_file="<repo-root>/src/cuda-spirv/xla_hlo/.venv-tf/lib/python3.12/site-packages/tensorflow/python/framework/ops.py" source_line=1221}
  %Mean_11.15 = f32[] convert(s32[] %Mean_11.14), metadata={op_type="Mean" op_name="Mean_11" source_file="<repo-root>/src/cuda-spirv/xla_hlo/.venv-tf/lib/python3.12/site-packages/tensorflow/python/framework/ops.py" source_line=1221}
  %Mean_11.16 = f32[1,64]{1,0} broadcast(f32[] %Mean_11.15), dimensions={}, metadata={op_type="Mean" op_name="Mean_11" source_file="<repo-root>/src/cuda-spirv/xla_hlo/.venv-tf/lib/python3.12/site-packages/tensorflow/python/framework/ops.py" source_line=1221}
  %Mean_11.17 = f32[1,64]{1,0} divide(f32[1,64]{1,0} %Mean_11.13, f32[1,64]{1,0} %Mean_11.16), metadata={op_type="Mean" op_name="Mean_11" source_file="<repo-root>/src/cuda-spirv/xla_hlo/.venv-tf/lib/python3.12/site-packages/tensorflow/python/framework/ops.py" source_line=1221}
  %Mean_11.18 = f32[1,64]{1,0} convert(f32[1,64]{1,0} %Mean_11.17), metadata={op_type="Mean" op_name="Mean_11" source_file="<repo-root>/src/cuda-spirv/xla_hlo/.venv-tf/lib/python3.12/site-packages/tensorflow/python/framework/ops.py" source_line=1221}
  %Mean_11.19 = f32[1,64,1]{2,1,0} reshape(f32[1,64]{1,0} %Mean_11.18), metadata={op_type="Mean" op_name="Mean_11" source_file="<repo-root>/src/cuda-spirv/xla_hlo/.venv-tf/lib/python3.12/site-packages/tensorflow/python/framework/ops.py" source_line=1221}
  %add_38.3 = f32[] constant(1e-05), metadata={op_type="AddV2" op_name="add_38" source_file="<repo-root>/src/cuda-spirv/xla_hlo/.venv-tf/lib/python3.12/site-packages/tensorflow/python/framework/ops.py" source_line=1221}
  %add_38.4 = f32[1,64,1]{2,1,0} broadcast(f32[] %add_38.3), dimensions={}, metadata={op_type="AddV2" op_name="add_38" source_file="<repo-root>/src/cuda-spirv/xla_hlo/.venv-tf/lib/python3.12/site-packages/tensorflow/python/framework/ops.py" source_line=1221}
  %add_38.5 = f32[1,64,1]{2,1,0} add(f32[1,64,1]{2,1,0} %Mean_11.19, f32[1,64,1]{2,1,0} %add_38.4), metadata={op_type="AddV2" op_name="add_38" source_file="<repo-root>/src/cuda-spirv/xla_hlo/.venv-tf/lib/python3.12/site-packages/tensorflow/python/framework/ops.py" source_line=1221}
  %Rsqrt_9.1 = f32[1,64,1]{2,1,0} rsqrt(f32[1,64,1]{2,1,0} %add_38.5), metadata={op_type="Rsqrt" op_name="Rsqrt_9"}
  %mul_20.3 = f32[1,64]{1,0} reshape(f32[1,64,1]{2,1,0} %Rsqrt_9.1), metadata={op_type="Mul" op_name="mul_20" source_file="<repo-root>/src/cuda-spirv/xla_hlo/.venv-tf/lib/python3.12/site-packages/tensorflow/python/framework/ops.py" source_line=1221}
  %mul_20.4 = f32[1,64,384]{2,1,0} broadcast(f32[1,64]{1,0} %mul_20.3), dimensions={0,1}, metadata={op_type="Mul" op_name="mul_20" source_file="<repo-root>/src/cuda-spirv/xla_hlo/.venv-tf/lib/python3.12/site-packages/tensorflow/python/framework/ops.py" source_line=1221}
  %mul_20.5 = f32[1,64,384]{2,1,0} multiply(f32[1,64,384]{2,1,0} %sub_11.5, f32[1,64,384]{2,1,0} %mul_20.4), metadata={op_type="Mul" op_name="mul_20" source_file="<repo-root>/src/cuda-spirv/xla_hlo/.venv-tf/lib/python3.12/site-packages/tensorflow/python/framework/ops.py" source_line=1221}
  %arg50.1 = f32[384]{0} parameter(50), parameter_replication={false}, metadata={op_name="XLA_Args"}
  %reshape.161 = f32[384]{0} reshape(f32[384]{0} %arg50.1)
  %mul_21.2 = f32[1,64,384]{2,1,0} broadcast(f32[384]{0} %reshape.161), dimensions={2}, metadata={op_type="Mul" op_name="mul_21" source_file="<repo-root>/src/cuda-spirv/xla_hlo/.venv-tf/lib/python3.12/site-packages/tensorflow/python/framework/ops.py" source_line=1221}
  %mul_21.3 = f32[1,64,384]{2,1,0} multiply(f32[1,64,384]{2,1,0} %mul_20.5, f32[1,64,384]{2,1,0} %mul_21.2), metadata={op_type="Mul" op_name="mul_21" source_file="<repo-root>/src/cuda-spirv/xla_hlo/.venv-tf/lib/python3.12/site-packages/tensorflow/python/framework/ops.py" source_line=1221}
  %arg51.1 = f32[384]{0} parameter(51), parameter_replication={false}, metadata={op_name="XLA_Args"}
  %reshape.162 = f32[384]{0} reshape(f32[384]{0} %arg51.1)
  %add_39.2 = f32[1,64,384]{2,1,0} broadcast(f32[384]{0} %reshape.162), dimensions={2}, metadata={op_type="AddV2" op_name="add_39" source_file="<repo-root>/src/cuda-spirv/xla_hlo/.venv-tf/lib/python3.12/site-packages/tensorflow/python/framework/ops.py" source_line=1221}
  %add_39.3 = f32[1,64,384]{2,1,0} add(f32[1,64,384]{2,1,0} %mul_21.3, f32[1,64,384]{2,1,0} %add_39.2), metadata={op_type="AddV2" op_name="add_39" source_file="<repo-root>/src/cuda-spirv/xla_hlo/.venv-tf/lib/python3.12/site-packages/tensorflow/python/framework/ops.py" source_line=1221}
  %arg52.1 = f32[384,1536]{1,0} parameter(52), parameter_replication={false}, metadata={op_name="XLA_Args"}
  %reshape.163 = f32[384,1536]{1,0} reshape(f32[384,1536]{1,0} %arg52.1)
  %MatMul_26.2 = f32[1,64,1536]{2,1,0} dot(f32[1,64,384]{2,1,0} %add_39.3, f32[384,1536]{1,0} %reshape.163), lhs_contracting_dims={2}, rhs_contracting_dims={0}, frontend_attributes={grad_x="false",grad_y="false"}, metadata={op_type="BatchMatMulV2" op_name="MatMul_26" source_file="<repo-root>/src/cuda-spirv/xla_hlo/.venv-tf/lib/python3.12/site-packages/tensorflow/python/framework/ops.py" source_line=1221}
  %MatMul_26.3 = f32[1,64,1536]{2,1,0} transpose(f32[1,64,1536]{2,1,0} %MatMul_26.2), dimensions={0,1,2}, metadata={op_type="BatchMatMulV2" op_name="MatMul_26" source_file="<repo-root>/src/cuda-spirv/xla_hlo/.venv-tf/lib/python3.12/site-packages/tensorflow/python/framework/ops.py" source_line=1221}
  %arg53.1 = f32[1536]{0} parameter(53), parameter_replication={false}, metadata={op_name="XLA_Args"}
  %reshape.164 = f32[1536]{0} reshape(f32[1536]{0} %arg53.1)
  %add_40.2 = f32[1,64,1536]{2,1,0} broadcast(f32[1536]{0} %reshape.164), dimensions={2}, metadata={op_type="AddV2" op_name="add_40" source_file="<repo-root>/src/cuda-spirv/xla_hlo/.venv-tf/lib/python3.12/site-packages/tensorflow/python/framework/ops.py" source_line=1221}
  %add_40.3 = f32[1,64,1536]{2,1,0} add(f32[1,64,1536]{2,1,0} %MatMul_26.3, f32[1,64,1536]{2,1,0} %add_40.2), metadata={op_type="AddV2" op_name="add_40" source_file="<repo-root>/src/cuda-spirv/xla_hlo/.venv-tf/lib/python3.12/site-packages/tensorflow/python/framework/ops.py" source_line=1221}
  %mul_22.5 = f32[1,64,1536]{2,1,0} multiply(f32[1,64,1536]{2,1,0} %mul_22.4, f32[1,64,1536]{2,1,0} %add_40.3), metadata={op_type="Mul" op_name="mul_22" source_file="<repo-root>/src/cuda-spirv/xla_hlo/.venv-tf/lib/python3.12/site-packages/tensorflow/python/framework/ops.py" source_line=1221}
  %add_42.3 = f32[] constant(1), metadata={op_type="AddV2" op_name="add_42" source_file="<repo-root>/src/cuda-spirv/xla_hlo/.venv-tf/lib/python3.12/site-packages/tensorflow/python/framework/ops.py" source_line=1221}
  %add_42.4 = f32[1,64,1536]{2,1,0} broadcast(f32[] %add_42.3), dimensions={}, metadata={op_type="AddV2" op_name="add_42" source_file="<repo-root>/src/cuda-spirv/xla_hlo/.venv-tf/lib/python3.12/site-packages/tensorflow/python/framework/ops.py" source_line=1221}
  %mul_26.3 = f32[] constant(0.797884583), metadata={op_type="Mul" op_name="mul_26" source_file="<repo-root>/src/cuda-spirv/xla_hlo/.venv-tf/lib/python3.12/site-packages/tensorflow/python/framework/ops.py" source_line=1221}
  %mul_26.4 = f32[1,64,1536]{2,1,0} broadcast(f32[] %mul_26.3), dimensions={}, metadata={op_type="Mul" op_name="mul_26" source_file="<repo-root>/src/cuda-spirv/xla_hlo/.venv-tf/lib/python3.12/site-packages/tensorflow/python/framework/ops.py" source_line=1221}
  %mul_23.3 = f32[] constant(0.044715), metadata={op_type="Mul" op_name="mul_23" source_file="<repo-root>/src/cuda-spirv/xla_hlo/.venv-tf/lib/python3.12/site-packages/tensorflow/python/framework/ops.py" source_line=1221}
  %mul_23.4 = f32[1,64,1536]{2,1,0} broadcast(f32[] %mul_23.3), dimensions={}, metadata={op_type="Mul" op_name="mul_23" source_file="<repo-root>/src/cuda-spirv/xla_hlo/.venv-tf/lib/python3.12/site-packages/tensorflow/python/framework/ops.py" source_line=1221}
  %mul_23.5 = f32[1,64,1536]{2,1,0} multiply(f32[1,64,1536]{2,1,0} %mul_23.4, f32[1,64,1536]{2,1,0} %add_40.3), metadata={op_type="Mul" op_name="mul_23" source_file="<repo-root>/src/cuda-spirv/xla_hlo/.venv-tf/lib/python3.12/site-packages/tensorflow/python/framework/ops.py" source_line=1221}
  %mul_24.1 = f32[1,64,1536]{2,1,0} multiply(f32[1,64,1536]{2,1,0} %mul_23.5, f32[1,64,1536]{2,1,0} %add_40.3), metadata={op_type="Mul" op_name="mul_24" source_file="<repo-root>/src/cuda-spirv/xla_hlo/.venv-tf/lib/python3.12/site-packages/tensorflow/python/framework/ops.py" source_line=1221}
  %mul_25.1 = f32[1,64,1536]{2,1,0} multiply(f32[1,64,1536]{2,1,0} %mul_24.1, f32[1,64,1536]{2,1,0} %add_40.3), metadata={op_type="Mul" op_name="mul_25" source_file="<repo-root>/src/cuda-spirv/xla_hlo/.venv-tf/lib/python3.12/site-packages/tensorflow/python/framework/ops.py" source_line=1221}
  %add_41.1 = f32[1,64,1536]{2,1,0} add(f32[1,64,1536]{2,1,0} %add_40.3, f32[1,64,1536]{2,1,0} %mul_25.1), metadata={op_type="AddV2" op_name="add_41" source_file="<repo-root>/src/cuda-spirv/xla_hlo/.venv-tf/lib/python3.12/site-packages/tensorflow/python/framework/ops.py" source_line=1221}
  %mul_26.5 = f32[1,64,1536]{2,1,0} multiply(f32[1,64,1536]{2,1,0} %mul_26.4, f32[1,64,1536]{2,1,0} %add_41.1), metadata={op_type="Mul" op_name="mul_26" source_file="<repo-root>/src/cuda-spirv/xla_hlo/.venv-tf/lib/python3.12/site-packages/tensorflow/python/framework/ops.py" source_line=1221}
  %Tanh_1.1 = f32[1,64,1536]{2,1,0} tanh(f32[1,64,1536]{2,1,0} %mul_26.5), metadata={op_type="Tanh" op_name="Tanh_1"}
  %add_42.5 = f32[1,64,1536]{2,1,0} add(f32[1,64,1536]{2,1,0} %add_42.4, f32[1,64,1536]{2,1,0} %Tanh_1.1), metadata={op_type="AddV2" op_name="add_42" source_file="<repo-root>/src/cuda-spirv/xla_hlo/.venv-tf/lib/python3.12/site-packages/tensorflow/python/framework/ops.py" source_line=1221}
  %mul_27.1 = f32[1,64,1536]{2,1,0} multiply(f32[1,64,1536]{2,1,0} %mul_22.5, f32[1,64,1536]{2,1,0} %add_42.5), metadata={op_type="Mul" op_name="mul_27" source_file="<repo-root>/src/cuda-spirv/xla_hlo/.venv-tf/lib/python3.12/site-packages/tensorflow/python/framework/ops.py" source_line=1221}
  %arg54.1 = f32[1536,384]{1,0} parameter(54), parameter_replication={false}, metadata={op_name="XLA_Args"}
  %reshape.165 = f32[1536,384]{1,0} reshape(f32[1536,384]{1,0} %arg54.1)
  %MatMul_27.2 = f32[1,64,384]{2,1,0} dot(f32[1,64,1536]{2,1,0} %mul_27.1, f32[1536,384]{1,0} %reshape.165), lhs_contracting_dims={2}, rhs_contracting_dims={0}, frontend_attributes={grad_x="false",grad_y="false"}, metadata={op_type="BatchMatMulV2" op_name="MatMul_27" source_file="<repo-root>/src/cuda-spirv/xla_hlo/.venv-tf/lib/python3.12/site-packages/tensorflow/python/framework/ops.py" source_line=1221}
  %MatMul_27.3 = f32[1,64,384]{2,1,0} transpose(f32[1,64,384]{2,1,0} %MatMul_27.2), dimensions={0,1,2}, metadata={op_type="BatchMatMulV2" op_name="MatMul_27" source_file="<repo-root>/src/cuda-spirv/xla_hlo/.venv-tf/lib/python3.12/site-packages/tensorflow/python/framework/ops.py" source_line=1221}
  %arg55.1 = f32[384]{0} parameter(55), parameter_replication={false}, metadata={op_name="XLA_Args"}
  %reshape.166 = f32[384]{0} reshape(f32[384]{0} %arg55.1)
  %add_43.2 = f32[1,64,384]{2,1,0} broadcast(f32[384]{0} %reshape.166), dimensions={2}, metadata={op_type="AddV2" op_name="add_43" source_file="<repo-root>/src/cuda-spirv/xla_hlo/.venv-tf/lib/python3.12/site-packages/tensorflow/python/framework/ops.py" source_line=1221}
  %add_43.3 = f32[1,64,384]{2,1,0} add(f32[1,64,384]{2,1,0} %MatMul_27.3, f32[1,64,384]{2,1,0} %add_43.2), metadata={op_type="AddV2" op_name="add_43" source_file="<repo-root>/src/cuda-spirv/xla_hlo/.venv-tf/lib/python3.12/site-packages/tensorflow/python/framework/ops.py" source_line=1221}
  %add_44.1 = f32[1,64,384]{2,1,0} add(f32[1,64,384]{2,1,0} %add_37.1, f32[1,64,384]{2,1,0} %add_43.3), metadata={op_type="AddV2" op_name="add_44" source_file="<repo-root>/src/cuda-spirv/xla_hlo/.venv-tf/lib/python3.12/site-packages/tensorflow/python/framework/ops.py" source_line=1221}
  %Mean_12.10 = f32[1,64,384]{2,1,0} convert(f32[1,64,384]{2,1,0} %add_44.1), metadata={op_type="Mean" op_name="Mean_12" source_file="<repo-root>/src/cuda-spirv/xla_hlo/.venv-tf/lib/python3.12/site-packages/tensorflow/python/framework/ops.py" source_line=1221}
  %Mean_12.11 = f32[] constant(0), metadata={op_type="Mean" op_name="Mean_12" source_file="<repo-root>/src/cuda-spirv/xla_hlo/.venv-tf/lib/python3.12/site-packages/tensorflow/python/framework/ops.py" source_line=1221}
  %Mean_12.12 = f32[] convert(f32[] %Mean_12.11), metadata={op_type="Mean" op_name="Mean_12" source_file="<repo-root>/src/cuda-spirv/xla_hlo/.venv-tf/lib/python3.12/site-packages/tensorflow/python/framework/ops.py" source_line=1221}
  %Mean_12.13 = f32[1,64]{1,0} reduce(f32[1,64,384]{2,1,0} %Mean_12.10, f32[] %Mean_12.12), dimensions={2}, to_apply=%Mean_12-reduction.21, metadata={op_type="Mean" op_name="Mean_12" source_file="<repo-root>/src/cuda-spirv/xla_hlo/.venv-tf/lib/python3.12/site-packages/tensorflow/python/framework/ops.py" source_line=1221}
  %Mean_12.14 = s32[] constant(384), metadata={op_type="Mean" op_name="Mean_12" source_file="<repo-root>/src/cuda-spirv/xla_hlo/.venv-tf/lib/python3.12/site-packages/tensorflow/python/framework/ops.py" source_line=1221}
  %Mean_12.15 = f32[] convert(s32[] %Mean_12.14), metadata={op_type="Mean" op_name="Mean_12" source_file="<repo-root>/src/cuda-spirv/xla_hlo/.venv-tf/lib/python3.12/site-packages/tensorflow/python/framework/ops.py" source_line=1221}
  %Mean_12.16 = f32[1,64]{1,0} broadcast(f32[] %Mean_12.15), dimensions={}, metadata={op_type="Mean" op_name="Mean_12" source_file="<repo-root>/src/cuda-spirv/xla_hlo/.venv-tf/lib/python3.12/site-packages/tensorflow/python/framework/ops.py" source_line=1221}
…
  %sub_20.3 = f32[1,64]{1,0} reshape(f32[1,64,1]{2,1,0} %Mean_20.19), metadata={op_type="Sub" op_name="sub_20" source_file="<repo-root>/src/cuda-spirv/xla_hlo/.venv-tf/lib/python3.12/site-packages/tensorflow/python/framework/ops.py" source_line=1221}
  %sub_20.4 = f32[1,64,384]{2,1,0} broadcast(f32[1,64]{1,0} %sub_20.3), dimensions={0,1}, metadata={op_type="Sub" op_name="sub_20" source_file="<repo-root>/src/cuda-spirv/xla_hlo/.venv-tf/lib/python3.12/site-packages/tensorflow/python/framework/ops.py" source_line=1221}
  %sub_20.5 = f32[1,64,384]{2,1,0} subtract(f32[1,64,384]{2,1,0} %add_74.1, f32[1,64,384]{2,1,0} %sub_20.4), metadata={op_type="Sub" op_name="sub_20" source_file="<repo-root>/src/cuda-spirv/xla_hlo/.venv-tf/lib/python3.12/site-packages/tensorflow/python/framework/ops.py" source_line=1221}
  %Square_10.1 = f32[1,64,384]{2,1,0} multiply(f32[1,64,384]{2,1,0} %sub_20.5, f32[1,64,384]{2,1,0} %sub_20.5), metadata={op_type="Square" op_name="Square_10" source_file="<repo-root>/src/cuda-spirv/xla_hlo/.venv-tf/lib/python3.12/site-packages/tensorflow/python/framework/ops.py" source_line=1221}
  %Mean_21.10 = f32[1,64,384]{2,1,0} convert(f32[1,64,384]{2,1,0} %Square_10.1), metadata={op_type="Mean" op_name="Mean_21" source_file="<repo-root>/src/cuda-spirv/xla_hlo/.venv-tf/lib/python3.12/site-packages/tensorflow/python/framework/ops.py" source_line=1221}
  %Mean_21.11 = f32[] constant(0), metadata={op_type="Mean" op_name="Mean_21" source_file="<repo-root>/src/cuda-spirv/xla_hlo/.venv-tf/lib/python3.12/site-packages/tensorflow/python/framework/ops.py" source_line=1221}
  %Mean_21.12 = f32[] convert(f32[] %Mean_21.11), metadata={op_type="Mean" op_name="Mean_21" source_file="<repo-root>/src/cuda-spirv/xla_hlo/.venv-tf/lib/python3.12/site-packages/tensorflow/python/framework/ops.py" source_line=1221}
  %Mean_21.13 = f32[1,64]{1,0} reduce(f32[1,64,384]{2,1,0} %Mean_21.10, f32[] %Mean_21.12), dimensions={2}, to_apply=%Mean_21-reduction.36, metadata={op_type="Mean" op_name="Mean_21" source_file="<repo-root>/src/cuda-spirv/xla_hlo/.venv-tf/lib/python3.12/site-packages/tensorflow/python/framework/ops.py" source_line=1221}
  %Mean_21.14 = s32[] constant(384), metadata={op_type="Mean" op_name="Mean_21" source_file="<repo-root>/src/cuda-spirv/xla_hlo/.venv-tf/lib/python3.12/site-packages/tensorflow/python/framework/ops.py" source_line=1221}
  %Mean_21.15 = f32[] convert(s32[] %Mean_21.14), metadata={op_type="Mean" op_name="Mean_21" source_file="<repo-root>/src/cuda-spirv/xla_hlo/.venv-tf/lib/python3.12/site-packages/tensorflow/python/framework/ops.py" source_line=1221}
  %Mean_21.16 = f32[1,64]{1,0} broadcast(f32[] %Mean_21.15), dimensions={}, metadata={op_type="Mean" op_name="Mean_21" source_file="<repo-root>/src/cuda-spirv/xla_hlo/.venv-tf/lib/python3.12/site-packages/tensorflow/python/framework/ops.py" source_line=1221}
  %Mean_21.17 = f32[1,64]{1,0} divide(f32[1,64]{1,0} %Mean_21.13, f32[1,64]{1,0} %Mean_21.16), metadata={op_type="Mean" op_name="Mean_21" source_file="<repo-root>/src/cuda-spirv/xla_hlo/.venv-tf/lib/python3.12/site-packages/tensorflow/python/framework/ops.py" source_line=1221}
  %Mean_21.18 = f32[1,64]{1,0} convert(f32[1,64]{1,0} %Mean_21.17), metadata={op_type="Mean" op_name="Mean_21" source_file="<repo-root>/src/cuda-spirv/xla_hlo/.venv-tf/lib/python3.12/site-packages/tensorflow/python/framework/ops.py" source_line=1221}
  %Mean_21.19 = f32[1,64,1]{2,1,0} reshape(f32[1,64]{1,0} %Mean_21.18), metadata={op_type="Mean" op_name="Mean_21" source_file="<repo-root>/src/cuda-spirv/xla_hlo/.venv-tf/lib/python3.12/site-packages/tensorflow/python/framework/ops.py" source_line=1221}
  %add_75.3 = f32[] constant(1e-05), metadata={op_type="AddV2" op_name="add_75" source_file="<repo-root>/src/cuda-spirv/xla_hlo/.venv-tf/lib/python3.12/site-packages/tensorflow/python/framework/ops.py" source_line=1221}
  %add_75.4 = f32[1,64,1]{2,1,0} broadcast(f32[] %add_75.3), dimensions={}, metadata={op_type="AddV2" op_name="add_75" source_file="<repo-root>/src/cuda-spirv/xla_hlo/.venv-tf/lib/python3.12/site-packages/tensorflow/python/framework/ops.py" source_line=1221}
  %add_75.5 = f32[1,64,1]{2,1,0} add(f32[1,64,1]{2,1,0} %Mean_21.19, f32[1,64,1]{2,1,0} %add_75.4), metadata={op_type="AddV2" op_name="add_75" source_file="<repo-root>/src/cuda-spirv/xla_hlo/.venv-tf/lib/python3.12/site-packages/tensorflow/python/framework/ops.py" source_line=1221}
  %Rsqrt_17.1 = f32[1,64,1]{2,1,0} rsqrt(f32[1,64,1]{2,1,0} %add_75.5), metadata={op_type="Rsqrt" op_name="Rsqrt_17"}
  %mul_45.3 = f32[1,64]{1,0} reshape(f32[1,64,1]{2,1,0} %Rsqrt_17.1), metadata={op_type="Mul" op_name="mul_45" source_file="<repo-root>/src/cuda-spirv/xla_hlo/.venv-tf/lib/python3.12/site-packages/tensorflow/python/framework/ops.py" source_line=1221}
  %mul_45.4 = f32[1,64,384]{2,1,0} broadcast(f32[1,64]{1,0} %mul_45.3), dimensions={0,1}, metadata={op_type="Mul" op_name="mul_45" source_file="<repo-root>/src/cuda-spirv/xla_hlo/.venv-tf/lib/python3.12/site-packages/tensorflow/python/framework/ops.py" source_line=1221}
  %mul_45.5 = f32[1,64,384]{2,1,0} multiply(f32[1,64,384]{2,1,0} %sub_21.5, f32[1,64,384]{2,1,0} %mul_45.4), metadata={op_type="Mul" op_name="mul_45" source_file="<repo-root>/src/cuda-spirv/xla_hlo/.venv-tf/lib/python3.12/site-packages/tensorflow/python/framework/ops.py" source_line=1221}
  %arg92.1 = f32[384]{0} parameter(92), parameter_replication={false}, metadata={op_name="XLA_Args"}
  %reshape.203 = f32[384]{0} reshape(f32[384]{0} %arg92.1)
  %mul_46.2 = f32[1,64,384]{2,1,0} broadcast(f32[384]{0} %reshape.203), dimensions={2}, metadata={op_type="Mul" op_name="mul_46" source_file="<repo-root>/src/cuda-spirv/xla_hlo/.venv-tf/lib/python3.12/site-packages/tensorflow/python/framework/ops.py" source_line=1221}
  %mul_46.3 = f32[1,64,384]{2,1,0} multiply(f32[1,64,384]{2,1,0} %mul_45.5, f32[1,64,384]{2,1,0} %mul_46.2), metadata={op_type="Mul" op_name="mul_46" source_file="<repo-root>/src/cuda-spirv/xla_hlo/.venv-tf/lib/python3.12/site-packages/tensorflow/python/framework/ops.py" source_line=1221}
  %arg93.1 = f32[384]{0} parameter(93), parameter_replication={false}, metadata={op_name="XLA_Args"}
  %reshape.204 = f32[384]{0} reshape(f32[384]{0} %arg93.1)
  %add_76.2 = f32[1,64,384]{2,1,0} broadcast(f32[384]{0} %reshape.204), dimensions={2}, metadata={op_type="AddV2" op_name="add_76" source_file="<repo-root>/src/cuda-spirv/xla_hlo/.venv-tf/lib/python3.12/site-packages/tensorflow/python/framework/ops.py" source_line=1221}
  %add_76.3 = f32[1,64,384]{2,1,0} add(f32[1,64,384]{2,1,0} %mul_46.3, f32[1,64,384]{2,1,0} %add_76.2), metadata={op_type="AddV2" op_name="add_76" source_file="<repo-root>/src/cuda-spirv/xla_hlo/.venv-tf/lib/python3.12/site-packages/tensorflow/python/framework/ops.py" source_line=1221}
  %arg94.1 = f32[384,384]{1,0} parameter(94), parameter_replication={false}, metadata={op_name="XLA_Args"}
  %reshape.205 = f32[384,384]{1,0} reshape(f32[384,384]{1,0} %arg94.1)
  %MatMul_48.2 = f32[1,64,384]{2,1,0} dot(f32[1,64,384]{2,1,0} %add_76.3, f32[384,384]{1,0} %reshape.205), lhs_contracting_dims={2}, rhs_contracting_dims={0}, frontend_attributes={grad_x="false",grad_y="false"}, metadata={op_type="BatchMatMulV2" op_name="MatMul_48" source_file="<repo-root>/src/cuda-spirv/xla_hlo/.venv-tf/lib/python3.12/site-packages/tensorflow/python/framework/ops.py" source_line=1221}
  %MatMul_48.3 = f32[1,64,384]{2,1,0} transpose(f32[1,64,384]{2,1,0} %MatMul_48.2), dimensions={0,1,2}, metadata={op_type="BatchMatMulV2" op_name="MatMul_48" source_file="<repo-root>/src/cuda-spirv/xla_hlo/.venv-tf/lib/python3.12/site-packages/tensorflow/python/framework/ops.py" source_line=1221}
  %arg95.1 = f32[384]{0} parameter(95), parameter_replication={false}, metadata={op_name="XLA_Args"}
  %reshape.206 = f32[384]{0} reshape(f32[384]{0} %arg95.1)
  %add_77.2 = f32[1,64,384]{2,1,0} broadcast(f32[384]{0} %reshape.206), dimensions={2}, metadata={op_type="AddV2" op_name="add_77" source_file="<repo-root>/src/cuda-spirv/xla_hlo/.venv-tf/lib/python3.12/site-packages/tensorflow/python/framework/ops.py" source_line=1221}
  %add_77.3 = f32[1,64,384]{2,1,0} add(f32[1,64,384]{2,1,0} %MatMul_48.3, f32[1,64,384]{2,1,0} %add_77.2), metadata={op_type="AddV2" op_name="add_77" source_file="<repo-root>/src/cuda-spirv/xla_hlo/.venv-tf/lib/python3.12/site-packages/tensorflow/python/framework/ops.py" source_line=1221}
  %Reshape_28.1 = f32[1,64,6,64]{3,2,1,0} reshape(f32[1,64,384]{2,1,0} %add_77.3), metadata={op_type="Reshape" op_name="Reshape_28" source_file="<repo-root>/src/cuda-spirv/xla_hlo/.venv-tf/lib/python3.12/site-packages/tensorflow/python/framework/ops.py" source_line=1221}
  %transpose_28.1 = f32[1,6,64,64]{3,1,2,0} transpose(f32[1,64,6,64]{3,2,1,0} %Reshape_28.1), dimensions={0,2,1,3}, metadata={op_type="Transpose" op_name="transpose_28" source_file="<repo-root>/src/cuda-spirv/xla_hlo/.venv-tf/lib/python3.12/site-packages/tensorflow/python/framework/ops.py" source_line=1221}
  %arg96.1 = f32[384,384]{1,0} parameter(96), parameter_replication={false}, metadata={op_name="XLA_Args"}
  %reshape.207 = f32[384,384]{1,0} reshape(f32[384,384]{1,0} %arg96.1)
  %MatMul_49.2 = f32[1,1500,384]{2,1,0} dot(f32[1,1500,384]{2,1,0} %reshape.111, f32[384,384]{1,0} %reshape.207), lhs_contracting_dims={2}, rhs_contracting_dims={0}, frontend_attributes={grad_x="false",grad_y="false"}, metadata={op_type="BatchMatMulV2" op_name="MatMul_49" source_file="<repo-root>/src/cuda-spirv/xla_hlo/.venv-tf/lib/python3.12/site-packages/tensorflow/python/framework/ops.py" source_line=1221}
  %MatMul_49.3 = f32[1,1500,384]{2,1,0} transpose(f32[1,1500,384]{2,1,0} %MatMul_49.2), dimensions={0,1,2}, metadata={op_type="BatchMatMulV2" op_name="MatMul_49" source_file="<repo-root>/src/cuda-spirv/xla_hlo/.venv-tf/lib/python3.12/site-packages/tensorflow/python/framework/ops.py" source_line=1221}
  %arg97.1 = f32[384]{0} parameter(97), parameter_replication={false}, metadata={op_name="XLA_Args"}
  %reshape.208 = f32[384]{0} reshape(f32[384]{0} %arg97.1)
  %add_78.2 = f32[1,1500,384]{2,1,0} broadcast(f32[384]{0} %reshape.208), dimensions={2}, metadata={op_type="AddV2" op_name="add_78" source_file="<repo-root>/src/cuda-spirv/xla_hlo/.venv-tf/lib/python3.12/site-packages/tensorflow/python/framework/ops.py" source_line=1221}
  %add_78.3 = f32[1,1500,384]{2,1,0} add(f32[1,1500,384]{2,1,0} %MatMul_49.3, f32[1,1500,384]{2,1,0} %add_78.2), metadata={op_type="AddV2" op_name="add_78" source_file="<repo-root>/src/cuda-spirv/xla_hlo/.venv-tf/lib/python3.12/site-packages/tensorflow/python/framework/ops.py" source_line=1221}
  %Reshape_29.1 = f32[1,1500,6,64]{3,2,1,0} reshape(f32[1,1500,384]{2,1,0} %add_78.3), metadata={op_type="Reshape" op_name="Reshape_29" source_file="<repo-root>/src/cuda-spirv/xla_hlo/.venv-tf/lib/python3.12/site-packages/tensorflow/python/framework/ops.py" source_line=1221}
  %transpose_29.1 = f32[1,6,1500,64]{3,1,2,0} transpose(f32[1,1500,6,64]{3,2,1,0} %Reshape_29.1), dimensions={0,2,1,3}, metadata={op_type="Transpose" op_name="transpose_29" source_file="<repo-root>/src/cuda-spirv/xla_hlo/.venv-tf/lib/python3.12/site-packages/tensorflow/python/framework/ops.py" source_line=1221}
  %MatMul_51.2 = f32[1,6,64,1500]{3,2,1,0} dot(f32[1,6,64,64]{3,1,2,0} %transpose_28.1, f32[1,6,1500,64]{3,1,2,0} %transpose_29.1), lhs_batch_dims={0,1}, lhs_contracting_dims={3}, rhs_batch_dims={0,1}, rhs_contracting_dims={3}, frontend_attributes={grad_x="false",grad_y="false"}, metadata={op_type="BatchMatMulV2" op_name="MatMul_51" source_file="<repo-root>/src/cuda-spirv/xla_hlo/.venv-tf/lib/python3.12/site-packages/tensorflow/python/framework/ops.py" source_line=1221}
  %MatMul_51.3 = f32[1,6,64,1500]{3,2,1,0} transpose(f32[1,6,64,1500]{3,2,1,0} %MatMul_51.2), dimensions={0,1,2,3}, metadata={op_type="BatchMatMulV2" op_name="MatMul_51" source_file="<repo-root>/src/cuda-spirv/xla_hlo/.venv-tf/lib/python3.12/site-packages/tensorflow/python/framework/ops.py" source_line=1221}
  %mul_47.3 = f32[] constant(0.125), metadata={op_type="Mul" op_name="mul_47" source_file="<repo-root>/src/cuda-spirv/xla_hlo/.venv-tf/lib/python3.12/site-packages/tensorflow/python/framework/ops.py" source_line=1221}
  %mul_47.4 = f32[1,6,64,1500]{3,2,1,0} broadcast(f32[] %mul_47.3), dimensions={}, metadata={op_type="Mul" op_name="mul_47" source_file="<repo-root>/src/cuda-spirv/xla_hlo/.venv-tf/lib/python3.12/site-packages/tensorflow/python/framework/ops.py" source_line=1221}
  %mul_47.5 = f32[1,6,64,1500]{3,2,1,0} multiply(f32[1,6,64,1500]{3,2,1,0} %MatMul_51.3, f32[1,6,64,1500]{3,2,1,0} %mul_47.4), metadata={op_type="Mul" op_name="mul_47" source_file="<repo-root>/src/cuda-spirv/xla_hlo/.venv-tf/lib/python3.12/site-packages/tensorflow/python/framework/ops.py" source_line=1221}
  %Softmax_7.28 = f32[] constant(-inf), metadata={op_type="Softmax" op_name="Softmax_7" source_file="<repo-root>/src/cuda-spirv/xla_hlo/.venv-tf/lib/python3.12/site-packages/tensorflow/python/framework/ops.py" source_line=1221}
  %Softmax_7.29 = f32[1,6,64]{2,1,0} reduce(f32[1,6,64,1500]{3,2,1,0} %mul_47.5, f32[] %Softmax_7.28), dimensions={3}, to_apply=%region_0.37, metadata={op_type="Softmax" op_name="Softmax_7"}
  %Softmax_7.30 = f32[1,6,64,1]{3,2,1,0} reshape(f32[1,6,64]{2,1,0} %Softmax_7.29), metadata={op_type="Softmax" op_name="Softmax_7"}
  %Softmax_7.31 = f32[1,6,64,1]{3,2,1,0} broadcast(f32[1,6,64,1]{3,2,1,0} %Softmax_7.30), dimensions={0,1,2,3}, metadata={op_type="Softmax" op_name="Softmax_7"}
  %Softmax_7.32 = f32[1,6,64]{2,1,0} reshape(f32[1,6,64,1]{3,2,1,0} %Softmax_7.31), metadata={op_type="Softmax" op_name="Softmax_7"}
  %Softmax_7.33 = f32[1,6,64,1500]{3,2,1,0} broadcast(f32[1,6,64]{2,1,0} %Softmax_7.32), dimensions={0,1,2}, metadata={op_type="Softmax" op_name="Softmax_7"}
  %Softmax_7.34 = f32[1,6,64,1500]{3,2,1,0} subtract(f32[1,6,64,1500]{3,2,1,0} %mul_47.5, f32[1,6,64,1500]{3,2,1,0} %Softmax_7.33), metadata={op_type="Softmax" op_name="Softmax_7"}
  %Softmax_7.35 = f32[1,6,64,1500]{3,2,1,0} exponential(f32[1,6,64,1500]{3,2,1,0} %Softmax_7.34), metadata={op_type="Softmax" op_name="Softmax_7"}
  %Softmax_7.27 = f32[] constant(-0), metadata={op_type="Softmax" op_name="Softmax_7" source_file="<repo-root>/src/cuda-spirv/xla_hlo/.venv-tf/lib/python3.12/site-packages/tensorflow/python/framework/ops.py" source_line=1221}
  %Softmax_7.36 = f32[1,6,64]{2,1,0} reduce(f32[1,6,64,1500]{3,2,1,0} %Softmax_7.35, f32[] %Softmax_7.27), dimensions={3}, to_apply=%region_1.38, metadata={op_type="Softmax" op_name="Softmax_7"}
  %Softmax_7.37 = f32[1,6,64,1]{3,2,1,0} reshape(f32[1,6,64]{2,1,0} %Softmax_7.36), metadata={op_type="Softmax" op_name="Softmax_7"}
  %Softmax_7.38 = f32[1,6,64,1]{3,2,1,0} broadcast(f32[1,6,64,1]{3,2,1,0} %Softmax_7.37), dimensions={0,1,2,3}, metadata={op_type="Softmax" op_name="Softmax_7"}
  %Softmax_7.39 = f32[1,6,64]{2,1,0} reshape(f32[1,6,64,1]{3,2,1,0} %Softmax_7.38), metadata={op_type="Softmax" op_name="Softmax_7"}
  %Softmax_7.40 = f32[1,6,64,1500]{3,2,1,0} broadcast(f32[1,6,64]{2,1,0} %Softmax_7.39), dimensions={0,1,2}, metadata={op_type="Softmax" op_name="Softmax_7"}
  %Softmax_7.41 = f32[1,6,64,1500]{3,2,1,0} divide(f32[1,6,64,1500]{3,2,1,0} %Softmax_7.35, f32[1,6,64,1500]{3,2,1,0} %Softmax_7.40), metadata={op_type="Softmax" op_name="Softmax_7"}
  %arg98.1 = f32[384,384]{1,0} parameter(98), parameter_replication={false}, metadata={op_name="XLA_Args"}
  %reshape.209 = f32[384,384]{1,0} reshape(f32[384,384]{1,0} %arg98.1)
  %MatMul_50.2 = f32[1,1500,384]{2,1,0} dot(f32[1,1500,384]{2,1,0} %reshape.111, f32[384,384]{1,0} %reshape.209), lhs_contracting_dims={2}, rhs_contracting_dims={0}, frontend_attributes={grad_x="false",grad_y="false"}, metadata={op_type="BatchMatMulV2" op_name="MatMul_50" source_file="<repo-root>/src/cuda-spirv/xla_hlo/.venv-tf/lib/python3.12/site-packages/tensorflow/python/framework/ops.py" source_line=1221}
  %MatMul_50.3 = f32[1,1500,384]{2,1,0} transpose(f32[1,1500,384]{2,1,0} %MatMul_50.2), dimensions={0,1,2}, metadata={op_type="BatchMatMulV2" op_name="MatMul_50" source_file="<repo-root>/src/cuda-spirv/xla_hlo/.venv-tf/lib/python3.12/site-packages/tensorflow/python/framework/ops.py" source_line=1221}
  %arg99.1 = f32[384]{0} parameter(99), parameter_replication={false}, metadata={op_name="XLA_Args"}
  %reshape.210 = f32[384]{0} reshape(f32[384]{0} %arg99.1)
  %add_79.2 = f32[1,1500,384]{2,1,0} broadcast(f32[384]{0} %reshape.210), dimensions={2}, metadata={op_type="AddV2" op_name="add_79" source_file="<repo-root>/src/cuda-spirv/xla_hlo/.venv-tf/lib/python3.12/site-packages/tensorflow/python/framework/ops.py" source_line=1221}
  %add_79.3 = f32[1,1500,384]{2,1,0} add(f32[1,1500,384]{2,1,0} %MatMul_50.3, f32[1,1500,384]{2,1,0} %add_79.2), metadata={op_type="AddV2" op_name="add_79" source_file="<repo-root>/src/cuda-spirv/xla_hlo/.venv-tf/lib/python3.12/site-packages/tensorflow/python/framework/ops.py" source_line=1221}
  %Reshape_30.1 = f32[1,1500,6,64]{3,2,1,0} reshape(f32[1,1500,384]{2,1,0} %add_79.3), metadata={op_type="Reshape" op_name="Reshape_30" source_file="<repo-root>/src/cuda-spirv/xla_hlo/.venv-tf/lib/python3.12/site-packages/tensorflow/python/framework/ops.py" source_line=1221}
  %transpose_30.1 = f32[1,6,1500,64]{3,1,2,0} transpose(f32[1,1500,6,64]{3,2,1,0} %Reshape_30.1), dimensions={0,2,1,3}, metadata={op_type="Transpose" op_name="transpose_30" source_file="<repo-root>/src/cuda-spirv/xla_hlo/.venv-tf/lib/python3.12/site-packages/tensorflow/python/framework/ops.py" source_line=1221}
  %MatMul_52.2 = f32[1,6,64,64]{3,2,1,0} dot(f32[1,6,64,1500]{3,2,1,0} %Softmax_7.41, f32[1,6,1500,64]{3,1,2,0} %transpose_30.1), lhs_batch_dims={0,1}, lhs_contracting_dims={3}, rhs_batch_dims={0,1}, rhs_contracting_dims={2}, frontend_attributes={grad_x="false",grad_y="false"}, metadata={op_type="BatchMatMulV2" op_name="MatMul_52" source_file="<repo-root>/src/cuda-spirv/xla_hlo/.venv-tf/lib/python3.12/site-packages/tensorflow/python/framework/ops.py" source_line=1221}
  %MatMul_52.3 = f32[1,6,64,64]{3,2,1,0} transpose(f32[1,6,64,64]{3,2,1,0} %MatMul_52.2), dimensions={0,1,2,3}, metadata={op_type="BatchMatMulV2" op_name="MatMul_52" source_file="<repo-root>/src/cuda-spirv/xla_hlo/.venv-tf/lib/python3.12/site-packages/tensorflow/python/framework/ops.py" source_line=1221}
  %transpose_31.1 = f32[1,64,6,64]{3,1,2,0} transpose(f32[1,6,64,64]{3,2,1,0} %MatMul_52.3), dimensions={0,2,1,3}, metadata={op_type="Transpose" op_name="transpose_31" source_file="<repo-root>/src/cuda-spirv/xla_hlo/.venv-tf/lib/python3.12/site-packages/tensorflow/python/framework/ops.py" source_line=1221}
  %Reshape_31.1 = f32[1,64,384]{2,1,0} reshape(f32[1,64,6,64]{3,1,2,0} %transpose_31.1), metadata={op_type="Reshape" op_name="Reshape_31" source_file="<repo-root>/src/cuda-spirv/xla_hlo/.venv-tf/lib/python3.12/site-packages/tensorflow/python/framework/ops.py" source_line=1221}
  %arg100.1 = f32[384,384]{1,0} parameter(100), parameter_replication={false}, metadata={op_name="XLA_Args"}
  %reshape.211 = f32[384,384]{1,0} reshape(f32[384,384]{1,0} %arg100.1)
  %MatMul_53.2 = f32[1,64,384]{2,1,0} dot(f32[1,64,384]{2,1,0} %Reshape_31.1, f32[384,384]{1,0} %reshape.211), lhs_contracting_dims={2}, rhs_contracting_dims={0}, frontend_attributes={grad_x="false",grad_y="false"}, metadata={op_type="BatchMatMulV2" op_name="MatMul_53" source_file="<repo-root>/src/cuda-spirv/xla_hlo/.venv-tf/lib/python3.12/site-packages/tensorflow/python/framework/ops.py" source_line=1221}
  %MatMul_53.3 = f32[1,64,384]{2,1,0} transpose(f32[1,64,384]{2,1,0} %MatMul_53.2), dimensions={0,1,2}, metadata={op_type="BatchMatMulV2" op_name="MatMul_53" source_file="<repo-root>/src/cuda-spirv/xla_hlo/.venv-tf/lib/python3.12/site-packages/tensorflow/python/framework/ops.py" source_line=1221}
  %arg101.1 = f32[384]{0} parameter(101), parameter_replication={false}, metadata={op_name="XLA_Args"}
  %reshape.212 = f32[384]{0} reshape(f32[384]{0} %arg101.1)
  %add_80.2 = f32[1,64,384]{2,1,0} broadcast(f32[384]{0} %reshape.212), dimensions={2}, metadata={op_type="AddV2" op_name="add_80" source_file="<repo-root>/src/cuda-spirv/xla_hlo/.venv-tf/lib/python3.12/site-packages/tensorflow/python/framework/ops.py" source_line=1221}
  %add_80.3 = f32[1,64,384]{2,1,0} add(f32[1,64,384]{2,1,0} %MatMul_53.3, f32[1,64,384]{2,1,0} %add_80.2), metadata={op_type="AddV2" op_name="add_80" source_file="<repo-root>/src/cuda-spirv/xla_hlo/.venv-tf/lib/python3.12/site-packages/tensorflow/python/framework/ops.py" source_line=1221}
  %add_81.1 = f32[1,64,384]{2,1,0} add(f32[1,64,384]{2,1,0} %add_74.1, f32[1,64,384]{2,1,0} %add_80.3), metadata={op_type="AddV2" op_name="add_81" source_file="<repo-root>/src/cuda-spirv/xla_hlo/.venv-tf/lib/python3.12/site-packages/tensorflow/python/framework/ops.py" source_line=1221}
  %mul_50.3 = f32[] constant(0.5), metadata={op_type="Mul" op_name="mul_50" source_file="<repo-root>/src/cuda-spirv/xla_hlo/.venv-tf/lib/python3.12/site-packages/tensorflow/python/framework/ops.py" source_line=1221}
  %mul_50.4 = f32[1,64,1536]{2,1,0} broadcast(f32[] %mul_50.3), dimensions={}, metadata={op_type="Mul" op_name="mul_50" source_file="<repo-root>/src/cuda-spirv/xla_hlo/.venv-tf/lib/python3.12/site-packages/tensorflow/python/framework/ops.py" source_line=1221}
  %Mean_22.10 = f32[1,64,384]{2,1,0} convert(f32[1,64,384]{2,1,0} %add_81.1), metadata={op_type="Mean" op_name="Mean_22" source_file="<repo-root>/src/cuda-spirv/xla_hlo/.venv-tf/lib/python3.12/site-packages/tensorflow/python/framework/ops.py" source_line=1221}
  %Mean_22.11 = f32[] constant(0), metadata={op_type="Mean" op_name="Mean_22" source_file="<repo-root>/src/cuda-spirv/xla_hlo/.venv-tf/lib/python3.12/site-packages/tensorflow/python/framework/ops.py" source_line=1221}
  %Mean_22.12 = f32[] convert(f32[] %Mean_22.11), metadata={op_type="Mean" op_name="Mean_22" source_file="<repo-root>/src/cuda-spirv/xla_hlo/.venv-tf/lib/python3.12/site-packages/tensorflow/python/framework/ops.py" source_line=1221}
  %Mean_22.13 = f32[1,64]{1,0} reduce(f32[1,64,384]{2,1,0} %Mean_22.10, f32[] %Mean_22.12), dimensions={2}, to_apply=%Mean_22-reduction.39, metadata={op_type="Mean" op_name="Mean_22" source_file="<repo-root>/src/cuda-spirv/xla_hlo/.venv-tf/lib/python3.12/site-packages/tensorflow/python/framework/ops.py" source_line=1221}
  %Mean_22.14 = s32[] constant(384), metadata={op_type="Mean" op_name="Mean_22" source_file="<repo-root>/src/cuda-spirv/xla_hlo/.venv-tf/lib/python3.12/site-packages/tensorflow/python/framework/ops.py" source_line=1221}
  %Mean_22.15 = f32[] convert(s32[] %Mean_22.14), metadata={op_type="Mean" op_name="Mean_22" source_file="<repo-root>/src/cuda-spirv/xla_hlo/.venv-tf/lib/python3.12/site-packages/tensorflow/python/framework/ops.py" source_line=1221}
  %Mean_22.16 = f32[1,64]{1,0} broadcast(f32[] %Mean_22.15), dimensions={}, metadata={op_type="Mean" op_name="Mean_22" source_file="<repo-root>/src/cuda-spirv/xla_hlo/.venv-tf/lib/python3.12/site-packages/tensorflow/python/framework/ops.py" source_line=1221}
  %Mean_22.17 = f32[1,64]{1,0} divide(f32[1,64]{1,0} %Mean_22.13, f32[1,64]{1,0} %Mean_22.16), metadata={op_type="Mean" op_name="Mean_22" source_file="<repo-root>/src/cuda-spirv/xla_hlo/.venv-tf/lib/python3.12/site-packages/tensorflow/python/framework/ops.py" source_line=1221}
  %Mean_22.18 = f32[1,64]{1,0} convert(f32[1,64]{1,0} %Mean_22.17), metadata={op_type="Mean" op_name="Mean_22" source_file="<repo-root>/src/cuda-spirv/xla_hlo/.venv-tf/lib/python3.12/site-packages/tensorflow/python/framework/ops.py" source_line=1221}
  %Mean_22.19 = f32[1,64,1]{2,1,0} reshape(f32[1,64]{1,0} %Mean_22.18), metadata={op_type="Mean" op_name="Mean_22" source_file="<repo-root>/src/cuda-spirv/xla_hlo/.venv-tf/lib/python3.12/site-packages/tensorflow/python/framework/ops.py" source_line=1221}
  %sub_23.3 = f32[1,64]{1,0} reshape(f32[1,64,1]{2,1,0} %Mean_22.19), metadata={op_type="Sub" op_name="sub_23" source_file="<repo-root>/src/cuda-spirv/xla_hlo/.venv-tf/lib/python3.12/site-packages/tensorflow/python/framework/ops.py" source_line=1221}
  %sub_23.4 = f32[1,64,384]{2,1,0} broadcast(f32[1,64]{1,0} %sub_23.3), dimensions={0,1}, metadata={op_type="Sub" op_name="sub_23" source_file="<repo-root>/src/cuda-spirv/xla_hlo/.venv-tf/lib/python3.12/site-packages/tensorflow/python/framework/ops.py" source_line=1221}
  %sub_23.5 = f32[1,64,384]{2,1,0} subtract(f32[1,64,384]{2,1,0} %add_81.1, f32[1,64,384]{2,1,0} %sub_23.4), metadata={op_type="Sub" op_name="sub_23" source_file="<repo-root>/src/cuda-spirv/xla_hlo/.venv-tf/lib/python3.12/site-packages/tensorflow/python/framework/ops.py" source_line=1221}
  %sub_22.3 = f32[1,64]{1,0} reshape(f32[1,64,1]{2,1,0} %Mean_22.19), metadata={op_type="Sub" op_name="sub_22" source_file="<repo-root>/src/cuda-spirv/xla_hlo/.venv-tf/lib/python3.12/site-packages/tensorflow/python/framework/ops.py" source_line=1221}
  %sub_22.4 = f32[1,64,384]{2,1,0} broadcast(f32[1,64]{1,0} %sub_22.3), dimensions={0,1}, metadata={op_type="Sub" op_name="sub_22" source_file="<repo-root>/src/cuda-spirv/xla_hlo/.venv-tf/lib/python3.12/site-packages/tensorflow/python/framework/ops.py" source_line=1221}
  %sub_22.5 = f32[1,64,384]{2,1,0} subtract(f32[1,64,384]{2,1,0} %add_81.1, f32[1,64,384]{2,1,0} %sub_22.4), metadata={op_type="Sub" op_name="sub_22" source_file="<repo-root>/src/cuda-spirv/xla_hlo/.venv-tf/lib/python3.12/site-packages/tensorflow/python/framework/ops.py" source_line=1221}
  %Square_11.1 = f32[1,64,384]{2,1,0} multiply(f32[1,64,384]{2,1,0} %sub_22.5, f32[1,64,384]{2,1,0} %sub_22.5), metadata={op_type="Square" op_name="Square_11" source_file="<repo-root>/src/cuda-spirv/xla_hlo/.venv-tf/lib/python3.12/site-packages/tensorflow/python/framework/ops.py" source_line=1221}
  %Mean_23.10 = f32[1,64,384]{2,1,0} convert(f32[1,64,384]{2,1,0} %Square_11.1), metadata={op_type="Mean" op_name="Mean_23" source_file="<repo-root>/src/cuda-spirv/xla_hlo/.venv-tf/lib/python3.12/site-packages/tensorflow/python/framework/ops.py" source_line=1221}
  %Mean_23.11 = f32[] constant(0), metadata={op_type="Mean" op_name="Mean_23" source_file="<repo-root>/src/cuda-spirv/xla_hlo/.venv-tf/lib/python3.12/site-packages/tensorflow/python/framework/ops.py" source_line=1221}
  %Mean_23.12 = f32[] convert(f32[] %Mean_23.11), metadata={op_type="Mean" op_name="Mean_23" source_file="<repo-root>/src/cuda-spirv/xla_hlo/.venv-tf/lib/python3.12/site-packages/tensorflow/python/framework/ops.py" source_line=1221}
  %Mean_23.13 = f32[1,64]{1,0} reduce(f32[1,64,384]{2,1,0} %Mean_23.10, f32[] %Mean_23.12), dimensions={2}, to_apply=%Mean_23-reduction.40, metadata={op_type="Mean" op_name="Mean_23" source_file="<repo-root>/src/cuda-spirv/xla_hlo/.venv-tf/lib/python3.12/site-packages/tensorflow/python/framework/ops.py" source_line=1221}
  %Mean_23.14 = s32[] constant(384), metadata={op_type="Mean" op_name="Mean_23" source_file="<repo-root>/src/cuda-spirv/xla_hlo/.venv-tf/lib/python3.12/site-packages/tensorflow/python/framework/ops.py" source_line=1221}
  %Mean_23.15 = f32[] convert(s32[] %Mean_23.14), metadata={op_type="Mean" op_name="Mean_23" source_file="<repo-root>/src/cuda-spirv/xla_hlo/.venv-tf/lib/python3.12/site-packages/tensorflow/python/framework/ops.py" source_line=1221}
  %Mean_23.16 = f32[1,64]{1,0} broadcast(f32[] %Mean_23.15), dimensions={}, metadata={op_type="Mean" op_name="Mean_23" source_file="<repo-root>/src/cuda-spirv/xla_hlo/.venv-tf/lib/python3.12/site-packages/tensorflow/python/framework/ops.py" source_line=1221}
  %Mean_23.17 = f32[1,64]{1,0} divide(f32[1,64]{1,0} %Mean_23.13, f32[1,64]{1,0} %Mean_23.16), metadata={op_type="Mean" op_name="Mean_23" source_file="<repo-root>/src/cuda-spirv/xla_hlo/.venv-tf/lib/python3.12/site-packages/tensorflow/python/framework/ops.py" source_line=1221}
  %Mean_23.18 = f32[1,64]{1,0} convert(f32[1,64]{1,0} %Mean_23.17), metadata={op_type="Mean" op_name="Mean_23" source_file="<repo-root>/src/cuda-spirv/xla_hlo/.venv-tf/lib/python3.12/site-packages/tensorflow/python/framework/ops.py" source_line=1221}
  %Mean_23.19 = f32[1,64,1]{2,1,0} reshape(f32[1,64]{1,0} %Mean_23.18), metadata={op_type="Mean" op_name="Mean_23" source_file="<repo-root>/src/cuda-spirv/xla_hlo/.venv-tf/lib/python3.12/site-packages/tensorflow/python/framework/ops.py" source_line=1221}
  %add_82.3 = f32[] constant(1e-05), metadata={op_type="AddV2" op_name="add_82" source_file="<repo-root>/src/cuda-spirv/xla_hlo/.venv-tf/lib/python3.12/site-packages/tensorflow/python/framework/ops.py" source_line=1221}
  %add_82.4 = f32[1,64,1]{2,1,0} broadcast(f32[] %add_82.3), dimensions={}, metadata={op_type="AddV2" op_name="add_82" source_file="<repo-root>/src/cuda-spirv/xla_hlo/.venv-tf/lib/python3.12/site-packages/tensorflow/python/framework/ops.py" source_line=1221}
  %add_82.5 = f32[1,64,1]{2,1,0} add(f32[1,64,1]{2,1,0} %Mean_23.19, f32[1,64,1]{2,1,0} %add_82.4), metadata={op_type="AddV2" op_name="add_82" source_file="<repo-root>/src/cuda-spirv/xla_hlo/.venv-tf/lib/python3.12/site-packages/tensorflow/python/framework/ops.py" source_line=1221}
  %Rsqrt_19.1 = f32[1,64,1]{2,1,0} rsqrt(f32[1,64,1]{2,1,0} %add_82.5), metadata={op_type="Rsqrt" op_name="Rsqrt_19"}
  %mul_48.3 = f32[1,64]{1,0} reshape(f32[1,64,1]{2,1,0} %Rsqrt_19.1), metadata={op_type="Mul" op_name="mul_48" source_file="<repo-root>/src/cuda-spirv/xla_hlo/.venv-tf/lib/python3.12/site-packages/tensorflow/python/framework/ops.py" source_line=1221}
  %mul_48.4 = f32[1,64,384]{2,1,0} broadcast(f32[1,64]{1,0} %mul_48.3), dimensions={0,1}, metadata={op_type="Mul" op_name="mul_48" source_file="<repo-root>/src/cuda-spirv/xla_hlo/.venv-tf/lib/python3.12/site-packages/tensorflow/python/framework/ops.py" source_line=1221}
  %mul_48.5 = f32[1,64,384]{2,1,0} multiply(f32[1,64,384]{2,1,0} %sub_23.5, f32[1,64,384]{2,1,0} %mul_48.4), metadata={op_type="Mul" op_name="mul_48" source_file="<repo-root>/src/cuda-spirv/xla_hlo/.venv-tf/lib/python3.12/site-packages/tensorflow/python/framework/ops.py" source_line=1221}
  %arg102.1 = f32[384]{0} parameter(102), parameter_replication={false}, metadata={op_name="XLA_Args"}
  %reshape.213 = f32[384]{0} reshape(f32[384]{0} %arg102.1)
  %mul_49.2 = f32[1,64,384]{2,1,0} broadcast(f32[384]{0} %reshape.213), dimensions={2}, metadata={op_type="Mul" op_name="mul_49" source_file="<repo-root>/src/cuda-spirv/xla_hlo/.venv-tf/lib/python3.12/site-packages/tensorflow/python/framework/ops.py" source_line=1221}
  %mul_49.3 = f32[1,64,384]{2,1,0} multiply(f32[1,64,384]{2,1,0} %mul_48.5, f32[1,64,384]{2,1,0} %mul_49.2), metadata={op_type="Mul" op_name="mul_49" source_file="<repo-root>/src/cuda-spirv/xla_hlo/.venv-tf/lib/python3.12/site-packages/tensorflow/python/framework/ops.py" source_line=1221}
  %arg103.1 = f32[384]{0} parameter(103), parameter_replication={false}, metadata={op_name="XLA_Args"}
  %reshape.214 = f32[384]{0} reshape(f32[384]{0} %arg103.1)
  %add_83.2 = f32[1,64,384]{2,1,0} broadcast(f32[384]{0} %reshape.214), dimensions={2}, metadata={op_type="AddV2" op_name="add_83" source_file="<repo-root>/src/cuda-spirv/xla_hlo/.venv-tf/lib/python3.12/site-packages/tensorflow/python/framework/ops.py" source_line=1221}
  %add_83.3 = f32[1,64,384]{2,1,0} add(f32[1,64,384]{2,1,0} %mul_49.3, f32[1,64,384]{2,1,0} %add_83.2), metadata={op_type="AddV2" op_name="add_83" source_file="<repo-root>/src/cuda-spirv/xla_hlo/.venv-tf/lib/python3.12/site-packages/tensorflow/python/framework/ops.py" source_line=1221}
  %arg104.1 = f32[384,1536]{1,0} parameter(104), parameter_replication={false}, metadata={op_name="XLA_Args"}
  %reshape.215 = f32[384,1536]{1,0} reshape(f32[384,1536]{1,0} %arg104.1)
  %MatMul_54.2 = f32[1,64,1536]{2,1,0} dot(f32[1,64,384]{2,1,0} %add_83.3, f32[384,1536]{1,0} %reshape.215), lhs_contracting_dims={2}, rhs_contracting_dims={0}, frontend_attributes={grad_x="false",grad_y="false"}, metadata={op_type="BatchMatMulV2" op_name="MatMul_54" source_file="<repo-root>/src/cuda-spirv/xla_hlo/.venv-tf/lib/python3.12/site-packages/tensorflow/python/framework/ops.py" source_line=1221}
  %MatMul_54.3 = f32[1,64,1536]{2,1,0} transpose(f32[1,64,1536]{2,1,0} %MatMul_54.2), dimensions={0,1,2}, metadata={op_type="BatchMatMulV2" op_name="MatMul_54" source_file="<repo-root>/src/cuda-spirv/xla_hlo/.venv-tf/lib/python3.12/site-packages/tensorflow/python/framework/ops.py" source_line=1221}
  %arg105.1 = f32[1536]{0} parameter(105), parameter_replication={false}, metadata={op_name="XLA_Args"}
  %reshape.216 = f32[1536]{0} reshape(f32[1536]{0} %arg105.1)
  %add_84.2 = f32[1,64,1536]{2,1,0} broadcast(f32[1536]{0} %reshape.216), dimensions={2}, metadata={op_type="AddV2" op_name="add_84" source_file="<repo-root>/src/cuda-spirv/xla_hlo/.venv-tf/lib/python3.12/site-packages/tensorflow/python/framework/ops.py" source_line=1221}
  %add_84.3 = f32[1,64,1536]{2,1,0} add(f32[1,64,1536]{2,1,0} %MatMul_54.3, f32[1,64,1536]{2,1,0} %add_84.2), metadata={op_type="AddV2" op_name="add_84" source_file="<repo-root>/src/cuda-spirv/xla_hlo/.venv-tf/lib/python3.12/site-packages/tensorflow/python/framework/ops.py" source_line=1221}
  %mul_50.5 = f32[1,64,1536]{2,1,0} multiply(f32[1,64,1536]{2,1,0} %mul_50.4, f32[1,64,1536]{2,1,0} %add_84.3), metadata={op_type="Mul" op_name="mul_50" source_file="<repo-root>/src/cuda-spirv/xla_hlo/.venv-tf/lib/python3.12/site-packages/tensorflow/python/framework/ops.py" source_line=1221}
  %add_86.3 = f32[] constant(1), metadata={op_type="AddV2" op_name="add_86" source_file="<repo-root>/src/cuda-spirv/xla_hlo/.venv-tf/lib/python3.12/site-packages/tensorflow/python/framework/ops.py" source_line=1221}
  %add_86.4 = f32[1,64,1536]{2,1,0} broadcast(f32[] %add_86.3), dimensions={}, metadata={op_type="AddV2" op_name="add_86" source_file="<repo-root>/src/cuda-spirv/xla_hlo/.venv-tf/lib/python3.12/site-packages/tensorflow/python/framework/ops.py" source_line=1221}
  %mul_54.3 = f32[] constant(0.797884583), metadata={op_type="Mul" op_name="mul_54" source_file="<repo-root>/src/cuda-spirv/xla_hlo/.venv-tf/lib/python3.12/site-packages/tensorflow/python/framework/ops.py" source_line=1221}
  %mul_54.4 = f32[1,64,1536]{2,1,0} broadcast(f32[] %mul_54.3), dimensions={}, metadata={op_type="Mul" op_name="mul_54" source_file="<repo-root>/src/cuda-spirv/xla_hlo/.venv-tf/lib/python3.12/site-packages/tensorflow/python/framework/ops.py" source_line=1221}
  %mul_51.3 = f32[] constant(0.044715), metadata={op_type="Mul" op_name="mul_51" source_file="<repo-root>/src/cuda-spirv/xla_hlo/.venv-tf/lib/python3.12/site-packages/tensorflow/python/framework/ops.py" source_line=1221}
  %mul_51.4 = f32[1,64,1536]{2,1,0} broadcast(f32[] %mul_51.3), dimensions={}, metadata={op_type="Mul" op_name="mul_51" source_file="<repo-root>/src/cuda-spirv/xla_hlo/.venv-tf/lib/python3.12/site-packages/tensorflow/python/framework/ops.py" source_line=1221}
  %mul_51.5 = f32[1,64,1536]{2,1,0} multiply(f32[1,64,1536]{2,1,0} %mul_51.4, f32[1,64,1536]{2,1,0} %add_84.3), metadata={op_type="Mul" op_name="mul_51" source_file="<repo-root>/src/cuda-spirv/xla_hlo/.venv-tf/lib/python3.12/site-packages/tensorflow/python/framework/ops.py" source_line=1221}
  %mul_52.1 = f32[1,64,1536]{2,1,0} multiply(f32[1,64,1536]{2,1,0} %mul_51.5, f32[1,64,1536]{2,1,0} %add_84.3), metadata={op_type="Mul" op_name="mul_52" source_file="<repo-root>/src/cuda-spirv/xla_hlo/.venv-tf/lib/python3.12/site-packages/tensorflow/python/framework/ops.py" source_line=1221}
  %mul_53.1 = f32[1,64,1536]{2,1,0} multiply(f32[1,64,1536]{2,1,0} %mul_52.1, f32[1,64,1536]{2,1,0} %add_84.3), metadata={op_type="Mul" op_name="mul_53" source_file="<repo-root>/src/cuda-spirv/xla_hlo/.venv-tf/lib/python3.12/site-packages/tensorflow/python/framework/ops.py" source_line=1221}
  %add_85.1 = f32[1,64,1536]{2,1,0} add(f32[1,64,1536]{2,1,0} %add_84.3, f32[1,64,1536]{2,1,0} %mul_53.1), metadata={op_type="AddV2" op_name="add_85" source_file="<repo-root>/src/cuda-spirv/xla_hlo/.venv-tf/lib/python3.12/site-packages/tensorflow/python/framework/ops.py" source_line=1221}
  %mul_54.5 = f32[1,64,1536]{2,1,0} multiply(f32[1,64,1536]{2,1,0} %mul_54.4, f32[1,64,1536]{2,1,0} %add_85.1), metadata={op_type="Mul" op_name="mul_54" source_file="<repo-root>/src/cuda-spirv/xla_hlo/.venv-tf/lib/python3.12/site-packages/tensorflow/python/framework/ops.py" source_line=1221}
  %Tanh_3.1 = f32[1,64,1536]{2,1,0} tanh(f32[1,64,1536]{2,1,0} %mul_54.5), metadata={op_type="Tanh" op_name="Tanh_3"}
  %add_86.5 = f32[1,64,1536]{2,1,0} add(f32[1,64,1536]{2,1,0} %add_86.4, f32[1,64,1536]{2,1,0} %Tanh_3.1), metadata={op_type="AddV2" op_name="add_86" source_file="<repo-root>/src/cuda-spirv/xla_hlo/.venv-tf/lib/python3.12/site-packages/tensorflow/python/framework/ops.py" source_line=1221}
  %mul_55.1 = f32[1,64,1536]{2,1,0} multiply(f32[1,64,1536]{2,1,0} %mul_50.5, f32[1,64,1536]{2,1,0} %add_86.5), metadata={op_type="Mul" op_name="mul_55" source_file="<repo-root>/src/cuda-spirv/xla_hlo/.venv-tf/lib/python3.12/site-packages/tensorflow/python/framework/ops.py" source_line=1221}
  %arg106.1 = f32[1536,384]{1,0} parameter(106), parameter_replication={false}, metadata={op_name="XLA_Args"}
  %reshape.217 = f32[1536,384]{1,0} reshape(f32[1536,384]{1,0} %arg106.1)
  %MatMul_55.2 = f32[1,64,384]{2,1,0} dot(f32[1,64,1536]{2,1,0} %mul_55.1, f32[1536,384]{1,0} %reshape.217), lhs_contracting_dims={2}, rhs_contracting_dims={0}, frontend_attributes={grad_x="false",grad_y="false"}, metadata={op_type="BatchMatMulV2" op_name="MatMul_55" source_file="<repo-root>/src/cuda-spirv/xla_hlo/.venv-tf/lib/python3.12/site-packages/tensorflow/python/framework/ops.py" source_line=1221}
  %MatMul_55.3 = f32[1,64,384]{2,1,0} transpose(f32[1,64,384]{2,1,0} %MatMul_55.2), dimensions={0,1,2}, metadata={op_type="BatchMatMulV2" op_name="MatMul_55" source_file="<repo-root>/src/cuda-spirv/xla_hlo/.venv-tf/lib/python3.12/site-packages/tensorflow/python/framework/ops.py" source_line=1221}
  %arg107.1 = f32[384]{0} parameter(107), parameter_replication={false}, metadata={op_name="XLA_Args"}
  %reshape.218 = f32[384]{0} reshape(f32[384]{0} %arg107.1)
  %add_87.2 = f32[1,64,384]{2,1,0} broadcast(f32[384]{0} %reshape.218), dimensions={2}, metadata={op_type="AddV2" op_name="add_87" source_file="<repo-root>/src/cuda-spirv/xla_hlo/.venv-tf/lib/python3.12/site-packages/tensorflow/python/framework/ops.py" source_line=1221}
  %add_87.3 = f32[1,64,384]{2,1,0} add(f32[1,64,384]{2,1,0} %MatMul_55.3, f32[1,64,384]{2,1,0} %add_87.2), metadata={op_type="AddV2" op_name="add_87" source_file="<repo-root>/src/cuda-spirv/xla_hlo/.venv-tf/lib/python3.12/site-packages/tensorflow/python/framework/ops.py" source_line=1221}
  %add_88.1 = f32[1,64,384]{2,1,0} add(f32[1,64,384]{2,1,0} %add_81.1, f32[1,64,384]{2,1,0} %add_87.3), metadata={op_type="AddV2" op_name="add_88" source_file="<repo-root>/src/cuda-spirv/xla_hlo/.venv-tf/lib/python3.12/site-packages/tensorflow/python/framework/ops.py" source_line=1221}
  %Mean_24.10 = f32[1,64,384]{2,1,0} convert(f32[1,64,384]{2,1,0} %add_88.1), metadata={op_type="Mean" op_name="Mean_24" source_file="<repo-root>/src/cuda-spirv/xla_hlo/.venv-tf/lib/python3.12/site-packages/tensorflow/python/framework/ops.py" source_line=1221}
  %Mean_24.11 = f32[] constant(0), metadata={op_type="Mean" op_name="Mean_24" source_file="<repo-root>/src/cuda-spirv/xla_hlo/.venv-tf/lib/python3.12/site-packages/tensorflow/python/framework/ops.py" source_line=1221}
  %Mean_24.12 = f32[] convert(f32[] %Mean_24.11), metadata={op_type="Mean" op_name="Mean_24" source_file="<repo-root>/src/cuda-spirv/xla_hlo/.venv-tf/lib/python3.12/site-packages/tensorflow/python/framework/ops.py" source_line=1221}
  %Mean_24.13 = f32[1,64]{1,0} reduce(f32[1,64,384]{2,1,0} %Mean_24.10, f32[] %Mean_24.12), dimensions={2}, to_apply=%Mean_24-reduction.41, metadata={op_type="Mean" op_name="Mean_24" source_file="<repo-root>/src/cuda-spirv/xla_hlo/.venv-tf/lib/python3.12/site-packages/tensorflow/python/framework/ops.py" source_line=1221}
  %Mean_24.14 = s32[] constant(384), metadata={op_type="Mean" op_name="Mean_24" source_file="<repo-root>/src/cuda-spirv/xla_hlo/.venv-tf/lib/python3.12/site-packages/tensorflow/python/framework/ops.py" source_line=1221}
  %Mean_24.15 = f32[] convert(s32[] %Mean_24.14), metadata={op_type="Mean" op_name="Mean_24" source_file="<repo-root>/src/cuda-spirv/xla_hlo/.venv-tf/lib/python3.12/site-packages/tensorflow/python/framework/ops.py" source_line=1221}
  %Mean_24.16 = f32[1,64]{1,0} broadcast(f32[] %Mean_24.15), dimensions={}, metadata={op_type="Mean" op_name="Mean_24" source_file="<repo-root>/src/cuda-spirv/xla_hlo/.venv-tf/lib/python3.12/site-packages/tensorflow/python/framework/ops.py" source_line=1221}
  %Mean_24.17 = f32[1,64]{1,0} divide(f32[1,64]{1,0} %Mean_24.13, f32[1,64]{1,0} %Mean_24.16), metadata={op_type="Mean" op_name="Mean_24" source_file="<repo-root>/src/cuda-spirv/xla_hlo/.venv-tf/lib/python3.12/site-packages/tensorflow/python/framework/ops.py" source_line=1221}
  %Mean_24.18 = f32[1,64]{1,0} convert(f32[1,64]{1,0} %Mean_24.17), metadata={op_type="Mean" op_name="Mean_24" source_file="<repo-root>/src/cuda-spirv/xla_hlo/.venv-tf/lib/python3.12/site-packages/tensorflow/python/framework/ops.py" source_line=1221}
  %Mean_24.19 = f32[1,64,1]{2,1,0} reshape(f32[1,64]{1,0} %Mean_24.18), metadata={op_type="Mean" op_name="Mean_24" source_file="<repo-root>/src/cuda-spirv/xla_hlo/.venv-tf/lib/python3.12/site-packages/tensorflow/python/framework/ops.py" source_line=1221}
  %sub_25.3 = f32[1,64]{1,0} reshape(f32[1,64,1]{2,1,0} %Mean_24.19), metadata={op_type="Sub" op_name="sub_25" source_file="<repo-root>/src/cuda-spirv/xla_hlo/.venv-tf/lib/python3.12/site-packages/tensorflow/python/framework/ops.py" source_line=1221}
  %sub_25.4 = f32[1,64,384]{2,1,0} broadcast(f32[1,64]{1,0} %sub_25.3), dimensions={0,1}, metadata={op_type="Sub" op_name="sub_25" source_file="<repo-root>/src/cuda-spirv/xla_hlo/.venv-tf/lib/python3.12/site-packages/tensorflow/python/framework/ops.py" source_line=1221}
  %sub_25.5 = f32[1,64,384]{2,1,0} subtract(f32[1,64,384]{2,1,0} %add_88.1, f32[1,64,384]{2,1,0} %sub_25.4), metadata={op_type="Sub" op_name="sub_25" source_file="<repo-root>/src/cuda-spirv/xla_hlo/.venv-tf/lib/python3.12/site-packages/tensorflow/python/framework/ops.py" source_line=1221}
  %sub_24.3 = f32[1,64]{1,0} reshape(f32[1,64,1]{2,1,0} %Mean_24.19), metadata={op_type="Sub" op_name="sub_24" source_file="<repo-root>/src/cuda-spirv/xla_hlo/.venv-tf/lib/python3.12/site-packages/tensorflow/python/framework/ops.py" source_line=1221}
  %sub_24.4 = f32[1,64,384]{2,1,0} broadcast(f32[1,64]{1,0} %sub_24.3), dimensions={0,1}, metadata={op_type="Sub" op_name="sub_24" source_file="<repo-root>/src/cuda-spirv/xla_hlo/.venv-tf/lib/python3.12/site-packages/tensorflow/python/framework/ops.py" source_line=1221}
  %sub_24.5 = f32[1,64,384]{2,1,0} subtract(f32[1,64,384]{2,1,0} %add_88.1, f32[1,64,384]{2,1,0} %sub_24.4), metadata={op_type="Sub" op_name="sub_24" source_file="<repo-root>/src/cuda-spirv/xla_hlo/.venv-tf/lib/python3.12/site-packages/tensorflow/python/framework/ops.py" source_line=1221}
  %Square_12.1 = f32[1,64,384]{2,1,0} multiply(f32[1,64,384]{2,1,0} %sub_24.5, f32[1,64,384]{2,1,0} %sub_24.5), metadata={op_type="Square" op_name="Square_12" source_file="<repo-root>/src/cuda-spirv/xla_hlo/.venv-tf/lib/python3.12/site-packages/tensorflow/python/framework/ops.py" source_line=1221}
  %Mean_25.10 = f32[1,64,384]{2,1,0} convert(f32[1,64,384]{2,1,0} %Square_12.1), metadata={op_type="Mean" op_name="Mean_25" source_file="<repo-root>/src/cuda-spirv/xla_hlo/.venv-tf/lib/python3.12/site-packages/tensorflow/python/framework/ops.py" source_line=1221}
  %Mean_25.11 = f32[] constant(0), metadata={op_type="Mean" op_name="Mean_25" source_file="<repo-root>/src/cuda-spirv/xla_hlo/.venv-tf/lib/python3.12/site-packages/tensorflow/python/framework/ops.py" source_line=1221}
  %Mean_25.12 = f32[] convert(f32[] %Mean_25.11), metadata={op_type="Mean" op_name="Mean_25" source_file="<repo-root>/src/cuda-spirv/xla_hlo/.venv-tf/lib/python3.12/site-packages/tensorflow/python/framework/ops.py" source_line=1221}
  %Mean_25.13 = f32[1,64]{1,0} reduce(f32[1,64,384]{2,1,0} %Mean_25.10, f32[] %Mean_25.12), dimensions={2}, to_apply=%Mean_25-reduction.42, metadata={op_type="Mean" op_name="Mean_25" source_file="<repo-root>/src/cuda-spirv/xla_hlo/.venv-tf/lib/python3.12/site-packages/tensorflow/python/framework/ops.py" source_line=1221}
  %Mean_25.14 = s32[] constant(384), metadata={op_type="Mean" op_name="Mean_25" source_file="<repo-root>/src/cuda-spirv/xla_hlo/.venv-tf/lib/python3.12/site-packages/tensorflow/python/framework/ops.py" source_line=1221}
  %Mean_25.15 = f32[] convert(s32[] %Mean_25.14), metadata={op_type="Mean" op_name="Mean_25" source_file="<repo-root>/src/cuda-spirv/xla_hlo/.venv-tf/lib/python3.12/site-packages/tensorflow/python/framework/ops.py" source_line=1221}
  %Mean_25.16 = f32[1,64]{1,0} broadcast(f32[] %Mean_25.15), dimensions={}, metadata={op_type="Mean" op_name="Mean_25" source_file="<repo-root>/src/cuda-spirv/xla_hlo/.venv-tf/lib/python3.12/site-packages/tensorflow/python/framework/ops.py" source_line=1221}
  %Mean_25.17 = f32[1,64]{1,0} divide(f32[1,64]{1,0} %Mean_25.13, f32[1,64]{1,0} %Mean_25.16), metadata={op_type="Mean" op_name="Mean_25" source_file="<repo-root>/src/cuda-spirv/xla_hlo/.venv-tf/lib/python3.12/site-packages/tensorflow/python/framework/ops.py" source_line=1221}
  %Mean_25.18 = f32[1,64]{1,0} convert(f32[1,64]{1,0} %Mean_25.17), metadata={op_type="Mean" op_name="Mean_25" source_file="<repo-root>/src/cuda-spirv/xla_hlo/.venv-tf/lib/python3.12/site-packages/tensorflow/python/framework/ops.py" source_line=1221}
  %Mean_25.19 = f32[1,64,1]{2,1,0} reshape(f32[1,64]{1,0} %Mean_25.18), metadata={op_type="Mean" op_name="Mean_25" source_file="<repo-root>/src/cuda-spirv/xla_hlo/.venv-tf/lib/python3.12/site-packages/tensorflow/python/framework/ops.py" source_line=1221}
  %add_89.3 = f32[] constant(1e-05), metadata={op_type="AddV2" op_name="add_89" source_file="<repo-root>/src/cuda-spirv/xla_hlo/.venv-tf/lib/python3.12/site-packages/tensorflow/python/framework/ops.py" source_line=1221}
  %add_89.4 = f32[1,64,1]{2,1,0} broadcast(f32[] %add_89.3), dimensions={}, metadata={op_type="AddV2" op_name="add_89" source_file="<repo-root>/src/cuda-spirv/xla_hlo/.venv-tf/lib/python3.12/site-packages/tensorflow/python/framework/ops.py" source_line=1221}
  %add_89.5 = f32[1,64,1]{2,1,0} add(f32[1,64,1]{2,1,0} %Mean_25.19, f32[1,64,1]{2,1,0} %add_89.4), metadata={op_type="AddV2" op_name="add_89" source_file="<repo-root>/src/cuda-spirv/xla_hlo/.venv-tf/lib/python3.12/site-packages/tensorflow/python/framework/ops.py" source_line=1221}
  %Rsqrt_20.1 = f32[1,64,1]{2,1,0} rsqrt(f32[1,64,1]{2,1,0} %add_89.5), metadata={op_type="Rsqrt" op_name="Rsqrt_20"}
  %mul_56.3 = f32[1,64]{1,0} reshape(f32[1,64,1]{2,1,0} %Rsqrt_20.1), metadata={op_type="Mul" op_name="mul_56" source_file="<repo-root>/src/cuda-spirv/xla_hlo/.venv-tf/lib/python3.12/site-packages/tensorflow/python/framework/ops.py" source_line=1221}
  %mul_56.4 = f32[1,64,384]{2,1,0} broadcast(f32[1,64]{1,0} %mul_56.3), dimensions={0,1}, metadata={op_type="Mul" op_name="mul_56" source_file="<repo-root>/src/cuda-spirv/xla_hlo/.venv-tf/lib/python3.12/site-packages/tensorflow/python/framework/ops.py" source_line=1221}
  %mul_56.5 = f32[1,64,384]{2,1,0} multiply(f32[1,64,384]{2,1,0} %sub_25.5, f32[1,64,384]{2,1,0} %mul_56.4), metadata={op_type="Mul" op_name="mul_56" source_file="<repo-root>/src/cuda-spirv/xla_hlo/.venv-tf/lib/python3.12/site-packages/tensorflow/python/framework/ops.py" source_line=1221}
  %arg108.1 = f32[384]{0} parameter(108), parameter_replication={false}, metadata={op_name="XLA_Args"}
  %reshape.219 = f32[384]{0} reshape(f32[384]{0} %arg108.1)
  %mul_57.2 = f32[1,64,384]{2,1,0} broadcast(f32[384]{0} %reshape.219), dimensions={2}, metadata={op_type="Mul" op_name="mul_57" source_file="<repo-root>/src/cuda-spirv/xla_hlo/.venv-tf/lib/python3.12/site-packages/tensorflow/python/framework/ops.py" source_line=1221}
  %mul_57.3 = f32[1,64,384]{2,1,0} multiply(f32[1,64,384]{2,1,0} %mul_56.5, f32[1,64,384]{2,1,0} %mul_57.2), metadata={op_type="Mul" op_name="mul_57" source_file="<repo-root>/src/cuda-spirv/xla_hlo/.venv-tf/lib/python3.12/site-packages/tensorflow/python/framework/ops.py" source_line=1221}
  %arg109.1 = f32[384]{0} parameter(109), parameter_replication={false}, metadata={op_name="XLA_Args"}
  %reshape.220 = f32[384]{0} reshape(f32[384]{0} %arg109.1)
  %add_90.2 = f32[1,64,384]{2,1,0} broadcast(f32[384]{0} %reshape.220), dimensions={2}, metadata={op_type="AddV2" op_name="add_90" source_file="<repo-root>/src/cuda-spirv/xla_hlo/.venv-tf/lib/python3.12/site-packages/tensorflow/python/framework/ops.py" source_line=1221}
  %add_90.3 = f32[1,64,384]{2,1,0} add(f32[1,64,384]{2,1,0} %mul_57.3, f32[1,64,384]{2,1,0} %add_90.2), metadata={op_type="AddV2" op_name="add_90" source_file="<repo-root>/src/cuda-spirv/xla_hlo/.venv-tf/lib/python3.12/site-packages/tensorflow/python/framework/ops.py" source_line=1221}
  %arg110.1 = f32[384,51865]{1,0} parameter(110), parameter_replication={false}, metadata={op_name="XLA_Args"}
  %reshape.221 = f32[384,51865]{1,0} reshape(f32[384,51865]{1,0} %arg110.1)
  %MatMul_56.2 = f32[1,64,51865]{2,1,0} dot(f32[1,64,384]{2,1,0} %add_90.3, f32[384,51865]{1,0} %reshape.221), lhs_contracting_dims={2}, rhs_contracting_dims={0}, frontend_attributes={grad_x="false",grad_y="false"}, metadata={op_type="BatchMatMulV2" op_name="MatMul_56" source_file="<repo-root>/src/cuda-spirv/xla_hlo/.venv-tf/lib/python3.12/site-packages/tensorflow/python/framework/ops.py" source_line=1221}
  %MatMul_56.3 = f32[1,64,51865]{2,1,0} transpose(f32[1,64,51865]{2,1,0} %MatMul_56.2), dimensions={0,1,2}, metadata={op_type="BatchMatMulV2" op_name="MatMul_56" source_file="<repo-root>/src/cuda-spirv/xla_hlo/.venv-tf/lib/python3.12/site-packages/tensorflow/python/framework/ops.py" source_line=1221}
  %XLA_Retvals.3 = f32[1,64,51865]{2,1,0} reshape(f32[1,64,51865]{2,1,0} %MatMul_56.3), metadata={op_name="XLA_Retvals"}
  %XLA_Retvals.4 = (f32[1,64,51865]{2,1,0}) tuple(f32[1,64,51865]{2,1,0} %XLA_Retvals.3), metadata={op_name="XLA_Retvals"}
  ROOT %XLA_Retvals.5 = f32[1,64,51865]{2,1,0} get-tuple-element((f32[1,64,51865]{2,1,0}) %XLA_Retvals.4), index=0, metadata={op_name="XLA_Retvals"}
}

