HloModule a_inference_whisper_encoder_423__.27, entry_computation_layout={(f32[1,3000,80]{2,1,0}, f32[1,3,80,384]{3,2,1,0}, f32[384]{0}, f32[1,3,384,384]{3,2,1,0}, f32[384]{0}, /*index=5*/f32[1500,384]{1,0}, f32[384]{0}, f32[384]{0}, f32[384,384]{1,0}, f32[384]{0}, /*index=10*/f32[384,384]{1,0}, f32[384]{0}, f32[384,384]{1,0}, f32[384]{0}, f32[384,384]{1,0}, /*index=15*/f32[384]{0}, f32[384]{0}, f32[384]{0}, f32[384,1536]{1,0}, f32[1536]{0}, /*index=20*/f32[1536,384]{1,0}, f32[384]{0}, f32[384]{0}, f32[384]{0}, f32[384,384]{1,0}, /*index=25*/f32[384]{0}, f32[384,384]{1,0}, f32[384]{0}, f32[384,384]{1,0}, f32[384]{0}, /*index=30*/f32[384,384]{1,0}, f32[384]{0}, f32[384]{0}, f32[384]{0}, f32[384,1536]{1,0}, /*index=35*/f32[1536]{0}, f32[1536,384]{1,0}, f32[384]{0}, f32[384]{0}, f32[384]{0}, /*index=40*/f32[384,384]{1,0}, f32[384]{0}, f32[384,384]{1,0}, f32[384]{0}, f32[384,384]{1,0}, /*index=45*/f32[384]{0}, f32[384,384]{1,0}, f32[384]{0}, f32[384]{0}, f32[384]{0}, /*index=50*/f32[384,1536]{1,0}, f32[1536]{0}, f32[1536,384]{1,0}, f32[384]{0}, f32[384]{0}, /*index=55*/f32[384]{0}, f32[384,384]{1,0}, f32[384]{0}, f32[384,384]{1,0}, f32[384]{0}, /*index=60*/f32[384,384]{1,0}, f32[384]{0}, f32[384,384]{1,0}, f32[384]{0}, f32[384]{0}, /*index=65*/f32[384]{0}, f32[384,1536]{1,0}, f32[1536]{0}, f32[1536,384]{1,0}, f32[384]{0}, /*index=70*/f32[384]{0}, f32[384]{0})->f32[1,1500,384]{2,1,0}}

%Mean-reduction.1 (x.1: f32[], y.1: f32[]) -> f32[] {
  %x.1 = f32[] parameter(0)
  %y.1 = f32[] parameter(1)
  ROOT %add.2 = f32[] add(f32[] %x.1, f32[] %y.1)
}

%Mean_1-reduction.2 (x.0: f32[], y.0: f32[]) -> f32[] {
  %x.0 = f32[] parameter(0)
  %y.0 = f32[] parameter(1)
  ROOT %add.3 = f32[] add(f32[] %x.0, f32[] %y.0)
}

%region_0.3 (Softmax.5: f32[], Softmax.6: f32[]) -> f32[] {
  %Softmax.5 = f32[] parameter(0), metadata={op_name="Softmax"}
  %Softmax.6 = f32[] parameter(1), metadata={op_name="Softmax"}
  ROOT %Softmax.7 = f32[] maximum(f32[] %Softmax.5, f32[] %Softmax.6), metadata={op_type="Softmax" op_name="Softmax"}
}

%region_1.4 (Softmax.18: f32[], Softmax.19: f32[]) -> f32[] {
  %Softmax.18 = f32[] parameter(0), metadata={op_name="Softmax"}
  %Softmax.19 = f32[] parameter(1), metadata={op_name="Softmax"}
  ROOT %Softmax.20 = f32[] add(f32[] %Softmax.18, f32[] %Softmax.19), metadata={op_type="Softmax" op_name="Softmax"}
}

%Mean_2-reduction.5 (x.2: f32[], y.2: f32[]) -> f32[] {
  %x.2 = f32[] parameter(0)
  %y.2 = f32[] parameter(1)
  ROOT %add.4 = f32[] add(f32[] %x.2, f32[] %y.2)
}

%Mean_3-reduction.6 (x.3: f32[], y.3: f32[]) -> f32[] {
  %x.3 = f32[] parameter(0)
  %y.3 = f32[] parameter(1)
  ROOT %add.5 = f32[] add(f32[] %x.3, f32[] %y.3)
}

%Mean_4-reduction.7 (x.4: f32[], y.4: f32[]) -> f32[] {
  %x.4 = f32[] parameter(0)
  %y.4 = f32[] parameter(1)
  ROOT %add.6 = f32[] add(f32[] %x.4, f32[] %y.4)
}

%Mean_5-reduction.8 (x.5: f32[], y.5: f32[]) -> f32[] {
  %x.5 = f32[] parameter(0)
  %y.5 = f32[] parameter(1)
  ROOT %add.7 = f32[] add(f32[] %x.5, f32[] %y.5)
}

%region_0.9 (Softmax_1.5: f32[], Softmax_1.6: f32[]) -> f32[] {
  %Softmax_1.5 = f32[] parameter(0), metadata={op_name="Softmax_1"}
  %Softmax_1.6 = f32[] parameter(1), metadata={op_name="Softmax_1"}
  ROOT %Softmax_1.7 = f32[] maximum(f32[] %Softmax_1.5, f32[] %Softmax_1.6), metadata={op_type="Softmax" op_name="Softmax_1"}
}

%region_1.10 (Softmax_1.18: f32[], Softmax_1.19: f32[]) -> f32[] {
  %Softmax_1.18 = f32[] parameter(0), metadata={op_name="Softmax_1"}
  %Softmax_1.19 = f32[] parameter(1), metadata={op_name="Softmax_1"}
  ROOT %Softmax_1.20 = f32[] add(f32[] %Softmax_1.18, f32[] %Softmax_1.19), metadata={op_type="Softmax" op_name="Softmax_1"}
}

%Mean_6-reduction.11 (x.6: f32[], y.6: f32[]) -> f32[] {
  %x.6 = f32[] parameter(0)
  %y.6 = f32[] parameter(1)
  ROOT %add.8 = f32[] add(f32[] %x.6, f32[] %y.6)
}

%Mean_7-reduction.12 (x.7: f32[], y.7: f32[]) -> f32[] {
  %x.7 = f32[] parameter(0)
  %y.7 = f32[] parameter(1)
  ROOT %add.9 = f32[] add(f32[] %x.7, f32[] %y.7)
}

%Mean_8-reduction.13 (x.8: f32[], y.8: f32[]) -> f32[] {
  %x.8 = f32[] parameter(0)
  %y.8 = f32[] parameter(1)
  ROOT %add.10 = f32[] add(f32[] %x.8, f32[] %y.8)
}

%Mean_9-reduction.14 (x.9: f32[], y.9: f32[]) -> f32[] {
  %x.9 = f32[] parameter(0)
  %y.9 = f32[] parameter(1)
  ROOT %add.11 = f32[] add(f32[] %x.9, f32[] %y.9)
}

%region_0.15 (Softmax_2.5: f32[], Softmax_2.6: f32[]) -> f32[] {
  %Softmax_2.5 = f32[] parameter(0), metadata={op_name="Softmax_2"}
  %Softmax_2.6 = f32[] parameter(1), metadata={op_name="Softmax_2"}
  ROOT %Softmax_2.7 = f32[] maximum(f32[] %Softmax_2.5, f32[] %Softmax_2.6), metadata={op_type="Softmax" op_name="Softmax_2"}
}

%region_1.16 (Softmax_2.18: f32[], Softmax_2.19: f32[]) -> f32[] {
  %Softmax_2.18 = f32[] parameter(0), metadata={op_name="Softmax_2"}
  %Softmax_2.19 = f32[] parameter(1), metadata={op_name="Softmax_2"}
  ROOT %Softmax_2.20 = f32[] add(f32[] %Softmax_2.18, f32[] %Softmax_2.19), metadata={op_type="Softmax" op_name="Softmax_2"}
}

%Mean_10-reduction.17 (x.10: f32[], y.10: f32[]) -> f32[] {
  %x.10 = f32[] parameter(0)
  %y.10 = f32[] parameter(1)
  ROOT %add.12 = f32[] add(f32[] %x.10, f32[] %y.10)
}

%Mean_11-reduction.18 (x.11: f32[], y.11: f32[]) -> f32[] {
  %x.11 = f32[] parameter(0)
  %y.11 = f32[] parameter(1)
  ROOT %add.13 = f32[] add(f32[] %x.11, f32[] %y.11)
}

%Mean_12-reduction.19 (x.12: f32[], y.12: f32[]) -> f32[] {
  %x.12 = f32[] parameter(0)
  %y.12 = f32[] parameter(1)
  ROOT %add.14 = f32[] add(f32[] %x.12, f32[] %y.12)
}

%Mean_13-reduction.20 (x.13: f32[], y.13: f32[]) -> f32[] {
  %x.13 = f32[] parameter(0)
  %y.13 = f32[] parameter(1)
  ROOT %add.15 = f32[] add(f32[] %x.13, f32[] %y.13)
}

%region_0.21 (Softmax_3.5: f32[], Softmax_3.6: f32[]) -> f32[] {
  %Softmax_3.5 = f32[] parameter(0), metadata={op_name="Softmax_3"}
  %Softmax_3.6 = f32[] parameter(1), metadata={op_name="Softmax_3"}
  ROOT %Softmax_3.7 = f32[] maximum(f32[] %Softmax_3.5, f32[] %Softmax_3.6), metadata={op_type="Softmax" op_name="Softmax_3"}
}

%region_1.22 (Softmax_3.18: f32[], Softmax_3.19: f32[]) -> f32[] {
  %Softmax_3.18 = f32[] parameter(0), metadata={op_name="Softmax_3"}
  %Softmax_3.19 = f32[] parameter(1), metadata={op_name="Softmax_3"}
  ROOT %Softmax_3.20 = f32[] add(f32[] %Softmax_3.18, f32[] %Softmax_3.19), metadata={op_type="Softmax" op_name="Softmax_3"}
}

%Mean_14-reduction.23 (x.14: f32[], y.14: f32[]) -> f32[] {
  %x.14 = f32[] parameter(0)
  %y.14 = f32[] parameter(1)
  ROOT %add.16 = f32[] add(f32[] %x.14, f32[] %y.14)
}

%Mean_15-reduction.24 (x.15: f32[], y.15: f32[]) -> f32[] {
  %x.15 = f32[] parameter(0)
  %y.15 = f32[] parameter(1)
  ROOT %add.17 = f32[] add(f32[] %x.15, f32[] %y.15)
}

%Mean_16-reduction.25 (x.16: f32[], y.16: f32[]) -> f32[] {
  %x.16 = f32[] parameter(0)
  %y.16 = f32[] parameter(1)
  ROOT %add.18 = f32[] add(f32[] %x.16, f32[] %y.16)
}

%Mean_17-reduction.26 (x.17: f32[], y.17: f32[]) -> f32[] {
  %x.17 = f32[] parameter(0)
  %y.17 = f32[] parameter(1)
  ROOT %add.19 = f32[] add(f32[] %x.17, f32[] %y.17)
}

ENTRY %a_inference_whisper_encoder_423__.27 (arg0.1: f32[1,3000,80], arg1.1: f32[1,3,80,384], arg2.1: f32[384], arg3.1: f32[1,3,384,384], arg4.1: f32[384], arg5.1: f32[1500,384], arg6.1: f32[384], arg7.1: f32[384], arg8.1: f32[384,384], arg9.1: f32[384], arg10.1: f32[384,384], arg11.1: f32[384], arg12.1: f32[384,384], arg13.1: f32[384], arg14.1: f32[384,384], arg15.1: f32[384], arg16.1: f32[384], arg17.1: f32[384], arg18.1: f32[384,1536], arg19.1: f32[1536], arg20.1: f32[1536,384], arg21.1: f32[384], arg22.1: f32[384], arg23.1: f32[384], arg24.1: f32[384,384], arg25.1: f32[384], arg26.1: f32[384,384], arg27.1: f32[384], arg28.1: f32[384,384], arg29.1: f32[384], arg30.1: f32[384,384], arg31.1: f32[384], arg32.1: f32[384], arg33.1: f32[384], arg34.1: f32[384,1536], arg35.1: f32[1536], arg36.1: f32[1536,384], arg37.1: f32[384], arg38.1: f32[384], arg39.1: f32[384], arg40.1: f32[384,384], arg41.1: f32[384], arg42.1: f32[384,384], arg43.1: f32[384], arg44.1: f32[384,384], arg45.1: f32[384], arg46.1: f32[384,384], arg47.1: f32[384], arg48.1: f32[384], arg49.1: f32[384], arg50.1: f32[384,1536], arg51.1: f32[1536], arg52.1: f32[1536,384], arg53.1: f32[384], arg54.1: f32[384], arg55.1: f32[384], arg56.1: f32[384,384], arg57.1: f32[384], arg58.1: f32[384,384], arg59.1: f32[384], arg60.1: f32[384,384], arg61.1: f32[384], arg62.1: f32[384,384], arg63.1: f32[384], arg64.1: f32[384], arg65.1: f32[384], arg66.1: f32[384,1536], arg67.1: f32[1536], arg68.1: f32[1536,384], arg69.1: f32[384], arg70.1: f32[384], arg71.1: f32[384]) -> f32[1,1500,384] {
  %mul_6.3 = f32[] constant(0.5), metadata={op_type="Mul" op_name="mul_6" source_file="<repo-root>/src/cuda-spirv/xla_hlo/.venv-tf/lib/python3.12/site-packages/tensorflow/python/framework/ops.py" source_line=1221}
  %mul_6.4 = f32[1,1,1500,384]{3,2,1,0} broadcast(f32[] %mul_6.3), dimensions={}, metadata={op_type="Mul" op_name="mul_6" source_file="<repo-root>/src/cuda-spirv/xla_hlo/.venv-tf/lib/python3.12/site-packages/tensorflow/python/framework/ops.py" source_line=1221}
  %mul.3 = f32[] constant(0.5), metadata={op_type="Mul" op_name="mul" source_file="<repo-root>/src/cuda-spirv/xla_hlo/.venv-tf/lib/python3.12/site-packages/tensorflow/python/framework/ops.py" source_line=1221}
  %mul.4 = f32[1,1,3000,384]{3,2,1,0} broadcast(f32[] %mul.3), dimensions={}, metadata={op_type="Mul" op_name="mul" source_file="<repo-root>/src/cuda-spirv/xla_hlo/.venv-tf/lib/python3.12/site-packages/tensorflow/python/framework/ops.py" source_line=1221}
  %arg0.1 = f32[1,3000,80]{2,1,0} parameter(0), parameter_replication={false}, metadata={op_name="XLA_Args"}
  %reshape.72 = f32[1,3000,80]{2,1,0} reshape(f32[1,3000,80]{2,1,0} %arg0.1)
  %Reshape.1 = f32[1,1,3000,80]{3,2,1,0} reshape(f32[1,3000,80]{2,1,0} %reshape.72), metadata={op_type="Reshape" op_name="Reshape" source_file="<repo-root>/src/cuda-spirv/xla_hlo/.venv-tf/lib/python3.12/site-packages/tensorflow/python/framework/ops.py" source_line=1221}
  %arg1.1 = f32[1,3,80,384]{3,2,1,0} parameter(1), parameter_replication={false}, metadata={op_name="XLA_Args"}
  %reshape.73 = f32[1,3,80,384]{3,2,1,0} reshape(f32[1,3,80,384]{3,2,1,0} %arg1.1)
  %Conv2D.1 = f32[1,1,3000,384]{3,2,1,0} convolution(f32[1,1,3000,80]{3,2,1,0} %Reshape.1, f32[1,3,80,384]{3,2,1,0} %reshape.73), window={size=1x3 pad=0_0x1_1}, dim_labels=b01f_01io->b01f, metadata={op_type="Conv2D" op_name="Conv2D" source_file="<repo-root>/src/cuda-spirv/xla_hlo/.venv-tf/lib/python3.12/site-packages/tensorflow/python/framework/ops.py" source_line=1221}
  %arg2.1 = f32[384]{0} parameter(2), parameter_replication={false}, metadata={op_name="XLA_Args"}
  %reshape.74 = f32[384]{0} reshape(f32[384]{0} %arg2.1)
  %add.20 = f32[1,1,3000,384]{3,2,1,0} broadcast(f32[384]{0} %reshape.74), dimensions={3}, metadata={op_type="AddV2" op_name="add" source_file="<repo-root>/src/cuda-spirv/xla_hlo/.venv-tf/lib/python3.12/site-packages/tensorflow/python/framework/ops.py" source_line=1221}
  %add.21 = f32[1,1,3000,384]{3,2,1,0} add(f32[1,1,3000,384]{3,2,1,0} %Conv2D.1, f32[1,1,3000,384]{3,2,1,0} %add.20), metadata={op_type="AddV2" op_name="add" source_file="<repo-root>/src/cuda-spirv/xla_hlo/.venv-tf/lib/python3.12/site-packages/tensorflow/python/framework/ops.py" source_line=1221}
  %mul.5 = f32[1,1,3000,384]{3,2,1,0} multiply(f32[1,1,3000,384]{3,2,1,0} %mul.4, f32[1,1,3000,384]{3,2,1,0} %add.21), metadata={op_type="Mul" op_name="mul" source_file="<repo-root>/src/cuda-spirv/xla_hlo/.venv-tf/lib/python3.12/site-packages/tensorflow/python/framework/ops.py" source_line=1221}
  %add_2.3 = f32[] constant(1), metadata={op_type="AddV2" op_name="add_2" source_file="<repo-root>/src/cuda-spirv/xla_hlo/.venv-tf/lib/python3.12/site-packages/tensorflow/python/framework/ops.py" source_line=1221}
  %add_2.4 = f32[1,1,3000,384]{3,2,1,0} broadcast(f32[] %add_2.3), dimensions={}, metadata={op_type="AddV2" op_name="add_2" source_file="<repo-root>/src/cuda-spirv/xla_hlo/.venv-tf/lib/python3.12/site-packages/tensorflow/python/framework/ops.py" source_line=1221}
  %mul_4.3 = f32[] constant(0.797884583), metadata={op_type="Mul" op_name="mul_4" source_file="<repo-root>/src/cuda-spirv/xla_hlo/.venv-tf/lib/python3.12/site-packages/tensorflow/python/framework/ops.py" source_line=1221}
  %mul_4.4 = f32[1,1,3000,384]{3,2,1,0} broadcast(f32[] %mul_4.3), dimensions={}, metadata={op_type="Mul" op_name="mul_4" source_file="<repo-root>/src/cuda-spirv/xla_hlo/.venv-tf/lib/python3.12/site-packages/tensorflow/python/framework/ops.py" source_line=1221}
  %mul_1.3 = f32[] constant(0.044715), metadata={op_type="Mul" op_name="mul_1" source_file="<repo-root>/src/cuda-spirv/xla_hlo/.venv-tf/lib/python3.12/site-packages/tensorflow/python/framework/ops.py" source_line=1221}
  %mul_1.4 = f32[1,1,3000,384]{3,2,1,0} broadcast(f32[] %mul_1.3), dimensions={}, metadata={op_type="Mul" op_name="mul_1" source_file="<repo-root>/src/cuda-spirv/xla_hlo/.venv-tf/lib/python3.12/site-packages/tensorflow/python/framework/ops.py" source_line=1221}
  %mul_1.5 = f32[1,1,3000,384]{3,2,1,0} multiply(f32[1,1,3000,384]{3,2,1,0} %mul_1.4, f32[1,1,3000,384]{3,2,1,0} %add.21), metadata={op_type="Mul" op_name="mul_1" source_file="<repo-root>/src/cuda-spirv/xla_hlo/.venv-tf/lib/python3.12/site-packages/tensorflow/python/framework/ops.py" source_line=1221}
  %mul_2.1 = f32[1,1,3000,384]{3,2,1,0} multiply(f32[1,1,3000,384]{3,2,1,0} %mul_1.5, f32[1,1,3000,384]{3,2,1,0} %add.21), metadata={op_type="Mul" op_name="mul_2" source_file="<repo-root>/src/cuda-spirv/xla_hlo/.venv-tf/lib/python3.12/site-packages/tensorflow/python/framework/ops.py" source_line=1221}
  %mul_3.1 = f32[1,1,3000,384]{3,2,1,0} multiply(f32[1,1,3000,384]{3,2,1,0} %mul_2.1, f32[1,1,3000,384]{3,2,1,0} %add.21), metadata={op_type="Mul" op_name="mul_3" source_file="<repo-root>/src/cuda-spirv/xla_hlo/.venv-tf/lib/python3.12/site-packages/tensorflow/python/framework/ops.py" source_line=1221}
  %add_1.1 = f32[1,1,3000,384]{3,2,1,0} add(f32[1,1,3000,384]{3,2,1,0} %add.21, f32[1,1,3000,384]{3,2,1,0} %mul_3.1), metadata={op_type="AddV2" op_name="add_1" source_file="<repo-root>/src/cuda-spirv/xla_hlo/.venv-tf/lib/python3.12/site-packages/tensorflow/python/framework/ops.py" source_line=1221}
  %mul_4.5 = f32[1,1,3000,384]{3,2,1,0} multiply(f32[1,1,3000,384]{3,2,1,0} %mul_4.4, f32[1,1,3000,384]{3,2,1,0} %add_1.1), metadata={op_type="Mul" op_name="mul_4" source_file="<repo-root>/src/cuda-spirv/xla_hlo/.venv-tf/lib/python3.12/site-packages/tensorflow/python/framework/ops.py" source_line=1221}
  %Tanh.1 = f32[1,1,3000,384]{3,2,1,0} tanh(f32[1,1,3000,384]{3,2,1,0} %mul_4.5), metadata={op_type="Tanh" op_name="Tanh"}
  %add_2.5 = f32[1,1,3000,384]{3,2,1,0} add(f32[1,1,3000,384]{3,2,1,0} %add_2.4, f32[1,1,3000,384]{3,2,1,0} %Tanh.1), metadata={op_type="AddV2" op_name="add_2" source_file="<repo-root>/src/cuda-spirv/xla_hlo/.venv-tf/lib/python3.12/site-packages/tensorflow/python/framework/ops.py" source_line=1221}
  %mul_5.1 = f32[1,1,3000,384]{3,2,1,0} multiply(f32[1,1,3000,384]{3,2,1,0} %mul.5, f32[1,1,3000,384]{3,2,1,0} %add_2.5), metadata={op_type="Mul" op_name="mul_5" source_file="<repo-root>/src/cuda-spirv/xla_hlo/.venv-tf/lib/python3.12/site-packages/tensorflow/python/framework/ops.py" source_line=1221}
  %arg3.1 = f32[1,3,384,384]{3,2,1,0} parameter(3), parameter_replication={false}, metadata={op_name="XLA_Args"}
  %reshape.75 = f32[1,3,384,384]{3,2,1,0} reshape(f32[1,3,384,384]{3,2,1,0} %arg3.1)
  %Conv2D_1.1 = f32[1,1,1500,384]{3,2,1,0} convolution(f32[1,1,3000,384]{3,2,1,0} %mul_5.1, f32[1,3,384,384]{3,2,1,0} %reshape.75), window={size=1x3 stride=1x2 pad=0_0x0_1}, dim_labels=b01f_01io->b01f, metadata={op_type="Conv2D" op_name="Conv2D_1" source_file="<repo-root>/src/cuda-spirv/xla_hlo/.venv-tf/lib/python3.12/site-packages/tensorflow/python/framework/ops.py" source_line=1221}
  %arg4.1 = f32[384]{0} parameter(4), parameter_replication={false}, metadata={op_name="XLA_Args"}
  %reshape.76 = f32[384]{0} reshape(f32[384]{0} %arg4.1)
  %add_3.2 = f32[1,1,1500,384]{3,2,1,0} broadcast(f32[384]{0} %reshape.76), dimensions={3}, metadata={op_type="AddV2" op_name="add_3" source_file="<repo-root>/src/cuda-spirv/xla_hlo/.venv-tf/lib/python3.12/site-packages/tensorflow/python/framework/ops.py" source_line=1221}
  %add_3.3 = f32[1,1,1500,384]{3,2,1,0} add(f32[1,1,1500,384]{3,2,1,0} %Conv2D_1.1, f32[1,1,1500,384]{3,2,1,0} %add_3.2), metadata={op_type="AddV2" op_name="add_3" source_file="<repo-root>/src/cuda-spirv/xla_hlo/.venv-tf/lib/python3.12/site-packages/tensorflow/python/framework/ops.py" source_line=1221}
  %mul_6.5 = f32[1,1,1500,384]{3,2,1,0} multiply(f32[1,1,1500,384]{3,2,1,0} %mul_6.4, f32[1,1,1500,384]{3,2,1,0} %add_3.3), metadata={op_type="Mul" op_name="mul_6" source_file="<repo-root>/src/cuda-spirv/xla_hlo/.venv-tf/lib/python3.12/site-packages/tensorflow/python/framework/ops.py" source_line=1221}
  %add_5.3 = f32[] constant(1), metadata={op_type="AddV2" op_name="add_5" source_file="<repo-root>/src/cuda-spirv/xla_hlo/.venv-tf/lib/python3.12/site-packages/tensorflow/python/framework/ops.py" source_line=1221}
  %add_5.4 = f32[1,1,1500,384]{3,2,1,0} broadcast(f32[] %add_5.3), dimensions={}, metadata={op_type="AddV2" op_name="add_5" source_file="<repo-root>/src/cuda-spirv/xla_hlo/.venv-tf/lib/python3.12/site-packages/tensorflow/python/framework/ops.py" source_line=1221}
  %mul_10.3 = f32[] constant(0.797884583), metadata={op_type="Mul" op_name="mul_10" source_file="<repo-root>/src/cuda-spirv/xla_hlo/.venv-tf/lib/python3.12/site-packages/tensorflow/python/framework/ops.py" source_line=1221}
  %mul_10.4 = f32[1,1,1500,384]{3,2,1,0} broadcast(f32[] %mul_10.3), dimensions={}, metadata={op_type="Mul" op_name="mul_10" source_file="<repo-root>/src/cuda-spirv/xla_hlo/.venv-tf/lib/python3.12/site-packages/tensorflow/python/framework/ops.py" source_line=1221}
  %mul_7.3 = f32[] constant(0.044715), metadata={op_type="Mul" op_name="mul_7" source_file="<repo-root>/src/cuda-spirv/xla_hlo/.venv-tf/lib/python3.12/site-packages/tensorflow/python/framework/ops.py" source_line=1221}
  %mul_7.4 = f32[1,1,1500,384]{3,2,1,0} broadcast(f32[] %mul_7.3), dimensions={}, metadata={op_type="Mul" op_name="mul_7" source_file="<repo-root>/src/cuda-spirv/xla_hlo/.venv-tf/lib/python3.12/site-packages/tensorflow/python/framework/ops.py" source_line=1221}
  %mul_7.5 = f32[1,1,1500,384]{3,2,1,0} multiply(f32[1,1,1500,384]{3,2,1,0} %mul_7.4, f32[1,1,1500,384]{3,2,1,0} %add_3.3), metadata={op_type="Mul" op_name="mul_7" source_file="<repo-root>/src/cuda-spirv/xla_hlo/.venv-tf/lib/python3.12/site-packages/tensorflow/python/framework/ops.py" source_line=1221}
  %mul_8.1 = f32[1,1,1500,384]{3,2,1,0} multiply(f32[1,1,1500,384]{3,2,1,0} %mul_7.5, f32[1,1,1500,384]{3,2,1,0} %add_3.3), metadata={op_type="Mul" op_name="mul_8" source_file="<repo-root>/src/cuda-spirv/xla_hlo/.venv-tf/lib/python3.12/site-packages/tensorflow/python/framework/ops.py" source_line=1221}
  %mul_9.1 = f32[1,1,1500,384]{3,2,1,0} multiply(f32[1,1,1500,384]{3,2,1,0} %mul_8.1, f32[1,1,1500,384]{3,2,1,0} %add_3.3), metadata={op_type="Mul" op_name="mul_9" source_file="<repo-root>/src/cuda-spirv/xla_hlo/.venv-tf/lib/python3.12/site-packages/tensorflow/python/framework/ops.py" source_line=1221}
  %add_4.1 = f32[1,1,1500,384]{3,2,1,0} add(f32[1,1,1500,384]{3,2,1,0} %add_3.3, f32[1,1,1500,384]{3,2,1,0} %mul_9.1), metadata={op_type="AddV2" op_name="add_4" source_file="<repo-root>/src/cuda-spirv/xla_hlo/.venv-tf/lib/python3.12/site-packages/tensorflow/python/framework/ops.py" source_line=1221}
  %mul_10.5 = f32[1,1,1500,384]{3,2,1,0} multiply(f32[1,1,1500,384]{3,2,1,0} %mul_10.4, f32[1,1,1500,384]{3,2,1,0} %add_4.1), metadata={op_type="Mul" op_name="mul_10" source_file="<repo-root>/src/cuda-spirv/xla_hlo/.venv-tf/lib/python3.12/site-packages/tensorflow/python/framework/ops.py" source_line=1221}
  %Tanh_1.1 = f32[1,1,1500,384]{3,2,1,0} tanh(f32[1,1,1500,384]{3,2,1,0} %mul_10.5), metadata={op_type="Tanh" op_name="Tanh_1"}
  %add_5.5 = f32[1,1,1500,384]{3,2,1,0} add(f32[1,1,1500,384]{3,2,1,0} %add_5.4, f32[1,1,1500,384]{3,2,1,0} %Tanh_1.1), metadata={op_type="AddV2" op_name="add_5" source_file="<repo-root>/src/cuda-spirv/xla_hlo/.venv-tf/lib/python3.12/site-packages/tensorflow/python/framework/ops.py" source_line=1221}
  %mul_11.1 = f32[1,1,1500,384]{3,2,1,0} multiply(f32[1,1,1500,384]{3,2,1,0} %mul_6.5, f32[1,1,1500,384]{3,2,1,0} %add_5.5), metadata={op_type="Mul" op_name="mul_11" source_file="<repo-root>/src/cuda-spirv/xla_hlo/.venv-tf/lib/python3.12/site-packages/tensorflow/python/framework/ops.py" source_line=1221}
  %Reshape_1.1 = f32[1,1500,384]{2,1,0} reshape(f32[1,1,1500,384]{3,2,1,0} %mul_11.1), metadata={op_type="Reshape" op_name="Reshape_1" source_file="<repo-root>/src/cuda-spirv/xla_hlo/.venv-tf/lib/python3.12/site-packages/tensorflow/python/framework/ops.py" source_line=1221}
  %arg5.1 = f32[1500,384]{1,0} parameter(5), parameter_replication={false}, metadata={op_name="XLA_Args"}
  %reshape.77 = f32[1500,384]{1,0} reshape(f32[1500,384]{1,0} %arg5.1)
  %add_6.2 = f32[1,1500,384]{2,1,0} broadcast(f32[1500,384]{1,0} %reshape.77), dimensions={1,2}, metadata={op_type="AddV2" op_name="add_6" source_file="<repo-root>/src/cuda-spirv/xla_hlo/.venv-tf/lib/python3.12/site-packages/tensorflow/python/framework/ops.py" source_line=1221}
  %add_6.3 = f32[1,1500,384]{2,1,0} add(f32[1,1500,384]{2,1,0} %Reshape_1.1, f32[1,1500,384]{2,1,0} %add_6.2), metadata={op_type="AddV2" op_name="add_6" source_file="<repo-root>/src/cuda-spirv/xla_hlo/.venv-tf/lib/python3.12/site-packages/tensorflow/python/framework/ops.py" source_line=1221}
  %Mean.10 = f32[1,1500,384]{2,1,0} convert(f32[1,1500,384]{2,1,0} %add_6.3), metadata={op_type="Mean" op_name="Mean" source_file="<repo-root>/src/cuda-spirv/xla_hlo/.venv-tf/lib/python3.12/site-packages/tensorflow/python/framework/ops.py" source_line=1221}
  %Mean.11 = f32[] constant(0), metadata={op_type="Mean" op_name="Mean" source_file="<repo-root>/src/cuda-spirv/xla_hlo/.venv-tf/lib/python3.12/site-packages/tensorflow/python/framework/ops.py" source_line=1221}
  %Mean.12 = f32[] convert(f32[] %Mean.11), metadata={op_type="Mean" op_name="Mean" source_file="<repo-root>/src/cuda-spirv/xla_hlo/.venv-tf/lib/python3.12/site-packages/tensorflow/python/framework/ops.py" source_line=1221}
  %Mean.13 = f32[1,1500]{1,0} reduce(f32[1,1500,384]{2,1,0} %Mean.10, f32[] %Mean.12), dimensions={2}, to_apply=%Mean-reduction.1, metadata={op_type="Mean" op_name="Mean" source_file="<repo-root>/src/cuda-spirv/xla_hlo/.venv-tf/lib/python3.12/site-packages/tensorflow/python/framework/ops.py" source_line=1221}
  %Mean.14 = s32[] constant(384), metadata={op_type="Mean" op_name="Mean" source_file="<repo-root>/src/cuda-spirv/xla_hlo/.venv-tf/lib/python3.12/site-packages/tensorflow/python/framework/ops.py" source_line=1221}
  %Mean.15 = f32[] convert(s32[] %Mean.14), metadata={op_type="Mean" op_name="Mean" source_file="<repo-root>/src/cuda-spirv/xla_hlo/.venv-tf/lib/python3.12/site-packages/tensorflow/python/framework/ops.py" source_line=1221}
  %Mean.16 = f32[1,1500]{1,0} broadcast(f32[] %Mean.15), dimensions={}, metadata={op_type="Mean" op_name="Mean" source_file="<repo-root>/src/cuda-spirv/xla_hlo/.venv-tf/lib/python3.12/site-packages/tensorflow/python/framework/ops.py" source_line=1221}
  %Mean.17 = f32[1,1500]{1,0} divide(f32[1,1500]{1,0} %Mean.13, f32[1,1500]{1,0} %Mean.16), metadata={op_type="Mean" op_name="Mean" source_file="<repo-root>/src/cuda-spirv/xla_hlo/.venv-tf/lib/python3.12/site-packages/tensorflow/python/framework/ops.py" source_line=1221}
  %Mean.18 = f32[1,1500]{1,0} convert(f32[1,1500]{1,0} %Mean.17), metadata={op_type="Mean" op_name="Mean" source_file="<repo-root>/src/cuda-spirv/xla_hlo/.venv-tf/lib/python3.12/site-packages/tensorflow/python/framework/ops.py" source_line=1221}
  %Mean.19 = f32[1,1500,1]{2,1,0} reshape(f32[1,1500]{1,0} %Mean.18), metadata={op_type="Mean" op_name="Mean" source_file="<repo-root>/src/cuda-spirv/xla_hlo/.venv-tf/lib/python3.12/site-packages/tensorflow/python/framework/ops.py" source_line=1221}
  %sub_1.3 = f32[1,1500]{1,0} reshape(f32[1,1500,1]{2,1,0} %Mean.19), metadata={op_type="Sub" op_name="sub_1" source_file="<repo-root>/src/cuda-spirv/xla_hlo/.venv-tf/lib/python3.12/site-packages/tensorflow/python/framework/ops.py" source_line=1221}
  %sub_1.4 = f32[1,1500,384]{2,1,0} broadcast(f32[1,1500]{1,0} %sub_1.3), dimensions={0,1}, metadata={op_type="Sub" op_name="sub_1" source_file="<repo-root>/src/cuda-spirv/xla_hlo/.venv-tf/lib/python3.12/site-packages/tensorflow/python/framework/ops.py" source_line=1221}
  %sub_1.5 = f32[1,1500,384]{2,1,0} subtract(f32[1,1500,384]{2,1,0} %add_6.3, f32[1,1500,384]{2,1,0} %sub_1.4), metadata={op_type="Sub" op_name="sub_1" source_file="<repo-root>/src/cuda-spirv/xla_hlo/.venv-tf/lib/python3.12/site-packages/tensorflow/python/framework/ops.py" source_line=1221}
  %sub.3 = f32[1,1500]{1,0} reshape(f32[1,1500,1]{2,1,0} %Mean.19), metadata={op_type="Sub" op_name="sub" source_file="<repo-root>/src/cuda-spirv/xla_hlo/.venv-tf/lib/python3.12/site-packages/tensorflow/python/framework/ops.py" source_line=1221}
  %sub.4 = f32[1,1500,384]{2,1,0} broadcast(f32[1,1500]{1,0} %sub.3), dimensions={0,1}, metadata={op_type="Sub" op_name="sub" source_file="<repo-root>/src/cuda-spirv/xla_hlo/.venv-tf/lib/python3.12/site-packages/tensorflow/python/framework/ops.py" source_line=1221}
  %sub.5 = f32[1,1500,384]{2,1,0} subtract(f32[1,1500,384]{2,1,0} %add_6.3, f32[1,1500,384]{2,1,0} %sub.4), metadata={op_type="Sub" op_name="sub" source_file="<repo-root>/src/cuda-spirv/xla_hlo/.venv-tf/lib/python3.12/site-packages/tensorflow/python/framework/ops.py" source_line=1221}
  %Square.1 = f32[1,1500,384]{2,1,0} multiply(f32[1,1500,384]{2,1,0} %sub.5, f32[1,1500,384]{2,1,0} %sub.5), metadata={op_type="Square" op_name="Square" source_file="<repo-root>/src/cuda-spirv/xla_hlo/.venv-tf/lib/python3.12/site-packages/tensorflow/python/framework/ops.py" source_line=1221}
  %Mean_1.10 = f32[1,1500,384]{2,1,0} convert(f32[1,1500,384]{2,1,0} %Square.1), metadata={op_type="Mean" op_name="Mean_1" source_file="<repo-root>/src/cuda-spirv/xla_hlo/.venv-tf/lib/python3.12/site-packages/tensorflow/python/framework/ops.py" source_line=1221}
  %Mean_1.11 = f32[] constant(0), metadata={op_type="Mean" op_name="Mean_1" source_file="<repo-root>/src/cuda-spirv/xla_hlo/.venv-tf/lib/python3.12/site-packages/tensorflow/python/framework/ops.py" source_line=1221}
  %Mean_1.12 = f32[] convert(f32[] %Mean_1.11), metadata={op_type="Mean" op_name="Mean_1" source_file="<repo-root>/src/cuda-spirv/xla_hlo/.venv-tf/lib/python3.12/site-packages/tensorflow/python/framework/ops.py" source_line=1221}
  %Mean_1.13 = f32[1,1500]{1,0} reduce(f32[1,1500,384]{2,1,0} %Mean_1.10, f32[] %Mean_1.12), dimensions={2}, to_apply=%Mean_1-reduction.2, metadata={op_type="Mean" op_name="Mean_1" source_file="<repo-root>/src/cuda-spirv/xla_hlo/.venv-tf/lib/python3.12/site-packages/tensorflow/python/framework/ops.py" source_line=1221}
  %Mean_1.14 = s32[] constant(384), metadata={op_type="Mean" op_name="Mean_1" source_file="<repo-root>/src/cuda-spirv/xla_hlo/.venv-tf/lib/python3.12/site-packages/tensorflow/python/framework/ops.py" source_line=1221}
  %Mean_1.15 = f32[] convert(s32[] %Mean_1.14), metadata={op_type="Mean" op_name="Mean_1" source_file="<repo-root>/src/cuda-spirv/xla_hlo/.venv-tf/lib/python3.12/site-packages/tensorflow/python/framework/ops.py" source_line=1221}
  %Mean_1.16 = f32[1,1500]{1,0} broadcast(f32[] %Mean_1.15), dimensions={}, metadata={op_type="Mean" op_name="Mean_1" source_file="<repo-root>/src/cuda-spirv/xla_hlo/.venv-tf/lib/python3.12/site-packages/tensorflow/python/framework/ops.py" source_line=1221}
  %Mean_1.17 = f32[1,1500]{1,0} divide(f32[1,1500]{1,0} %Mean_1.13, f32[1,1500]{1,0} %Mean_1.16), metadata={op_type="Mean" op_name="Mean_1" source_file="<repo-root>/src/cuda-spirv/xla_hlo/.venv-tf/lib/python3.12/site-packages/tensorflow/python/framework/ops.py" source_line=1221}
  %Mean_1.18 = f32[1,1500]{1,0} convert(f32[1,1500]{1,0} %Mean_1.17), metadata={op_type="Mean" op_name="Mean_1" source_file="<repo-root>/src/cuda-spirv/xla_hlo/.venv-tf/lib/python3.12/site-packages/tensorflow/python/framework/ops.py" source_line=1221}
  %Mean_1.19 = f32[1,1500,1]{2,1,0} reshape(f32[1,1500]{1,0} %Mean_1.18), metadata={op_type="Mean" op_name="Mean_1" source_file="<repo-root>/src/cuda-spirv/xla_hlo/.venv-tf/lib/python3.12/site-packages/tensorflow/python/framework/ops.py" source_line=1221}
  %add_7.3 = f32[] constant(1e-05), metadata={op_type="AddV2" op_name="add_7" source_file="<repo-root>/src/cuda-spirv/xla_hlo/.venv-tf/lib/python3.12/site-packages/tensorflow/python/framework/ops.py" source_line=1221}
  %add_7.4 = f32[1,1500,1]{2,1,0} broadcast(f32[] %add_7.3), dimensions={}, metadata={op_type="AddV2" op_name="add_7" source_file="<repo-root>/src/cuda-spirv/xla_hlo/.venv-tf/lib/python3.12/site-packages/tensorflow/python/framework/ops.py" source_line=1221}
  %add_7.5 = f32[1,1500,1]{2,1,0} add(f32[1,1500,1]{2,1,0} %Mean_1.19, f32[1,1500,1]{2,1,0} %add_7.4), metadata={op_type="AddV2" op_name="add_7" source_file="<repo-root>/src/cuda-spirv/xla_hlo/.venv-tf/lib/python3.12/site-packages/tensorflow/python/framework/ops.py" source_line=1221}
  %Rsqrt.1 = f32[1,1500,1]{2,1,0} rsqrt(f32[1,1500,1]{2,1,0} %add_7.5), metadata={op_type="Rsqrt" op_name="Rsqrt"}
  %mul_12.3 = f32[1,1500]{1,0} reshape(f32[1,1500,1]{2,1,0} %Rsqrt.1), metadata={op_type="Mul" op_name="mul_12" source_file="<repo-root>/src/cuda-spirv/xla_hlo/.venv-tf/lib/python3.12/site-packages/tensorflow/python/framework/ops.py" source_line=1221}
  %mul_12.4 = f32[1,1500,384]{2,1,0} broadcast(f32[1,1500]{1,0} %mul_12.3), dimensions={0,1}, metadata={op_type="Mul" op_name="mul_12" source_file="<repo-root>/src/cuda-spirv/xla_hlo/.venv-tf/lib/python3.12/site-packages/tensorflow/python/framework/ops.py" source_line=1221}
  %mul_12.5 = f32[1,1500,384]{2,1,0} multiply(f32[1,1500,384]{2,1,0} %sub_1.5, f32[1,1500,384]{2,1,0} %mul_12.4), metadata={op_type="Mul" op_name="mul_12" source_file="<repo-root>/src/cuda-spirv/xla_hlo/.venv-tf/lib/python3.12/site-packages/tensorflow/python/framework/ops.py" source_line=1221}
  %arg6.1 = f32[384]{0} parameter(6), parameter_replication={false}, metadata={op_name="XLA_Args"}
  %reshape.78 = f32[384]{0} reshape(f32[384]{0} %arg6.1)
  %mul_13.2 = f32[1,1500,384]{2,1,0} broadcast(f32[384]{0} %reshape.78), dimensions={2}, metadata={op_type="Mul" op_name="mul_13" source_file="<repo-root>/src/cuda-spirv/xla_hlo/.venv-tf/lib/python3.12/site-packages/tensorflow/python/framework/ops.py" source_line=1221}
  %mul_13.3 = f32[1,1500,384]{2,1,0} multiply(f32[1,1500,384]{2,1,0} %mul_12.5, f32[1,1500,384]{2,1,0} %mul_13.2), metadata={op_type="Mul" op_name="mul_13" source_file="<repo-root>/src/cuda-spirv/xla_hlo/.venv-tf/lib/python3.12/site-packages/tensorflow/python/framework/ops.py" source_line=1221}
  %arg7.1 = f32[384]{0} parameter(7), parameter_replication={false}, metadata={op_name="XLA_Args"}
  %reshape.79 = f32[384]{0} reshape(f32[384]{0} %arg7.1)
  %add_8.2 = f32[1,1500,384]{2,1,0} broadcast(f32[384]{0} %reshape.79), dimensions={2}, metadata={op_type="AddV2" op_name="add_8" source_file="<repo-root>/src/cuda-spirv/xla_hlo/.venv-tf/lib/python3.12/site-packages/tensorflow/python/framework/ops.py" source_line=1221}
  %add_8.3 = f32[1,1500,384]{2,1,0} add(f32[1,1500,384]{2,1,0} %mul_13.3, f32[1,1500,384]{2,1,0} %add_8.2), metadata={op_type="AddV2" op_name="add_8" source_file="<repo-root>/src/cuda-spirv/xla_hlo/.venv-tf/lib/python3.12/site-packages/tensorflow/python/framework/ops.py" source_line=1221}
  %arg8.1 = f32[384,384]{1,0} parameter(8), parameter_replication={false}, metadata={op_name="XLA_Args"}
  %reshape.80 = f32[384,384]{1,0} reshape(f32[384,384]{1,0} %arg8.1)
  %MatMul.2 = f32[1,1500,384]{2,1,0} dot(f32[1,1500,384]{2,1,0} %add_8.3, f32[384,384]{1,0} %reshape.80), lhs_contracting_dims={2}, rhs_contracting_dims={0}, frontend_attributes={grad_x="false",grad_y="false"}, metadata={op_type="BatchMatMulV2" op_name="MatMul" source_file="<repo-root>/src/cuda-spirv/xla_hlo/.venv-tf/lib/python3.12/site-packages/tensorflow/python/framework/ops.py" source_line=1221}
  %MatMul.3 = f32[1,1500,384]{2,1,0} transpose(f32[1,1500,384]{2,1,0} %MatMul.2), dimensions={0,1,2}, metadata={op_type="BatchMatMulV2" op_name="MatMul" source_file="<repo-root>/src/cuda-spirv/xla_hlo/.venv-tf/lib/python3.12/site-packages/tensorflow/python/framework/ops.py" source_line=1221}
  %arg9.1 = f32[384]{0} parameter(9), parameter_replication={false}, metadata={op_name="XLA_Args"}
  %reshape.81 = f32[384]{0} reshape(f32[384]{0} %arg9.1)
  %add_9.2 = f32[1,1500,384]{2,1,0} broadcast(f32[384]{0} %reshape.81), dimensions={2}, metadata={op_type="AddV2" op_name="add_9" source_file="<repo-root>/src/cuda-spirv/xla_hlo/.venv-tf/lib/python3.12/site-packages/tensorflow/python/framework/ops.py" source_line=1221}
  %add_9.3 = f32[1,1500,384]{2,1,0} add(f32[1,1500,384]{2,1,0} %MatMul.3, f32[1,1500,384]{2,1,0} %add_9.2), metadata={op_type="AddV2" op_name="add_9" source_file="<repo-root>/src/cuda-spirv/xla_hlo/.venv-tf/lib/python3.12/site-packages/tensorflow/python/framework/ops.py" source_line=1221}
  %Reshape_2.1 = f32[1,1500,6,64]{3,2,1,0} reshape(f32[1,1500,384]{2,1,0} %add_9.3), metadata={op_type="Reshape" op_name="Reshape_2" source_file="<repo-root>/src/cuda-spirv/xla_hlo/.venv-tf/lib/python3.12/site-packages/tensorflow/python/framework/ops.py" source_line=1221}
  %transpose.1 = f32[1,6,1500,64]{3,1,2,0} transpose(f32[1,1500,6,64]{3,2,1,0} %Reshape_2.1), dimensions={0,2,1,3}, metadata={op_type="Transpose" op_name="transpose" source_file="<repo-root>/src/cuda-spirv/xla_hlo/.venv-tf/lib/python3.12/site-packages/tensorflow/python/framework/ops.py" source_line=1221}
  %arg10.1 = f32[384,384]{1,0} parameter(10), parameter_replication={false}, metadata={op_name="XLA_Args"}
  %reshape.82 = f32[384,384]{1,0} reshape(f32[384,384]{1,0} %arg10.1)
  %MatMul_1.2 = f32[1,1500,384]{2,1,0} dot(f32[1,1500,384]{2,1,0} %add_8.3, f32[384,384]{1,0} %reshape.82), lhs_contracting_dims={2}, rhs_contracting_dims={0}, frontend_attributes={grad_x="false",grad_y="false"}, metadata={op_type="BatchMatMulV2" op_name="MatMul_1" source_file="<repo-root>/src/cuda-spirv/xla_hlo/.venv-tf/lib/python3.12/site-packages/tensorflow/python/framework/ops.py" source_line=1221}
  %MatMul_1.3 = f32[1,1500,384]{2,1,0} transpose(f32[1,1500,384]{2,1,0} %MatMul_1.2), dimensions={0,1,2}, metadata={op_type="BatchMatMulV2" op_name="MatMul_1" source_file="<repo-root>/src/cuda-spirv/xla_hlo/.venv-tf/lib/python3.12/site-packages/tensorflow/python/framework/ops.py" source_line=1221}
  %arg11.1 = f32[384]{0} parameter(11), parameter_replication={false}, metadata={op_name="XLA_Args"}
  %reshape.83 = f32[384]{0} reshape(f32[384]{0} %arg11.1)
  %add_10.2 = f32[1,1500,384]{2,1,0} broadcast(f32[384]{0} %reshape.83), dimensions={2}, metadata={op_type="AddV2" op_name="add_10" source_file="<repo-root>/src/cuda-spirv/xla_hlo/.venv-tf/lib/python3.12/site-packages/tensorflow/python/framework/ops.py" source_line=1221}
  %add_10.3 = f32[1,1500,384]{2,1,0} add(f32[1,1500,384]{2,1,0} %MatMul_1.3, f32[1,1500,384]{2,1,0} %add_10.2), metadata={op_type="AddV2" op_name="add_10" source_file="<repo-root>/src/cuda-spirv/xla_hlo/.venv-tf/lib/python3.12/site-packages/tensorflow/python/framework/ops.py" source_line=1221}
  %Reshape_3.1 = f32[1,1500,6,64]{3,2,1,0} reshape(f32[1,1500,384]{2,1,0} %add_10.3), metadata={op_type="Reshape" op_name="Reshape_3" source_file="<repo-root>/src/cuda-spirv/xla_hlo/.venv-tf/lib/python3.12/site-packages/tensorflow/python/framework/ops.py" source_line=1221}
  %transpose_1.1 = f32[1,6,1500,64]{3,1,2,0} transpose(f32[1,1500,6,64]{3,2,1,0} %Reshape_3.1), dimensions={0,2,1,3}, metadata={op_type="Transpose" op_name="transpose_1" source_file="<repo-root>/src/cuda-spirv/xla_hlo/.venv-tf/lib/python3.12/site-packages/tensorflow/python/framework/ops.py" source_line=1221}
  %MatMul_3.2 = f32[1,6,1500,1500]{3,2,1,0} dot(f32[1,6,1500,64]{3,1,2,0} %transpose.1, f32[1,6,1500,64]{3,1,2,0} %transpose_1.1), lhs_batch_dims={0,1}, lhs_contracting_dims={3}, rhs_batch_dims={0,1}, rhs_contracting_dims={3}, frontend_attributes={grad_x="false",grad_y="false"}, metadata={op_type="BatchMatMulV2" op_name="MatMul_3" source_file="<repo-root>/src/cuda-spirv/xla_hlo/.venv-tf/lib/python3.12/site-packages/tensorflow/python/framework/ops.py" source_line=1221}
  %MatMul_3.3 = f32[1,6,1500,1500]{3,2,1,0} transpose(f32[1,6,1500,1500]{3,2,1,0} %MatMul_3.2), dimensions={0,1,2,3}, metadata={op_type="BatchMatMulV2" op_name="MatMul_3" source_file="<repo-root>/src/cuda-spirv/xla_hlo/.venv-tf/lib/python3.12/site-packages/tensorflow/python/framework/ops.py" source_line=1221}
  %mul_14.3 = f32[] constant(0.125), metadata={op_type="Mul" op_name="mul_14" source_file="<repo-root>/src/cuda-spirv/xla_hlo/.venv-tf/lib/python3.12/site-packages/tensorflow/python/framework/ops.py" source_line=1221}
  %mul_14.4 = f32[1,6,1500,1500]{3,2,1,0} broadcast(f32[] %mul_14.3), dimensions={}, metadata={op_type="Mul" op_name="mul_14" source_file="<repo-root>/src/cuda-spirv/xla_hlo/.venv-tf/lib/python3.12/site-packages/tensorflow/python/framework/ops.py" source_line=1221}
  %mul_14.5 = f32[1,6,1500,1500]{3,2,1,0} multiply(f32[1,6,1500,1500]{3,2,1,0} %MatMul_3.3, f32[1,6,1500,1500]{3,2,1,0} %mul_14.4), metadata={op_type="Mul" op_name="mul_14" source_file="<repo-root>/src/cuda-spirv/xla_hlo/.venv-tf/lib/python3.12/site-packages/tensorflow/python/framework/ops.py" source_line=1221}
  %Softmax.28 = f32[] constant(-inf), metadata={op_type="Softmax" op_name="Softmax" source_file="<repo-root>/src/cuda-spirv/xla_hlo/.venv-tf/lib/python3.12/site-packages/tensorflow/python/framework/ops.py" source_line=1221}
  %Softmax.29 = f32[1,6,1500]{2,1,0} reduce(f32[1,6,1500,1500]{3,2,1,0} %mul_14.5, f32[] %Softmax.28), dimensions={3}, to_apply=%region_0.3, metadata={op_type="Softmax" op_name="Softmax"}
  %Softmax.30 = f32[1,6,1500,1]{3,2,1,0} reshape(f32[1,6,1500]{2,1,0} %Softmax.29), metadata={op_type="Softmax" op_name="Softmax"}
  %Softmax.31 = f32[1,6,1500,1]{3,2,1,0} broadcast(f32[1,6,1500,1]{3,2,1,0} %Softmax.30), dimensions={0,1,2,3}, metadata={op_type="Softmax" op_name="Softmax"}
  %Softmax.32 = f32[1,6,1500]{2,1,0} reshape(f32[1,6,1500,1]{3,2,1,0} %Softmax.31), metadata={op_type="Softmax" op_name="Softmax"}
  %Softmax.33 = f32[1,6,1500,1500]{3,2,1,0} broadcast(f32[1,6,1500]{2,1,0} %Softmax.32), dimensions={0,1,2}, metadata={op_type="Softmax" op_name="Softmax"}
  %Softmax.34 = f32[1,6,1500,1500]{3,2,1,0} subtract(f32[1,6,1500,1500]{3,2,1,0} %mul_14.5, f32[1,6,1500,1500]{3,2,1,0} %Softmax.33), metadata={op_type="Softmax" op_name="Softmax"}
  %Softmax.35 = f32[1,6,1500,1500]{3,2,1,0} exponential(f32[1,6,1500,1500]{3,2,1,0} %Softmax.34), metadata={op_type="Softmax" op_name="Softmax"}
  %Softmax.27 = f32[] constant(-0), metadata={op_type="Softmax" op_name="Softmax" source_file="<repo-root>/src/cuda-spirv/xla_hlo/.venv-tf/lib/python3.12/site-packages/tensorflow/python/framework/ops.py" source_line=1221}
  %Softmax.36 = f32[1,6,1500]{2,1,0} reduce(f32[1,6,1500,1500]{3,2,1,0} %Softmax.35, f32[] %Softmax.27), dimensions={3}, to_apply=%region_1.4, metadata={op_type="Softmax" op_name="Softmax"}
  %Softmax.37 = f32[1,6,1500,1]{3,2,1,0} reshape(f32[1,6,1500]{2,1,0} %Softmax.36), metadata={op_type="Softmax" op_name="Softmax"}
  %Softmax.38 = f32[1,6,1500,1]{3,2,1,0} broadcast(f32[1,6,1500,1]{3,2,1,0} %Softmax.37), dimensions={0,1,2,3}, metadata={op_type="Softmax" op_name="Softmax"}
  %Softmax.39 = f32[1,6,1500]{2,1,0} reshape(f32[1,6,1500,1]{3,2,1,0} %Softmax.38), metadata={op_type="Softmax" op_name="Softmax"}
  %Softmax.40 = f32[1,6,1500,1500]{3,2,1,0} broadcast(f32[1,6,1500]{2,1,0} %Softmax.39), dimensions={0,1,2}, metadata={op_type="Softmax" op_name="Softmax"}
  %Softmax.41 = f32[1,6,1500,1500]{3,2,1,0} divide(f32[1,6,1500,1500]{3,2,1,0} %Softmax.35, f32[1,6,1500,1500]{3,2,1,0} %Softmax.40), metadata={op_type="Softmax" op_name="Softmax"}
  %arg12.1 = f32[384,384]{1,0} parameter(12), parameter_replication={false}, metadata={op_name="XLA_Args"}
  %reshape.84 = f32[384,384]{1,0} reshape(f32[384,384]{1,0} %arg12.1)
  %MatMul_2.2 = f32[1,1500,384]{2,1,0} dot(f32[1,1500,384]{2,1,0} %add_8.3, f32[384,384]{1,0} %reshape.84), lhs_contracting_dims={2}, rhs_contracting_dims={0}, frontend_attributes={grad_x="false",grad_y="false"}, metadata={op_type="BatchMatMulV2" op_name="MatMul_2" source_file="<repo-root>/src/cuda-spirv/xla_hlo/.venv-tf/lib/python3.12/site-packages/tensorflow/python/framework/ops.py" source_line=1221}
  %MatMul_2.3 = f32[1,1500,384]{2,1,0} transpose(f32[1,1500,384]{2,1,0} %MatMul_2.2), dimensions={0,1,2}, metadata={op_type="BatchMatMulV2" op_name="MatMul_2" source_file="<repo-root>/src/cuda-spirv/xla_hlo/.venv-tf/lib/python3.12/site-packages/tensorflow/python/framework/ops.py" source_line=1221}
  %arg13.1 = f32[384]{0} parameter(13), parameter_replication={false}, metadata={op_name="XLA_Args"}
  %reshape.85 = f32[384]{0} reshape(f32[384]{0} %arg13.1)
  %add_11.2 = f32[1,1500,384]{2,1,0} broadcast(f32[384]{0} %reshape.85), dimensions={2}, metadata={op_type="AddV2" op_name="add_11" source_file="<repo-root>/src/cuda-spirv/xla_hlo/.venv-tf/lib/python3.12/site-packages/tensorflow/python/framework/ops.py" source_line=1221}
  %add_11.3 = f32[1,1500,384]{2,1,0} add(f32[1,1500,384]{2,1,0} %MatMul_2.3, f32[1,1500,384]{2,1,0} %add_11.2), metadata={op_type="AddV2" op_name="add_11" source_file="<repo-root>/src/cuda-spirv/xla_hlo/.venv-tf/lib/python3.12/site-packages/tensorflow/python/framework/ops.py" source_line=1221}
  %Reshape_4.1 = f32[1,1500,6,64]{3,2,1,0} reshape(f32[1,1500,384]{2,1,0} %add_11.3), metadata={op_type="Reshape" op_name="Reshape_4" source_file="<repo-root>/src/cuda-spirv/xla_hlo/.venv-tf/lib/python3.12/site-packages/tensorflow/python/framework/ops.py" source_line=1221}
  %transpose_2.1 = f32[1,6,1500,64]{3,1,2,0} transpose(f32[1,1500,6,64]{3,2,1,0} %Reshape_4.1), dimensions={0,2,1,3}, metadata={op_type="Transpose" op_name="transpose_2" source_file="<repo-root>/src/cuda-spirv/xla_hlo/.venv-tf/lib/python3.12/site-packages/tensorflow/python/framework/ops.py" source_line=1221}
  %MatMul_4.2 = f32[1,6,1500,64]{3,2,1,0} dot(f32[1,6,1500,1500]{3,2,1,0} %Softmax.41, f32[1,6,1500,64]{3,1,2,0} %transpose_2.1), lhs_batch_dims={0,1}, lhs_contracting_dims={3}, rhs_batch_dims={0,1}, rhs_contracting_dims={2}, frontend_attributes={grad_x="false",grad_y="false"}, metadata={op_type="BatchMatMulV2" op_name="MatMul_4" source_file="<repo-root>/src/cuda-spirv/xla_hlo/.venv-tf/lib/python3.12/site-packages/tensorflow/python/framework/ops.py" source_line=1221}
  %MatMul_4.3 = f32[1,6,1500,64]{3,2,1,0} transpose(f32[1,6,1500,64]{3,2,1,0} %MatMul_4.2), dimensions={0,1,2,3}, metadata={op_type="BatchMatMulV2" op_name="MatMul_4" source_file="<repo-root>/src/cuda-spirv/xla_hlo/.venv-tf/lib/python3.12/site-packages/tensorflow/python/framework/ops.py" source_line=1221}
  %transpose_3.1 = f32[1,1500,6,64]{3,1,2,0} transpose(f32[1,6,1500,64]{3,2,1,0} %MatMul_4.3), dimensions={0,2,1,3}, metadata={op_type="Transpose" op_name="transpose_3" source_file="<repo-root>/src/cuda-spirv/xla_hlo/.venv-tf/lib/python3.12/site-packages/tensorflow/python/framework/ops.py" source_line=1221}
  %Reshape_5.1 = f32[1,1500,384]{2,1,0} reshape(f32[1,1500,6,64]{3,1,2,0} %transpose_3.1), metadata={op_type="Reshape" op_name="Reshape_5" source_file="<repo-root>/src/cuda-spirv/xla_hlo/.venv-tf/lib/python3.12/site-packages/tensorflow/python/framework/ops.py" source_line=1221}
  %arg14.1 = f32[384,384]{1,0} parameter(14), parameter_replication={false}, metadata={op_name="XLA_Args"}
  %reshape.86 = f32[384,384]{1,0} reshape(f32[384,384]{1,0} %arg14.1)
  %MatMul_5.2 = f32[1,1500,384]{2,1,0} dot(f32[1,1500,384]{2,1,0} %Reshape_5.1, f32[384,384]{1,0} %reshape.86), lhs_contracting_dims={2}, rhs_contracting_dims={0}, frontend_attributes={grad_x="false",grad_y="false"}, metadata={op_type="BatchMatMulV2" op_name="MatMul_5" source_file="<repo-root>/src/cuda-spirv/xla_hlo/.venv-tf/lib/python3.12/site-packages/tensorflow/python/framework/ops.py" source_line=1221}
  %MatMul_5.3 = f32[1,1500,384]{2,1,0} transpose(f32[1,1500,384]{2,1,0} %MatMul_5.2), dimensions={0,1,2}, metadata={op_type="BatchMatMulV2" op_name="MatMul_5" source_file="<repo-root>/src/cuda-spirv/xla_hlo/.venv-tf/lib/python3.12/site-packages/tensorflow/python/framework/ops.py" source_line=1221}
  %arg15.1 = f32[384]{0} parameter(15), parameter_replication={false}, metadata={op_name="XLA_Args"}
  %reshape.87 = f32[384]{0} reshape(f32[384]{0} %arg15.1)
  %add_12.2 = f32[1,1500,384]{2,1,0} broadcast(f32[384]{0} %reshape.87), dimensions={2}, metadata={op_type="AddV2" op_name="add_12" source_file="<repo-root>/src/cuda-spirv/xla_hlo/.venv-tf/lib/python3.12/site-packages/tensorflow/python/framework/ops.py" source_line=1221}
  %add_12.3 = f32[1,1500,384]{2,1,0} add(f32[1,1500,384]{2,1,0} %MatMul_5.3, f32[1,1500,384]{2,1,0} %add_12.2), metadata={op_type="AddV2" op_name="add_12" source_file="<repo-root>/src/cuda-spirv/xla_hlo/.venv-tf/lib/python3.12/site-packages/tensorflow/python/framework/ops.py" source_line=1221}
  %add_13.1 = f32[1,1500,384]{2,1,0} add(f32[1,1500,384]{2,1,0} %add_6.3, f32[1,1500,384]{2,1,0} %add_12.3), metadata={op_type="AddV2" op_name="add_13" source_file="<repo-root>/src/cuda-spirv/xla_hlo/.venv-tf/lib/python3.12/site-packages/tensorflow/python/framework/ops.py" source_line=1221}
  %mul_17.3 = f32[] constant(0.5), metadata={op_type="Mul" op_name="mul_17" source_file="<repo-root>/src/cuda-spirv/xla_hlo/.venv-tf/lib/python3.12/site-packages/tensorflow/python/framework/ops.py" source_line=1221}
  %mul_17.4 = f32[1,1500,1536]{2,1,0} broadcast(f32[] %mul_17.3), dimensions={}, metadata={op_type="Mul" op_name="mul_17" source_file="<repo-root>/src/cuda-spirv/xla_hlo/.venv-tf/lib/python3.12/site-packages/tensorflow/python/framework/ops.py" source_line=1221}
  %Mean_2.10 = f32[1,1500,384]{2,1,0} convert(f32[1,1500,384]{2,1,0} %add_13.1), metadata={op_type="Mean" op_name="Mean_2" source_file="<repo-root>/src/cuda-spirv/xla_hlo/.venv-tf/lib/python3.12/site-packages/tensorflow/python/framework/ops.py" source_line=1221}
  %Mean_2.11 = f32[] constant(0), metadata={op_type="Mean" op_name="Mean_2" source_file="<repo-root>/src/cuda-spirv/xla_hlo/.venv-tf/lib/python3.12/site-packages/tensorflow/python/framework/ops.py" source_line=1221}
  %Mean_2.12 = f32[] convert(f32[] %Mean_2.11), metadata={op_type="Mean" op_name="Mean_2" source_file="<repo-root>/src/cuda-spirv/xla_hlo/.venv-tf/lib/python3.12/site-packages/tensorflow/python/framework/ops.py" source_line=1221}
  %Mean_2.13 = f32[1,1500]{1,0} reduce(f32[1,1500,384]{2,1,0} %Mean_2.10, f32[] %Mean_2.12), dimensions={2}, to_apply=%Mean_2-reduction.5, metadata={op_type="Mean" op_name="Mean_2" source_file="<repo-root>/src/cuda-spirv/xla_hlo/.venv-tf/lib/python3.12/site-packages/tensorflow/python/framework/ops.py" source_line=1221}
  %Mean_2.14 = s32[] constant(384), metadata={op_type="Mean" op_name="Mean_2" source_file="<repo-root>/src/cuda-spirv/xla_hlo/.venv-tf/lib/python3.12/site-packages/tensorflow/python/framework/ops.py" source_line=1221}
  %Mean_2.15 = f32[] convert(s32[] %Mean_2.14), metadata={op_type="Mean" op_name="Mean_2" source_file="<repo-root>/src/cuda-spirv/xla_hlo/.venv-tf/lib/python3.12/site-packages/tensorflow/python/framework/ops.py" source_line=1221}
  %Mean_2.16 = f32[1,1500]{1,0} broadcast(f32[] %Mean_2.15), dimensions={}, metadata={op_type="Mean" op_name="Mean_2" source_file="<repo-root>/src/cuda-spirv/xla_hlo/.venv-tf/lib/python3.12/site-packages/tensorflow/python/framework/ops.py" source_line=1221}
  %Mean_2.17 = f32[1,1500]{1,0} divide(f32[1,1500]{1,0} %Mean_2.13, f32[1,1500]{1,0} %Mean_2.16), metadata={op_type="Mean" op_name="Mean_2" source_file="<repo-root>/src/cuda-spirv/xla_hlo/.venv-tf/lib/python3.12/site-packages/tensorflow/python/framework/ops.py" source_line=1221}
  %Mean_2.18 = f32[1,1500]{1,0} convert(f32[1,1500]{1,0} %Mean_2.17), metadata={op_type="Mean" op_name="Mean_2" source_file="<repo-root>/src/cuda-spirv/xla_hlo/.venv-tf/lib/python3.12/site-packages/tensorflow/python/framework/ops.py" source_line=1221}
  %Mean_2.19 = f32[1,1500,1]{2,1,0} reshape(f32[1,1500]{1,0} %Mean_2.18), metadata={op_type="Mean" op_name="Mean_2" source_file="<repo-root>/src/cuda-spirv/xla_hlo/.venv-tf/lib/python3.12/site-packages/tensorflow/python/framework/ops.py" source_line=1221}
  %sub_3.3 = f32[1,1500]{1,0} reshape(f32[1,1500,1]{2,1,0} %Mean_2.19), metadata={op_type="Sub" op_name="sub_3" source_file="<repo-root>/src/cuda-spirv/xla_hlo/.venv-tf/lib/python3.12/site-packages/tensorflow/python/framework/ops.py" source_line=1221}
  %sub_3.4 = f32[1,1500,384]{2,1,0} broadcast(f32[1,1500]{1,0} %sub_3.3), dimensions={0,1}, metadata={op_type="Sub" op_name="sub_3" source_file="<repo-root>/src/cuda-spirv/xla_hlo/.venv-tf/lib/python3.12/site-packages/tensorflow/python/framework/ops.py" source_line=1221}
  %sub_3.5 = f32[1,1500,384]{2,1,0} subtract(f32[1,1500,384]{2,1,0} %add_13.1, f32[1,1500,384]{2,1,0} %sub_3.4), metadata={op_type="Sub" op_name="sub_3" source_file="<repo-root>/src/cuda-spirv/xla_hlo/.venv-tf/lib/python3.12/site-packages/tensorflow/python/framework/ops.py" source_line=1221}
  %sub_2.3 = f32[1,1500]{1,0} reshape(f32[1,1500,1]{2,1,0} %Mean_2.19), metadata={op_type="Sub" op_name="sub_2" source_file="<repo-root>/src/cuda-spirv/xla_hlo/.venv-tf/lib/python3.12/site-packages/tensorflow/python/framework/ops.py" source_line=1221}
  %sub_2.4 = f32[1,1500,384]{2,1,0} broadcast(f32[1,1500]{1,0} %sub_2.3), dimensions={0,1}, metadata={op_type="Sub" op_name="sub_2" source_file="<repo-root>/src/cuda-spirv/xla_hlo/.venv-tf/lib/python3.12/site-packages/tensorflow/python/framework/ops.py" source_line=1221}
  %sub_2.5 = f32[1,1500,384]{2,1,0} subtract(f32[1,1500,384]{2,1,0} %add_13.1, f32[1,1500,384]{2,1,0} %sub_2.4), metadata={op_type="Sub" op_name="sub_2" source_file="<repo-root>/src/cuda-spirv/xla_hlo/.venv-tf/lib/python3.12/site-packages/tensorflow/python/framework/ops.py" source_line=1221}
  %Square_1.1 = f32[1,1500,384]{2,1,0} multiply(f32[1,1500,384]{2,1,0} %sub_2.5, f32[1,1500,384]{2,1,0} %sub_2.5), metadata={op_type="Square" op_name="Square_1" source_file="<repo-root>/src/cuda-spirv/xla_hlo/.venv-tf/lib/python3.12/site-packages/tensorflow/python/framework/ops.py" source_line=1221}
  %Mean_3.10 = f32[1,1500,384]{2,1,0} convert(f32[1,1500,384]{2,1,0} %Square_1.1), metadata={op_type="Mean" op_name="Mean_3" source_file="<repo-root>/src/cuda-spirv/xla_hlo/.venv-tf/lib/python3.12/site-packages/tensorflow/python/framework/ops.py" source_line=1221}
  %Mean_3.11 = f32[] constant(0), metadata={op_type="Mean" op_name="Mean_3" source_file="<repo-root>/src/cuda-spirv/xla_hlo/.venv-tf/lib/python3.12/site-packages/tensorflow/python/framework/ops.py" source_line=1221}
  %Mean_3.12 = f32[] convert(f32[] %Mean_3.11), metadata={op_type="Mean" op_name="Mean_3" source_file="<repo-root>/src/cuda-spirv/xla_hlo/.venv-tf/lib/python3.12/site-packages/tensorflow/python/framework/ops.py" source_line=1221}
  %Mean_3.13 = f32[1,1500]{1,0} reduce(f32[1,1500,384]{2,1,0} %Mean_3.10, f32[] %Mean_3.12), dimensions={2}, to_apply=%Mean_3-reduction.6, metadata={op_type="Mean" op_name="Mean_3" source_file="<repo-root>/src/cuda-spirv/xla_hlo/.venv-tf/lib/python3.12/site-packages/tensorflow/python/framework/ops.py" source_line=1221}
  %Mean_3.14 = s32[] constant(384), metadata={op_type="Mean" op_name="Mean_3" source_file="<repo-root>/src/cuda-spirv/xla_hlo/.venv-tf/lib/python3.12/site-packages/tensorflow/python/framework/ops.py" source_line=1221}
  %Mean_3.15 = f32[] convert(s32[] %Mean_3.14), metadata={op_type="Mean" op_name="Mean_3" source_file="<repo-root>/src/cuda-spirv/xla_hlo/.venv-tf/lib/python3.12/site-packages/tensorflow/python/framework/ops.py" source_line=1221}
  %Mean_3.16 = f32[1,1500]{1,0} broadcast(f32[] %Mean_3.15), dimensions={}, metadata={op_type="Mean" op_name="Mean_3" source_file="<repo-root>/src/cuda-spirv/xla_hlo/.venv-tf/lib/python3.12/site-packages/tensorflow/python/framework/ops.py" source_line=1221}
  %Mean_3.17 = f32[1,1500]{1,0} divide(f32[1,1500]{1,0} %Mean_3.13, f32[1,1500]{1,0} %Mean_3.16), metadata={op_type="Mean" op_name="Mean_3" source_file="<repo-root>/src/cuda-spirv/xla_hlo/.venv-tf/lib/python3.12/site-packages/tensorflow/python/framework/ops.py" source_line=1221}
  %Mean_3.18 = f32[1,1500]{1,0} convert(f32[1,1500]{1,0} %Mean_3.17), metadata={op_type="Mean" op_name="Mean_3" source_file="<repo-root>/src/cuda-spirv/xla_hlo/.venv-tf/lib/python3.12/site-packages/tensorflow/python/framework/ops.py" source_line=1221}
  %Mean_3.19 = f32[1,1500,1]{2,1,0} reshape(f32[1,1500]{1,0} %Mean_3.18), metadata={op_type="Mean" op_name="Mean_3" source_file="<repo-root>/src/cuda-spirv/xla_hlo/.venv-tf/lib/python3.12/site-packages/tensorflow/python/framework/ops.py" source_line=1221}
  %add_14.3 = f32[] constant(1e-05), metadata={op_type="AddV2" op_name="add_14" source_file="<repo-root>/src/cuda-spirv/xla_hlo/.venv-tf/lib/python3.12/site-packages/tensorflow/python/framework/ops.py" source_line=1221}
  %add_14.4 = f32[1,1500,1]{2,1,0} broadcast(f32[] %add_14.3), dimensions={}, metadata={op_type="AddV2" op_name="add_14" source_file="<repo-root>/src/cuda-spirv/xla_hlo/.venv-tf/lib/python3.12/site-packages/tensorflow/python/framework/ops.py" source_line=1221}
  %add_14.5 = f32[1,1500,1]{2,1,0} add(f32[1,1500,1]{2,1,0} %Mean_3.19, f32[1,1500,1]{2,1,0} %add_14.4), metadata={op_type="AddV2" op_name="add_14" source_file="<repo-root>/src/cuda-spirv/xla_hlo/.venv-tf/lib/python3.12/site-packages/tensorflow/python/framework/ops.py" source_line=1221}
  %Rsqrt_2.1 = f32[1,1500,1]{2,1,0} rsqrt(f32[1,1500,1]{2,1,0} %add_14.5), metadata={op_type="Rsqrt" op_name="Rsqrt_2"}
  %mul_15.3 = f32[1,1500]{1,0} reshape(f32[1,1500,1]{2,1,0} %Rsqrt_2.1), metadata={op_type="Mul" op_name="mul_15" source_file="<repo-root>/src/cuda-spirv/xla_hlo/.venv-tf/lib/python3.12/site-packages/tensorflow/python/framework/ops.py" source_line=1221}
  %mul_15.4 = f32[1,1500,384]{2,1,0} broadcast(f32[1,1500]{1,0} %mul_15.3), dimensions={0,1}, metadata={op_type="Mul" op_name="mul_15" source_file="<repo-root>/src/cuda-spirv/xla_hlo/.venv-tf/lib/python3.12/site-packages/tensorflow/python/framework/ops.py" source_line=1221}
  %mul_15.5 = f32[1,1500,384]{2,1,0} multiply(f32[1,1500,384]{2,1,0} %sub_3.5, f32[1,1500,384]{2,1,0} %mul_15.4), metadata={op_type="Mul" op_name="mul_15" source_file="<repo-root>/src/cuda-spirv/xla_hlo/.venv-tf/lib/python3.12/site-packages/tensorflow/python/framework/ops.py" source_line=1221}
  %arg16.1 = f32[384]{0} parameter(16), parameter_replication={false}, metadata={op_name="XLA_Args"}
  %reshape.88 = f32[384]{0} reshape(f32[384]{0} %arg16.1)
  %mul_16.2 = f32[1,1500,384]{2,1,0} broadcast(f32[384]{0} %reshape.88), dimensions={2}, metadata={op_type="Mul" op_name="mul_16" source_file="<repo-root>/src/cuda-spirv/xla_hlo/.venv-tf/lib/python3.12/site-packages/tensorflow/python/framework/ops.py" source_line=1221}
  %mul_16.3 = f32[1,1500,384]{2,1,0} multiply(f32[1,1500,384]{2,1,0} %mul_15.5, f32[1,1500,384]{2,1,0} %mul_16.2), metadata={op_type="Mul" op_name="mul_16" source_file="<repo-root>/src/cuda-spirv/xla_hlo/.venv-tf/lib/python3.12/site-packages/tensorflow/python/framework/ops.py" source_line=1221}
  %arg17.1 = f32[384]{0} parameter(17), parameter_replication={false}, metadata={op_name="XLA_Args"}
  %reshape.89 = f32[384]{0} reshape(f32[384]{0} %arg17.1)
  %add_15.2 = f32[1,1500,384]{2,1,0} broadcast(f32[384]{0} %reshape.89), dimensions={2}, metadata={op_type="AddV2" op_name="add_15" source_file="<repo-root>/src/cuda-spirv/xla_hlo/.venv-tf/lib/python3.12/site-packages/tensorflow/python/framework/ops.py" source_line=1221}
  %add_15.3 = f32[1,1500,384]{2,1,0} add(f32[1,1500,384]{2,1,0} %mul_16.3, f32[1,1500,384]{2,1,0} %add_15.2), metadata={op_type="AddV2" op_name="add_15" source_file="<repo-root>/src/cuda-spirv/xla_hlo/.venv-tf/lib/python3.12/site-packages/tensorflow/python/framework/ops.py" source_line=1221}
  %arg18.1 = f32[384,1536]{1,0} parameter(18), parameter_replication={false}, metadata={op_name="XLA_Args"}
  %reshape.90 = f32[384,1536]{1,0} reshape(f32[384,1536]{1,0} %arg18.1)
  %MatMul_6.2 = f32[1,1500,1536]{2,1,0} dot(f32[1,1500,384]{2,1,0} %add_15.3, f32[384,1536]{1,0} %reshape.90), lhs_contracting_dims={2}, rhs_contracting_dims={0}, frontend_attributes={grad_x="false",grad_y="false"}, metadata={op_type="BatchMatMulV2" op_name="MatMul_6" source_file="<repo-root>/src/cuda-spirv/xla_hlo/.venv-tf/lib/python3.12/site-packages/tensorflow/python/framework/ops.py" source_line=1221}
  %MatMul_6.3 = f32[1,1500,1536]{2,1,0} transpose(f32[1,1500,1536]{2,1,0} %MatMul_6.2), dimensions={0,1,2}, metadata={op_type="BatchMatMulV2" op_name="MatMul_6" source_file="<repo-root>/src/cuda-spirv/xla_hlo/.venv-tf/lib/python3.12/site-packages/tensorflow/python/framework/ops.py" source_line=1221}
  %arg19.1 = f32[1536]{0} parameter(19), parameter_replication={false}, metadata={op_name="XLA_Args"}
  %reshape.91 = f32[1536]{0} reshape(f32[1536]{0} %arg19.1)
  %add_16.2 = f32[1,1500,1536]{2,1,0} broadcast(f32[1536]{0} %reshape.91), dimensions={2}, metadata={op_type="AddV2" op_name="add_16" source_file="<repo-root>/src/cuda-spirv/xla_hlo/.venv-tf/lib/python3.12/site-packages/tensorflow/python/framework/ops.py" source_line=1221}
  %add_16.3 = f32[1,1500,1536]{2,1,0} add(f32[1,1500,1536]{2,1,0} %MatMul_6.3, f32[1,1500,1536]{2,1,0} %add_16.2), metadata={op_type="AddV2" op_name="add_16" source_file="<repo-root>/src/cuda-spirv/xla_hlo/.venv-tf/lib/python3.12/site-packages/tensorflow/python/framework/ops.py" source_line=1221}
  %mul_17.5 = f32[1,1500,1536]{2,1,0} multiply(f32[1,1500,1536]{2,1,0} %mul_17.4, f32[1,1500,1536]{2,1,0} %add_16.3), metadata={op_type="Mul" op_name="mul_17" source_file="<repo-root>/src/cuda-spirv/xla_hlo/.venv-tf/lib/python3.12/site-packages/tensorflow/python/framework/ops.py" source_line=1221}
  %add_18.3 = f32[] constant(1), metadata={op_type="AddV2" op_name="add_18" source_file="<repo-root>/src/cuda-spirv/xla_hlo/.venv-tf/lib/python3.12/site-packages/tensorflow/python/framework/ops.py" source_line=1221}
  %add_18.4 = f32[1,1500,1536]{2,1,0} broadcast(f32[] %add_18.3), dimensions={}, metadata={op_type="AddV2" op_name="add_18" source_file="<repo-root>/src/cuda-spirv/xla_hlo/.venv-tf/lib/python3.12/site-packages/tensorflow/python/framework/ops.py" source_line=1221}
  %mul_21.3 = f32[] constant(0.797884583), metadata={op_type="Mul" op_name="mul_21" source_file="<repo-root>/src/cuda-spirv/xla_hlo/.venv-tf/lib/python3.12/site-packages/tensorflow/python/framework/ops.py" source_line=1221}
  %mul_21.4 = f32[1,1500,1536]{2,1,0} broadcast(f32[] %mul_21.3), dimensions={}, metadata={op_type="Mul" op_name="mul_21" source_file="<repo-root>/src/cuda-spirv/xla_hlo/.venv-tf/lib/python3.12/site-packages/tensorflow/python/framework/ops.py" source_line=1221}
  %mul_18.3 = f32[] constant(0.044715), metadata={op_type="Mul" op_name="mul_18" source_file="<repo-root>/src/cuda-spirv/xla_hlo/.venv-tf/lib/python3.12/site-packages/tensorflow/python/framework/ops.py" source_line=1221}
  %mul_18.4 = f32[1,1500,1536]{2,1,0} broadcast(f32[] %mul_18.3), dimensions={}, metadata={op_type="Mul" op_name="mul_18" source_file="<repo-root>/src/cuda-spirv/xla_hlo/.venv-tf/lib/python3.12/site-packages/tensorflow/python/framework/ops.py" source_line=1221}
  %mul_18.5 = f32[1,1500,1536]{2,1,0} multiply(f32[1,1500,1536]{2,1,0} %mul_18.4, f32[1,1500,1536]{2,1,0} %add_16.3), metadata={op_type="Mul" op_name="mul_18" source_file="<repo-root>/src/cuda-spirv/xla_hlo/.venv-tf/lib/python3.12/site-packages/tensorflow/python/framework/ops.py" source_line=1221}
  %mul_19.1 = f32[1,1500,1536]{2,1,0} multiply(f32[1,1500,1536]{2,1,0} %mul_18.5, f32[1,1500,1536]{2,1,0} %add_16.3), metadata={op_type="Mul" op_name="mul_19" source_file="<repo-root>/src/cuda-spirv/xla_hlo/.venv-tf/lib/python3.12/site-packages/tensorflow/python/framework/ops.py" source_line=1221}
  %mul_20.1 = f32[1,1500,1536]{2,1,0} multiply(f32[1,1500,1536]{2,1,0} %mul_19.1, f32[1,1500,1536]{2,1,0} %add_16.3), metadata={op_type="Mul" op_name="mul_20" source_file="<repo-root>/src/cuda-spirv/xla_hlo/.venv-tf/lib/python3.12/site-packages/tensorflow/python/framework/ops.py" source_line=1221}
  %add_17.1 = f32[1,1500,1536]{2,1,0} add(f32[1,1500,1536]{2,1,0} %add_16.3, f32[1,1500,1536]{2,1,0} %mul_20.1), metadata={op_type="AddV2" op_name="add_17" source_file="<repo-root>/src/cuda-spirv/xla_hlo/.venv-tf/lib/python3.12/site-packages/tensorflow/python/framework/ops.py" source_line=1221}
  %mul_21.5 = f32[1,1500,1536]{2,1,0} multiply(f32[1,1500,1536]{2,1,0} %mul_21.4, f32[1,1500,1536]{2,1,0} %add_17.1), metadata={op_type="Mul" op_name="mul_21" source_file="<repo-root>/src/cuda-spirv/xla_hlo/.venv-tf/lib/python3.12/site-packages/tensorflow/python/framework/ops.py" source_line=1221}
  %Tanh_2.1 = f32[1,1500,1536]{2,1,0} tanh(f32[1,1500,1536]{2,1,0} %mul_21.5), metadata={op_type="Tanh" op_name="Tanh_2"}
  %add_18.5 = f32[1,1500,1536]{2,1,0} add(f32[1,1500,1536]{2,1,0} %add_18.4, f32[1,1500,1536]{2,1,0} %Tanh_2.1), metadata={op_type="AddV2" op_name="add_18" source_file="<repo-root>/src/cuda-spirv/xla_hlo/.venv-tf/lib/python3.12/site-packages/tensorflow/python/framework/ops.py" source_line=1221}
  %mul_22.1 = f32[1,1500,1536]{2,1,0} multiply(f32[1,1500,1536]{2,1,0} %mul_17.5, f32[1,1500,1536]{2,1,0} %add_18.5), metadata={op_type="Mul" op_name="mul_22" source_file="<repo-root>/src/cuda-spirv/xla_hlo/.venv-tf/lib/python3.12/site-packages/tensorflow/python/framework/ops.py" source_line=1221}
  %arg20.1 = f32[1536,384]{1,0} parameter(20), parameter_replication={false}, metadata={op_name="XLA_Args"}
  %reshape.92 = f32[1536,384]{1,0} reshape(f32[1536,384]{1,0} %arg20.1)
  %MatMul_7.2 = f32[1,1500,384]{2,1,0} dot(f32[1,1500,1536]{2,1,0} %mul_22.1, f32[1536,384]{1,0} %reshape.92), lhs_contracting_dims={2}, rhs_contracting_dims={0}, frontend_attributes={grad_x="false",grad_y="false"}, metadata={op_type="BatchMatMulV2" op_name="MatMul_7" source_file="<repo-root>/src/cuda-spirv/xla_hlo/.venv-tf/lib/python3.12/site-packages/tensorflow/python/framework/ops.py" source_line=1221}
  %MatMul_7.3 = f32[1,1500,384]{2,1,0} transpose(f32[1,1500,384]{2,1,0} %MatMul_7.2), dimensions={0,1,2}, metadata={op_type="BatchMatMulV2" op_name="MatMul_7" source_file="<repo-root>/src/cuda-spirv/xla_hlo/.venv-tf/lib/python3.12/site-packages/tensorflow/python/framework/ops.py" source_line=1221}
  %arg21.1 = f32[384]{0} parameter(21), parameter_replication={false}, metadata={op_name="XLA_Args"}
  %reshape.93 = f32[384]{0} reshape(f32[384]{0} %arg21.1)
  %add_19.2 = f32[1,1500,384]{2,1,0} broadcast(f32[384]{0} %reshape.93), dimensions={2}, metadata={op_type="AddV2" op_name="add_19" source_file="<repo-root>/src/cuda-spirv/xla_hlo/.venv-tf/lib/python3.12/site-packages/tensorflow/python/framework/ops.py" source_line=1221}
  %add_19.3 = f32[1,1500,384]{2,1,0} add(f32[1,1500,384]{2,1,0} %MatMul_7.3, f32[1,1500,384]{2,1,0} %add_19.2), metadata={op_type="AddV2" op_name="add_19" source_file="<repo-root>/src/cuda-spirv/xla_hlo/.venv-tf/lib/python3.12/site-packages/tensorflow/python/framework/ops.py" source_line=1221}
  %add_20.1 = f32[1,1500,384]{2,1,0} add(f32[1,1500,384]{2,1,0} %add_13.1, f32[1,1500,384]{2,1,0} %add_19.3), metadata={op_type="AddV2" op_name="add_20" source_file="<repo-root>/src/cuda-spirv/xla_hlo/.venv-tf/lib/python3.12/site-packages/tensorflow/python/framework/ops.py" source_line=1221}
  %Mean_4.10 = f32[1,1500,384]{2,1,0} convert(f32[1,1500,384]{2,1,0} %add_20.1), metadata={op_type="Mean" op_name="Mean_4" source_file="<repo-root>/src/cuda-spirv/xla_hlo/.venv-tf/lib/python3.12/site-packages/tensorflow/python/framework/ops.py" source_line=1221}
  %Mean_4.11 = f32[] constant(0), metadata={op_type="Mean" op_name="Mean_4" source_file="<repo-root>/src/cuda-spirv/xla_hlo/.venv-tf/lib/python3.12/site-packages/tensorflow/python/framework/ops.py" source_line=1221}
  %Mean_4.12 = f32[] convert(f32[] %Mean_4.11), metadata={op_type="Mean" op_name="Mean_4" source_file="<repo-root>/src/cuda-spirv/xla_hlo/.venv-tf/lib/python3.12/site-packages/tensorflow/python/framework/ops.py" source_line=1221}
  %Mean_4.13 = f32[1,1500]{1,0} reduce(f32[1,1500,384]{2,1,0} %Mean_4.10, f32[] %Mean_4.12), dimensions={2}, to_apply=%Mean_4-reduction.7, metadata={op_type="Mean" op_name="Mean_4" source_file="<repo-root>/src/cuda-spirv/xla_hlo/.venv-tf/lib/python3.12/site-packages/tensorflow/python/framework/ops.py" source_line=1221}
  %Mean_4.14 = s32[] constant(384), metadata={op_type="Mean" op_name="Mean_4" source_file="<repo-root>/src/cuda-spirv/xla_hlo/.venv-tf/lib/python3.12/site-packages/tensorflow/python/framework/ops.py" source_line=1221}
  %Mean_4.15 = f32[] convert(s32[] %Mean_4.14), metadata={op_type="Mean" op_name="Mean_4" source_file="<repo-root>/src/cuda-spirv/xla_hlo/.venv-tf/lib/python3.12/site-packages/tensorflow/python/framework/ops.py" source_line=1221}
  %Mean_4.16 = f32[1,1500]{1,0} broadcast(f32[] %Mean_4.15), dimensions={}, metadata={op_type="Mean" op_name="Mean_4" source_file="<repo-root>/src/cuda-spirv/xla_hlo/.venv-tf/lib/python3.12/site-packages/tensorflow/python/framework/ops.py" source_line=1221}
  %Mean_4.17 = f32[1,1500]{1,0} divide(f32[1,1500]{1,0} %Mean_4.13, f32[1,1500]{1,0} %Mean_4.16), metadata={op_type="Mean" op_name="Mean_4" source_file="<repo-root>/src/cuda-spirv/xla_hlo/.venv-tf/lib/python3.12/site-packages/tensorflow/python/framework/ops.py" source_line=1221}
  %Mean_4.18 = f32[1,1500]{1,0} convert(f32[1,1500]{1,0} %Mean_4.17), metadata={op_type="Mean" op_name="Mean_4" source_file="<repo-root>/src/cuda-spirv/xla_hlo/.venv-tf/lib/python3.12/site-packages/tensorflow/python/framework/ops.py" source_line=1221}
  %Mean_4.19 = f32[1,1500,1]{2,1,0} reshape(f32[1,1500]{1,0} %Mean_4.18), metadata={op_type="Mean" op_name="Mean_4" source_file="<repo-root>/src/cuda-spirv/xla_hlo/.venv-tf/lib/python3.12/site-packages/tensorflow/python/framework/ops.py" source_line=1221}
  %sub_5.3 = f32[1,1500]{1,0} reshape(f32[1,1500,1]{2,1,0} %Mean_4.19), metadata={op_type="Sub" op_name="sub_5" source_file="<repo-root>/src/cuda-spirv/xla_hlo/.venv-tf/lib/python3.12/site-packages/tensorflow/python/framework/ops.py" source_line=1221}
  %sub_5.4 = f32[1,1500,384]{2,1,0} broadcast(f32[1,1500]{1,0} %sub_5.3), dimensions={0,1}, metadata={op_type="Sub" op_name="sub_5" source_file="<repo-root>/src/cuda-spirv/xla_hlo/.venv-tf/lib/python3.12/site-packages/tensorflow/python/framework/ops.py" source_line=1221}
  %sub_5.5 = f32[1,1500,384]{2,1,0} subtract(f32[1,1500,384]{2,1,0} %add_20.1, f32[1,1500,384]{2,1,0} %sub_5.4), metadata={op_type="Sub" op_name="sub_5" source_file="<repo-root>/src/cuda-spirv/xla_hlo/.venv-tf/lib/python3.12/site-packages/tensorflow/python/framework/ops.py" source_line=1221}
  %sub_4.3 = f32[1,1500]{1,0} reshape(f32[1,1500,1]{2,1,0} %Mean_4.19), metadata={op_type="Sub" op_name="sub_4" source_file="<repo-root>/src/cuda-spirv/xla_hlo/.venv-tf/lib/python3.12/site-packages/tensorflow/python/framework/ops.py" source_line=1221}
  %sub_4.4 = f32[1,1500,384]{2,1,0} broadcast(f32[1,1500]{1,0} %sub_4.3), dimensions={0,1}, metadata={op_type="Sub" op_name="sub_4" source_file="<repo-root>/src/cuda-spirv/xla_hlo/.venv-tf/lib/python3.12/site-packages/tensorflow/python/framework/ops.py" source_line=1221}
  %sub_4.5 = f32[1,1500,384]{2,1,0} subtract(f32[1,1500,384]{2,1,0} %add_20.1, f32[1,1500,384]{2,1,0} %sub_4.4), metadata={op_type="Sub" op_name="sub_4" source_file="<repo-root>/src/cuda-spirv/xla_hlo/.venv-tf/lib/python3.12/site-packages/tensorflow/python/framework/ops.py" source_line=1221}
  %Square_2.1 = f32[1,1500,384]{2,1,0} multiply(f32[1,1500,384]{2,1,0} %sub_4.5, f32[1,1500,384]{2,1,0} %sub_4.5), metadata={op_type="Square" op_name="Square_2" source_file="<repo-root>/src/cuda-spirv/xla_hlo/.venv-tf/lib/python3.12/site-packages/tensorflow/python/framework/ops.py" source_line=1221}
  %Mean_5.10 = f32[1,1500,384]{2,1,0} convert(f32[1,1500,384]{2,1,0} %Square_2.1), metadata={op_type="Mean" op_name="Mean_5" source_file="<repo-root>/src/cuda-spirv/xla_hlo/.venv-tf/lib/python3.12/site-packages/tensorflow/python/framework/ops.py" source_line=1221}
  %Mean_5.11 = f32[] constant(0), metadata={op_type="Mean" op_name="Mean_5" source_file="<repo-root>/src/cuda-spirv/xla_hlo/.venv-tf/lib/python3.12/site-packages/tensorflow/python/framework/ops.py" source_line=1221}
  %Mean_5.12 = f32[] convert(f32[] %Mean_5.11), metadata={op_type="Mean" op_name="Mean_5" source_file="<repo-root>/src/cuda-spirv/xla_hlo/.venv-tf/lib/python3.12/site-packages/tensorflow/python/framework/ops.py" source_line=1221}
  %Mean_5.13 = f32[1,1500]{1,0} reduce(f32[1,1500,384]{2,1,0} %Mean_5.10, f32[] %Mean_5.12), dimensions={2}, to_apply=%Mean_5-reduction.8, metadata={op_type="Mean" op_name="Mean_5" source_file="<repo-root>/src/cuda-spirv/xla_hlo/.venv-tf/lib/python3.12/site-packages/tensorflow/python/framework/ops.py" source_line=1221}
  %Mean_5.14 = s32[] constant(384), metadata={op_type="Mean" op_name="Mean_5" source_file="<repo-root>/src/cuda-spirv/xla_hlo/.venv-tf/lib/python3.12/site-packages/tensorflow/python/framework/ops.py" source_line=1221}
  %Mean_5.15 = f32[] convert(s32[] %Mean_5.14), metadata={op_type="Mean" op_name="Mean_5" source_file="<repo-root>/src/cuda-spirv/xla_hlo/.venv-tf/lib/python3.12/site-packages/tensorflow/python/framework/ops.py" source_line=1221}
  %Mean_5.16 = f32[1,1500]{1,0} broadcast(f32[] %Mean_5.15), dimensions={}, metadata={op_type="Mean" op_name="Mean_5" source_file="<repo-root>/src/cuda-spirv/xla_hlo/.venv-tf/lib/python3.12/site-packages/tensorflow/python/framework/ops.py" source_line=1221}
  %Mean_5.17 = f32[1,1500]{1,0} divide(f32[1,1500]{1,0} %Mean_5.13, f32[1,1500]{1,0} %Mean_5.16), metadata={op_type="Mean" op_name="Mean_5" source_file="<repo-root>/src/cuda-spirv/xla_hlo/.venv-tf/lib/python3.12/site-packages/tensorflow/python/framework/ops.py" source_line=1221}
  %Mean_5.18 = f32[1,1500]{1,0} convert(f32[1,1500]{1,0} %Mean_5.17), metadata={op_type="Mean" op_name="Mean_5" source_file="<repo-root>/src/cuda-spirv/xla_hlo/.venv-tf/lib/python3.12/site-packages/tensorflow/python/framework/ops.py" source_line=1221}
  %Mean_5.19 = f32[1,1500,1]{2,1,0} reshape(f32[1,1500]{1,0} %Mean_5.18), metadata={op_type="Mean" op_name="Mean_5" source_file="<repo-root>/src/cuda-spirv/xla_hlo/.venv-tf/lib/python3.12/site-packages/tensorflow/python/framework/ops.py" source_line=1221}
  %add_21.3 = f32[] constant(1e-05), metadata={op_type="AddV2" op_name="add_21" source_file="<repo-root>/src/cuda-spirv/xla_hlo/.venv-tf/lib/python3.12/site-packages/tensorflow/python/framework/ops.py" source_line=1221}
  %add_21.4 = f32[1,1500,1]{2,1,0} broadcast(f32[] %add_21.3), dimensions={}, metadata={op_type="AddV2" op_name="add_21" source_file="<repo-root>/src/cuda-spirv/xla_hlo/.venv-tf/lib/python3.12/site-packages/tensorflow/python/framework/ops.py" source_line=1221}
  %add_21.5 = f32[1,1500,1]{2,1,0} add(f32[1,1500,1]{2,1,0} %Mean_5.19, f32[1,1500,1]{2,1,0} %add_21.4), metadata={op_type="AddV2" op_name="add_21" source_file="<repo-root>/src/cuda-spirv/xla_hlo/.venv-tf/lib/python3.12/site-packages/tensorflow/python/framework/ops.py" source_line=1221}
  %Rsqrt_3.1 = f32[1,1500,1]{2,1,0} rsqrt(f32[1,1500,1]{2,1,0} %add_21.5), metadata={op_type="Rsqrt" op_name="Rsqrt_3"}
  %mul_23.3 = f32[1,1500]{1,0} reshape(f32[1,1500,1]{2,1,0} %Rsqrt_3.1), metadata={op_type="Mul" op_name="mul_23" source_file="<repo-root>/src/cuda-spirv/xla_hlo/.venv-tf/lib/python3.12/site-packages/tensorflow/python/framework/ops.py" source_line=1221}
  %mul_23.4 = f32[1,1500,384]{2,1,0} broadcast(f32[1,1500]{1,0} %mul_23.3), dimensions={0,1}, metadata={op_type="Mul" op_name="mul_23" source_file="<repo-root>/src/cuda-spirv/xla_hlo/.venv-tf/lib/python3.12/site-packages/tensorflow/python/framework/ops.py" source_line=1221}
  %mul_23.5 = f32[1,1500,384]{2,1,0} multiply(f32[1,1500,384]{2,1,0} %sub_5.5, f32[1,1500,384]{2,1,0} %mul_23.4), metadata={op_type="Mul" op_name="mul_23" source_file="<repo-root>/src/cuda-spirv/xla_hlo/.venv-tf/lib/python3.12/site-packages/tensorflow/python/framework/ops.py" source_line=1221}
  %arg22.1 = f32[384]{0} parameter(22), parameter_replication={false}, metadata={op_name="XLA_Args"}
  %reshape.94 = f32[384]{0} reshape(f32[384]{0} %arg22.1)
  %mul_24.2 = f32[1,1500,384]{2,1,0} broadcast(f32[384]{0} %reshape.94), dimensions={2}, metadata={op_type="Mul" op_name="mul_24" source_file="<repo-root>/src/cuda-spirv/xla_hlo/.venv-tf/lib/python3.12/site-packages/tensorflow/python/framework/ops.py" source_line=1221}
  %mul_24.3 = f32[1,1500,384]{2,1,0} multiply(f32[1,1500,384]{2,1,0} %mul_23.5, f32[1,1500,384]{2,1,0} %mul_24.2), metadata={op_type="Mul" op_name="mul_24" source_file="<repo-root>/src/cuda-spirv/xla_hlo/.venv-tf/lib/python3.12/site-packages/tensorflow/python/framework/ops.py" source_line=1221}
  %arg23.1 = f32[384]{0} parameter(23), parameter_replication={false}, metadata={op_name="XLA_Args"}
  %reshape.95 = f32[384]{0} reshape(f32[384]{0} %arg23.1)
  %add_22.2 = f32[1,1500,384]{2,1,0} broadcast(f32[384]{0} %reshape.95), dimensions={2}, metadata={op_type="AddV2" op_name="add_22" source_file="<repo-root>/src/cuda-spirv/xla_hlo/.venv-tf/lib/python3.12/site-packages/tensorflow/python/framework/ops.py" source_line=1221}
  %add_22.3 = f32[1,1500,384]{2,1,0} add(f32[1,1500,384]{2,1,0} %mul_24.3, f32[1,1500,384]{2,1,0} %add_22.2), metadata={op_type="AddV2" op_name="add_22" source_file="<repo-root>/src/cuda-spirv/xla_hlo/.venv-tf/lib/python3.12/site-packages/tensorflow/python/framework/ops.py" source_line=1221}
  %arg24.1 = f32[384,384]{1,0} parameter(24), parameter_replication={false}, metadata={op_name="XLA_Args"}
  %reshape.96 = f32[384,384]{1,0} reshape(f32[384,384]{1,0} %arg24.1)
  %MatMul_8.2 = f32[1,1500,384]{2,1,0} dot(f32[1,1500,384]{2,1,0} %add_22.3, f32[384,384]{1,0} %reshape.96), lhs_contracting_dims={2}, rhs_contracting_dims={0}, frontend_attributes={grad_x="false",grad_y="false"}, metadata={op_type="BatchMatMulV2" op_name="MatMul_8" source_file="<repo-root>/src/cuda-spirv/xla_hlo/.venv-tf/lib/python3.12/site-packages/tensorflow/python/framework/ops.py" source_line=1221}
  %MatMul_8.3 = f32[1,1500,384]{2,1,0} transpose(f32[1,1500,384]{2,1,0} %MatMul_8.2), dimensions={0,1,2}, metadata={op_type="BatchMatMulV2" op_name="MatMul_8" source_file="<repo-root>/src/cuda-spirv/xla_hlo/.venv-tf/lib/python3.12/site-packages/tensorflow/python/framework/ops.py" source_line=1221}
  %arg25.1 = f32[384]{0} parameter(25), parameter_replication={false}, metadata={op_name="XLA_Args"}
  %reshape.97 = f32[384]{0} reshape(f32[384]{0} %arg25.1)
  %add_23.2 = f32[1,1500,384]{2,1,0} broadcast(f32[384]{0} %reshape.97), dimensions={2}, metadata={op_type="AddV2" op_name="add_23" source_file="<repo-root>/src/cuda-spirv/xla_hlo/.venv-tf/lib/python3.12/site-packages/tensorflow/python/framework/ops.py" source_line=1221}
  %add_23.3 = f32[1,1500,384]{2,1,0} add(f32[1,1500,384]{2,1,0} %MatMul_8.3, f32[1,1500,384]{2,1,0} %add_23.2), metadata={op_type="AddV2" op_name="add_23" source_file="<repo-root>/src/cuda-spirv/xla_hlo/.venv-tf/lib/python3.12/site-packages/tensorflow/python/framework/ops.py" source_line=1221}
  %Reshape_6.1 = f32[1,1500,6,64]{3,2,1,0} reshape(f32[1,1500,384]{2,1,0} %add_23.3), metadata={op_type="Reshape" op_name="Reshape_6" source_file="<repo-root>/src/cuda-spirv/xla_hlo/.venv-tf/lib/python3.12/site-packages/tensorflow/python/framework/ops.py" source_line=1221}
  %transpose_4.1 = f32[1,6,1500,64]{3,1,2,0} transpose(f32[1,1500,6,64]{3,2,1,0} %Reshape_6.1), dimensions={0,2,1,3}, metadata={op_type="Transpose" op_name="transpose_4" source_file="<repo-root>/src/cuda-spirv/xla_hlo/.venv-tf/lib/python3.12/site-packages/tensorflow/python/framework/ops.py" source_line=1221}
  %arg26.1 = f32[384,384]{1,0} parameter(26), parameter_replication={false}, metadata={op_name="XLA_Args"}
  %reshape.98 = f32[384,384]{1,0} reshape(f32[384,384]{1,0} %arg26.1)
  %MatMul_9.2 = f32[1,1500,384]{2,1,0} dot(f32[1,1500,384]{2,1,0} %add_22.3, f32[384,384]{1,0} %reshape.98), lhs_contracting_dims={2}, rhs_contracting_dims={0}, frontend_attributes={grad_x="false",grad_y="false"}, metadata={op_type="BatchMatMulV2" op_name="MatMul_9" source_file="<repo-root>/src/cuda-spirv/xla_hlo/.venv-tf/lib/python3.12/site-packages/tensorflow/python/framework/ops.py" source_line=1221}
  %MatMul_9.3 = f32[1,1500,384]{2,1,0} transpose(f32[1,1500,384]{2,1,0} %MatMul_9.2), dimensions={0,1,2}, metadata={op_type="BatchMatMulV2" op_name="MatMul_9" source_file="<repo-root>/src/cuda-spirv/xla_hlo/.venv-tf/lib/python3.12/site-packages/tensorflow/python/framework/ops.py" source_line=1221}
  %arg27.1 = f32[384]{0} parameter(27), parameter_replication={false}, metadata={op_name="XLA_Args"}
  %reshape.99 = f32[384]{0} reshape(f32[384]{0} %arg27.1)
  %add_24.2 = f32[1,1500,384]{2,1,0} broadcast(f32[384]{0} %reshape.99), dimensions={2}, metadata={op_type="AddV2" op_name="add_24" source_file="<repo-root>/src/cuda-spirv/xla_hlo/.venv-tf/lib/python3.12/site-packages/tensorflow/python/framework/ops.py" source_line=1221}
  %add_24.3 = f32[1,1500,384]{2,1,0} add(f32[1,1500,384]{2,1,0} %MatMul_9.3, f32[1,1500,384]{2,1,0} %add_24.2), metadata={op_type="AddV2" op_name="add_24" source_file="<repo-root>/src/cuda-spirv/xla_hlo/.venv-tf/lib/python3.12/site-packages/tensorflow/python/framework/ops.py" source_line=1221}
  %Reshape_7.1 = f32[1,1500,6,64]{3,2,1,0} reshape(f32[1,1500,384]{2,1,0} %add_24.3), metadata={op_type="Reshape" op_name="Reshape_7" source_file="<repo-root>/src/cuda-spirv/xla_hlo/.venv-tf/lib/python3.12/site-packages/tensorflow/python/framework/ops.py" source_line=1221}
  %transpose_5.1 = f32[1,6,1500,64]{3,1,2,0} transpose(f32[1,1500,6,64]{3,2,1,0} %Reshape_7.1), dimensions={0,2,1,3}, metadata={op_type="Transpose" op_name="transpose_5" source_file="<repo-root>/src/cuda-spirv/xla_hlo/.venv-tf/lib/python3.12/site-packages/tensorflow/python/framework/ops.py" source_line=1221}
  %MatMul_11.2 = f32[1,6,1500,1500]{3,2,1,0} dot(f32[1,6,1500,64]{3,1,2,0} %transpose_4.1, f32[1,6,1500,64]{3,1,2,0} %transpose_5.1), lhs_batch_dims={0,1}, lhs_contracting_dims={3}, rhs_batch_dims={0,1}, rhs_contracting_dims={3}, frontend_attributes={grad_x="false",grad_y="false"}, metadata={op_type="BatchMatMulV2" op_name="MatMul_11" source_file="<repo-root>/src/cuda-spirv/xla_hlo/.venv-tf/lib/python3.12/site-packages/tensorflow/python/framework/ops.py" source_line=1221}
  %MatMul_11.3 = f32[1,6,1500,1500]{3,2,1,0} transpose(f32[1,6,1500,1500]{3,2,1,0} %MatMul_11.2), dimensions={0,1,2,3}, metadata={op_type="BatchMatMulV2" op_name="MatMul_11" source_file="<repo-root>/src/cuda-spirv/xla_hlo/.venv-tf/lib/python3.12/site-packages/tensorflow/python/framework/ops.py" source_line=1221}
  %mul_25.3 = f32[] constant(0.125), metadata={op_type="Mul" op_name="mul_25" source_file="<repo-root>/src/cuda-spirv/xla_hlo/.venv-tf/lib/python3.12/site-packages/tensorflow/python/framework/ops.py" source_line=1221}
  %mul_25.4 = f32[1,6,1500,1500]{3,2,1,0} broadcast(f32[] %mul_25.3), dimensions={}, metadata={op_type="Mul" op_name="mul_25" source_file="<repo-root>/src/cuda-spirv/xla_hlo/.venv-tf/lib/python3.12/site-packages/tensorflow/python/framework/ops.py" source_line=1221}
  %mul_25.5 = f32[1,6,1500,1500]{3,2,1,0} multiply(f32[1,6,1500,1500]{3,2,1,0} %MatMul_11.3, f32[1,6,1500,1500]{3,2,1,0} %mul_25.4), metadata={op_type="Mul" op_name="mul_25" source_file="<repo-root>/src/cuda-spirv/xla_hlo/.venv-tf/lib/python3.12/site-packages/tensorflow/python/framework/ops.py" source_line=1221}
  %Softmax_1.28 = f32[] constant(-inf), metadata={op_type="Softmax" op_name="Softmax_1" source_file="<repo-root>/src/cuda-spirv/xla_hlo/.venv-tf/lib/python3.12/site-packages/tensorflow/python/framework/ops.py" source_line=1221}
  %Softmax_1.29 = f32[1,6,1500]{2,1,0} reduce(f32[1,6,1500,1500]{3,2,1,0} %mul_25.5, f32[] %Softmax_1.28), dimensions={3}, to_apply=%region_0.9, metadata={op_type="Softmax" op_name="Softmax_1"}
  %Softmax_1.30 = f32[1,6,1500,1]{3,2,1,0} reshape(f32[1,6,1500]{2,1,0} %Softmax_1.29), metadata={op_type="Softmax" op_name="Softmax_1"}
  %Softmax_1.31 = f32[1,6,1500,1]{3,2,1,0} broadcast(f32[1,6,1500,1]{3,2,1,0} %Softmax_1.30), dimensions={0,1,2,3}, metadata={op_type="Softmax" op_name="Softmax_1"}
  %Softmax_1.32 = f32[1,6,1500]{2,1,0} reshape(f32[1,6,1500,1]{3,2,1,0} %Softmax_1.31), metadata={op_type="Softmax" op_name="Softmax_1"}
  %Softmax_1.33 = f32[1,6,1500,1500]{3,2,1,0} broadcast(f32[1,6,1500]{2,1,0} %Softmax_1.32), dimensions={0,1,2}, metadata={op_type="Softmax" op_name="Softmax_1"}
  %Softmax_1.34 = f32[1,6,1500,1500]{3,2,1,0} subtract(f32[1,6,1500,1500]{3,2,1,0} %mul_25.5, f32[1,6,1500,1500]{3,2,1,0} %Softmax_1.33), metadata={op_type="Softmax" op_name="Softmax_1"}
  %Softmax_1.35 = f32[1,6,1500,1500]{3,2,1,0} exponential(f32[1,6,1500,1500]{3,2,1,0} %Softmax_1.34), metadata={op_type="Softmax" op_name="Softmax_1"}
  %Softmax_1.27 = f32[] constant(-0), metadata={op_type="Softmax" op_name="Softmax_1" source_file="<repo-root>/src/cuda-spirv/xla_hlo/.venv-tf/lib/python3.12/site-packages/tensorflow/python/framework/ops.py" source_line=1221}
  %Softmax_1.36 = f32[1,6,1500]{2,1,0} reduce(f32[1,6,1500,1500]{3,2,1,0} %Softmax_1.35, f32[] %Softmax_1.27), dimensions={3}, to_apply=%region_1.10, metadata={op_type="Softmax" op_name="Softmax_1"}
  %Softmax_1.37 = f32[1,6,1500,1]{3,2,1,0} reshape(f32[1,6,1500]{2,1,0} %Softmax_1.36), metadata={op_type="Softmax" op_name="Softmax_1"}
  %Softmax_1.38 = f32[1,6,1500,1]{3,2,1,0} broadcast(f32[1,6,1500,1]{3,2,1,0} %Softmax_1.37), dimensions={0,1,2,3}, metadata={op_type="Softmax" op_name="Softmax_1"}
  %Softmax_1.39 = f32[1,6,1500]{2,1,0} reshape(f32[1,6,1500,1]{3,2,1,0} %Softmax_1.38), metadata={op_type="Softmax" op_name="Softmax_1"}
  %Softmax_1.40 = f32[1,6,1500,1500]{3,2,1,0} broadcast(f32[1,6,1500]{2,1,0} %Softmax_1.39), dimensions={0,1,2}, metadata={op_type="Softmax" op_name="Softmax_1"}
  %Softmax_1.41 = f32[1,6,1500,1500]{3,2,1,0} divide(f32[1,6,1500,1500]{3,2,1,0} %Softmax_1.35, f32[1,6,1500,1500]{3,2,1,0} %Softmax_1.40), metadata={op_type="Softmax" op_name="Softmax_1"}
  %arg28.1 = f32[384,384]{1,0} parameter(28), parameter_replication={false}, metadata={op_name="XLA_Args"}
  %reshape.100 = f32[384,384]{1,0} reshape(f32[384,384]{1,0} %arg28.1)
  %MatMul_10.2 = f32[1,1500,384]{2,1,0} dot(f32[1,1500,384]{2,1,0} %add_22.3, f32[384,384]{1,0} %reshape.100), lhs_contracting_dims={2}, rhs_contracting_dims={0}, frontend_attributes={grad_x="false",grad_y="false"}, metadata={op_type="BatchMatMulV2" op_name="MatMul_10" source_file="<repo-root>/src/cuda-spirv/xla_hlo/.venv-tf/lib/python3.12/site-packages/tensorflow/python/framework/ops.py" source_line=1221}
  %MatMul_10.3 = f32[1,1500,384]{2,1,0} transpose(f32[1,1500,384]{2,1,0} %MatMul_10.2), dimensions={0,1,2}, metadata={op_type="BatchMatMulV2" op_name="MatMul_10" source_file="<repo-root>/src/cuda-spirv/xla_hlo/.venv-tf/lib/python3.12/site-packages/tensorflow/python/framework/ops.py" source_line=1221}
  %arg29.1 = f32[384]{0} parameter(29), parameter_replication={false}, metadata={op_name="XLA_Args"}
  %reshape.101 = f32[384]{0} reshape(f32[384]{0} %arg29.1)
  %add_25.2 = f32[1,1500,384]{2,1,0} broadcast(f32[384]{0} %reshape.101), dimensions={2}, metadata={op_type="AddV2" op_name="add_25" source_file="<repo-root>/src/cuda-spirv/xla_hlo/.venv-tf/lib/python3.12/site-packages/tensorflow/python/framework/ops.py" source_line=1221}
  %add_25.3 = f32[1,1500,384]{2,1,0} add(f32[1,1500,384]{2,1,0} %MatMul_10.3, f32[1,1500,384]{2,1,0} %add_25.2), metadata={op_type="AddV2" op_name="add_25" source_file="<repo-root>/src/cuda-spirv/xla_hlo/.venv-tf/lib/python3.12/site-packages/tensorflow/python/framework/ops.py" source_line=1221}
  %Reshape_8.1 = f32[1,1500,6,64]{3,2,1,0} reshape(f32[1,1500,384]{2,1,0} %add_25.3), metadata={op_type="Reshape" op_name="Reshape_8" source_file="<repo-root>/src/cuda-spirv/xla_hlo/.venv-tf/lib/python3.12/site-packages/tensorflow/python/framework/ops.py" source_line=1221}
  %transpose_6.1 = f32[1,6,1500,64]{3,1,2,0} transpose(f32[1,1500,6,64]{3,2,1,0} %Reshape_8.1), dimensions={0,2,1,3}, metadata={op_type="Transpose" op_name="transpose_6" source_file="<repo-root>/src/cuda-spirv/xla_hlo/.venv-tf/lib/python3.12/site-packages/tensorflow/python/framework/ops.py" source_line=1221}
  %MatMul_12.2 = f32[1,6,1500,64]{3,2,1,0} dot(f32[1,6,1500,1500]{3,2,1,0} %Softmax_1.41, f32[1,6,1500,64]{3,1,2,0} %transpose_6.1), lhs_batch_dims={0,1}, lhs_contracting_dims={3}, rhs_batch_dims={0,1}, rhs_contracting_dims={2}, frontend_attributes={grad_x="false",grad_y="false"}, metadata={op_type="BatchMatMulV2" op_name="MatMul_12" source_file="<repo-root>/src/cuda-spirv/xla_hlo/.venv-tf/lib/python3.12/site-packages/tensorflow/python/framework/ops.py" source_line=1221}
  %MatMul_12.3 = f32[1,6,1500,64]{3,2,1,0} transpose(f32[1,6,1500,64]{3,2,1,0} %MatMul_12.2), dimensions={0,1,2,3}, metadata={op_type="BatchMatMulV2" op_name="MatMul_12" source_file="<repo-root>/src/cuda-spirv/xla_hlo/.venv-tf/lib/python3.12/site-packages/tensorflow/python/framework/ops.py" source_line=1221}
  %transpose_7.1 = f32[1,1500,6,64]{3,1,2,0} transpose(f32[1,6,1500,64]{3,2,1,0} %MatMul_12.3), dimensions={0,2,1,3}, metadata={op_type="Transpose" op_name="transpose_7" source_file="<repo-root>/src/cuda-spirv/xla_hlo/.venv-tf/lib/python3.12/site-packages/tensorflow/python/framework/ops.py" source_line=1221}
  %Reshape_9.1 = f32[1,1500,384]{2,1,0} reshape(f32[1,1500,6,64]{3,1,2,0} %transpose_7.1), metadata={op_type="Reshape" op_name="Reshape_9" source_file="<repo-root>/src/cuda-spirv/xla_hlo/.venv-tf/lib/python3.12/site-packages/tensorflow/python/framework/ops.py" source_line=1221}
  %arg30.1 = f32[384,384]{1,0} parameter(30), parameter_replication={false}, metadata={op_name="XLA_Args"}
  %reshape.102 = f32[384,384]{1,0} reshape(f32[384,384]{1,0} %arg30.1)
  %MatMul_13.2 = f32[1,1500,384]{2,1,0} dot(f32[1,1500,384]{2,1,0} %Reshape_9.1, f32[384,384]{1,0} %reshape.102), lhs_contracting_dims={2}, rhs_contracting_dims={0}, frontend_attributes={grad_x="false",grad_y="false"}, metadata={op_type="BatchMatMulV2" op_name="MatMul_13" source_file="<repo-root>/src/cuda-spirv/xla_hlo/.venv-tf/lib/python3.12/site-packages/tensorflow/python/framework/ops.py" source_line=1221}
  %MatMul_13.3 = f32[1,1500,384]{2,1,0} transpose(f32[1,1500,384]{2,1,0} %MatMul_13.2), dimensions={0,1,2}, metadata={op_type="BatchMatMulV2" op_name="MatMul_13" source_file="<repo-root>/src/cuda-spirv/xla_hlo/.venv-tf/lib/python3.12/site-packages/tensorflow/python/framework/ops.py" source_line=1221}
  %arg31.1 = f32[384]{0} parameter(31), parameter_replication={false}, metadata={op_name="XLA_Args"}
  %reshape.103 = f32[384]{0} reshape(f32[384]{0} %arg31.1)
  %add_26.2 = f32[1,1500,384]{2,1,0} broadcast(f32[384]{0} %reshape.103), dimensions={2}, metadata={op_type="AddV2" op_name="add_26" source_file="<repo-root>/src/cuda-spirv/xla_hlo/.venv-tf/lib/python3.12/site-packages/tensorflow/python/framework/ops.py" source_line=1221}
  %add_26.3 = f32[1,1500,384]{2,1,0} add(f32[1,1500,384]{2,1,0} %MatMul_13.3, f32[1,1500,384]{2,1,0} %add_26.2), metadata={op_type="AddV2" op_name="add_26" source_file="<repo-root>/src/cuda-spirv/xla_hlo/.venv-tf/lib/python3.12/site-packages/tensorflow/python/framework/ops.py" source_line=1221}
  %add_27.1 = f32[1,1500,384]{2,1,0} add(f32[1,1500,384]{2,1,0} %add_20.1, f32[1,1500,384]{2,1,0} %add_26.3), metadata={op_type="AddV2" op_name="add_27" source_file="<repo-root>/src/cuda-spirv/xla_hlo/.venv-tf/lib/python3.12/site-packages/tensorflow/python/framework/ops.py" source_line=1221}
  %mul_28.3 = f32[] constant(0.5), metadata={op_type="Mul" op_name="mul_28" source_file="<repo-root>/src/cuda-spirv/xla_hlo/.venv-tf/lib/python3.12/site-packages/tensorflow/python/framework/ops.py" source_line=1221}
  %mul_28.4 = f32[1,1500,1536]{2,1,0} broadcast(f32[] %mul_28.3), dimensions={}, metadata={op_type="Mul" op_name="mul_28" source_file="<repo-root>/src/cuda-spirv/xla_hlo/.venv-tf/lib/python3.12/site-packages/tensorflow/python/framework/ops.py" source_line=1221}
  %Mean_6.10 = f32[1,1500,384]{2,1,0} convert(f32[1,1500,384]{2,1,0} %add_27.1), metadata={op_type="Mean" op_name="Mean_6" source_file="<repo-root>/src/cuda-spirv/xla_hlo/.venv-tf/lib/python3.12/site-packages/tensorflow/python/framework/ops.py" source_line=1221}
  %Mean_6.11 = f32[] constant(0), metadata={op_type="Mean" op_name="Mean_6" source_file="<repo-root>/src/cuda-spirv/xla_hlo/.venv-tf/lib/python3.12/site-packages/tensorflow/python/framework/ops.py" source_line=1221}
  %Mean_6.12 = f32[] convert(f32[] %Mean_6.11), metadata={op_type="Mean" op_name="Mean_6" source_file="<repo-root>/src/cuda-spirv/xla_hlo/.venv-tf/lib/python3.12/site-packages/tensorflow/python/framework/ops.py" source_line=1221}
  %Mean_6.13 = f32[1,1500]{1,0} reduce(f32[1,1500,384]{2,1,0} %Mean_6.10, f32[] %Mean_6.12), dimensions={2}, to_apply=%Mean_6-reduction.11, metadata={op_type="Mean" op_name="Mean_6" source_file="<repo-root>/src/cuda-spirv/xla_hlo/.venv-tf/lib/python3.12/site-packages/tensorflow/python/framework/ops.py" source_line=1221}
  %Mean_6.14 = s32[] constant(384), metadata={op_type="Mean" op_name="Mean_6" source_file="<repo-root>/src/cuda-spirv/xla_hlo/.venv-tf/lib/python3.12/site-packages/tensorflow/python/framework/ops.py" source_line=1221}
  %Mean_6.15 = f32[] convert(s32[] %Mean_6.14), metadata={op_type="Mean" op_name="Mean_6" source_file="<repo-root>/src/cuda-spirv/xla_hlo/.venv-tf/lib/python3.12/site-packages/tensorflow/python/framework/ops.py" source_line=1221}
  %Mean_6.16 = f32[1,1500]{1,0} broadcast(f32[] %Mean_6.15), dimensions={}, metadata={op_type="Mean" op_name="Mean_6" source_file="<repo-root>/src/cuda-spirv/xla_hlo/.venv-tf/lib/python3.12/site-packages/tensorflow/python/framework/ops.py" source_line=1221}
  %Mean_6.17 = f32[1,1500]{1,0} divide(f32[1,1500]{1,0} %Mean_6.13, f32[1,1500]{1,0} %Mean_6.16), metadata={op_type="Mean" op_name="Mean_6" source_file="<repo-root>/src/cuda-spirv/xla_hlo/.venv-tf/lib/python3.12/site-packages/tensorflow/python/framework/ops.py" source_line=1221}
  %Mean_6.18 = f32[1,1500]{1,0} convert(f32[1,1500]{1,0} %Mean_6.17), metadata={op_type="Mean" op_name="Mean_6" source_file="<repo-root>/src/cuda-spirv/xla_hlo/.venv-tf/lib/python3.12/site-packages/tensorflow/python/framework/ops.py" source_line=1221}
  %Mean_6.19 = f32[1,1500,1]{2,1,0} reshape(f32[1,1500]{1,0} %Mean_6.18), metadata={op_type="Mean" op_name="Mean_6" source_file="<repo-root>/src/cuda-spirv/xla_hlo/.venv-tf/lib/python3.12/site-packages/tensorflow/python/framework/ops.py" source_line=1221}
  %sub_7.3 = f32[1,1500]{1,0} reshape(f32[1,1500,1]{2,1,0} %Mean_6.19), metadata={op_type="Sub" op_name="sub_7" source_file="<repo-root>/src/cuda-spirv/xla_hlo/.venv-tf/lib/python3.12/site-packages/tensorflow/python/framework/ops.py" source_line=1221}
  %sub_7.4 = f32[1,1500,384]{2,1,0} broadcast(f32[1,1500]{1,0} %sub_7.3), dimensions={0,1}, metadata={op_type="Sub" op_name="sub_7" source_file="<repo-root>/src/cuda-spirv/xla_hlo/.venv-tf/lib/python3.12/site-packages/tensorflow/python/framework/ops.py" source_line=1221}
  %sub_7.5 = f32[1,1500,384]{2,1,0} subtract(f32[1,1500,384]{2,1,0} %add_27.1, f32[1,1500,384]{2,1,0} %sub_7.4), metadata={op_type="Sub" op_name="sub_7" source_file="<repo-root>/src/cuda-spirv/xla_hlo/.venv-tf/lib/python3.12/site-packages/tensorflow/python/framework/ops.py" source_line=1221}
  %sub_6.3 = f32[1,1500]{1,0} reshape(f32[1,1500,1]{2,1,0} %Mean_6.19), metadata={op_type="Sub" op_name="sub_6" source_file="<repo-root>/src/cuda-spirv/xla_hlo/.venv-tf/lib/python3.12/site-packages/tensorflow/python/framework/ops.py" source_line=1221}
  %sub_6.4 = f32[1,1500,384]{2,1,0} broadcast(f32[1,1500]{1,0} %sub_6.3), dimensions={0,1}, metadata={op_type="Sub" op_name="sub_6" source_file="<repo-root>/src/cuda-spirv/xla_hlo/.venv-tf/lib/python3.12/site-packages/tensorflow/python/framework/ops.py" source_line=1221}
  %sub_6.5 = f32[1,1500,384]{2,1,0} subtract(f32[1,1500,384]{2,1,0} %add_27.1, f32[1,1500,384]{2,1,0} %sub_6.4), metadata={op_type="Sub" op_name="sub_6" source_file="<repo-root>/src/cuda-spirv/xla_hlo/.venv-tf/lib/python3.12/site-packages/tensorflow/python/framework/ops.py" source_line=1221}
  %Square_3.1 = f32[1,1500,384]{2,1,0} multiply(f32[1,1500,384]{2,1,0} %sub_6.5, f32[1,1500,384]{2,1,0} %sub_6.5), metadata={op_type="Square" op_name="Square_3" source_file="<repo-root>/src/cuda-spirv/xla_hlo/.venv-tf/lib/python3.12/site-packages/tensorflow/python/framework/ops.py" source_line=1221}
  %Mean_7.10 = f32[1,1500,384]{2,1,0} convert(f32[1,1500,384]{2,1,0} %Square_3.1), metadata={op_type="Mean" op_name="Mean_7" source_file="<repo-root>/src/cuda-spirv/xla_hlo/.venv-tf/lib/python3.12/site-packages/tensorflow/python/framework/ops.py" source_line=1221}
  %Mean_7.11 = f32[] constant(0), metadata={op_type="Mean" op_name="Mean_7" source_file="<repo-root>/src/cuda-spirv/xla_hlo/.venv-tf/lib/python3.12/site-packages/tensorflow/python/framework/ops.py" source_line=1221}
  %Mean_7.12 = f32[] convert(f32[] %Mean_7.11), metadata={op_type="Mean" op_name="Mean_7" source_file="<repo-root>/src/cuda-spirv/xla_hlo/.venv-tf/lib/python3.12/site-packages/tensorflow/python/framework/ops.py" source_line=1221}
  %Mean_7.13 = f32[1,1500]{1,0} reduce(f32[1,1500,384]{2,1,0} %Mean_7.10, f32[] %Mean_7.12), dimensions={2}, to_apply=%Mean_7-reduction.12, metadata={op_type="Mean" op_name="Mean_7" source_file="<repo-root>/src/cuda-spirv/xla_hlo/.venv-tf/lib/python3.12/site-packages/tensorflow/python/framework/ops.py" source_line=1221}
  %Mean_7.14 = s32[] constant(384), metadata={op_type="Mean" op_name="Mean_7" source_file="<repo-root>/src/cuda-spirv/xla_hlo/.venv-tf/lib/python3.12/site-packages/tensorflow/python/framework/ops.py" source_line=1221}
  %Mean_7.15 = f32[] convert(s32[] %Mean_7.14), metadata={op_type="Mean" op_name="Mean_7" source_file="<repo-root>/src/cuda-spirv/xla_hlo/.venv-tf/lib/python3.12/site-packages/tensorflow/python/framework/ops.py" source_line=1221}
  %Mean_7.16 = f32[1,1500]{1,0} broadcast(f32[] %Mean_7.15), dimensions={}, metadata={op_type="Mean" op_name="Mean_7" source_file="<repo-root>/src/cuda-spirv/xla_hlo/.venv-tf/lib/python3.12/site-packages/tensorflow/python/framework/ops.py" source_line=1221}
  %Mean_7.17 = f32[1,1500]{1,0} divide(f32[1,1500]{1,0} %Mean_7.13, f32[1,1500]{1,0} %Mean_7.16), metadata={op_type="Mean" op_name="Mean_7" source_file="<repo-root>/src/cuda-spirv/xla_hlo/.venv-tf/lib/python3.12/site-packages/tensorflow/python/framework/ops.py" source_line=1221}
  %Mean_7.18 = f32[1,1500]{1,0} convert(f32[1,1500]{1,0} %Mean_7.17), metadata={op_type="Mean" op_name="Mean_7" source_file="<repo-root>/src/cuda-spirv/xla_hlo/.venv-tf/lib/python3.12/site-packages/tensorflow/python/framework/ops.py" source_line=1221}
  %Mean_7.19 = f32[1,1500,1]{2,1,0} reshape(f32[1,1500]{1,0} %Mean_7.18), metadata={op_type="Mean" op_name="Mean_7" source_file="<repo-root>/src/cuda-spirv/xla_hlo/.venv-tf/lib/python3.12/site-packages/tensorflow/python/framework/ops.py" source_line=1221}
  %add_28.3 = f32[] constant(1e-05), metadata={op_type="AddV2" op_name="add_28" source_file="<repo-root>/src/cuda-spirv/xla_hlo/.venv-tf/lib/python3.12/site-packages/tensorflow/python/framework/ops.py" source_line=1221}
  %add_28.4 = f32[1,1500,1]{2,1,0} broadcast(f32[] %add_28.3), dimensions={}, metadata={op_type="AddV2" op_name="add_28" source_file="<repo-root>/src/cuda-spirv/xla_hlo/.venv-tf/lib/python3.12/site-packages/tensorflow/python/framework/ops.py" source_line=1221}
  %add_28.5 = f32[1,1500,1]{2,1,0} add(f32[1,1500,1]{2,1,0} %Mean_7.19, f32[1,1500,1]{2,1,0} %add_28.4), metadata={op_type="AddV2" op_name="add_28" source_file="<repo-root>/src/cuda-spirv/xla_hlo/.venv-tf/lib/python3.12/site-packages/tensorflow/python/framework/ops.py" source_line=1221}
  %Rsqrt_5.1 = f32[1,1500,1]{2,1,0} rsqrt(f32[1,1500,1]{2,1,0} %add_28.5), metadata={op_type="Rsqrt" op_name="Rsqrt_5"}
  %mul_26.3 = f32[1,1500]{1,0} reshape(f32[1,1500,1]{2,1,0} %Rsqrt_5.1), metadata={op_type="Mul" op_name="mul_26" source_file="<repo-root>/src/cuda-spirv/xla_hlo/.venv-tf/lib/python3.12/site-packages/tensorflow/python/framework/ops.py" source_line=1221}
  %mul_26.4 = f32[1,1500,384]{2,1,0} broadcast(f32[1,1500]{1,0} %mul_26.3), dimensions={0,1}, metadata={op_type="Mul" op_name="mul_26" source_file="<repo-root>/src/cuda-spirv/xla_hlo/.venv-tf/lib/python3.12/site-packages/tensorflow/python/framework/ops.py" source_line=1221}
  %mul_26.5 = f32[1,1500,384]{2,1,0} multiply(f32[1,1500,384]{2,1,0} %sub_7.5, f32[1,1500,384]{2,1,0} %mul_26.4), metadata={op_type="Mul" op_name="mul_26" source_file="<repo-root>/src/cuda-spirv/xla_hlo/.venv-tf/lib/python3.12/site-packages/tensorflow/python/framework/ops.py" source_line=1221}
  %arg32.1 = f32[384]{0} parameter(32), parameter_replication={false}, metadata={op_name="XLA_Args"}
  %reshape.104 = f32[384]{0} reshape(f32[384]{0} %arg32.1)
  %mul_27.2 = f32[1,1500,384]{2,1,0} broadcast(f32[384]{0} %reshape.104), dimensions={2}, metadata={op_type="Mul" op_name="mul_27" source_file="<repo-root>/src/cuda-spirv/xla_hlo/.venv-tf/lib/python3.12/site-packages/tensorflow/python/framework/ops.py" source_line=1221}
  %mul_27.3 = f32[1,1500,384]{2,1,0} multiply(f32[1,1500,384]{2,1,0} %mul_26.5, f32[1,1500,384]{2,1,0} %mul_27.2), metadata={op_type="Mul" op_name="mul_27" source_file="<repo-root>/src/cuda-spirv/xla_hlo/.venv-tf/lib/python3.12/site-packages/tensorflow/python/framework/ops.py" source_line=1221}
  %arg33.1 = f32[384]{0} parameter(33), parameter_replication={false}, metadata={op_name="XLA_Args"}
  %reshape.105 = f32[384]{0} reshape(f32[384]{0} %arg33.1)
  %add_29.2 = f32[1,1500,384]{2,1,0} broadcast(f32[384]{0} %reshape.105), dimensions={2}, metadata={op_type="AddV2" op_name="add_29" source_file="<repo-root>/src/cuda-spirv/xla_hlo/.venv-tf/lib/python3.12/site-packages/tensorflow/python/framework/ops.py" source_line=1221}
  %add_29.3 = f32[1,1500,384]{2,1,0} add(f32[1,1500,384]{2,1,0} %mul_27.3, f32[1,1500,384]{2,1,0} %add_29.2), metadata={op_type="AddV2" op_name="add_29" source_file="<repo-root>/src/cuda-spirv/xla_hlo/.venv-tf/lib/python3.12/site-packages/tensorflow/python/framework/ops.py" source_line=1221}
  %arg34.1 = f32[384,1536]{1,0} parameter(34), parameter_replication={false}, metadata={op_name="XLA_Args"}
  %reshape.106 = f32[384,1536]{1,0} reshape(f32[384,1536]{1,0} %arg34.1)
  %MatMul_14.2 = f32[1,1500,1536]{2,1,0} dot(f32[1,1500,384]{2,1,0} %add_29.3, f32[384,1536]{1,0} %reshape.106), lhs_contracting_dims={2}, rhs_contracting_dims={0}, frontend_attributes={grad_x="false",grad_y="false"}, metadata={op_type="BatchMatMulV2" op_name="MatMul_14" source_file="<repo-root>/src/cuda-spirv/xla_hlo/.venv-tf/lib/python3.12/site-packages/tensorflow/python/framework/ops.py" source_line=1221}
  %MatMul_14.3 = f32[1,1500,1536]{2,1,0} transpose(f32[1,1500,1536]{2,1,0} %MatMul_14.2), dimensions={0,1,2}, metadata={op_type="BatchMatMulV2" op_name="MatMul_14" source_file="<repo-root>/src/cuda-spirv/xla_hlo/.venv-tf/lib/python3.12/site-packages/tensorflow/python/framework/ops.py" source_line=1221}
  %arg35.1 = f32[1536]{0} parameter(35), parameter_replication={false}, metadata={op_name="XLA_Args"}
  %reshape.107 = f32[1536]{0} reshape(f32[1536]{0} %arg35.1)
  %add_30.2 = f32[1,1500,1536]{2,1,0} broadcast(f32[1536]{0} %reshape.107), dimensions={2}, metadata={op_type="AddV2" op_name="add_30" source_file="<repo-root>/src/cuda-spirv/xla_hlo/.venv-tf/lib/python3.12/site-packages/tensorflow/python/framework/ops.py" source_line=1221}
  %add_30.3 = f32[1,1500,1536]{2,1,0} add(f32[1,1500,1536]{2,1,0} %MatMul_14.3, f32[1,1500,1536]{2,1,0} %add_30.2), metadata={op_type="AddV2" op_name="add_30" source_file="<repo-root>/src/cuda-spirv/xla_hlo/.venv-tf/lib/python3.12/site-packages/tensorflow/python/framework/ops.py" source_line=1221}
  %mul_28.5 = f32[1,1500,1536]{2,1,0} multiply(f32[1,1500,1536]{2,1,0} %mul_28.4, f32[1,1500,1536]{2,1,0} %add_30.3), metadata={op_type="Mul" op_name="mul_28" source_file="<repo-root>/src/cuda-spirv/xla_hlo/.venv-tf/lib/python3.12/site-packages/tensorflow/python/framework/ops.py" source_line=1221}
  %add_32.3 = f32[] constant(1), metadata={op_type="AddV2" op_name="add_32" source_file="<repo-root>/src/cuda-spirv/xla_hlo/.venv-tf/lib/python3.12/site-packages/tensorflow/python/framework/ops.py" source_line=1221}
  %add_32.4 = f32[1,1500,1536]{2,1,0} broadcast(f32[] %add_32.3), dimensions={}, metadata={op_type="AddV2" op_name="add_32" source_file="<repo-root>/src/cuda-spirv/xla_hlo/.venv-tf/lib/python3.12/site-packages/tensorflow/python/framework/ops.py" source_line=1221}
  %mul_32.3 = f32[] constant(0.797884583), metadata={op_type="Mul" op_name="mul_32" source_file="<repo-root>/src/cuda-spirv/xla_hlo/.venv-tf/lib/python3.12/site-packages/tensorflow/python/framework/ops.py" source_line=1221}
  %mul_32.4 = f32[1,1500,1536]{2,1,0} broadcast(f32[] %mul_32.3), dimensions={}, metadata={op_type="Mul" op_name="mul_32" source_file="<repo-root>/src/cuda-spirv/xla_hlo/.venv-tf/lib/python3.12/site-packages/tensorflow/python/framework/ops.py" source_line=1221}
  %mul_29.3 = f32[] constant(0.044715), metadata={op_type="Mul" op_name="mul_29" source_file="<repo-root>/src/cuda-spirv/xla_hlo/.venv-tf/lib/python3.12/site-packages/tensorflow/python/framework/ops.py" source_line=1221}
  %mul_29.4 = f32[1,1500,1536]{2,1,0} broadcast(f32[] %mul_29.3), dimensions={}, metadata={op_type="Mul" op_name="mul_29" source_file="<repo-root>/src/cuda-spirv/xla_hlo/.venv-tf/lib/python3.12/site-packages/tensorflow/python/framework/ops.py" source_line=1221}
  %mul_29.5 = f32[1,1500,1536]{2,1,0} multiply(f32[1,1500,1536]{2,1,0} %mul_29.4, f32[1,1500,1536]{2,1,0} %add_30.3), metadata={op_type="Mul" op_name="mul_29" source_file="<repo-root>/src/cuda-spirv/xla_hlo/.venv-tf/lib/python3.12/site-packages/tensorflow/python/framework/ops.py" source_line=1221}
  %mul_30.1 = f32[1,1500,1536]{2,1,0} multiply(f32[1,1500,1536]{2,1,0} %mul_29.5, f32[1,1500,1536]{2,1,0} %add_30.3), metadata={op_type="Mul" op_name="mul_30" source_file="<repo-root>/src/cuda-spirv/xla_hlo/.venv-tf/lib/python3.12/site-packages/tensorflow/python/framework/ops.py" source_line=1221}
  %mul_31.1 = f32[1,1500,1536]{2,1,0} multiply(f32[1,1500,1536]{2,1,0} %mul_30.1, f32[1,1500,1536]{2,1,0} %add_30.3), metadata={op_type="Mul" op_name="mul_31" source_file="<repo-root>/src/cuda-spirv/xla_hlo/.venv-tf/lib/python3.12/site-packages/tensorflow/python/framework/ops.py" source_line=1221}
  %add_31.1 = f32[1,1500,1536]{2,1,0} add(f32[1,1500,1536]{2,1,0} %add_30.3, f32[1,1500,1536]{2,1,0} %mul_31.1), metadata={op_type="AddV2" op_name="add_31" source_file="<repo-root>/src/cuda-spirv/xla_hlo/.venv-tf/lib/python3.12/site-packages/tensorflow/python/framework/ops.py" source_line=1221}
  %mul_32.5 = f32[1,1500,1536]{2,1,0} multiply(f32[1,1500,1536]{2,1,0} %mul_32.4, f32[1,1500,1536]{2,1,0} %add_31.1), metadata={op_type="Mul" op_name="mul_32" source_file="<repo-root>/src/cuda-spirv/xla_hlo/.venv-tf/lib/python3.12/site-packages/tensorflow/python/framework/ops.py" source_line=1221}
  %Tanh_3.1 = f32[1,1500,1536]{2,1,0} tanh(f32[1,1500,1536]{2,1,0} %mul_32.5), metadata={op_type="Tanh" op_name="Tanh_3"}
  %add_32.5 = f32[1,1500,1536]{2,1,0} add(f32[1,1500,1536]{2,1,0} %add_32.4, f32[1,1500,1536]{2,1,0} %Tanh_3.1), metadata={op_type="AddV2" op_name="add_32" source_file="<repo-root>/src/cuda-spirv/xla_hlo/.venv-tf/lib/python3.12/site-packages/tensorflow/python/framework/ops.py" source_line=1221}
  %mul_33.1 = f32[1,1500,1536]{2,1,0} multiply(f32[1,1500,1536]{2,1,0} %mul_28.5, f32[1,1500,1536]{2,1,0} %add_32.5), metadata={op_type="Mul" op_name="mul_33" source_file="<repo-root>/src/cuda-spirv/xla_hlo/.venv-tf/lib/python3.12/site-packages/tensorflow/python/framework/ops.py" source_line=1221}
  %arg36.1 = f32[1536,384]{1,0} parameter(36), parameter_replication={false}, metadata={op_name="XLA_Args"}
  %reshape.108 = f32[1536,384]{1,0} reshape(f32[1536,384]{1,0} %arg36.1)
  %MatMul_15.2 = f32[1,1500,384]{2,1,0} dot(f32[1,1500,1536]{2,1,0} %mul_33.1, f32[1536,384]{1,0} %reshape.108), lhs_contracting_dims={2}, rhs_contracting_dims={0}, frontend_attributes={grad_x="false",grad_y="false"}, metadata={op_type="BatchMatMulV2" op_name="MatMul_15" source_file="<repo-root>/src/cuda-spirv/xla_hlo/.venv-tf/lib/python3.12/site-packages/tensorflow/python/framework/ops.py" source_line=1221}
  %MatMul_15.3 = f32[1,1500,384]{2,1,0} transpose(f32[1,1500,384]{2,1,0} %MatMul_15.2), dimensions={0,1,2}, metadata={op_type="BatchMatMulV2" op_name="MatMul_15" source_file="<repo-root>/src/cuda-spirv/xla_hlo/.venv-tf/lib/python3.12/site-packages/tensorflow/python/framework/ops.py" source_line=1221}
  %arg37.1 = f32[384]{0} parameter(37), parameter_replication={false}, metadata={op_name="XLA_Args"}
  %reshape.109 = f32[384]{0} reshape(f32[384]{0} %arg37.1)
  %add_33.2 = f32[1,1500,384]{2,1,0} broadcast(f32[384]{0} %reshape.109), dimensions={2}, metadata={op_type="AddV2" op_name="add_33" source_file="<repo-root>/src/cuda-spirv/xla_hlo/.venv-tf/lib/python3.12/site-packages/tensorflow/python/framework/ops.py" source_line=1221}
  %add_33.3 = f32[1,1500,384]{2,1,0} add(f32[1,1500,384]{2,1,0} %MatMul_15.3, f32[1,1500,384]{2,1,0} %add_33.2), metadata={op_type="AddV2" op_name="add_33" source_file="<repo-root>/src/cuda-spirv/xla_hlo/.venv-tf/lib/python3.12/site-packages/tensorflow/python/framework/ops.py" source_line=1221}
  %add_34.1 = f32[1,1500,384]{2,1,0} add(f32[1,1500,384]{2,1,0} %add_27.1, f32[1,1500,384]{2,1,0} %add_33.3), metadata={op_type="AddV2" op_name="add_34" source_file="<repo-root>/src/cuda-spirv/xla_hlo/.venv-tf/lib/python3.12/site-packages/tensorflow/python/framework/ops.py" source_line=1221}
  %Mean_8.10 = f32[1,1500,384]{2,1,0} convert(f32[1,1500,384]{2,1,0} %add_34.1), metadata={op_type="Mean" op_name="Mean_8" source_file="<repo-root>/src/cuda-spirv/xla_hlo/.venv-tf/lib/python3.12/site-packages/tensorflow/python/framework/ops.py" source_line=1221}
  %Mean_8.11 = f32[] constant(0), metadata={op_type="Mean" op_name="Mean_8" source_file="<repo-root>/src/cuda-spirv/xla_hlo/.venv-tf/lib/python3.12/site-packages/tensorflow/python/framework/ops.py" source_line=1221}
  %Mean_8.12 = f32[] convert(f32[] %Mean_8.11), metadata={op_type="Mean" op_name="Mean_8" source_file="<repo-root>/src/cuda-spirv/xla_hlo/.venv-tf/lib/python3.12/site-packages/tensorflow/python/framework/ops.py" source_line=1221}
  %Mean_8.13 = f32[1,1500]{1,0} reduce(f32[1,1500,384]{2,1,0} %Mean_8.10, f32[] %Mean_8.12), dimensions={2}, to_apply=%Mean_8-reduction.13, metadata={op_type="Mean" op_name="Mean_8" source_file="<repo-root>/src/cuda-spirv/xla_hlo/.venv-tf/lib/python3.12/site-packages/tensorflow/python/framework/ops.py" source_line=1221}
  %Mean_8.14 = s32[] constant(384), metadata={op_type="Mean" op_name="Mean_8" source_file="<repo-root>/src/cuda-spirv/xla_hlo/.venv-tf/lib/python3.12/site-packages/tensorflow/python/framework/ops.py" source_line=1221}
  %Mean_8.15 = f32[] convert(s32[] %Mean_8.14), metadata={op_type="Mean" op_name="Mean_8" source_file="<repo-root>/src/cuda-spirv/xla_hlo/.venv-tf/lib/python3.12/site-packages/tensorflow/python/framework/ops.py" source_line=1221}
  %Mean_8.16 = f32[1,1500]{1,0} broadcast(f32[] %Mean_8.15), dimensions={}, metadata={op_type="Mean" op_name="Mean_8" source_file="<repo-root>/src/cuda-spirv/xla_hlo/.venv-tf/lib/python3.12/site-packages/tensorflow/python/framework/ops.py" source_line=1221}
  %Mean_8.17 = f32[1,1500]{1,0} divide(f32[1,1500]{1,0} %Mean_8.13, f32[1,1500]{1,0} %Mean_8.16), metadata={op_type="Mean" op_name="Mean_8" source_file="<repo-root>/src/cuda-spirv/xla_hlo/.venv-tf/lib/python3.12/site-packages/tensorflow/python/framework/ops.py" source_line=1221}
  %Mean_8.18 = f32[1,1500]{1,0} convert(f32[1,1500]{1,0} %Mean_8.17), metadata={op_type="Mean" op_name="Mean_8" source_file="<repo-root>/src/cuda-spirv/xla_hlo/.venv-tf/lib/python3.12/site-packages/tensorflow/python/framework/ops.py" source_line=1221}
  %Mean_8.19 = f32[1,1500,1]{2,1,0} reshape(f32[1,1500]{1,0} %Mean_8.18), metadata={op_type="Mean" op_name="Mean_8" source_file="<repo-root>/src/cuda-spirv/xla_hlo/.venv-tf/lib/python3.12/site-packages/tensorflow/python/framework/ops.py" source_line=1221}
  %sub_9.3 = f32[1,1500]{1,0} reshape(f32[1,1500,1]{2,1,0} %Mean_8.19), metadata={op_type="Sub" op_name="sub_9" source_file="<repo-root>/src/cuda-spirv/xla_hlo/.venv-tf/lib/python3.12/site-packages/tensorflow/python/framework/ops.py" source_line=1221}
  %sub_9.4 = f32[1,1500,384]{2,1,0} broadcast(f32[1,1500]{1,0} %sub_9.3), dimensions={0,1}, metadata={op_type="Sub" op_name="sub_9" source_file="<repo-root>/src/cuda-spirv/xla_hlo/.venv-tf/lib/python3.12/site-packages/tensorflow/python/framework/ops.py" source_line=1221}
  %sub_9.5 = f32[1,1500,384]{2,1,0} subtract(f32[1,1500,384]{2,1,0} %add_34.1, f32[1,1500,384]{2,1,0} %sub_9.4), metadata={op_type="Sub" op_name="sub_9" source_file="<repo-root>/src/cuda-spirv/xla_hlo/.venv-tf/lib/python3.12/site-packages/tensorflow/python/framework/ops.py" source_line=1221}
  %sub_8.3 = f32[1,1500]{1,0} reshape(f32[1,1500,1]{2,1,0} %Mean_8.19), metadata={op_type="Sub" op_name="sub_8" source_file="<repo-root>/src/cuda-spirv/xla_hlo/.venv-tf/lib/python3.12/site-packages/tensorflow/python/framework/ops.py" source_line=1221}
  %sub_8.4 = f32[1,1500,384]{2,1,0} broadcast(f32[1,1500]{1,0} %sub_8.3), dimensions={0,1}, metadata={op_type="Sub" op_name="sub_8" source_file="<repo-root>/src/cuda-spirv/xla_hlo/.venv-tf/lib/python3.12/site-packages/tensorflow/python/framework/ops.py" source_line=1221}
  %sub_8.5 = f32[1,1500,384]{2,1,0} subtract(f32[1,1500,384]{2,1,0} %add_34.1, f32[1,1500,384]{2,1,0} %sub_8.4), metadata={op_type="Sub" op_name="sub_8" source_file="<repo-root>/src/cuda-spirv/xla_hlo/.venv-tf/lib/python3.12/site-packages/tensorflow/python/framework/ops.py" source_line=1221}
  %Square_4.1 = f32[1,1500,384]{2,1,0} multiply(f32[1,1500,384]{2,1,0} %sub_8.5, f32[1,1500,384]{2,1,0} %sub_8.5), metadata={op_type="Square" op_name="Square_4" source_file="<repo-root>/src/cuda-spirv/xla_hlo/.venv-tf/lib/python3.12/site-packages/tensorflow/python/framework/ops.py" source_line=1221}
  %Mean_9.10 = f32[1,1500,384]{2,1,0} convert(f32[1,1500,384]{2,1,0} %Square_4.1), metadata={op_type="Mean" op_name="Mean_9" source_file="<repo-root>/src/cuda-spirv/xla_hlo/.venv-tf/lib/python3.12/site-packages/tensorflow/python/framework/ops.py" source_line=1221}
  %Mean_9.11 = f32[] constant(0), metadata={op_type="Mean" op_name="Mean_9" source_file="<repo-root>/src/cuda-spirv/xla_hlo/.venv-tf/lib/python3.12/site-packages/tensorflow/python/framework/ops.py" source_line=1221}
  %Mean_9.12 = f32[] convert(f32[] %Mean_9.11), metadata={op_type="Mean" op_name="Mean_9" source_file="<repo-root>/src/cuda-spirv/xla_hlo/.venv-tf/lib/python3.12/site-packages/tensorflow/python/framework/ops.py" source_line=1221}
  %Mean_9.13 = f32[1,1500]{1,0} reduce(f32[1,1500,384]{2,1,0} %Mean_9.10, f32[] %Mean_9.12), dimensions={2}, to_apply=%Mean_9-reduction.14, metadata={op_type="Mean" op_name="Mean_9" source_file="<repo-root>/src/cuda-spirv/xla_hlo/.venv-tf/lib/python3.12/site-packages/tensorflow/python/framework/ops.py" source_line=1221}
  %Mean_9.14 = s32[] constant(384), metadata={op_type="Mean" op_name="Mean_9" source_file="<repo-root>/src/cuda-spirv/xla_hlo/.venv-tf/lib/python3.12/site-packages/tensorflow/python/framework/ops.py" source_line=1221}
  %Mean_9.15 = f32[] convert(s32[] %Mean_9.14), metadata={op_type="Mean" op_name="Mean_9" source_file="<repo-root>/src/cuda-spirv/xla_hlo/.venv-tf/lib/python3.12/site-packages/tensorflow/python/framework/ops.py" source_line=1221}
  %Mean_9.16 = f32[1,1500]{1,0} broadcast(f32[] %Mean_9.15), dimensions={}, metadata={op_type="Mean" op_name="Mean_9" source_file="<repo-root>/src/cuda-spirv/xla_hlo/.venv-tf/lib/python3.12/site-packages/tensorflow/python/framework/ops.py" source_line=1221}
  %Mean_9.17 = f32[1,1500]{1,0} divide(f32[1,1500]{1,0} %Mean_9.13, f32[1,1500]{1,0} %Mean_9.16), metadata={op_type="Mean" op_name="Mean_9" source_file="<repo-root>/src/cuda-spirv/xla_hlo/.venv-tf/lib/python3.12/site-packages/tensorflow/python/framework/ops.py" source_line=1221}
  %Mean_9.18 = f32[1,1500]{1,0} convert(f32[1,1500]{1,0} %Mean_9.17), metadata={op_type="Mean" op_name="Mean_9" source_file="<repo-root>/src/cuda-spirv/xla_hlo/.venv-tf/lib/python3.12/site-packages/tensorflow/python/framework/ops.py" source_line=1221}
  %Mean_9.19 = f32[1,1500,1]{2,1,0} reshape(f32[1,1500]{1,0} %Mean_9.18), metadata={op_type="Mean" op_name="Mean_9" source_file="<repo-root>/src/cuda-spirv/xla_hlo/.venv-tf/lib/python3.12/site-packages/tensorflow/python/framework/ops.py" source_line=1221}
  %add_35.3 = f32[] constant(1e-05), metadata={op_type="AddV2" op_name="add_35" source_file="<repo-root>/src/cuda-spirv/xla_hlo/.venv-tf/lib/python3.12/site-packages/tensorflow/python/framework/ops.py" source_line=1221}
  %add_35.4 = f32[1,1500,1]{2,1,0} broadcast(f32[] %add_35.3), dimensions={}, metadata={op_type="AddV2" op_name="add_35" source_file="<repo-root>/src/cuda-spirv/xla_hlo/.venv-tf/lib/python3.12/site-packages/tensorflow/python/framework/ops.py" source_line=1221}
  %add_35.5 = f32[1,1500,1]{2,1,0} add(f32[1,1500,1]{2,1,0} %Mean_9.19, f32[1,1500,1]{2,1,0} %add_35.4), metadata={op_type="AddV2" op_name="add_35" source_file="<repo-root>/src/cuda-spirv/xla_hlo/.venv-tf/lib/python3.12/site-packages/tensorflow/python/framework/ops.py" source_line=1221}
  %Rsqrt_6.1 = f32[1,1500,1]{2,1,0} rsqrt(f32[1,1500,1]{2,1,0} %add_35.5), metadata={op_type="Rsqrt" op_name="Rsqrt_6"}
  %mul_34.3 = f32[1,1500]{1,0} reshape(f32[1,1500,1]{2,1,0} %Rsqrt_6.1), metadata={op_type="Mul" op_name="mul_34" source_file="<repo-root>/src/cuda-spirv/xla_hlo/.venv-tf/lib/python3.12/site-packages/tensorflow/python/framework/ops.py" source_line=1221}
  %mul_34.4 = f32[1,1500,384]{2,1,0} broadcast(f32[1,1500]{1,0} %mul_34.3), dimensions={0,1}, metadata={op_type="Mul" op_name="mul_34" source_file="<repo-root>/src/cuda-spirv/xla_hlo/.venv-tf/lib/python3.12/site-packages/tensorflow/python/framework/ops.py" source_line=1221}
  %mul_34.5 = f32[1,1500,384]{2,1,0} multiply(f32[1,1500,384]{2,1,0} %sub_9.5, f32[1,1500,384]{2,1,0} %mul_34.4), metadata={op_type="Mul" op_name="mul_34" source_file="<repo-root>/src/cuda-spirv/xla_hlo/.venv-tf/lib/python3.12/site-packages/tensorflow/python/framework/ops.py" source_line=1221}
  %arg38.1 = f32[384]{0} parameter(38), parameter_replication={false}, metadata={op_name="XLA_Args"}
  %reshape.110 = f32[384]{0} reshape(f32[384]{0} %arg38.1)
  %mul_35.2 = f32[1,1500,384]{2,1,0} broadcast(f32[384]{0} %reshape.110), dimensions={2}, metadata={op_type="Mul" op_name="mul_35" source_file="<repo-root>/src/cuda-spirv/xla_hlo/.venv-tf/lib/python3.12/site-packages/tensorflow/python/framework/ops.py" source_line=1221}
  %mul_35.3 = f32[1,1500,384]{2,1,0} multiply(f32[1,1500,384]{2,1,0} %mul_34.5, f32[1,1500,384]{2,1,0} %mul_35.2), metadata={op_type="Mul" op_name="mul_35" source_file="<repo-root>/src/cuda-spirv/xla_hlo/.venv-tf/lib/python3.12/site-packages/tensorflow/python/framework/ops.py" source_line=1221}
  %arg39.1 = f32[384]{0} parameter(39), parameter_replication={false}, metadata={op_name="XLA_Args"}
  %reshape.111 = f32[384]{0} reshape(f32[384]{0} %arg39.1)
  %add_36.2 = f32[1,1500,384]{2,1,0} broadcast(f32[384]{0} %reshape.111), dimensions={2}, metadata={op_type="AddV2" op_name="add_36" source_file="<repo-root>/src/cuda-spirv/xla_hlo/.venv-tf/lib/python3.12/site-packages/tensorflow/python/framework/ops.py" source_line=1221}
  %add_36.3 = f32[1,1500,384]{2,1,0} add(f32[1,1500,384]{2,1,0} %mul_35.3, f32[1,1500,384]{2,1,0} %add_36.2), metadata={op_type="AddV2" op_name="add_36" source_file="<repo-root>/src/cuda-spirv/xla_hlo/.venv-tf/lib/python3.12/site-packages/tensorflow/python/framework/ops.py" source_line=1221}
  %arg40.1 = f32[384,384]{1,0} parameter(40), parameter_replication={false}, metadata={op_name="XLA_Args"}
  %reshape.112 = f32[384,384]{1,0} reshape(f32[384,384]{1,0} %arg40.1)
  %MatMul_16.2 = f32[1,1500,384]{2,1,0} dot(f32[1,1500,384]{2,1,0} %add_36.3, f32[384,384]{1,0} %reshape.112), lhs_contracting_dims={2}, rhs_contracting_dims={0}, frontend_attributes={grad_x="false",grad_y="false"}, metadata={op_type="BatchMatMulV2" op_name="MatMul_16" source_file="<repo-root>/src/cuda-spirv/xla_hlo/.venv-tf/lib/python3.12/site-packages/tensorflow/python/framework/ops.py" source_line=1221}
  %MatMul_16.3 = f32[1,1500,384]{2,1,0} transpose(f32[1,1500,384]{2,1,0} %MatMul_16.2), dimensions={0,1,2}, metadata={op_type="BatchMatMulV2" op_name="MatMul_16" source_file="<repo-root>/src/cuda-spirv/xla_hlo/.venv-tf/lib/python3.12/site-packages/tensorflow/python/framework/ops.py" source_line=1221}
  %arg41.1 = f32[384]{0} parameter(41), parameter_replication={false}, metadata={op_name="XLA_Args"}
  %reshape.113 = f32[384]{0} reshape(f32[384]{0} %arg41.1)
  %add_37.2 = f32[1,1500,384]{2,1,0} broadcast(f32[384]{0} %reshape.113), dimensions={2}, metadata={op_type="AddV2" op_name="add_37" source_file="<repo-root>/src/cuda-spirv/xla_hlo/.venv-tf/lib/python3.12/site-packages/tensorflow/python/framework/ops.py" source_line=1221}
  %add_37.3 = f32[1,1500,384]{2,1,0} add(f32[1,1500,384]{2,1,0} %MatMul_16.3, f32[1,1500,384]{2,1,0} %add_37.2), metadata={op_type="AddV2" op_name="add_37" source_file="<repo-root>/src/cuda-spirv/xla_hlo/.venv-tf/lib/python3.12/site-packages/tensorflow/python/framework/ops.py" source_line=1221}
  %Reshape_10.1 = f32[1,1500,6,64]{3,2,1,0} reshape(f32[1,1500,384]{2,1,0} %add_37.3), metadata={op_type="Reshape" op_name="Reshape_10" source_file="<repo-root>/src/cuda-spirv/xla_hlo/.venv-tf/lib/python3.12/site-packages/tensorflow/python/framework/ops.py" source_line=1221}
  %transpose_8.1 = f32[1,6,1500,64]{3,1,2,0} transpose(f32[1,1500,6,64]{3,2,1,0} %Reshape_10.1), dimensions={0,2,1,3}, metadata={op_type="Transpose" op_name="transpose_8" source_file="<repo-root>/src/cuda-spirv/xla_hlo/.venv-tf/lib/python3.12/site-packages/tensorflow/python/framework/ops.py" source_line=1221}
  %arg42.1 = f32[384,384]{1,0} parameter(42), parameter_replication={false}, metadata={op_name="XLA_Args"}
  %reshape.114 = f32[384,384]{1,0} reshape(f32[384,384]{1,0} %arg42.1)
  %MatMul_17.2 = f32[1,1500,384]{2,1,0} dot(f32[1,1500,384]{2,1,0} %add_36.3, f32[384,384]{1,0} %reshape.114), lhs_contracting_dims={2}, rhs_contracting_dims={0}, frontend_attributes={grad_x="false",grad_y="false"}, metadata={op_type="BatchMatMulV2" op_name="MatMul_17" source_file="<repo-root>/src/cuda-spirv/xla_hlo/.venv-tf/lib/python3.12/site-packages/tensorflow/python/framework/ops.py" source_line=1221}
  %MatMul_17.3 = f32[1,1500,384]{2,1,0} transpose(f32[1,1500,384]{2,1,0} %MatMul_17.2), dimensions={0,1,2}, metadata={op_type="BatchMatMulV2" op_name="MatMul_17" source_file="<repo-root>/src/cuda-spirv/xla_hlo/.venv-tf/lib/python3.12/site-packages/tensorflow/python/framework/ops.py" source_line=1221}
  %arg43.1 = f32[384]{0} parameter(43), parameter_replication={false}, metadata={op_name="XLA_Args"}
  %reshape.115 = f32[384]{0} reshape(f32[384]{0} %arg43.1)
  %add_38.2 = f32[1,1500,384]{2,1,0} broadcast(f32[384]{0} %reshape.115), dimensions={2}, metadata={op_type="AddV2" op_name="add_38" source_file="<repo-root>/src/cuda-spirv/xla_hlo/.venv-tf/lib/python3.12/site-packages/tensorflow/python/framework/ops.py" source_line=1221}
  %add_38.3 = f32[1,1500,384]{2,1,0} add(f32[1,1500,384]{2,1,0} %MatMul_17.3, f32[1,1500,384]{2,1,0} %add_38.2), metadata={op_type="AddV2" op_name="add_38" source_file="<repo-root>/src/cuda-spirv/xla_hlo/.venv-tf/lib/python3.12/site-packages/tensorflow/python/framework/ops.py" source_line=1221}
  %Reshape_11.1 = f32[1,1500,6,64]{3,2,1,0} reshape(f32[1,1500,384]{2,1,0} %add_38.3), metadata={op_type="Reshape" op_name="Reshape_11" source_file="<repo-root>/src/cuda-spirv/xla_hlo/.venv-tf/lib/python3.12/site-packages/tensorflow/python/framework/ops.py" source_line=1221}
  %transpose_9.1 = f32[1,6,1500,64]{3,1,2,0} transpose(f32[1,1500,6,64]{3,2,1,0} %Reshape_11.1), dimensions={0,2,1,3}, metadata={op_type="Transpose" op_name="transpose_9" source_file="<repo-root>/src/cuda-spirv/xla_hlo/.venv-tf/lib/python3.12/site-packages/tensorflow/python/framework/ops.py" source_line=1221}
  %MatMul_19.2 = f32[1,6,1500,1500]{3,2,1,0} dot(f32[1,6,1500,64]{3,1,2,0} %transpose_8.1, f32[1,6,1500,64]{3,1,2,0} %transpose_9.1), lhs_batch_dims={0,1}, lhs_contracting_dims={3}, rhs_batch_dims={0,1}, rhs_contracting_dims={3}, frontend_attributes={grad_x="false",grad_y="false"}, metadata={op_type="BatchMatMulV2" op_name="MatMul_19" source_file="<repo-root>/src/cuda-spirv/xla_hlo/.venv-tf/lib/python3.12/site-packages/tensorflow/python/framework/ops.py" source_line=1221}
  %MatMul_19.3 = f32[1,6,1500,1500]{3,2,1,0} transpose(f32[1,6,1500,1500]{3,2,1,0} %MatMul_19.2), dimensions={0,1,2,3}, metadata={op_type="BatchMatMulV2" op_name="MatMul_19" source_file="<repo-root>/src/cuda-spirv/xla_hlo/.venv-tf/lib/python3.12/site-packages/tensorflow/python/framework/ops.py" source_line=1221}
  %mul_36.3 = f32[] constant(0.125), metadata={op_type="Mul" op_name="mul_36" source_file="<repo-root>/src/cuda-spirv/xla_hlo/.venv-tf/lib/python3.12/site-packages/tensorflow/python/framework/ops.py" source_line=1221}
  %mul_36.4 = f32[1,6,1500,1500]{3,2,1,0} broadcast(f32[] %mul_36.3), dimensions={}, metadata={op_type="Mul" op_name="mul_36" source_file="<repo-root>/src/cuda-spirv/xla_hlo/.venv-tf/lib/python3.12/site-packages/tensorflow/python/framework/ops.py" source_line=1221}
  %mul_36.5 = f32[1,6,1500,1500]{3,2,1,0} multiply(f32[1,6,1500,1500]{3,2,1,0} %MatMul_19.3, f32[1,6,1500,1500]{3,2,1,0} %mul_36.4), metadata={op_type="Mul" op_name="mul_36" source_file="<repo-root>/src/cuda-spirv/xla_hlo/.venv-tf/lib/python3.12/site-packages/tensorflow/python/framework/ops.py" source_line=1221}
  %Softmax_2.28 = f32[] constant(-inf), metadata={op_type="Softmax" op_name="Softmax_2" source_file="<repo-root>/src/cuda-spirv/xla_hlo/.venv-tf/lib/python3.12/site-packages/tensorflow/python/framework/ops.py" source_line=1221}
  %Softmax_2.29 = f32[1,6,1500]{2,1,0} reduce(f32[1,6,1500,1500]{3,2,1,0} %mul_36.5, f32[] %Softmax_2.28), dimensions={3}, to_apply=%region_0.15, metadata={op_type="Softmax" op_name="Softmax_2"}
  %Softmax_2.30 = f32[1,6,1500,1]{3,2,1,0} reshape(f32[1,6,1500]{2,1,0} %Softmax_2.29), metadata={op_type="Softmax" op_name="Softmax_2"}
  %Softmax_2.31 = f32[1,6,1500,1]{3,2,1,0} broadcast(f32[1,6,1500,1]{3,2,1,0} %Softmax_2.30), dimensions={0,1,2,3}, metadata={op_type="Softmax" op_name="Softmax_2"}
  %Softmax_2.32 = f32[1,6,1500]{2,1,0} reshape(f32[1,6,1500,1]{3,2,1,0} %Softmax_2.31), metadata={op_type="Softmax" op_name="Softmax_2"}
  %Softmax_2.33 = f32[1,6,1500,1500]{3,2,1,0} broadcast(f32[1,6,1500]{2,1,0} %Softmax_2.32), dimensions={0,1,2}, metadata={op_type="Softmax" op_name="Softmax_2"}
  %Softmax_2.34 = f32[1,6,1500,1500]{3,2,1,0} subtract(f32[1,6,1500,1500]{3,2,1,0} %mul_36.5, f32[1,6,1500,1500]{3,2,1,0} %Softmax_2.33), metadata={op_type="Softmax" op_name="Softmax_2"}
  %Softmax_2.35 = f32[1,6,1500,1500]{3,2,1,0} exponential(f32[1,6,1500,1500]{3,2,1,0} %Softmax_2.34), metadata={op_type="Softmax" op_name="Softmax_2"}
  %Softmax_2.27 = f32[] constant(-0), metadata={op_type="Softmax" op_name="Softmax_2" source_file="<repo-root>/src/cuda-spirv/xla_hlo/.venv-tf/lib/python3.12/site-packages/tensorflow/python/framework/ops.py" source_line=1221}
  %Softmax_2.36 = f32[1,6,1500]{2,1,0} reduce(f32[1,6,1500,1500]{3,2,1,0} %Softmax_2.35, f32[] %Softmax_2.27), dimensions={3}, to_apply=%region_1.16, metadata={op_type="Softmax" op_name="Softmax_2"}
  %Softmax_2.37 = f32[1,6,1500,1]{3,2,1,0} reshape(f32[1,6,1500]{2,1,0} %Softmax_2.36), metadata={op_type="Softmax" op_name="Softmax_2"}
  %Softmax_2.38 = f32[1,6,1500,1]{3,2,1,0} broadcast(f32[1,6,1500,1]{3,2,1,0} %Softmax_2.37), dimensions={0,1,2,3}, metadata={op_type="Softmax" op_name="Softmax_2"}
  %Softmax_2.39 = f32[1,6,1500]{2,1,0} reshape(f32[1,6,1500,1]{3,2,1,0} %Softmax_2.38), metadata={op_type="Softmax" op_name="Softmax_2"}
  %Softmax_2.40 = f32[1,6,1500,1500]{3,2,1,0} broadcast(f32[1,6,1500]{2,1,0} %Softmax_2.39), dimensions={0,1,2}, metadata={op_type="Softmax" op_name="Softmax_2"}
  %Softmax_2.41 = f32[1,6,1500,1500]{3,2,1,0} divide(f32[1,6,1500,1500]{3,2,1,0} %Softmax_2.35, f32[1,6,1500,1500]{3,2,1,0} %Softmax_2.40), metadata={op_type="Softmax" op_name="Softmax_2"}
  %arg44.1 = f32[384,384]{1,0} parameter(44), parameter_replication={false}, metadata={op_name="XLA_Args"}
  %reshape.116 = f32[384,384]{1,0} reshape(f32[384,384]{1,0} %arg44.1)
  %MatMul_18.2 = f32[1,1500,384]{2,1,0} dot(f32[1,1500,384]{2,1,0} %add_36.3, f32[384,384]{1,0} %reshape.116), lhs_contracting_dims={2}, rhs_contracting_dims={0}, frontend_attributes={grad_x="false",grad_y="false"}, metadata={op_type="BatchMatMulV2" op_name="MatMul_18" source_file="<repo-root>/src/cuda-spirv/xla_hlo/.venv-tf/lib/python3.12/site-packages/tensorflow/python/framework/ops.py" source_line=1221}
  %MatMul_18.3 = f32[1,1500,384]{2,1,0} transpose(f32[1,1500,384]{2,1,0} %MatMul_18.2), dimensions={0,1,2}, metadata={op_type="BatchMatMulV2" op_name="MatMul_18" source_file="<repo-root>/src/cuda-spirv/xla_hlo/.venv-tf/lib/python3.12/site-packages/tensorflow/python/framework/ops.py" source_line=1221}
  %arg45.1 = f32[384]{0} parameter(45), parameter_replication={false}, metadata={op_name="XLA_Args"}
  %reshape.117 = f32[384]{0} reshape(f32[384]{0} %arg45.1)
  %add_39.2 = f32[1,1500,384]{2,1,0} broadcast(f32[384]{0} %reshape.117), dimensions={2}, metadata={op_type="AddV2" op_name="add_39" source_file="<repo-root>/src/cuda-spirv/xla_hlo/.venv-tf/lib/python3.12/site-packages/tensorflow/python/framework/ops.py" source_line=1221}
  %add_39.3 = f32[1,1500,384]{2,1,0} add(f32[1,1500,384]{2,1,0} %MatMul_18.3, f32[1,1500,384]{2,1,0} %add_39.2), metadata={op_type="AddV2" op_name="add_39" source_file="<repo-root>/src/cuda-spirv/xla_hlo/.venv-tf/lib/python3.12/site-packages/tensorflow/python/framework/ops.py" source_line=1221}
  %Reshape_12.1 = f32[1,1500,6,64]{3,2,1,0} reshape(f32[1,1500,384]{2,1,0} %add_39.3), metadata={op_type="Reshape" op_name="Reshape_12" source_file="<repo-root>/src/cuda-spirv/xla_hlo/.venv-tf/lib/python3.12/site-packages/tensorflow/python/framework/ops.py" source_line=1221}
  %transpose_10.1 = f32[1,6,1500,64]{3,1,2,0} transpose(f32[1,1500,6,64]{3,2,1,0} %Reshape_12.1), dimensions={0,2,1,3}, metadata={op_type="Transpose" op_name="transpose_10" source_file="<repo-root>/src/cuda-spirv/xla_hlo/.venv-tf/lib/python3.12/site-packages/tensorflow/python/framework/ops.py" source_line=1221}
  %MatMul_20.2 = f32[1,6,1500,64]{3,2,1,0} dot(f32[1,6,1500,1500]{3,2,1,0} %Softmax_2.41, f32[1,6,1500,64]{3,1,2,0} %transpose_10.1), lhs_batch_dims={0,1}, lhs_contracting_dims={3}, rhs_batch_dims={0,1}, rhs_contracting_dims={2}, frontend_attributes={grad_x="false",grad_y="false"}, metadata={op_type="BatchMatMulV2" op_name="MatMul_20" source_file="<repo-root>/src/cuda-spirv/xla_hlo/.venv-tf/lib/python3.12/site-packages/tensorflow/python/framework/ops.py" source_line=1221}
  %MatMul_20.3 = f32[1,6,1500,64]{3,2,1,0} transpose(f32[1,6,1500,64]{3,2,1,0} %MatMul_20.2), dimensions={0,1,2,3}, metadata={op_type="BatchMatMulV2" op_name="MatMul_20" source_file="<repo-root>/src/cuda-spirv/xla_hlo/.venv-tf/lib/python3.12/site-packages/tensorflow/python/framework/ops.py" source_line=1221}
  %transpose_11.1 = f32[1,1500,6,64]{3,1,2,0} transpose(f32[1,6,1500,64]{3,2,1,0} %MatMul_20.3), dimensions={0,2,1,3}, metadata={op_type="Transpose" op_name="transpose_11" source_file="<repo-root>/src/cuda-spirv/xla_hlo/.venv-tf/lib/python3.12/site-packages/tensorflow/python/framework/ops.py" source_line=1221}
  %Reshape_13.1 = f32[1,1500,384]{2,1,0} reshape(f32[1,1500,6,64]{3,1,2,0} %transpose_11.1), metadata={op_type="Reshape" op_name="Reshape_13" source_file="<repo-root>/src/cuda-spirv/xla_hlo/.venv-tf/lib/python3.12/site-packages/tensorflow/python/framework/ops.py" source_line=1221}
  %arg46.1 = f32[384,384]{1,0} parameter(46), parameter_replication={false}, metadata={op_name="XLA_Args"}
  %reshape.118 = f32[384,384]{1,0} reshape(f32[384,384]{1,0} %arg46.1)
  %MatMul_21.2 = f32[1,1500,384]{2,1,0} dot(f32[1,1500,384]{2,1,0} %Reshape_13.1, f32[384,384]{1,0} %reshape.118), lhs_contracting_dims={2}, rhs_contracting_dims={0}, frontend_attributes={grad_x="false",grad_y="false"}, metadata={op_type="BatchMatMulV2" op_name="MatMul_21" source_file="<repo-root>/src/cuda-spirv/xla_hlo/.venv-tf/lib/python3.12/site-packages/tensorflow/python/framework/ops.py" source_line=1221}
  %MatMul_21.3 = f32[1,1500,384]{2,1,0} transpose(f32[1,1500,384]{2,1,0} %MatMul_21.2), dimensions={0,1,2}, metadata={op_type="BatchMatMulV2" op_name="MatMul_21" source_file="<repo-root>/src/cuda-spirv/xla_hlo/.venv-tf/lib/python3.12/site-packages/tensorflow/python/framework/ops.py" source_line=1221}
  %arg47.1 = f32[384]{0} parameter(47), parameter_replication={false}, metadata={op_name="XLA_Args"}
  %reshape.119 = f32[384]{0} reshape(f32[384]{0} %arg47.1)
  %add_40.2 = f32[1,1500,384]{2,1,0} broadcast(f32[384]{0} %reshape.119), dimensions={2}, metadata={op_type="AddV2" op_name="add_40" source_file="<repo-root>/src/cuda-spirv/xla_hlo/.venv-tf/lib/python3.12/site-packages/tensorflow/python/framework/ops.py" source_line=1221}
  %add_40.3 = f32[1,1500,384]{2,1,0} add(f32[1,1500,384]{2,1,0} %MatMul_21.3, f32[1,1500,384]{2,1,0} %add_40.2), metadata={op_type="AddV2" op_name="add_40" source_file="<repo-root>/src/cuda-spirv/xla_hlo/.venv-tf/lib/python3.12/site-packages/tensorflow/python/framework/ops.py" source_line=1221}
  %add_41.1 = f32[1,1500,384]{2,1,0} add(f32[1,1500,384]{2,1,0} %add_34.1, f32[1,1500,384]{2,1,0} %add_40.3), metadata={op_type="AddV2" op_name="add_41" source_file="<repo-root>/src/cuda-spirv/xla_hlo/.venv-tf/lib/python3.12/site-packages/tensorflow/python/framework/ops.py" source_line=1221}
  %mul_39.3 = f32[] constant(0.5), metadata={op_type="Mul" op_name="mul_39" source_file="<repo-root>/src/cuda-spirv/xla_hlo/.venv-tf/lib/python3.12/site-packages/tensorflow/python/framework/ops.py" source_line=1221}
  %mul_39.4 = f32[1,1500,1536]{2,1,0} broadcast(f32[] %mul_39.3), dimensions={}, metadata={op_type="Mul" op_name="mul_39" source_file="<repo-root>/src/cuda-spirv/xla_hlo/.venv-tf/lib/python3.12/site-packages/tensorflow/python/framework/ops.py" source_line=1221}
  %Mean_10.10 = f32[1,1500,384]{2,1,0} convert(f32[1,1500,384]{2,1,0} %add_41.1), metadata={op_type="Mean" op_name="Mean_10" source_file="<repo-root>/src/cuda-spirv/xla_hlo/.venv-tf/lib/python3.12/site-packages/tensorflow/python/framework/ops.py" source_line=1221}
  %Mean_10.11 = f32[] constant(0), metadata={op_type="Mean" op_name="Mean_10" source_file="<repo-root>/src/cuda-spirv/xla_hlo/.venv-tf/lib/python3.12/site-packages/tensorflow/python/framework/ops.py" source_line=1221}
  %Mean_10.12 = f32[] convert(f32[] %Mean_10.11), metadata={op_type="Mean" op_name="Mean_10" source_file="<repo-root>/src/cuda-spirv/xla_hlo/.venv-tf/lib/python3.12/site-packages/tensorflow/python/framework/ops.py" source_line=1221}
  %Mean_10.13 = f32[1,1500]{1,0} reduce(f32[1,1500,384]{2,1,0} %Mean_10.10, f32[] %Mean_10.12), dimensions={2}, to_apply=%Mean_10-reduction.17, metadata={op_type="Mean" op_name="Mean_10" source_file="<repo-root>/src/cuda-spirv/xla_hlo/.venv-tf/lib/python3.12/site-packages/tensorflow/python/framework/ops.py" source_line=1221}
  %Mean_10.14 = s32[] constant(384), metadata={op_type="Mean" op_name="Mean_10" source_file="<repo-root>/src/cuda-spirv/xla_hlo/.venv-tf/lib/python3.12/site-packages/tensorflow/python/framework/ops.py" source_line=1221}
  %Mean_10.15 = f32[] convert(s32[] %Mean_10.14), metadata={op_type="Mean" op_name="Mean_10" source_file="<repo-root>/src/cuda-spirv/xla_hlo/.venv-tf/lib/python3.12/site-packages/tensorflow/python/framework/ops.py" source_line=1221}
  %Mean_10.16 = f32[1,1500]{1,0} broadcast(f32[] %Mean_10.15), dimensions={}, metadata={op_type="Mean" op_name="Mean_10" source_file="<repo-root>/src/cuda-spirv/xla_hlo/.venv-tf/lib/python3.12/site-packages/tensorflow/python/framework/ops.py" source_line=1221}
  %Mean_10.17 = f32[1,1500]{1,0} divide(f32[1,1500]{1,0} %Mean_10.13, f32[1,1500]{1,0} %Mean_10.16), metadata={op_type="Mean" op_name="Mean_10" source_file="<repo-root>/src/cuda-spirv/xla_hlo/.venv-tf/lib/python3.12/site-packages/tensorflow/python/framework/ops.py" source_line=1221}
  %Mean_10.18 = f32[1,1500]{1,0} convert(f32[1,1500]{1,0} %Mean_10.17), metadata={op_type="Mean" op_name="Mean_10" source_file="<repo-root>/src/cuda-spirv/xla_hlo/.venv-tf/lib/python3.12/site-packages/tensorflow/python/framework/ops.py" source_line=1221}
  %Mean_10.19 = f32[1,1500,1]{2,1,0} reshape(f32[1,1500]{1,0} %Mean_10.18), metadata={op_type="Mean" op_name="Mean_10" source_file="<repo-root>/src/cuda-spirv/xla_hlo/.venv-tf/lib/python3.12/site-packages/tensorflow/python/framework/ops.py" source_line=1221}
  %sub_11.3 = f32[1,1500]{1,0} reshape(f32[1,1500,1]{2,1,0} %Mean_10.19), metadata={op_type="Sub" op_name="sub_11" source_file="<repo-root>/src/cuda-spirv/xla_hlo/.venv-tf/lib/python3.12/site-packages/tensorflow/python/framework/ops.py" source_line=1221}
  %sub_11.4 = f32[1,1500,384]{2,1,0} broadcast(f32[1,1500]{1,0} %sub_11.3), dimensions={0,1}, metadata={op_type="Sub" op_name="sub_11" source_file="<repo-root>/src/cuda-spirv/xla_hlo/.venv-tf/lib/python3.12/site-packages/tensorflow/python/framework/ops.py" source_line=1221}
  %sub_11.5 = f32[1,1500,384]{2,1,0} subtract(f32[1,1500,384]{2,1,0} %add_41.1, f32[1,1500,384]{2,1,0} %sub_11.4), metadata={op_type="Sub" op_name="sub_11" source_file="<repo-root>/src/cuda-spirv/xla_hlo/.venv-tf/lib/python3.12/site-packages/tensorflow/python/framework/ops.py" source_line=1221}
  %sub_10.3 = f32[1,1500]{1,0} reshape(f32[1,1500,1]{2,1,0} %Mean_10.19), metadata={op_type="Sub" op_name="sub_10" source_file="<repo-root>/src/cuda-spirv/xla_hlo/.venv-tf/lib/python3.12/site-packages/tensorflow/python/framework/ops.py" source_line=1221}
  %sub_10.4 = f32[1,1500,384]{2,1,0} broadcast(f32[1,1500]{1,0} %sub_10.3), dimensions={0,1}, metadata={op_type="Sub" op_name="sub_10" source_file="<repo-root>/src/cuda-spirv/xla_hlo/.venv-tf/lib/python3.12/site-packages/tensorflow/python/framework/ops.py" source_line=1221}
  %sub_10.5 = f32[1,1500,384]{2,1,0} subtract(f32[1,1500,384]{2,1,0} %add_41.1, f32[1,1500,384]{2,1,0} %sub_10.4), metadata={op_type="Sub" op_name="sub_10" source_file="<repo-root>/src/cuda-spirv/xla_hlo/.venv-tf/lib/python3.12/site-packages/tensorflow/python/framework/ops.py" source_line=1221}
  %Square_5.1 = f32[1,1500,384]{2,1,0} multiply(f32[1,1500,384]{2,1,0} %sub_10.5, f32[1,1500,384]{2,1,0} %sub_10.5), metadata={op_type="Square" op_name="Square_5" source_file="<repo-root>/src/cuda-spirv/xla_hlo/.venv-tf/lib/python3.12/site-packages/tensorflow/python/framework/ops.py" source_line=1221}
  %Mean_11.10 = f32[1,1500,384]{2,1,0} convert(f32[1,1500,384]{2,1,0} %Square_5.1), metadata={op_type="Mean" op_name="Mean_11" source_file="<repo-root>/src/cuda-spirv/xla_hlo/.venv-tf/lib/python3.12/site-packages/tensorflow/python/framework/ops.py" source_line=1221}
  %Mean_11.11 = f32[] constant(0), metadata={op_type="Mean" op_name="Mean_11" source_file="<repo-root>/src/cuda-spirv/xla_hlo/.venv-tf/lib/python3.12/site-packages/tensorflow/python/framework/ops.py" source_line=1221}
  %Mean_11.12 = f32[] convert(f32[] %Mean_11.11), metadata={op_type="Mean" op_name="Mean_11" source_file="<repo-root>/src/cuda-spirv/xla_hlo/.venv-tf/lib/python3.12/site-packages/tensorflow/python/framework/ops.py" source_line=1221}
  %Mean_11.13 = f32[1,1500]{1,0} reduce(f32[1,1500,384]{2,1,0} %Mean_11.10, f32[] %Mean_11.12), dimensions={2}, to_apply=%Mean_11-reduction.18, metadata={op_type="Mean" op_name="Mean_11" source_file="<repo-root>/src/cuda-spirv/xla_hlo/.venv-tf/lib/python3.12/site-packages/tensorflow/python/framework/ops.py" source_line=1221}
  %Mean_11.14 = s32[] constant(384), metadata={op_type="Mean" op_name="Mean_11" source_file="<repo-root>/src/cuda-spirv/xla_hlo/.venv-tf/lib/python3.12/site-packages/tensorflow/python/framework/ops.py" source_line=1221}
  %Mean_11.15 = f32[] convert(s32[] %Mean_11.14), metadata={op_type="Mean" op_name="Mean_11" source_file="<repo-root>/src/cuda-spirv/xla_hlo/.venv-tf/lib/python3.12/site-packages/tensorflow/python/framework/ops.py" source_line=1221}
  %Mean_11.16 = f32[1,1500]{1,0} broadcast(f32[] %Mean_11.15), dimensions={}, metadata={op_type="Mean" op_name="Mean_11" source_file="<repo-root>/src/cuda-spirv/xla_hlo/.venv-tf/lib/python3.12/site-packages/tensorflow/python/framework/ops.py" source_line=1221}
  %Mean_11.17 = f32[1,1500]{1,0} divide(f32[1,1500]{1,0} %Mean_11.13, f32[1,1500]{1,0} %Mean_11.16), metadata={op_type="Mean" op_name="Mean_11" source_file="<repo-root>/src/cuda-spirv/xla_hlo/.venv-tf/lib/python3.12/site-packages/tensorflow/python/framework/ops.py" source_line=1221}
  %Mean_11.18 = f32[1,1500]{1,0} convert(f32[1,1500]{1,0} %Mean_11.17), metadata={op_type="Mean" op_name="Mean_11" source_file="<repo-root>/src/cuda-spirv/xla_hlo/.venv-tf/lib/python3.12/site-packages/tensorflow/python/framework/ops.py" source_line=1221}
  %Mean_11.19 = f32[1,1500,1]{2,1,0} reshape(f32[1,1500]{1,0} %Mean_11.18), metadata={op_type="Mean" op_name="Mean_11" source_file="<repo-root>/src/cuda-spirv/xla_hlo/.venv-tf/lib/python3.12/site-packages/tensorflow/python/framework/ops.py" source_line=1221}
  %add_42.3 = f32[] constant(1e-05), metadata={op_type="AddV2" op_name="add_42" source_file="<repo-root>/src/cuda-spirv/xla_hlo/.venv-tf/lib/python3.12/site-packages/tensorflow/python/framework/ops.py" source_line=1221}
  %add_42.4 = f32[1,1500,1]{2,1,0} broadcast(f32[] %add_42.3), dimensions={}, metadata={op_type="AddV2" op_name="add_42" source_file="<repo-root>/src/cuda-spirv/xla_hlo/.venv-tf/lib/python3.12/site-packages/tensorflow/python/framework/ops.py" source_line=1221}
  %add_42.5 = f32[1,1500,1]{2,1,0} add(f32[1,1500,1]{2,1,0} %Mean_11.19, f32[1,1500,1]{2,1,0} %add_42.4), metadata={op_type="AddV2" op_name="add_42" source_file="<repo-root>/src/cuda-spirv/xla_hlo/.venv-tf/lib/python3.12/site-packages/tensorflow/python/framework/ops.py" source_line=1221}
  %Rsqrt_8.1 = f32[1,1500,1]{2,1,0} rsqrt(f32[1,1500,1]{2,1,0} %add_42.5), metadata={op_type="Rsqrt" op_name="Rsqrt_8"}
  %mul_37.3 = f32[1,1500]{1,0} reshape(f32[1,1500,1]{2,1,0} %Rsqrt_8.1), metadata={op_type="Mul" op_name="mul_37" source_file="<repo-root>/src/cuda-spirv/xla_hlo/.venv-tf/lib/python3.12/site-packages/tensorflow/python/framework/ops.py" source_line=1221}
  %mul_37.4 = f32[1,1500,384]{2,1,0} broadcast(f32[1,1500]{1,0} %mul_37.3), dimensions={0,1}, metadata={op_type="Mul" op_name="mul_37" source_file="<repo-root>/src/cuda-spirv/xla_hlo/.venv-tf/lib/python3.12/site-packages/tensorflow/python/framework/ops.py" source_line=1221}
  %mul_37.5 = f32[1,1500,384]{2,1,0} multiply(f32[1,1500,384]{2,1,0} %sub_11.5, f32[1,1500,384]{2,1,0} %mul_37.4), metadata={op_type="Mul" op_name="mul_37" source_file="<repo-root>/src/cuda-spirv/xla_hlo/.venv-tf/lib/python3.12/site-packages/tensorflow/python/framework/ops.py" source_line=1221}
  %arg48.1 = f32[384]{0} parameter(48), parameter_replication={false}, metadata={op_name="XLA_Args"}
  %reshape.120 = f32[384]{0} reshape(f32[384]{0} %arg48.1)
  %mul_38.2 = f32[1,1500,384]{2,1,0} broadcast(f32[384]{0} %reshape.120), dimensions={2}, metadata={op_type="Mul" op_name="mul_38" source_file="<repo-root>/src/cuda-spirv/xla_hlo/.venv-tf/lib/python3.12/site-packages/tensorflow/python/framework/ops.py" source_line=1221}
  %mul_38.3 = f32[1,1500,384]{2,1,0} multiply(f32[1,1500,384]{2,1,0} %mul_37.5, f32[1,1500,384]{2,1,0} %mul_38.2), metadata={op_type="Mul" op_name="mul_38" source_file="<repo-root>/src/cuda-spirv/xla_hlo/.venv-tf/lib/python3.12/site-packages/tensorflow/python/framework/ops.py" source_line=1221}
  %arg49.1 = f32[384]{0} parameter(49), parameter_replication={false}, metadata={op_name="XLA_Args"}
  %reshape.121 = f32[384]{0} reshape(f32[384]{0} %arg49.1)
  %add_43.2 = f32[1,1500,384]{2,1,0} broadcast(f32[384]{0} %reshape.121), dimensions={2}, metadata={op_type="AddV2" op_name="add_43" source_file="<repo-root>/src/cuda-spirv/xla_hlo/.venv-tf/lib/python3.12/site-packages/tensorflow/python/framework/ops.py" source_line=1221}
  %add_43.3 = f32[1,1500,384]{2,1,0} add(f32[1,1500,384]{2,1,0} %mul_38.3, f32[1,1500,384]{2,1,0} %add_43.2), metadata={op_type="AddV2" op_name="add_43" source_file="<repo-root>/src/cuda-spirv/xla_hlo/.venv-tf/lib/python3.12/site-packages/tensorflow/python/framework/ops.py" source_line=1221}
  %arg50.1 = f32[384,1536]{1,0} parameter(50), parameter_replication={false}, metadata={op_name="XLA_Args"}
  %reshape.122 = f32[384,1536]{1,0} reshape(f32[384,1536]{1,0} %arg50.1)
  %MatMul_22.2 = f32[1,1500,1536]{2,1,0} dot(f32[1,1500,384]{2,1,0} %add_43.3, f32[384,1536]{1,0} %reshape.122), lhs_contracting_dims={2}, rhs_contracting_dims={0}, frontend_attributes={grad_x="false",grad_y="false"}, metadata={op_type="BatchMatMulV2" op_name="MatMul_22" source_file="<repo-root>/src/cuda-spirv/xla_hlo/.venv-tf/lib/python3.12/site-packages/tensorflow/python/framework/ops.py" source_line=1221}
  %MatMul_22.3 = f32[1,1500,1536]{2,1,0} transpose(f32[1,1500,1536]{2,1,0} %MatMul_22.2), dimensions={0,1,2}, metadata={op_type="BatchMatMulV2" op_name="MatMul_22" source_file="<repo-root>/src/cuda-spirv/xla_hlo/.venv-tf/lib/python3.12/site-packages/tensorflow/python/framework/ops.py" source_line=1221}
  %arg51.1 = f32[1536]{0} parameter(51), parameter_replication={false}, metadata={op_name="XLA_Args"}
  %reshape.123 = f32[1536]{0} reshape(f32[1536]{0} %arg51.1)
  %add_44.2 = f32[1,1500,1536]{2,1,0} broadcast(f32[1536]{0} %reshape.123), dimensions={2}, metadata={op_type="AddV2" op_name="add_44" source_file="<repo-root>/src/cuda-spirv/xla_hlo/.venv-tf/lib/python3.12/site-packages/tensorflow/python/framework/ops.py" source_line=1221}
  %add_44.3 = f32[1,1500,1536]{2,1,0} add(f32[1,1500,1536]{2,1,0} %MatMul_22.3, f32[1,1500,1536]{2,1,0} %add_44.2), metadata={op_type="AddV2" op_name="add_44" source_file="<repo-root>/src/cuda-spirv/xla_hlo/.venv-tf/lib/python3.12/site-packages/tensorflow/python/framework/ops.py" source_line=1221}
  %mul_39.5 = f32[1,1500,1536]{2,1,0} multiply(f32[1,1500,1536]{2,1,0} %mul_39.4, f32[1,1500,1536]{2,1,0} %add_44.3), metadata={op_type="Mul" op_name="mul_39" source_file="<repo-root>/src/cuda-spirv/xla_hlo/.venv-tf/lib/python3.12/site-packages/tensorflow/python/framework/ops.py" source_line=1221}
  %add_46.3 = f32[] constant(1), metadata={op_type="AddV2" op_name="add_46" source_file="<repo-root>/src/cuda-spirv/xla_hlo/.venv-tf/lib/python3.12/site-packages/tensorflow/python/framework/ops.py" source_line=1221}
  %add_46.4 = f32[1,1500,1536]{2,1,0} broadcast(f32[] %add_46.3), dimensions={}, metadata={op_type="AddV2" op_name="add_46" source_file="<repo-root>/src/cuda-spirv/xla_hlo/.venv-tf/lib/python3.12/site-packages/tensorflow/python/framework/ops.py" source_line=1221}
  %mul_43.3 = f32[] constant(0.797884583), metadata={op_type="Mul" op_name="mul_43" source_file="<repo-root>/src/cuda-spirv/xla_hlo/.venv-tf/lib/python3.12/site-packages/tensorflow/python/framework/ops.py" source_line=1221}
  %mul_43.4 = f32[1,1500,1536]{2,1,0} broadcast(f32[] %mul_43.3), dimensions={}, metadata={op_type="Mul" op_name="mul_43" source_file="<repo-root>/src/cuda-spirv/xla_hlo/.venv-tf/lib/python3.12/site-packages/tensorflow/python/framework/ops.py" source_line=1221}
  %mul_40.3 = f32[] constant(0.044715), metadata={op_type="Mul" op_name="mul_40" source_file="<repo-root>/src/cuda-spirv/xla_hlo/.venv-tf/lib/python3.12/site-packages/tensorflow/python/framework/ops.py" source_line=1221}
  %mul_40.4 = f32[1,1500,1536]{2,1,0} broadcast(f32[] %mul_40.3), dimensions={}, metadata={op_type="Mul" op_name="mul_40" source_file="<repo-root>/src/cuda-spirv/xla_hlo/.venv-tf/lib/python3.12/site-packages/tensorflow/python/framework/ops.py" source_line=1221}
  %mul_40.5 = f32[1,1500,1536]{2,1,0} multiply(f32[1,1500,1536]{2,1,0} %mul_40.4, f32[1,1500,1536]{2,1,0} %add_44.3), metadata={op_type="Mul" op_name="mul_40" source_file="<repo-root>/src/cuda-spirv/xla_hlo/.venv-tf/lib/python3.12/site-packages/tensorflow/python/framework/ops.py" source_line=1221}
  %mul_41.1 = f32[1,1500,1536]{2,1,0} multiply(f32[1,1500,1536]{2,1,0} %mul_40.5, f32[1,1500,1536]{2,1,0} %add_44.3), metadata={op_type="Mul" op_name="mul_41" source_file="<repo-root>/src/cuda-spirv/xla_hlo/.venv-tf/lib/python3.12/site-packages/tensorflow/python/framework/ops.py" source_line=1221}
  %mul_42.1 = f32[1,1500,1536]{2,1,0} multiply(f32[1,1500,1536]{2,1,0} %mul_41.1, f32[1,1500,1536]{2,1,0} %add_44.3), metadata={op_type="Mul" op_name="mul_42" source_file="<repo-root>/src/cuda-spirv/xla_hlo/.venv-tf/lib/python3.12/site-packages/tensorflow/python/framework/ops.py" source_line=1221}
  %add_45.1 = f32[1,1500,1536]{2,1,0} add(f32[1,1500,1536]{2,1,0} %add_44.3, f32[1,1500,1536]{2,1,0} %mul_42.1), metadata={op_type="AddV2" op_name="add_45" source_file="<repo-root>/src/cuda-spirv/xla_hlo/.venv-tf/lib/python3.12/site-packages/tensorflow/python/framework/ops.py" source_line=1221}
  %mul_43.5 = f32[1,1500,1536]{2,1,0} multiply(f32[1,1500,1536]{2,1,0} %mul_43.4, f32[1,1500,1536]{2,1,0} %add_45.1), metadata={op_type="Mul" op_name="mul_43" source_file="<repo-root>/src/cuda-spirv/xla_hlo/.venv-tf/lib/python3.12/site-packages/tensorflow/python/framework/ops.py" source_line=1221}
  %Tanh_4.1 = f32[1,1500,1536]{2,1,0} tanh(f32[1,1500,1536]{2,1,0} %mul_43.5), metadata={op_type="Tanh" op_name="Tanh_4"}
  %add_46.5 = f32[1,1500,1536]{2,1,0} add(f32[1,1500,1536]{2,1,0} %add_46.4, f32[1,1500,1536]{2,1,0} %Tanh_4.1), metadata={op_type="AddV2" op_name="add_46" source_file="<repo-root>/src/cuda-spirv/xla_hlo/.venv-tf/lib/python3.12/site-packages/tensorflow/python/framework/ops.py" source_line=1221}
  %mul_44.1 = f32[1,1500,1536]{2,1,0} multiply(f32[1,1500,1536]{2,1,0} %mul_39.5, f32[1,1500,1536]{2,1,0} %add_46.5), metadata={op_type="Mul" op_name="mul_44" source_file="<repo-root>/src/cuda-spirv/xla_hlo/.venv-tf/lib/python3.12/site-packages/tensorflow/python/framework/ops.py" source_line=1221}
  %arg52.1 = f32[1536,384]{1,0} parameter(52), parameter_replication={false}, metadata={op_name="XLA_Args"}
  %reshape.124 = f32[1536,384]{1,0} reshape(f32[1536,384]{1,0} %arg52.1)
  %MatMul_23.2 = f32[1,1500,384]{2,1,0} dot(f32[1,1500,1536]{2,1,0} %mul_44.1, f32[1536,384]{1,0} %reshape.124), lhs_contracting_dims={2}, rhs_contracting_dims={0}, frontend_attributes={grad_x="false",grad_y="false"}, metadata={op_type="BatchMatMulV2" op_name="MatMul_23" source_file="<repo-root>/src/cuda-spirv/xla_hlo/.venv-tf/lib/python3.12/site-packages/tensorflow/python/framework/ops.py" source_line=1221}
  %MatMul_23.3 = f32[1,1500,384]{2,1,0} transpose(f32[1,1500,384]{2,1,0} %MatMul_23.2), dimensions={0,1,2}, metadata={op_type="BatchMatMulV2" op_name="MatMul_23" source_file="<repo-root>/src/cuda-spirv/xla_hlo/.venv-tf/lib/python3.12/site-packages/tensorflow/python/framework/ops.py" source_line=1221}
  %arg53.1 = f32[384]{0} parameter(53), parameter_replication={false}, metadata={op_name="XLA_Args"}
  %reshape.125 = f32[384]{0} reshape(f32[384]{0} %arg53.1)
  %add_47.2 = f32[1,1500,384]{2,1,0} broadcast(f32[384]{0} %reshape.125), dimensions={2}, metadata={op_type="AddV2" op_name="add_47" source_file="<repo-root>/src/cuda-spirv/xla_hlo/.venv-tf/lib/python3.12/site-packages/tensorflow/python/framework/ops.py" source_line=1221}
  %add_47.3 = f32[1,1500,384]{2,1,0} add(f32[1,1500,384]{2,1,0} %MatMul_23.3, f32[1,1500,384]{2,1,0} %add_47.2), metadata={op_type="AddV2" op_name="add_47" source_file="<repo-root>/src/cuda-spirv/xla_hlo/.venv-tf/lib/python3.12/site-packages/tensorflow/python/framework/ops.py" source_line=1221}
  %add_48.1 = f32[1,1500,384]{2,1,0} add(f32[1,1500,384]{2,1,0} %add_41.1, f32[1,1500,384]{2,1,0} %add_47.3), metadata={op_type="AddV2" op_name="add_48" source_file="<repo-root>/src/cuda-spirv/xla_hlo/.venv-tf/lib/python3.12/site-packages/tensorflow/python/framework/ops.py" source_line=1221}
  %Mean_12.10 = f32[1,1500,384]{2,1,0} convert(f32[1,1500,384]{2,1,0} %add_48.1), metadata={op_type="Mean" op_name="Mean_12" source_file="<repo-root>/src/cuda-spirv/xla_hlo/.venv-tf/lib/python3.12/site-packages/tensorflow/python/framework/ops.py" source_line=1221}
  %Mean_12.11 = f32[] constant(0), metadata={op_type="Mean" op_name="Mean_12" source_file="<repo-root>/src/cuda-spirv/xla_hlo/.venv-tf/lib/python3.12/site-packages/tensorflow/python/framework/ops.py" source_line=1221}
  %Mean_12.12 = f32[] convert(f32[] %Mean_12.11), metadata={op_type="Mean" op_name="Mean_12" source_file="<repo-root>/src/cuda-spirv/xla_hlo/.venv-tf/lib/python3.12/site-packages/tensorflow/python/framework/ops.py" source_line=1221}
  %Mean_12.13 = f32[1,1500]{1,0} reduce(f32[1,1500,384]{2,1,0} %Mean_12.10, f32[] %Mean_12.12), dimensions={2}, to_apply=%Mean_12-reduction.19, metadata={op_type="Mean" op_name="Mean_12" source_file="<repo-root>/src/cuda-spirv/xla_hlo/.venv-tf/lib/python3.12/site-packages/tensorflow/python/framework/ops.py" source_line=1221}
  %Mean_12.14 = s32[] constant(384), metadata={op_type="Mean" op_name="Mean_12" source_file="<repo-root>/src/cuda-spirv/xla_hlo/.venv-tf/lib/python3.12/site-packages/tensorflow/python/framework/ops.py" source_line=1221}
  %Mean_12.15 = f32[] convert(s32[] %Mean_12.14), metadata={op_type="Mean" op_name="Mean_12" source_file="<repo-root>/src/cuda-spirv/xla_hlo/.venv-tf/lib/python3.12/site-packages/tensorflow/python/framework/ops.py" source_line=1221}
…
  %sub_13.5 = f32[1,1500,384]{2,1,0} subtract(f32[1,1500,384]{2,1,0} %add_48.1, f32[1,1500,384]{2,1,0} %sub_13.4), metadata={op_type="Sub" op_name="sub_13" source_file="<repo-root>/src/cuda-spirv/xla_hlo/.venv-tf/lib/python3.12/site-packages/tensorflow/python/framework/ops.py" source_line=1221}
  %sub_12.3 = f32[1,1500]{1,0} reshape(f32[1,1500,1]{2,1,0} %Mean_12.19), metadata={op_type="Sub" op_name="sub_12" source_file="<repo-root>/src/cuda-spirv/xla_hlo/.venv-tf/lib/python3.12/site-packages/tensorflow/python/framework/ops.py" source_line=1221}
  %sub_12.4 = f32[1,1500,384]{2,1,0} broadcast(f32[1,1500]{1,0} %sub_12.3), dimensions={0,1}, metadata={op_type="Sub" op_name="sub_12" source_file="<repo-root>/src/cuda-spirv/xla_hlo/.venv-tf/lib/python3.12/site-packages/tensorflow/python/framework/ops.py" source_line=1221}
  %sub_12.5 = f32[1,1500,384]{2,1,0} subtract(f32[1,1500,384]{2,1,0} %add_48.1, f32[1,1500,384]{2,1,0} %sub_12.4), metadata={op_type="Sub" op_name="sub_12" source_file="<repo-root>/src/cuda-spirv/xla_hlo/.venv-tf/lib/python3.12/site-packages/tensorflow/python/framework/ops.py" source_line=1221}
  %Square_6.1 = f32[1,1500,384]{2,1,0} multiply(f32[1,1500,384]{2,1,0} %sub_12.5, f32[1,1500,384]{2,1,0} %sub_12.5), metadata={op_type="Square" op_name="Square_6" source_file="<repo-root>/src/cuda-spirv/xla_hlo/.venv-tf/lib/python3.12/site-packages/tensorflow/python/framework/ops.py" source_line=1221}
  %Mean_13.10 = f32[1,1500,384]{2,1,0} convert(f32[1,1500,384]{2,1,0} %Square_6.1), metadata={op_type="Mean" op_name="Mean_13" source_file="<repo-root>/src/cuda-spirv/xla_hlo/.venv-tf/lib/python3.12/site-packages/tensorflow/python/framework/ops.py" source_line=1221}
  %Mean_13.11 = f32[] constant(0), metadata={op_type="Mean" op_name="Mean_13" source_file="<repo-root>/src/cuda-spirv/xla_hlo/.venv-tf/lib/python3.12/site-packages/tensorflow/python/framework/ops.py" source_line=1221}
  %Mean_13.12 = f32[] convert(f32[] %Mean_13.11), metadata={op_type="Mean" op_name="Mean_13" source_file="<repo-root>/src/cuda-spirv/xla_hlo/.venv-tf/lib/python3.12/site-packages/tensorflow/python/framework/ops.py" source_line=1221}
  %Mean_13.13 = f32[1,1500]{1,0} reduce(f32[1,1500,384]{2,1,0} %Mean_13.10, f32[] %Mean_13.12), dimensions={2}, to_apply=%Mean_13-reduction.20, metadata={op_type="Mean" op_name="Mean_13" source_file="<repo-root>/src/cuda-spirv/xla_hlo/.venv-tf/lib/python3.12/site-packages/tensorflow/python/framework/ops.py" source_line=1221}
  %Mean_13.14 = s32[] constant(384), metadata={op_type="Mean" op_name="Mean_13" source_file="<repo-root>/src/cuda-spirv/xla_hlo/.venv-tf/lib/python3.12/site-packages/tensorflow/python/framework/ops.py" source_line=1221}
  %Mean_13.15 = f32[] convert(s32[] %Mean_13.14), metadata={op_type="Mean" op_name="Mean_13" source_file="<repo-root>/src/cuda-spirv/xla_hlo/.venv-tf/lib/python3.12/site-packages/tensorflow/python/framework/ops.py" source_line=1221}
  %Mean_13.16 = f32[1,1500]{1,0} broadcast(f32[] %Mean_13.15), dimensions={}, metadata={op_type="Mean" op_name="Mean_13" source_file="<repo-root>/src/cuda-spirv/xla_hlo/.venv-tf/lib/python3.12/site-packages/tensorflow/python/framework/ops.py" source_line=1221}
  %Mean_13.17 = f32[1,1500]{1,0} divide(f32[1,1500]{1,0} %Mean_13.13, f32[1,1500]{1,0} %Mean_13.16), metadata={op_type="Mean" op_name="Mean_13" source_file="<repo-root>/src/cuda-spirv/xla_hlo/.venv-tf/lib/python3.12/site-packages/tensorflow/python/framework/ops.py" source_line=1221}
  %Mean_13.18 = f32[1,1500]{1,0} convert(f32[1,1500]{1,0} %Mean_13.17), metadata={op_type="Mean" op_name="Mean_13" source_file="<repo-root>/src/cuda-spirv/xla_hlo/.venv-tf/lib/python3.12/site-packages/tensorflow/python/framework/ops.py" source_line=1221}
  %Mean_13.19 = f32[1,1500,1]{2,1,0} reshape(f32[1,1500]{1,0} %Mean_13.18), metadata={op_type="Mean" op_name="Mean_13" source_file="<repo-root>/src/cuda-spirv/xla_hlo/.venv-tf/lib/python3.12/site-packages/tensorflow/python/framework/ops.py" source_line=1221}
  %add_49.3 = f32[] constant(1e-05), metadata={op_type="AddV2" op_name="add_49" source_file="<repo-root>/src/cuda-spirv/xla_hlo/.venv-tf/lib/python3.12/site-packages/tensorflow/python/framework/ops.py" source_line=1221}
  %add_49.4 = f32[1,1500,1]{2,1,0} broadcast(f32[] %add_49.3), dimensions={}, metadata={op_type="AddV2" op_name="add_49" source_file="<repo-root>/src/cuda-spirv/xla_hlo/.venv-tf/lib/python3.12/site-packages/tensorflow/python/framework/ops.py" source_line=1221}
  %add_49.5 = f32[1,1500,1]{2,1,0} add(f32[1,1500,1]{2,1,0} %Mean_13.19, f32[1,1500,1]{2,1,0} %add_49.4), metadata={op_type="AddV2" op_name="add_49" source_file="<repo-root>/src/cuda-spirv/xla_hlo/.venv-tf/lib/python3.12/site-packages/tensorflow/python/framework/ops.py" source_line=1221}
  %Rsqrt_9.1 = f32[1,1500,1]{2,1,0} rsqrt(f32[1,1500,1]{2,1,0} %add_49.5), metadata={op_type="Rsqrt" op_name="Rsqrt_9"}
  %mul_45.3 = f32[1,1500]{1,0} reshape(f32[1,1500,1]{2,1,0} %Rsqrt_9.1), metadata={op_type="Mul" op_name="mul_45" source_file="<repo-root>/src/cuda-spirv/xla_hlo/.venv-tf/lib/python3.12/site-packages/tensorflow/python/framework/ops.py" source_line=1221}
  %mul_45.4 = f32[1,1500,384]{2,1,0} broadcast(f32[1,1500]{1,0} %mul_45.3), dimensions={0,1}, metadata={op_type="Mul" op_name="mul_45" source_file="<repo-root>/src/cuda-spirv/xla_hlo/.venv-tf/lib/python3.12/site-packages/tensorflow/python/framework/ops.py" source_line=1221}
  %mul_45.5 = f32[1,1500,384]{2,1,0} multiply(f32[1,1500,384]{2,1,0} %sub_13.5, f32[1,1500,384]{2,1,0} %mul_45.4), metadata={op_type="Mul" op_name="mul_45" source_file="<repo-root>/src/cuda-spirv/xla_hlo/.venv-tf/lib/python3.12/site-packages/tensorflow/python/framework/ops.py" source_line=1221}
  %arg54.1 = f32[384]{0} parameter(54), parameter_replication={false}, metadata={op_name="XLA_Args"}
  %reshape.126 = f32[384]{0} reshape(f32[384]{0} %arg54.1)
  %mul_46.2 = f32[1,1500,384]{2,1,0} broadcast(f32[384]{0} %reshape.126), dimensions={2}, metadata={op_type="Mul" op_name="mul_46" source_file="<repo-root>/src/cuda-spirv/xla_hlo/.venv-tf/lib/python3.12/site-packages/tensorflow/python/framework/ops.py" source_line=1221}
  %mul_46.3 = f32[1,1500,384]{2,1,0} multiply(f32[1,1500,384]{2,1,0} %mul_45.5, f32[1,1500,384]{2,1,0} %mul_46.2), metadata={op_type="Mul" op_name="mul_46" source_file="<repo-root>/src/cuda-spirv/xla_hlo/.venv-tf/lib/python3.12/site-packages/tensorflow/python/framework/ops.py" source_line=1221}
  %arg55.1 = f32[384]{0} parameter(55), parameter_replication={false}, metadata={op_name="XLA_Args"}
  %reshape.127 = f32[384]{0} reshape(f32[384]{0} %arg55.1)
  %add_50.2 = f32[1,1500,384]{2,1,0} broadcast(f32[384]{0} %reshape.127), dimensions={2}, metadata={op_type="AddV2" op_name="add_50" source_file="<repo-root>/src/cuda-spirv/xla_hlo/.venv-tf/lib/python3.12/site-packages/tensorflow/python/framework/ops.py" source_line=1221}
  %add_50.3 = f32[1,1500,384]{2,1,0} add(f32[1,1500,384]{2,1,0} %mul_46.3, f32[1,1500,384]{2,1,0} %add_50.2), metadata={op_type="AddV2" op_name="add_50" source_file="<repo-root>/src/cuda-spirv/xla_hlo/.venv-tf/lib/python3.12/site-packages/tensorflow/python/framework/ops.py" source_line=1221}
  %arg56.1 = f32[384,384]{1,0} parameter(56), parameter_replication={false}, metadata={op_name="XLA_Args"}
  %reshape.128 = f32[384,384]{1,0} reshape(f32[384,384]{1,0} %arg56.1)
  %MatMul_24.2 = f32[1,1500,384]{2,1,0} dot(f32[1,1500,384]{2,1,0} %add_50.3, f32[384,384]{1,0} %reshape.128), lhs_contracting_dims={2}, rhs_contracting_dims={0}, frontend_attributes={grad_x="false",grad_y="false"}, metadata={op_type="BatchMatMulV2" op_name="MatMul_24" source_file="<repo-root>/src/cuda-spirv/xla_hlo/.venv-tf/lib/python3.12/site-packages/tensorflow/python/framework/ops.py" source_line=1221}
  %MatMul_24.3 = f32[1,1500,384]{2,1,0} transpose(f32[1,1500,384]{2,1,0} %MatMul_24.2), dimensions={0,1,2}, metadata={op_type="BatchMatMulV2" op_name="MatMul_24" source_file="<repo-root>/src/cuda-spirv/xla_hlo/.venv-tf/lib/python3.12/site-packages/tensorflow/python/framework/ops.py" source_line=1221}
  %arg57.1 = f32[384]{0} parameter(57), parameter_replication={false}, metadata={op_name="XLA_Args"}
  %reshape.129 = f32[384]{0} reshape(f32[384]{0} %arg57.1)
  %add_51.2 = f32[1,1500,384]{2,1,0} broadcast(f32[384]{0} %reshape.129), dimensions={2}, metadata={op_type="AddV2" op_name="add_51" source_file="<repo-root>/src/cuda-spirv/xla_hlo/.venv-tf/lib/python3.12/site-packages/tensorflow/python/framework/ops.py" source_line=1221}
  %add_51.3 = f32[1,1500,384]{2,1,0} add(f32[1,1500,384]{2,1,0} %MatMul_24.3, f32[1,1500,384]{2,1,0} %add_51.2), metadata={op_type="AddV2" op_name="add_51" source_file="<repo-root>/src/cuda-spirv/xla_hlo/.venv-tf/lib/python3.12/site-packages/tensorflow/python/framework/ops.py" source_line=1221}
  %Reshape_14.1 = f32[1,1500,6,64]{3,2,1,0} reshape(f32[1,1500,384]{2,1,0} %add_51.3), metadata={op_type="Reshape" op_name="Reshape_14" source_file="<repo-root>/src/cuda-spirv/xla_hlo/.venv-tf/lib/python3.12/site-packages/tensorflow/python/framework/ops.py" source_line=1221}
  %transpose_12.1 = f32[1,6,1500,64]{3,1,2,0} transpose(f32[1,1500,6,64]{3,2,1,0} %Reshape_14.1), dimensions={0,2,1,3}, metadata={op_type="Transpose" op_name="transpose_12" source_file="<repo-root>/src/cuda-spirv/xla_hlo/.venv-tf/lib/python3.12/site-packages/tensorflow/python/framework/ops.py" source_line=1221}
  %arg58.1 = f32[384,384]{1,0} parameter(58), parameter_replication={false}, metadata={op_name="XLA_Args"}
  %reshape.130 = f32[384,384]{1,0} reshape(f32[384,384]{1,0} %arg58.1)
  %MatMul_25.2 = f32[1,1500,384]{2,1,0} dot(f32[1,1500,384]{2,1,0} %add_50.3, f32[384,384]{1,0} %reshape.130), lhs_contracting_dims={2}, rhs_contracting_dims={0}, frontend_attributes={grad_x="false",grad_y="false"}, metadata={op_type="BatchMatMulV2" op_name="MatMul_25" source_file="<repo-root>/src/cuda-spirv/xla_hlo/.venv-tf/lib/python3.12/site-packages/tensorflow/python/framework/ops.py" source_line=1221}
  %MatMul_25.3 = f32[1,1500,384]{2,1,0} transpose(f32[1,1500,384]{2,1,0} %MatMul_25.2), dimensions={0,1,2}, metadata={op_type="BatchMatMulV2" op_name="MatMul_25" source_file="<repo-root>/src/cuda-spirv/xla_hlo/.venv-tf/lib/python3.12/site-packages/tensorflow/python/framework/ops.py" source_line=1221}
  %arg59.1 = f32[384]{0} parameter(59), parameter_replication={false}, metadata={op_name="XLA_Args"}
  %reshape.131 = f32[384]{0} reshape(f32[384]{0} %arg59.1)
  %add_52.2 = f32[1,1500,384]{2,1,0} broadcast(f32[384]{0} %reshape.131), dimensions={2}, metadata={op_type="AddV2" op_name="add_52" source_file="<repo-root>/src/cuda-spirv/xla_hlo/.venv-tf/lib/python3.12/site-packages/tensorflow/python/framework/ops.py" source_line=1221}
  %add_52.3 = f32[1,1500,384]{2,1,0} add(f32[1,1500,384]{2,1,0} %MatMul_25.3, f32[1,1500,384]{2,1,0} %add_52.2), metadata={op_type="AddV2" op_name="add_52" source_file="<repo-root>/src/cuda-spirv/xla_hlo/.venv-tf/lib/python3.12/site-packages/tensorflow/python/framework/ops.py" source_line=1221}
  %Reshape_15.1 = f32[1,1500,6,64]{3,2,1,0} reshape(f32[1,1500,384]{2,1,0} %add_52.3), metadata={op_type="Reshape" op_name="Reshape_15" source_file="<repo-root>/src/cuda-spirv/xla_hlo/.venv-tf/lib/python3.12/site-packages/tensorflow/python/framework/ops.py" source_line=1221}
  %transpose_13.1 = f32[1,6,1500,64]{3,1,2,0} transpose(f32[1,1500,6,64]{3,2,1,0} %Reshape_15.1), dimensions={0,2,1,3}, metadata={op_type="Transpose" op_name="transpose_13" source_file="<repo-root>/src/cuda-spirv/xla_hlo/.venv-tf/lib/python3.12/site-packages/tensorflow/python/framework/ops.py" source_line=1221}
  %MatMul_27.2 = f32[1,6,1500,1500]{3,2,1,0} dot(f32[1,6,1500,64]{3,1,2,0} %transpose_12.1, f32[1,6,1500,64]{3,1,2,0} %transpose_13.1), lhs_batch_dims={0,1}, lhs_contracting_dims={3}, rhs_batch_dims={0,1}, rhs_contracting_dims={3}, frontend_attributes={grad_x="false",grad_y="false"}, metadata={op_type="BatchMatMulV2" op_name="MatMul_27" source_file="<repo-root>/src/cuda-spirv/xla_hlo/.venv-tf/lib/python3.12/site-packages/tensorflow/python/framework/ops.py" source_line=1221}
  %MatMul_27.3 = f32[1,6,1500,1500]{3,2,1,0} transpose(f32[1,6,1500,1500]{3,2,1,0} %MatMul_27.2), dimensions={0,1,2,3}, metadata={op_type="BatchMatMulV2" op_name="MatMul_27" source_file="<repo-root>/src/cuda-spirv/xla_hlo/.venv-tf/lib/python3.12/site-packages/tensorflow/python/framework/ops.py" source_line=1221}
  %mul_47.3 = f32[] constant(0.125), metadata={op_type="Mul" op_name="mul_47" source_file="<repo-root>/src/cuda-spirv/xla_hlo/.venv-tf/lib/python3.12/site-packages/tensorflow/python/framework/ops.py" source_line=1221}
  %mul_47.4 = f32[1,6,1500,1500]{3,2,1,0} broadcast(f32[] %mul_47.3), dimensions={}, metadata={op_type="Mul" op_name="mul_47" source_file="<repo-root>/src/cuda-spirv/xla_hlo/.venv-tf/lib/python3.12/site-packages/tensorflow/python/framework/ops.py" source_line=1221}
  %mul_47.5 = f32[1,6,1500,1500]{3,2,1,0} multiply(f32[1,6,1500,1500]{3,2,1,0} %MatMul_27.3, f32[1,6,1500,1500]{3,2,1,0} %mul_47.4), metadata={op_type="Mul" op_name="mul_47" source_file="<repo-root>/src/cuda-spirv/xla_hlo/.venv-tf/lib/python3.12/site-packages/tensorflow/python/framework/ops.py" source_line=1221}
  %Softmax_3.28 = f32[] constant(-inf), metadata={op_type="Softmax" op_name="Softmax_3" source_file="<repo-root>/src/cuda-spirv/xla_hlo/.venv-tf/lib/python3.12/site-packages/tensorflow/python/framework/ops.py" source_line=1221}
  %Softmax_3.29 = f32[1,6,1500]{2,1,0} reduce(f32[1,6,1500,1500]{3,2,1,0} %mul_47.5, f32[] %Softmax_3.28), dimensions={3}, to_apply=%region_0.21, metadata={op_type="Softmax" op_name="Softmax_3"}
  %Softmax_3.30 = f32[1,6,1500,1]{3,2,1,0} reshape(f32[1,6,1500]{2,1,0} %Softmax_3.29), metadata={op_type="Softmax" op_name="Softmax_3"}
  %Softmax_3.31 = f32[1,6,1500,1]{3,2,1,0} broadcast(f32[1,6,1500,1]{3,2,1,0} %Softmax_3.30), dimensions={0,1,2,3}, metadata={op_type="Softmax" op_name="Softmax_3"}
  %Softmax_3.32 = f32[1,6,1500]{2,1,0} reshape(f32[1,6,1500,1]{3,2,1,0} %Softmax_3.31), metadata={op_type="Softmax" op_name="Softmax_3"}
  %Softmax_3.33 = f32[1,6,1500,1500]{3,2,1,0} broadcast(f32[1,6,1500]{2,1,0} %Softmax_3.32), dimensions={0,1,2}, metadata={op_type="Softmax" op_name="Softmax_3"}
  %Softmax_3.34 = f32[1,6,1500,1500]{3,2,1,0} subtract(f32[1,6,1500,1500]{3,2,1,0} %mul_47.5, f32[1,6,1500,1500]{3,2,1,0} %Softmax_3.33), metadata={op_type="Softmax" op_name="Softmax_3"}
  %Softmax_3.35 = f32[1,6,1500,1500]{3,2,1,0} exponential(f32[1,6,1500,1500]{3,2,1,0} %Softmax_3.34), metadata={op_type="Softmax" op_name="Softmax_3"}
  %Softmax_3.27 = f32[] constant(-0), metadata={op_type="Softmax" op_name="Softmax_3" source_file="<repo-root>/src/cuda-spirv/xla_hlo/.venv-tf/lib/python3.12/site-packages/tensorflow/python/framework/ops.py" source_line=1221}
  %Softmax_3.36 = f32[1,6,1500]{2,1,0} reduce(f32[1,6,1500,1500]{3,2,1,0} %Softmax_3.35, f32[] %Softmax_3.27), dimensions={3}, to_apply=%region_1.22, metadata={op_type="Softmax" op_name="Softmax_3"}
  %Softmax_3.37 = f32[1,6,1500,1]{3,2,1,0} reshape(f32[1,6,1500]{2,1,0} %Softmax_3.36), metadata={op_type="Softmax" op_name="Softmax_3"}
  %Softmax_3.38 = f32[1,6,1500,1]{3,2,1,0} broadcast(f32[1,6,1500,1]{3,2,1,0} %Softmax_3.37), dimensions={0,1,2,3}, metadata={op_type="Softmax" op_name="Softmax_3"}
  %Softmax_3.39 = f32[1,6,1500]{2,1,0} reshape(f32[1,6,1500,1]{3,2,1,0} %Softmax_3.38), metadata={op_type="Softmax" op_name="Softmax_3"}
  %Softmax_3.40 = f32[1,6,1500,1500]{3,2,1,0} broadcast(f32[1,6,1500]{2,1,0} %Softmax_3.39), dimensions={0,1,2}, metadata={op_type="Softmax" op_name="Softmax_3"}
  %Softmax_3.41 = f32[1,6,1500,1500]{3,2,1,0} divide(f32[1,6,1500,1500]{3,2,1,0} %Softmax_3.35, f32[1,6,1500,1500]{3,2,1,0} %Softmax_3.40), metadata={op_type="Softmax" op_name="Softmax_3"}
  %arg60.1 = f32[384,384]{1,0} parameter(60), parameter_replication={false}, metadata={op_name="XLA_Args"}
  %reshape.132 = f32[384,384]{1,0} reshape(f32[384,384]{1,0} %arg60.1)
  %MatMul_26.2 = f32[1,1500,384]{2,1,0} dot(f32[1,1500,384]{2,1,0} %add_50.3, f32[384,384]{1,0} %reshape.132), lhs_contracting_dims={2}, rhs_contracting_dims={0}, frontend_attributes={grad_x="false",grad_y="false"}, metadata={op_type="BatchMatMulV2" op_name="MatMul_26" source_file="<repo-root>/src/cuda-spirv/xla_hlo/.venv-tf/lib/python3.12/site-packages/tensorflow/python/framework/ops.py" source_line=1221}
  %MatMul_26.3 = f32[1,1500,384]{2,1,0} transpose(f32[1,1500,384]{2,1,0} %MatMul_26.2), dimensions={0,1,2}, metadata={op_type="BatchMatMulV2" op_name="MatMul_26" source_file="<repo-root>/src/cuda-spirv/xla_hlo/.venv-tf/lib/python3.12/site-packages/tensorflow/python/framework/ops.py" source_line=1221}
  %arg61.1 = f32[384]{0} parameter(61), parameter_replication={false}, metadata={op_name="XLA_Args"}
  %reshape.133 = f32[384]{0} reshape(f32[384]{0} %arg61.1)
  %add_53.2 = f32[1,1500,384]{2,1,0} broadcast(f32[384]{0} %reshape.133), dimensions={2}, metadata={op_type="AddV2" op_name="add_53" source_file="<repo-root>/src/cuda-spirv/xla_hlo/.venv-tf/lib/python3.12/site-packages/tensorflow/python/framework/ops.py" source_line=1221}
  %add_53.3 = f32[1,1500,384]{2,1,0} add(f32[1,1500,384]{2,1,0} %MatMul_26.3, f32[1,1500,384]{2,1,0} %add_53.2), metadata={op_type="AddV2" op_name="add_53" source_file="<repo-root>/src/cuda-spirv/xla_hlo/.venv-tf/lib/python3.12/site-packages/tensorflow/python/framework/ops.py" source_line=1221}
  %Reshape_16.1 = f32[1,1500,6,64]{3,2,1,0} reshape(f32[1,1500,384]{2,1,0} %add_53.3), metadata={op_type="Reshape" op_name="Reshape_16" source_file="<repo-root>/src/cuda-spirv/xla_hlo/.venv-tf/lib/python3.12/site-packages/tensorflow/python/framework/ops.py" source_line=1221}
  %transpose_14.1 = f32[1,6,1500,64]{3,1,2,0} transpose(f32[1,1500,6,64]{3,2,1,0} %Reshape_16.1), dimensions={0,2,1,3}, metadata={op_type="Transpose" op_name="transpose_14" source_file="<repo-root>/src/cuda-spirv/xla_hlo/.venv-tf/lib/python3.12/site-packages/tensorflow/python/framework/ops.py" source_line=1221}
  %MatMul_28.2 = f32[1,6,1500,64]{3,2,1,0} dot(f32[1,6,1500,1500]{3,2,1,0} %Softmax_3.41, f32[1,6,1500,64]{3,1,2,0} %transpose_14.1), lhs_batch_dims={0,1}, lhs_contracting_dims={3}, rhs_batch_dims={0,1}, rhs_contracting_dims={2}, frontend_attributes={grad_x="false",grad_y="false"}, metadata={op_type="BatchMatMulV2" op_name="MatMul_28" source_file="<repo-root>/src/cuda-spirv/xla_hlo/.venv-tf/lib/python3.12/site-packages/tensorflow/python/framework/ops.py" source_line=1221}
  %MatMul_28.3 = f32[1,6,1500,64]{3,2,1,0} transpose(f32[1,6,1500,64]{3,2,1,0} %MatMul_28.2), dimensions={0,1,2,3}, metadata={op_type="BatchMatMulV2" op_name="MatMul_28" source_file="<repo-root>/src/cuda-spirv/xla_hlo/.venv-tf/lib/python3.12/site-packages/tensorflow/python/framework/ops.py" source_line=1221}
  %transpose_15.1 = f32[1,1500,6,64]{3,1,2,0} transpose(f32[1,6,1500,64]{3,2,1,0} %MatMul_28.3), dimensions={0,2,1,3}, metadata={op_type="Transpose" op_name="transpose_15" source_file="<repo-root>/src/cuda-spirv/xla_hlo/.venv-tf/lib/python3.12/site-packages/tensorflow/python/framework/ops.py" source_line=1221}
  %Reshape_17.1 = f32[1,1500,384]{2,1,0} reshape(f32[1,1500,6,64]{3,1,2,0} %transpose_15.1), metadata={op_type="Reshape" op_name="Reshape_17" source_file="<repo-root>/src/cuda-spirv/xla_hlo/.venv-tf/lib/python3.12/site-packages/tensorflow/python/framework/ops.py" source_line=1221}
  %arg62.1 = f32[384,384]{1,0} parameter(62), parameter_replication={false}, metadata={op_name="XLA_Args"}
  %reshape.134 = f32[384,384]{1,0} reshape(f32[384,384]{1,0} %arg62.1)
  %MatMul_29.2 = f32[1,1500,384]{2,1,0} dot(f32[1,1500,384]{2,1,0} %Reshape_17.1, f32[384,384]{1,0} %reshape.134), lhs_contracting_dims={2}, rhs_contracting_dims={0}, frontend_attributes={grad_x="false",grad_y="false"}, metadata={op_type="BatchMatMulV2" op_name="MatMul_29" source_file="<repo-root>/src/cuda-spirv/xla_hlo/.venv-tf/lib/python3.12/site-packages/tensorflow/python/framework/ops.py" source_line=1221}
  %MatMul_29.3 = f32[1,1500,384]{2,1,0} transpose(f32[1,1500,384]{2,1,0} %MatMul_29.2), dimensions={0,1,2}, metadata={op_type="BatchMatMulV2" op_name="MatMul_29" source_file="<repo-root>/src/cuda-spirv/xla_hlo/.venv-tf/lib/python3.12/site-packages/tensorflow/python/framework/ops.py" source_line=1221}
  %arg63.1 = f32[384]{0} parameter(63), parameter_replication={false}, metadata={op_name="XLA_Args"}
  %reshape.135 = f32[384]{0} reshape(f32[384]{0} %arg63.1)
  %add_54.2 = f32[1,1500,384]{2,1,0} broadcast(f32[384]{0} %reshape.135), dimensions={2}, metadata={op_type="AddV2" op_name="add_54" source_file="<repo-root>/src/cuda-spirv/xla_hlo/.venv-tf/lib/python3.12/site-packages/tensorflow/python/framework/ops.py" source_line=1221}
  %add_54.3 = f32[1,1500,384]{2,1,0} add(f32[1,1500,384]{2,1,0} %MatMul_29.3, f32[1,1500,384]{2,1,0} %add_54.2), metadata={op_type="AddV2" op_name="add_54" source_file="<repo-root>/src/cuda-spirv/xla_hlo/.venv-tf/lib/python3.12/site-packages/tensorflow/python/framework/ops.py" source_line=1221}
  %add_55.1 = f32[1,1500,384]{2,1,0} add(f32[1,1500,384]{2,1,0} %add_48.1, f32[1,1500,384]{2,1,0} %add_54.3), metadata={op_type="AddV2" op_name="add_55" source_file="<repo-root>/src/cuda-spirv/xla_hlo/.venv-tf/lib/python3.12/site-packages/tensorflow/python/framework/ops.py" source_line=1221}
  %mul_50.3 = f32[] constant(0.5), metadata={op_type="Mul" op_name="mul_50" source_file="<repo-root>/src/cuda-spirv/xla_hlo/.venv-tf/lib/python3.12/site-packages/tensorflow/python/framework/ops.py" source_line=1221}
  %mul_50.4 = f32[1,1500,1536]{2,1,0} broadcast(f32[] %mul_50.3), dimensions={}, metadata={op_type="Mul" op_name="mul_50" source_file="<repo-root>/src/cuda-spirv/xla_hlo/.venv-tf/lib/python3.12/site-packages/tensorflow/python/framework/ops.py" source_line=1221}
  %Mean_14.10 = f32[1,1500,384]{2,1,0} convert(f32[1,1500,384]{2,1,0} %add_55.1), metadata={op_type="Mean" op_name="Mean_14" source_file="<repo-root>/src/cuda-spirv/xla_hlo/.venv-tf/lib/python3.12/site-packages/tensorflow/python/framework/ops.py" source_line=1221}
  %Mean_14.11 = f32[] constant(0), metadata={op_type="Mean" op_name="Mean_14" source_file="<repo-root>/src/cuda-spirv/xla_hlo/.venv-tf/lib/python3.12/site-packages/tensorflow/python/framework/ops.py" source_line=1221}
  %Mean_14.12 = f32[] convert(f32[] %Mean_14.11), metadata={op_type="Mean" op_name="Mean_14" source_file="<repo-root>/src/cuda-spirv/xla_hlo/.venv-tf/lib/python3.12/site-packages/tensorflow/python/framework/ops.py" source_line=1221}
  %Mean_14.13 = f32[1,1500]{1,0} reduce(f32[1,1500,384]{2,1,0} %Mean_14.10, f32[] %Mean_14.12), dimensions={2}, to_apply=%Mean_14-reduction.23, metadata={op_type="Mean" op_name="Mean_14" source_file="<repo-root>/src/cuda-spirv/xla_hlo/.venv-tf/lib/python3.12/site-packages/tensorflow/python/framework/ops.py" source_line=1221}
  %Mean_14.14 = s32[] constant(384), metadata={op_type="Mean" op_name="Mean_14" source_file="<repo-root>/src/cuda-spirv/xla_hlo/.venv-tf/lib/python3.12/site-packages/tensorflow/python/framework/ops.py" source_line=1221}
  %Mean_14.15 = f32[] convert(s32[] %Mean_14.14), metadata={op_type="Mean" op_name="Mean_14" source_file="<repo-root>/src/cuda-spirv/xla_hlo/.venv-tf/lib/python3.12/site-packages/tensorflow/python/framework/ops.py" source_line=1221}
  %Mean_14.16 = f32[1,1500]{1,0} broadcast(f32[] %Mean_14.15), dimensions={}, metadata={op_type="Mean" op_name="Mean_14" source_file="<repo-root>/src/cuda-spirv/xla_hlo/.venv-tf/lib/python3.12/site-packages/tensorflow/python/framework/ops.py" source_line=1221}
  %Mean_14.17 = f32[1,1500]{1,0} divide(f32[1,1500]{1,0} %Mean_14.13, f32[1,1500]{1,0} %Mean_14.16), metadata={op_type="Mean" op_name="Mean_14" source_file="<repo-root>/src/cuda-spirv/xla_hlo/.venv-tf/lib/python3.12/site-packages/tensorflow/python/framework/ops.py" source_line=1221}
  %Mean_14.18 = f32[1,1500]{1,0} convert(f32[1,1500]{1,0} %Mean_14.17), metadata={op_type="Mean" op_name="Mean_14" source_file="<repo-root>/src/cuda-spirv/xla_hlo/.venv-tf/lib/python3.12/site-packages/tensorflow/python/framework/ops.py" source_line=1221}
  %Mean_14.19 = f32[1,1500,1]{2,1,0} reshape(f32[1,1500]{1,0} %Mean_14.18), metadata={op_type="Mean" op_name="Mean_14" source_file="<repo-root>/src/cuda-spirv/xla_hlo/.venv-tf/lib/python3.12/site-packages/tensorflow/python/framework/ops.py" source_line=1221}
  %sub_15.3 = f32[1,1500]{1,0} reshape(f32[1,1500,1]{2,1,0} %Mean_14.19), metadata={op_type="Sub" op_name="sub_15" source_file="<repo-root>/src/cuda-spirv/xla_hlo/.venv-tf/lib/python3.12/site-packages/tensorflow/python/framework/ops.py" source_line=1221}
  %sub_15.4 = f32[1,1500,384]{2,1,0} broadcast(f32[1,1500]{1,0} %sub_15.3), dimensions={0,1}, metadata={op_type="Sub" op_name="sub_15" source_file="<repo-root>/src/cuda-spirv/xla_hlo/.venv-tf/lib/python3.12/site-packages/tensorflow/python/framework/ops.py" source_line=1221}
  %sub_15.5 = f32[1,1500,384]{2,1,0} subtract(f32[1,1500,384]{2,1,0} %add_55.1, f32[1,1500,384]{2,1,0} %sub_15.4), metadata={op_type="Sub" op_name="sub_15" source_file="<repo-root>/src/cuda-spirv/xla_hlo/.venv-tf/lib/python3.12/site-packages/tensorflow/python/framework/ops.py" source_line=1221}
  %sub_14.3 = f32[1,1500]{1,0} reshape(f32[1,1500,1]{2,1,0} %Mean_14.19), metadata={op_type="Sub" op_name="sub_14" source_file="<repo-root>/src/cuda-spirv/xla_hlo/.venv-tf/lib/python3.12/site-packages/tensorflow/python/framework/ops.py" source_line=1221}
  %sub_14.4 = f32[1,1500,384]{2,1,0} broadcast(f32[1,1500]{1,0} %sub_14.3), dimensions={0,1}, metadata={op_type="Sub" op_name="sub_14" source_file="<repo-root>/src/cuda-spirv/xla_hlo/.venv-tf/lib/python3.12/site-packages/tensorflow/python/framework/ops.py" source_line=1221}
  %sub_14.5 = f32[1,1500,384]{2,1,0} subtract(f32[1,1500,384]{2,1,0} %add_55.1, f32[1,1500,384]{2,1,0} %sub_14.4), metadata={op_type="Sub" op_name="sub_14" source_file="<repo-root>/src/cuda-spirv/xla_hlo/.venv-tf/lib/python3.12/site-packages/tensorflow/python/framework/ops.py" source_line=1221}
  %Square_7.1 = f32[1,1500,384]{2,1,0} multiply(f32[1,1500,384]{2,1,0} %sub_14.5, f32[1,1500,384]{2,1,0} %sub_14.5), metadata={op_type="Square" op_name="Square_7" source_file="<repo-root>/src/cuda-spirv/xla_hlo/.venv-tf/lib/python3.12/site-packages/tensorflow/python/framework/ops.py" source_line=1221}
  %Mean_15.10 = f32[1,1500,384]{2,1,0} convert(f32[1,1500,384]{2,1,0} %Square_7.1), metadata={op_type="Mean" op_name="Mean_15" source_file="<repo-root>/src/cuda-spirv/xla_hlo/.venv-tf/lib/python3.12/site-packages/tensorflow/python/framework/ops.py" source_line=1221}
  %Mean_15.11 = f32[] constant(0), metadata={op_type="Mean" op_name="Mean_15" source_file="<repo-root>/src/cuda-spirv/xla_hlo/.venv-tf/lib/python3.12/site-packages/tensorflow/python/framework/ops.py" source_line=1221}
  %Mean_15.12 = f32[] convert(f32[] %Mean_15.11), metadata={op_type="Mean" op_name="Mean_15" source_file="<repo-root>/src/cuda-spirv/xla_hlo/.venv-tf/lib/python3.12/site-packages/tensorflow/python/framework/ops.py" source_line=1221}
  %Mean_15.13 = f32[1,1500]{1,0} reduce(f32[1,1500,384]{2,1,0} %Mean_15.10, f32[] %Mean_15.12), dimensions={2}, to_apply=%Mean_15-reduction.24, metadata={op_type="Mean" op_name="Mean_15" source_file="<repo-root>/src/cuda-spirv/xla_hlo/.venv-tf/lib/python3.12/site-packages/tensorflow/python/framework/ops.py" source_line=1221}
  %Mean_15.14 = s32[] constant(384), metadata={op_type="Mean" op_name="Mean_15" source_file="<repo-root>/src/cuda-spirv/xla_hlo/.venv-tf/lib/python3.12/site-packages/tensorflow/python/framework/ops.py" source_line=1221}
  %Mean_15.15 = f32[] convert(s32[] %Mean_15.14), metadata={op_type="Mean" op_name="Mean_15" source_file="<repo-root>/src/cuda-spirv/xla_hlo/.venv-tf/lib/python3.12/site-packages/tensorflow/python/framework/ops.py" source_line=1221}
  %Mean_15.16 = f32[1,1500]{1,0} broadcast(f32[] %Mean_15.15), dimensions={}, metadata={op_type="Mean" op_name="Mean_15" source_file="<repo-root>/src/cuda-spirv/xla_hlo/.venv-tf/lib/python3.12/site-packages/tensorflow/python/framework/ops.py" source_line=1221}
  %Mean_15.17 = f32[1,1500]{1,0} divide(f32[1,1500]{1,0} %Mean_15.13, f32[1,1500]{1,0} %Mean_15.16), metadata={op_type="Mean" op_name="Mean_15" source_file="<repo-root>/src/cuda-spirv/xla_hlo/.venv-tf/lib/python3.12/site-packages/tensorflow/python/framework/ops.py" source_line=1221}
  %Mean_15.18 = f32[1,1500]{1,0} convert(f32[1,1500]{1,0} %Mean_15.17), metadata={op_type="Mean" op_name="Mean_15" source_file="<repo-root>/src/cuda-spirv/xla_hlo/.venv-tf/lib/python3.12/site-packages/tensorflow/python/framework/ops.py" source_line=1221}
  %Mean_15.19 = f32[1,1500,1]{2,1,0} reshape(f32[1,1500]{1,0} %Mean_15.18), metadata={op_type="Mean" op_name="Mean_15" source_file="<repo-root>/src/cuda-spirv/xla_hlo/.venv-tf/lib/python3.12/site-packages/tensorflow/python/framework/ops.py" source_line=1221}
  %add_56.3 = f32[] constant(1e-05), metadata={op_type="AddV2" op_name="add_56" source_file="<repo-root>/src/cuda-spirv/xla_hlo/.venv-tf/lib/python3.12/site-packages/tensorflow/python/framework/ops.py" source_line=1221}
  %add_56.4 = f32[1,1500,1]{2,1,0} broadcast(f32[] %add_56.3), dimensions={}, metadata={op_type="AddV2" op_name="add_56" source_file="<repo-root>/src/cuda-spirv/xla_hlo/.venv-tf/lib/python3.12/site-packages/tensorflow/python/framework/ops.py" source_line=1221}
  %add_56.5 = f32[1,1500,1]{2,1,0} add(f32[1,1500,1]{2,1,0} %Mean_15.19, f32[1,1500,1]{2,1,0} %add_56.4), metadata={op_type="AddV2" op_name="add_56" source_file="<repo-root>/src/cuda-spirv/xla_hlo/.venv-tf/lib/python3.12/site-packages/tensorflow/python/framework/ops.py" source_line=1221}
  %Rsqrt_11.1 = f32[1,1500,1]{2,1,0} rsqrt(f32[1,1500,1]{2,1,0} %add_56.5), metadata={op_type="Rsqrt" op_name="Rsqrt_11"}
  %mul_48.3 = f32[1,1500]{1,0} reshape(f32[1,1500,1]{2,1,0} %Rsqrt_11.1), metadata={op_type="Mul" op_name="mul_48" source_file="<repo-root>/src/cuda-spirv/xla_hlo/.venv-tf/lib/python3.12/site-packages/tensorflow/python/framework/ops.py" source_line=1221}
  %mul_48.4 = f32[1,1500,384]{2,1,0} broadcast(f32[1,1500]{1,0} %mul_48.3), dimensions={0,1}, metadata={op_type="Mul" op_name="mul_48" source_file="<repo-root>/src/cuda-spirv/xla_hlo/.venv-tf/lib/python3.12/site-packages/tensorflow/python/framework/ops.py" source_line=1221}
  %mul_48.5 = f32[1,1500,384]{2,1,0} multiply(f32[1,1500,384]{2,1,0} %sub_15.5, f32[1,1500,384]{2,1,0} %mul_48.4), metadata={op_type="Mul" op_name="mul_48" source_file="<repo-root>/src/cuda-spirv/xla_hlo/.venv-tf/lib/python3.12/site-packages/tensorflow/python/framework/ops.py" source_line=1221}
  %arg64.1 = f32[384]{0} parameter(64), parameter_replication={false}, metadata={op_name="XLA_Args"}
  %reshape.136 = f32[384]{0} reshape(f32[384]{0} %arg64.1)
  %mul_49.2 = f32[1,1500,384]{2,1,0} broadcast(f32[384]{0} %reshape.136), dimensions={2}, metadata={op_type="Mul" op_name="mul_49" source_file="<repo-root>/src/cuda-spirv/xla_hlo/.venv-tf/lib/python3.12/site-packages/tensorflow/python/framework/ops.py" source_line=1221}
  %mul_49.3 = f32[1,1500,384]{2,1,0} multiply(f32[1,1500,384]{2,1,0} %mul_48.5, f32[1,1500,384]{2,1,0} %mul_49.2), metadata={op_type="Mul" op_name="mul_49" source_file="<repo-root>/src/cuda-spirv/xla_hlo/.venv-tf/lib/python3.12/site-packages/tensorflow/python/framework/ops.py" source_line=1221}
  %arg65.1 = f32[384]{0} parameter(65), parameter_replication={false}, metadata={op_name="XLA_Args"}
  %reshape.137 = f32[384]{0} reshape(f32[384]{0} %arg65.1)
  %add_57.2 = f32[1,1500,384]{2,1,0} broadcast(f32[384]{0} %reshape.137), dimensions={2}, metadata={op_type="AddV2" op_name="add_57" source_file="<repo-root>/src/cuda-spirv/xla_hlo/.venv-tf/lib/python3.12/site-packages/tensorflow/python/framework/ops.py" source_line=1221}
  %add_57.3 = f32[1,1500,384]{2,1,0} add(f32[1,1500,384]{2,1,0} %mul_49.3, f32[1,1500,384]{2,1,0} %add_57.2), metadata={op_type="AddV2" op_name="add_57" source_file="<repo-root>/src/cuda-spirv/xla_hlo/.venv-tf/lib/python3.12/site-packages/tensorflow/python/framework/ops.py" source_line=1221}
  %arg66.1 = f32[384,1536]{1,0} parameter(66), parameter_replication={false}, metadata={op_name="XLA_Args"}
  %reshape.138 = f32[384,1536]{1,0} reshape(f32[384,1536]{1,0} %arg66.1)
  %MatMul_30.2 = f32[1,1500,1536]{2,1,0} dot(f32[1,1500,384]{2,1,0} %add_57.3, f32[384,1536]{1,0} %reshape.138), lhs_contracting_dims={2}, rhs_contracting_dims={0}, frontend_attributes={grad_x="false",grad_y="false"}, metadata={op_type="BatchMatMulV2" op_name="MatMul_30" source_file="<repo-root>/src/cuda-spirv/xla_hlo/.venv-tf/lib/python3.12/site-packages/tensorflow/python/framework/ops.py" source_line=1221}
  %MatMul_30.3 = f32[1,1500,1536]{2,1,0} transpose(f32[1,1500,1536]{2,1,0} %MatMul_30.2), dimensions={0,1,2}, metadata={op_type="BatchMatMulV2" op_name="MatMul_30" source_file="<repo-root>/src/cuda-spirv/xla_hlo/.venv-tf/lib/python3.12/site-packages/tensorflow/python/framework/ops.py" source_line=1221}
  %arg67.1 = f32[1536]{0} parameter(67), parameter_replication={false}, metadata={op_name="XLA_Args"}
  %reshape.139 = f32[1536]{0} reshape(f32[1536]{0} %arg67.1)
  %add_58.2 = f32[1,1500,1536]{2,1,0} broadcast(f32[1536]{0} %reshape.139), dimensions={2}, metadata={op_type="AddV2" op_name="add_58" source_file="<repo-root>/src/cuda-spirv/xla_hlo/.venv-tf/lib/python3.12/site-packages/tensorflow/python/framework/ops.py" source_line=1221}
  %add_58.3 = f32[1,1500,1536]{2,1,0} add(f32[1,1500,1536]{2,1,0} %MatMul_30.3, f32[1,1500,1536]{2,1,0} %add_58.2), metadata={op_type="AddV2" op_name="add_58" source_file="<repo-root>/src/cuda-spirv/xla_hlo/.venv-tf/lib/python3.12/site-packages/tensorflow/python/framework/ops.py" source_line=1221}
  %mul_50.5 = f32[1,1500,1536]{2,1,0} multiply(f32[1,1500,1536]{2,1,0} %mul_50.4, f32[1,1500,1536]{2,1,0} %add_58.3), metadata={op_type="Mul" op_name="mul_50" source_file="<repo-root>/src/cuda-spirv/xla_hlo/.venv-tf/lib/python3.12/site-packages/tensorflow/python/framework/ops.py" source_line=1221}
  %add_60.3 = f32[] constant(1), metadata={op_type="AddV2" op_name="add_60" source_file="<repo-root>/src/cuda-spirv/xla_hlo/.venv-tf/lib/python3.12/site-packages/tensorflow/python/framework/ops.py" source_line=1221}
  %add_60.4 = f32[1,1500,1536]{2,1,0} broadcast(f32[] %add_60.3), dimensions={}, metadata={op_type="AddV2" op_name="add_60" source_file="<repo-root>/src/cuda-spirv/xla_hlo/.venv-tf/lib/python3.12/site-packages/tensorflow/python/framework/ops.py" source_line=1221}
  %mul_54.3 = f32[] constant(0.797884583), metadata={op_type="Mul" op_name="mul_54" source_file="<repo-root>/src/cuda-spirv/xla_hlo/.venv-tf/lib/python3.12/site-packages/tensorflow/python/framework/ops.py" source_line=1221}
  %mul_54.4 = f32[1,1500,1536]{2,1,0} broadcast(f32[] %mul_54.3), dimensions={}, metadata={op_type="Mul" op_name="mul_54" source_file="<repo-root>/src/cuda-spirv/xla_hlo/.venv-tf/lib/python3.12/site-packages/tensorflow/python/framework/ops.py" source_line=1221}
  %mul_51.3 = f32[] constant(0.044715), metadata={op_type="Mul" op_name="mul_51" source_file="<repo-root>/src/cuda-spirv/xla_hlo/.venv-tf/lib/python3.12/site-packages/tensorflow/python/framework/ops.py" source_line=1221}
  %mul_51.4 = f32[1,1500,1536]{2,1,0} broadcast(f32[] %mul_51.3), dimensions={}, metadata={op_type="Mul" op_name="mul_51" source_file="<repo-root>/src/cuda-spirv/xla_hlo/.venv-tf/lib/python3.12/site-packages/tensorflow/python/framework/ops.py" source_line=1221}
  %mul_51.5 = f32[1,1500,1536]{2,1,0} multiply(f32[1,1500,1536]{2,1,0} %mul_51.4, f32[1,1500,1536]{2,1,0} %add_58.3), metadata={op_type="Mul" op_name="mul_51" source_file="<repo-root>/src/cuda-spirv/xla_hlo/.venv-tf/lib/python3.12/site-packages/tensorflow/python/framework/ops.py" source_line=1221}
  %mul_52.1 = f32[1,1500,1536]{2,1,0} multiply(f32[1,1500,1536]{2,1,0} %mul_51.5, f32[1,1500,1536]{2,1,0} %add_58.3), metadata={op_type="Mul" op_name="mul_52" source_file="<repo-root>/src/cuda-spirv/xla_hlo/.venv-tf/lib/python3.12/site-packages/tensorflow/python/framework/ops.py" source_line=1221}
  %mul_53.1 = f32[1,1500,1536]{2,1,0} multiply(f32[1,1500,1536]{2,1,0} %mul_52.1, f32[1,1500,1536]{2,1,0} %add_58.3), metadata={op_type="Mul" op_name="mul_53" source_file="<repo-root>/src/cuda-spirv/xla_hlo/.venv-tf/lib/python3.12/site-packages/tensorflow/python/framework/ops.py" source_line=1221}
  %add_59.1 = f32[1,1500,1536]{2,1,0} add(f32[1,1500,1536]{2,1,0} %add_58.3, f32[1,1500,1536]{2,1,0} %mul_53.1), metadata={op_type="AddV2" op_name="add_59" source_file="<repo-root>/src/cuda-spirv/xla_hlo/.venv-tf/lib/python3.12/site-packages/tensorflow/python/framework/ops.py" source_line=1221}
  %mul_54.5 = f32[1,1500,1536]{2,1,0} multiply(f32[1,1500,1536]{2,1,0} %mul_54.4, f32[1,1500,1536]{2,1,0} %add_59.1), metadata={op_type="Mul" op_name="mul_54" source_file="<repo-root>/src/cuda-spirv/xla_hlo/.venv-tf/lib/python3.12/site-packages/tensorflow/python/framework/ops.py" source_line=1221}
  %Tanh_5.1 = f32[1,1500,1536]{2,1,0} tanh(f32[1,1500,1536]{2,1,0} %mul_54.5), metadata={op_type="Tanh" op_name="Tanh_5"}
  %add_60.5 = f32[1,1500,1536]{2,1,0} add(f32[1,1500,1536]{2,1,0} %add_60.4, f32[1,1500,1536]{2,1,0} %Tanh_5.1), metadata={op_type="AddV2" op_name="add_60" source_file="<repo-root>/src/cuda-spirv/xla_hlo/.venv-tf/lib/python3.12/site-packages/tensorflow/python/framework/ops.py" source_line=1221}
  %mul_55.1 = f32[1,1500,1536]{2,1,0} multiply(f32[1,1500,1536]{2,1,0} %mul_50.5, f32[1,1500,1536]{2,1,0} %add_60.5), metadata={op_type="Mul" op_name="mul_55" source_file="<repo-root>/src/cuda-spirv/xla_hlo/.venv-tf/lib/python3.12/site-packages/tensorflow/python/framework/ops.py" source_line=1221}
  %arg68.1 = f32[1536,384]{1,0} parameter(68), parameter_replication={false}, metadata={op_name="XLA_Args"}
  %reshape.140 = f32[1536,384]{1,0} reshape(f32[1536,384]{1,0} %arg68.1)
  %MatMul_31.2 = f32[1,1500,384]{2,1,0} dot(f32[1,1500,1536]{2,1,0} %mul_55.1, f32[1536,384]{1,0} %reshape.140), lhs_contracting_dims={2}, rhs_contracting_dims={0}, frontend_attributes={grad_x="false",grad_y="false"}, metadata={op_type="BatchMatMulV2" op_name="MatMul_31" source_file="<repo-root>/src/cuda-spirv/xla_hlo/.venv-tf/lib/python3.12/site-packages/tensorflow/python/framework/ops.py" source_line=1221}
  %MatMul_31.3 = f32[1,1500,384]{2,1,0} transpose(f32[1,1500,384]{2,1,0} %MatMul_31.2), dimensions={0,1,2}, metadata={op_type="BatchMatMulV2" op_name="MatMul_31" source_file="<repo-root>/src/cuda-spirv/xla_hlo/.venv-tf/lib/python3.12/site-packages/tensorflow/python/framework/ops.py" source_line=1221}
  %arg69.1 = f32[384]{0} parameter(69), parameter_replication={false}, metadata={op_name="XLA_Args"}
  %reshape.141 = f32[384]{0} reshape(f32[384]{0} %arg69.1)
  %add_61.2 = f32[1,1500,384]{2,1,0} broadcast(f32[384]{0} %reshape.141), dimensions={2}, metadata={op_type="AddV2" op_name="add_61" source_file="<repo-root>/src/cuda-spirv/xla_hlo/.venv-tf/lib/python3.12/site-packages/tensorflow/python/framework/ops.py" source_line=1221}
  %add_61.3 = f32[1,1500,384]{2,1,0} add(f32[1,1500,384]{2,1,0} %MatMul_31.3, f32[1,1500,384]{2,1,0} %add_61.2), metadata={op_type="AddV2" op_name="add_61" source_file="<repo-root>/src/cuda-spirv/xla_hlo/.venv-tf/lib/python3.12/site-packages/tensorflow/python/framework/ops.py" source_line=1221}
  %add_62.1 = f32[1,1500,384]{2,1,0} add(f32[1,1500,384]{2,1,0} %add_55.1, f32[1,1500,384]{2,1,0} %add_61.3), metadata={op_type="AddV2" op_name="add_62" source_file="<repo-root>/src/cuda-spirv/xla_hlo/.venv-tf/lib/python3.12/site-packages/tensorflow/python/framework/ops.py" source_line=1221}
  %Mean_16.10 = f32[1,1500,384]{2,1,0} convert(f32[1,1500,384]{2,1,0} %add_62.1), metadata={op_type="Mean" op_name="Mean_16" source_file="<repo-root>/src/cuda-spirv/xla_hlo/.venv-tf/lib/python3.12/site-packages/tensorflow/python/framework/ops.py" source_line=1221}
  %Mean_16.11 = f32[] constant(0), metadata={op_type="Mean" op_name="Mean_16" source_file="<repo-root>/src/cuda-spirv/xla_hlo/.venv-tf/lib/python3.12/site-packages/tensorflow/python/framework/ops.py" source_line=1221}
  %Mean_16.12 = f32[] convert(f32[] %Mean_16.11), metadata={op_type="Mean" op_name="Mean_16" source_file="<repo-root>/src/cuda-spirv/xla_hlo/.venv-tf/lib/python3.12/site-packages/tensorflow/python/framework/ops.py" source_line=1221}
  %Mean_16.13 = f32[1,1500]{1,0} reduce(f32[1,1500,384]{2,1,0} %Mean_16.10, f32[] %Mean_16.12), dimensions={2}, to_apply=%Mean_16-reduction.25, metadata={op_type="Mean" op_name="Mean_16" source_file="<repo-root>/src/cuda-spirv/xla_hlo/.venv-tf/lib/python3.12/site-packages/tensorflow/python/framework/ops.py" source_line=1221}
  %Mean_16.14 = s32[] constant(384), metadata={op_type="Mean" op_name="Mean_16" source_file="<repo-root>/src/cuda-spirv/xla_hlo/.venv-tf/lib/python3.12/site-packages/tensorflow/python/framework/ops.py" source_line=1221}
  %Mean_16.15 = f32[] convert(s32[] %Mean_16.14), metadata={op_type="Mean" op_name="Mean_16" source_file="<repo-root>/src/cuda-spirv/xla_hlo/.venv-tf/lib/python3.12/site-packages/tensorflow/python/framework/ops.py" source_line=1221}
  %Mean_16.16 = f32[1,1500]{1,0} broadcast(f32[] %Mean_16.15), dimensions={}, metadata={op_type="Mean" op_name="Mean_16" source_file="<repo-root>/src/cuda-spirv/xla_hlo/.venv-tf/lib/python3.12/site-packages/tensorflow/python/framework/ops.py" source_line=1221}
  %Mean_16.17 = f32[1,1500]{1,0} divide(f32[1,1500]{1,0} %Mean_16.13, f32[1,1500]{1,0} %Mean_16.16), metadata={op_type="Mean" op_name="Mean_16" source_file="<repo-root>/src/cuda-spirv/xla_hlo/.venv-tf/lib/python3.12/site-packages/tensorflow/python/framework/ops.py" source_line=1221}
  %Mean_16.18 = f32[1,1500]{1,0} convert(f32[1,1500]{1,0} %Mean_16.17), metadata={op_type="Mean" op_name="Mean_16" source_file="<repo-root>/src/cuda-spirv/xla_hlo/.venv-tf/lib/python3.12/site-packages/tensorflow/python/framework/ops.py" source_line=1221}
  %Mean_16.19 = f32[1,1500,1]{2,1,0} reshape(f32[1,1500]{1,0} %Mean_16.18), metadata={op_type="Mean" op_name="Mean_16" source_file="<repo-root>/src/cuda-spirv/xla_hlo/.venv-tf/lib/python3.12/site-packages/tensorflow/python/framework/ops.py" source_line=1221}
  %sub_17.3 = f32[1,1500]{1,0} reshape(f32[1,1500,1]{2,1,0} %Mean_16.19), metadata={op_type="Sub" op_name="sub_17" source_file="<repo-root>/src/cuda-spirv/xla_hlo/.venv-tf/lib/python3.12/site-packages/tensorflow/python/framework/ops.py" source_line=1221}
  %sub_17.4 = f32[1,1500,384]{2,1,0} broadcast(f32[1,1500]{1,0} %sub_17.3), dimensions={0,1}, metadata={op_type="Sub" op_name="sub_17" source_file="<repo-root>/src/cuda-spirv/xla_hlo/.venv-tf/lib/python3.12/site-packages/tensorflow/python/framework/ops.py" source_line=1221}
  %sub_17.5 = f32[1,1500,384]{2,1,0} subtract(f32[1,1500,384]{2,1,0} %add_62.1, f32[1,1500,384]{2,1,0} %sub_17.4), metadata={op_type="Sub" op_name="sub_17" source_file="<repo-root>/src/cuda-spirv/xla_hlo/.venv-tf/lib/python3.12/site-packages/tensorflow/python/framework/ops.py" source_line=1221}
  %sub_16.3 = f32[1,1500]{1,0} reshape(f32[1,1500,1]{2,1,0} %Mean_16.19), metadata={op_type="Sub" op_name="sub_16" source_file="<repo-root>/src/cuda-spirv/xla_hlo/.venv-tf/lib/python3.12/site-packages/tensorflow/python/framework/ops.py" source_line=1221}
  %sub_16.4 = f32[1,1500,384]{2,1,0} broadcast(f32[1,1500]{1,0} %sub_16.3), dimensions={0,1}, metadata={op_type="Sub" op_name="sub_16" source_file="<repo-root>/src/cuda-spirv/xla_hlo/.venv-tf/lib/python3.12/site-packages/tensorflow/python/framework/ops.py" source_line=1221}
  %sub_16.5 = f32[1,1500,384]{2,1,0} subtract(f32[1,1500,384]{2,1,0} %add_62.1, f32[1,1500,384]{2,1,0} %sub_16.4), metadata={op_type="Sub" op_name="sub_16" source_file="<repo-root>/src/cuda-spirv/xla_hlo/.venv-tf/lib/python3.12/site-packages/tensorflow/python/framework/ops.py" source_line=1221}
  %Square_8.1 = f32[1,1500,384]{2,1,0} multiply(f32[1,1500,384]{2,1,0} %sub_16.5, f32[1,1500,384]{2,1,0} %sub_16.5), metadata={op_type="Square" op_name="Square_8" source_file="<repo-root>/src/cuda-spirv/xla_hlo/.venv-tf/lib/python3.12/site-packages/tensorflow/python/framework/ops.py" source_line=1221}
  %Mean_17.10 = f32[1,1500,384]{2,1,0} convert(f32[1,1500,384]{2,1,0} %Square_8.1), metadata={op_type="Mean" op_name="Mean_17" source_file="<repo-root>/src/cuda-spirv/xla_hlo/.venv-tf/lib/python3.12/site-packages/tensorflow/python/framework/ops.py" source_line=1221}
  %Mean_17.11 = f32[] constant(0), metadata={op_type="Mean" op_name="Mean_17" source_file="<repo-root>/src/cuda-spirv/xla_hlo/.venv-tf/lib/python3.12/site-packages/tensorflow/python/framework/ops.py" source_line=1221}
  %Mean_17.12 = f32[] convert(f32[] %Mean_17.11), metadata={op_type="Mean" op_name="Mean_17" source_file="<repo-root>/src/cuda-spirv/xla_hlo/.venv-tf/lib/python3.12/site-packages/tensorflow/python/framework/ops.py" source_line=1221}
  %Mean_17.13 = f32[1,1500]{1,0} reduce(f32[1,1500,384]{2,1,0} %Mean_17.10, f32[] %Mean_17.12), dimensions={2}, to_apply=%Mean_17-reduction.26, metadata={op_type="Mean" op_name="Mean_17" source_file="<repo-root>/src/cuda-spirv/xla_hlo/.venv-tf/lib/python3.12/site-packages/tensorflow/python/framework/ops.py" source_line=1221}
  %Mean_17.14 = s32[] constant(384), metadata={op_type="Mean" op_name="Mean_17" source_file="<repo-root>/src/cuda-spirv/xla_hlo/.venv-tf/lib/python3.12/site-packages/tensorflow/python/framework/ops.py" source_line=1221}
  %Mean_17.15 = f32[] convert(s32[] %Mean_17.14), metadata={op_type="Mean" op_name="Mean_17" source_file="<repo-root>/src/cuda-spirv/xla_hlo/.venv-tf/lib/python3.12/site-packages/tensorflow/python/framework/ops.py" source_line=1221}
  %Mean_17.16 = f32[1,1500]{1,0} broadcast(f32[] %Mean_17.15), dimensions={}, metadata={op_type="Mean" op_name="Mean_17" source_file="<repo-root>/src/cuda-spirv/xla_hlo/.venv-tf/lib/python3.12/site-packages/tensorflow/python/framework/ops.py" source_line=1221}
  %Mean_17.17 = f32[1,1500]{1,0} divide(f32[1,1500]{1,0} %Mean_17.13, f32[1,1500]{1,0} %Mean_17.16), metadata={op_type="Mean" op_name="Mean_17" source_file="<repo-root>/src/cuda-spirv/xla_hlo/.venv-tf/lib/python3.12/site-packages/tensorflow/python/framework/ops.py" source_line=1221}
  %Mean_17.18 = f32[1,1500]{1,0} convert(f32[1,1500]{1,0} %Mean_17.17), metadata={op_type="Mean" op_name="Mean_17" source_file="<repo-root>/src/cuda-spirv/xla_hlo/.venv-tf/lib/python3.12/site-packages/tensorflow/python/framework/ops.py" source_line=1221}
  %Mean_17.19 = f32[1,1500,1]{2,1,0} reshape(f32[1,1500]{1,0} %Mean_17.18), metadata={op_type="Mean" op_name="Mean_17" source_file="<repo-root>/src/cuda-spirv/xla_hlo/.venv-tf/lib/python3.12/site-packages/tensorflow/python/framework/ops.py" source_line=1221}
  %add_63.3 = f32[] constant(1e-05), metadata={op_type="AddV2" op_name="add_63" source_file="<repo-root>/src/cuda-spirv/xla_hlo/.venv-tf/lib/python3.12/site-packages/tensorflow/python/framework/ops.py" source_line=1221}
  %add_63.4 = f32[1,1500,1]{2,1,0} broadcast(f32[] %add_63.3), dimensions={}, metadata={op_type="AddV2" op_name="add_63" source_file="<repo-root>/src/cuda-spirv/xla_hlo/.venv-tf/lib/python3.12/site-packages/tensorflow/python/framework/ops.py" source_line=1221}
  %add_63.5 = f32[1,1500,1]{2,1,0} add(f32[1,1500,1]{2,1,0} %Mean_17.19, f32[1,1500,1]{2,1,0} %add_63.4), metadata={op_type="AddV2" op_name="add_63" source_file="<repo-root>/src/cuda-spirv/xla_hlo/.venv-tf/lib/python3.12/site-packages/tensorflow/python/framework/ops.py" source_line=1221}
  %Rsqrt_12.1 = f32[1,1500,1]{2,1,0} rsqrt(f32[1,1500,1]{2,1,0} %add_63.5), metadata={op_type="Rsqrt" op_name="Rsqrt_12"}
  %mul_56.3 = f32[1,1500]{1,0} reshape(f32[1,1500,1]{2,1,0} %Rsqrt_12.1), metadata={op_type="Mul" op_name="mul_56" source_file="<repo-root>/src/cuda-spirv/xla_hlo/.venv-tf/lib/python3.12/site-packages/tensorflow/python/framework/ops.py" source_line=1221}
  %mul_56.4 = f32[1,1500,384]{2,1,0} broadcast(f32[1,1500]{1,0} %mul_56.3), dimensions={0,1}, metadata={op_type="Mul" op_name="mul_56" source_file="<repo-root>/src/cuda-spirv/xla_hlo/.venv-tf/lib/python3.12/site-packages/tensorflow/python/framework/ops.py" source_line=1221}
  %mul_56.5 = f32[1,1500,384]{2,1,0} multiply(f32[1,1500,384]{2,1,0} %sub_17.5, f32[1,1500,384]{2,1,0} %mul_56.4), metadata={op_type="Mul" op_name="mul_56" source_file="<repo-root>/src/cuda-spirv/xla_hlo/.venv-tf/lib/python3.12/site-packages/tensorflow/python/framework/ops.py" source_line=1221}
  %arg70.1 = f32[384]{0} parameter(70), parameter_replication={false}, metadata={op_name="XLA_Args"}
  %reshape.142 = f32[384]{0} reshape(f32[384]{0} %arg70.1)
  %mul_57.2 = f32[1,1500,384]{2,1,0} broadcast(f32[384]{0} %reshape.142), dimensions={2}, metadata={op_type="Mul" op_name="mul_57" source_file="<repo-root>/src/cuda-spirv/xla_hlo/.venv-tf/lib/python3.12/site-packages/tensorflow/python/framework/ops.py" source_line=1221}
  %mul_57.3 = f32[1,1500,384]{2,1,0} multiply(f32[1,1500,384]{2,1,0} %mul_56.5, f32[1,1500,384]{2,1,0} %mul_57.2), metadata={op_type="Mul" op_name="mul_57" source_file="<repo-root>/src/cuda-spirv/xla_hlo/.venv-tf/lib/python3.12/site-packages/tensorflow/python/framework/ops.py" source_line=1221}
  %arg71.1 = f32[384]{0} parameter(71), parameter_replication={false}, metadata={op_name="XLA_Args"}
  %reshape.143 = f32[384]{0} reshape(f32[384]{0} %arg71.1)
  %add_64.2 = f32[1,1500,384]{2,1,0} broadcast(f32[384]{0} %reshape.143), dimensions={2}, metadata={op_type="AddV2" op_name="add_64" source_file="<repo-root>/src/cuda-spirv/xla_hlo/.venv-tf/lib/python3.12/site-packages/tensorflow/python/framework/ops.py" source_line=1221}
  %add_64.3 = f32[1,1500,384]{2,1,0} add(f32[1,1500,384]{2,1,0} %mul_57.3, f32[1,1500,384]{2,1,0} %add_64.2), metadata={op_type="AddV2" op_name="add_64" source_file="<repo-root>/src/cuda-spirv/xla_hlo/.venv-tf/lib/python3.12/site-packages/tensorflow/python/framework/ops.py" source_line=1221}
  %XLA_Retvals.3 = f32[1,1500,384]{2,1,0} reshape(f32[1,1500,384]{2,1,0} %add_64.3), metadata={op_name="XLA_Retvals"}
  %XLA_Retvals.4 = (f32[1,1500,384]{2,1,0}) tuple(f32[1,1500,384]{2,1,0} %XLA_Retvals.3), metadata={op_name="XLA_Retvals"}
  ROOT %XLA_Retvals.5 = f32[1,1500,384]{2,1,0} get-tuple-element((f32[1,1500,384]{2,1,0}) %XLA_Retvals.4), index=0, metadata={op_name="XLA_Retvals"}
}

